tryst/model_round_5.pth (torch, 193715 bytes, 19 tensors)

fc1.weight f4 [256, 13]
0	0xbdc7bb30	-0.097525
1	0xbe587ae1	-0.21140625
2	0xbe2f53dc	-0.17121834
3	0x3d17dbc2	0.03707481
4	0xbc35d1a2	-0.011097344
5	0xbc9ada60	-0.018902957
6	0xbc89a364	-0.016801544
7	0x3e18d4e3	0.1492496
8	0xbdc9a681	-0.09846211
9	0xbe82e638	-0.25566268
10	0xbe37c876	-0.17947564
11	0xbe29a171	-0.16565491
12	0xbd05ddb3	-0.032682132
13	0xbde86fce	-0.1134945
14	0xbdf62770	-0.12019241
15	0xbdfcbe97	-0.1234104
16	0xbd22269c	-0.039587602
17	0xbd350f44	-0.04420401
18	0xbe30d321	-0.1726804
19	0xbdd8619a	-0.10565491
20	0xbe065d17	-0.13121448
21	0xbdf43272	-0.11923684
22	0x3d7b9a2f	0.061426338
23	0xbcc5f2d4	-0.024163641
24	0x3e807d9f	0.2509584
25	0x3da70b3f	0.08156442
26	0xbe249278	-0.16071498
27	0x3e2001b4	0.1562565
28	0x3e3a6b08	0.18204892
29	0xbe85df27	-0.26146814
30	0x3b911828	0.0044279285
31	0xbe27eb09	-0.16398253
32	0x3c49c41c	0.0123148225
33	0x3e210cb5	0.15727504
34	0xbd4c0ebb	-0.049818736
35	0x3e632c28	0.22184813
36	0xbe2cc606	-0.16872415
37	0xbd9828fd	-0.07429693
38	0x3d533158	0.05156073
39	0xbe60ae1d	-0.21941419
40	0xbcf56d17	-0.029959245
41	0x3e8d86bb	0.27641854
42	0xbde73505	-0.112894095
43	0x3d79bd0e	0.060971312
44	0x3e56d017	0.20977817
45	0x3e2d37cb	0.16915815
46	0xbdcc922c	-0.099888176
47	0x3e8cd815	0.27508608
48	0x3df9c638	0.1219601
49	0x3e6b73a1	0.22993328
50	0x3e63321f	0.22187088
51	0xbe59ebef	-0.21281408
52	0x3e0d3eaa	0.13793436
53	0x3d54ac7e	0.051922314
54	0xbdc89f1f	-0.09795975
55	0x3cb99e74	0.022658564
56	0x3e62c426	0.22145137
57	0xbbe35749	-0.0069378954
58	0x3e3c821e	0.18409011
59	0x3e181643	0.14852242
60	0x3e04959c	0.12947696
61	0xbdf51864	-0.11967543
62	0xbd86486b	-0.065567814
63	0xbe5d06cd	-0.21584626
64	0xbd98a385	-0.07453064
65	0xbc8ebdd8	-0.017424509
66	0xbe84397e	-0.25825113
67	0xbe1c7068	-0.15277255
68	0xbe37fc1c	-0.17967266
69	0xbe1fef86	-0.15618715
70	0x3e81533b	0.25258812
71	0xbe799794	-0.24374229
72	0xbe4c856c	-0.19972771
73	0x3d917ad9	0.071035095
74	0xbe780826	-0.24221858
75	0x3de4294c	0.11140689
76	0x3e27baab	0.16379802
77	0xbcae7f9f	-0.021301089
78	0x3e14563d	0.14486022
79	0xbde79d18	-0.1130926
80	0x3e1ee762	0.15517953
81	0x3e2d5437	0.16926657
82	0xbe8c9e5d	-0.27464572
83	0xbcf36e70	-0.029715747
84	0x3d4f6fa5	0.050643582
85	0xbdd70b6a	-0.10500224
86	0xbd8f5ba4	-0.06999901
87	0xbd58674a	-0.05283288
88	0x3e79882a	0.24368349
89	0xbe316dd5	-0.17327054
90	0x3e8caa12	0.27473503
91	0xbc8d673c	-0.01726114
92	0xbc2e52c2	-0.010639848
93	0xbdf5ee25	-0.12008313
94	0x3de29fcc	0.11065635
95	0xbd303b89	-0.043025527
96	0x3d3460b8	0.04403755
97	0xbe2f2931	-0.17105557
98	0xbdc0792a	-0.0939811
99	0x3cd93431	0.026514145
100	0x3d083e60	0.03326261
101	0x3e3cc02a	0.1843268
102	0x3acbb307	0.0015541025
103	0xbdcd25ed	-0.100169994
104	0x3dec4843	0.1153722
105	0x3bae13ac	0.0053124037
106	0xbd422c6e	-0.047405653
107	0x3e814fe3	0.2525626
108	0x3e1a1b34	0.1504944
109	0xbe81579b	-0.2526215
110	0xbe886324	-0.26638138
111	0x3d4fc5aa	0.050725617
112	0xbe1e0f9f	-0.15435646
113	0xbe72d1fc	-0.23712915
114	0x3de98690	0.11402619
115	0xbe68b35f	-0.22724675
116	0xbe176157	-0.14783226
117	0xbdf042ed	-0.11731515
118	0x3d954878	0.07289213
119	0x3b8d11b1	0.0043050875
120	0x3e89e7e8	0.26934743
121	0xbe251b8f	-0.16123794
122	0xbe26b5de	-0.16280314
123	0xbdd5741d	-0.104225375
124	0x3d2b0a6b	0.041757982
125	0xbcc8d7fb	-0.02451705
126	0x3e67ad81	0.2262478
127	0x3d56320a	0.052293815
128	0x3e75686c	0.23965615
129	0xbbcfe1e4	-0.006344067
130	0xbe21025a	-0.15723553
131	0xbcc5b252	-0.024132881
132	0x3d389afb	0.045069676
133	0x3e735d9c	0.23766178
134	0x3dc3a4e3	0.09552934
135	0x3dbd54b8	0.092446744
136	0xbca3f281	-0.020013096
137	0x3d9828b8	0.074296415
138	0xbde47187	-0.11154466
139	0x3b90c276	0.004417713
140	0x3d113f1c	0.035460576
141	0xbdb2cd02	-0.087305084
142	0xbdfeead4	-0.12447134
143	0x3de8fd37	0.11376422
144	0xbc224868	-0.009904958
145	0x3e5dc884	0.21658522
146	0xbe0422d4	-0.12903911
147	0x3e59e7ae	0.21279785
148	0x3e123958	0.14279687
149	0xbc427c9a	-0.011870528
150	0xbe751be7	-0.23936425
151	0xbd89d4c0	-0.06730032
152	0x3e127be4	0.14305073
153	0x3e6d5841	0.23178197
154	0xbe209e7e	-0.1568546
155	0xbc59f285	-0.01330245
156	0xbe4e4673	-0.20144062
157	0x3d23e764	0.040015593
158	0xbb9aba3b	-0.0047219074
159	0x3e033612	0.12813595
160	0xbe132e7c	-0.14373201
161	0xbe54c6df	-0.20778988
162	0x3d833cc9	0.06408078
163	0xbe8c393c	-0.27387416
164	0x3e27f90b	0.16403596
165	0x3b017ef3	0.0019759506
166	0x3e8715e2	0.26383883
167	0x3e15b9dd	0.14621682
168	0x3e6f004e	0.2333996
169	0x3e829cbf	0.25510213
170	0xbd8a69f8	-0.06758493
171	0x3e61cc1f	0.22050522
172	0xbe0c50fc	-0.13702768
173	0x3cdcf81a	0.026973773
174	0x3da2ede3	0.079555295
175	0xbde7a51d	-0.1131079
176	0xbe469408	-0.19392407
177	0x3e4eafd7	0.20184265
178	0x3e4c24ed	0.19935961
179	0x3b858bb0	0.00407549
180	0x3a1dcf1d	0.0006019937
181	0xbc15eb79	-0.009150379
182	0x3c4ab99b	0.012373353
183	0x3e70270c	0.23452395
184	0xbba3de74	-0.0050008837
185	0xbe693a2b	-0.22776096
186	0xbe7fa0c1	-0.24963666
187	0xbe6405dd	-0.22267862
188	0x3e823019	0.2542732
189	0xbdc066f0	-0.09394634
190	0xbe044366	-0.12916335
191	0x3c2db85e	0.010603039
192	0x3e5b8183	0.21436124
193	0x3cb30dc5	0.021857152
194	0x3e8b5262	0.2721129
195	0xbe793e66	-0.2434021
196	0x3e4b3829	0.19845642
197	0x3e1cbc60	0.15306234
198	0xbdea2f77	-0.114348345
199	0xbe38c55e	-0.1804404
200	0xbe74d82c	-0.23910588
201	0x3e39be31	0.18138959
202	0x3e6ce9c8	0.23136055
203	0xbdff9873	-0.12480249
204	0xbbc0f05b	-0.0058880276
205	0x3e486046	0.19567975
206	0x3c41c11c	0.011825826
207	0x3db86a1d	0.090046145
208	0xbe5dba13	-0.21653013
209	0xbe7454a2	-0.2386041
210	0x3db0b582	0.0862837
211	0x3e7f4386	0.24928102
212	0x3e541281	0.20710184
213	0x3de4ccd2	0.11171879
214	0xbe88f9c3	-0.26753053
215	0xbe2e52bb	-0.17023747
216	0xbcaba3c1	-0.020952107
217	0xbe8704dd	-0.26370898
218	0x3dfb32ec	0.12265572
219	0xbc9f6eb4	-0.019461967
220	0xbe74a052	-0.23889282
221	0xbe8a82e2	-0.2705298
222	0x3ce1ca1b	0.027562192
223	0x3e81cae1	0.25350097
224	0xbcd413ea	-0.025888402
225	0x3e6eb849	0.23312487
226	0x3e897067	0.2684357
227	0x3e4624a4	0.19349915
228	0x3da831af	0.082126014
229	0x3c88f0dd	0.016716415
230	0x3e211d8a	0.15733925
231	0xbe3d4cac	-0.18486279
232	0xbbd8f7da	-0.006621343
233	0xbe66e392	-0.22547749
234	0x3e861f8a	0.26195937
235	0x3e84c092	0.2592817
236	0xbdf545e2	-0.1197622
237	0x3e45fc5f	0.19334553
238	0xbd797743	-0.060904752
239	0x3d97f175	0.07419101
240	0xbe4227ff	-0.1896057
241	0xbe700db6	-0.2344273
242	0x3de9adbd	0.11410091
243	0xbd4acf1e	-0.04951393
244	0xbe10dd0c	-0.14146823
245	0xbe78b2e3	-0.2428699
246	0x3d0e007d	0.034668434
247	0x3d737845	0.05944087
248	0x3e0fd924	0.14047676
249	0x3df662a0	0.1203053
250	0xbde5c77a	-0.11219688
251	0x3df8365f	0.121197455
252	0x3e0323fc	0.12806696
253	0x3d4022aa	0.04690806
254	0x3e7efe8e	0.24901792
255	0xbbb5ee10	-0.005552061

fc1.bias f4 [256]
0	0xbe37dabb	-0.17954533
1	0xbe00d555	-0.1258138
2	0xbe0de0b3	-0.13855247
3	0x3963462d	0.0002167455
4	0xbdf87644	-0.121319324
5	0x3df83bf1	0.12120808
6	0x3e19f7c8	0.15035927
7	0x3e3a8898	0.18216169
8	0xbe367f7a	-0.17822066
9	0x3de7fdcc	0.11327705
10	0xbe16883d	-0.14700408
11	0xbe6167c1	-0.22012235
12	0xbdbd0296	-0.09229009
13	0x3e2d3f0a	0.16918579
14	0xbd558d86	-0.05213692
15	0xbe4007ff	-0.1875305
16	0xbd1dd908	-0.038537055
17	0x3dd2e5a8	0.1029771
18	0xbe20b9dd	-0.15695901
19	0x3d753818	0.05986795
20	0x3e52393f	0.2052965
21	0xbe7ade76	-0.24498925
22	0xbdfd51cb	-0.123691164
23	0xbb1ce97f	-0.0023942885
24	0xbda5d462	-0.080971494
25	0x3e6aa709	0.22915281
26	0x3e180240	0.14844608
27	0xbe7c965a	-0.2466673
28	0x3e0dcd1e	0.13847777
29	0xbe2fa7b0	-0.17153811
30	0x3e019700	0.12655258
31	0xbd589597	-0.052877035
32	0x3e49c408	0.19703686
33	0xbe47c46f	-0.19508527
34	0x3d76ea01	0.060281757
35	0x3de8c46b	0.11365589
36	0x3df132b8	0.11777252
37	0xbe1875b3	-0.14888649
38	0xbe35272d	-0.17690726
39	0xbd097232	-0.03355617
40	0xbd2e56fa	-0.042563416
41	0xbda465b7	-0.08027213
42	0x3e1fc06e	0.1560075
43	0x3d6dec53	0.058086704
44	0x387c90bf	6.0216287e-05
45	0x3ddfe421	0.10932184
46	0x3da01a7c	0.078175515
47	0x3dc9e174	0.09857455
48	0x3d1c3365	0.03813495
49	0xbe06b887	-0.13156329
50	0x3e12a0bf	0.14319132
51	0xbe80cd7e	-0.25156778
52	0x3e6844ef	0.22682546
53	0x3e762d45	0.24040706
54	0xbe72bee9	-0.23705639
55	0x3dc15091	0.09439195
56	0xbda20962	-0.07911946
57	0x3e7d02be	0.24708077
58	0x3d8bf94c	0.06834659
59	0xbcd2681f	-0.025684414
60	0x3dad8ee2	0.08474518
61	0x3e1ad060	0.15118551
62	0xbc42165e	-0.011846153
63	0x3e30ca3c	0.17264646
64	0x3e7ac85a	0.2449049
65	0x3dbdf10a	0.0927449
66	0x3c13e141	0.009025873
67	0x374db5e5	1.2261303e-05
68	0xbdbf7240	-0.09347963
69	0x3e6a316e	0.22870418
70	0x3c9a7a7e	0.018857237
71	0x3d867dd1	0.06566966
72	0xbdca45ed	-0.098766185
73	0xbd70e934	-0.05881615
74	0xbda56404	-0.08075717
75	0x3e6b539d	0.22981115
76	0x3e6093b7	0.21931349
77	0xbc0559b6	-0.008139065
78	0xbd733c42	-0.05938364
79	0x3d8bf798	0.06834334
80	0x3e283211	0.16425349
81	0xbc4f8d04	-0.012667898
82	0xbe2d9d19	-0.16954459
83	0x3e0ea041	0.1392832
84	0xbe3924e5	-0.1808048
85	0x3e72e583	0.23720364
86	0xbe837fa5	-0.25683323
87	0x3e548627	0.207543
88	0x3dd40e96	0.103543445
89	0xbe7c9597	-0.24666439
90	0x3d4e9a0d	0.050439883
91	0xbe3f062a	-0.18654695
92	0xbe2ca401	-0.16859438
93	0xbe2c4f31	-0.16827084
94	0xb8e51e8a	-0.00010925259
95	0x3e6643a3	0.22486739
96	0x3e10c40b	0.14137284
97	0x3cc43b96	0.023954194
98	0x3e183202	0.14862826
99	0x3cca7faa	0.024719078
100	0xbd976761	-0.07392765
101	0xbe83bff3	-0.25732383
102	0xbdc358f7	-0.09538453
103	0x3e48a284	0.19593245
104	0x3e7c4b07	0.24637996
105	0x3e4fbe6a	0.20287481
106	0xb826955e	-3.9716593e-05
107	0xbd694852	-0.056953736
108	0xbe454ab7	-0.19266783
109	0xbe72fcd4	-0.23729259
110	0xbda26bd8	-0.07930726
111	0xbe71f854	-0.23629886
112	0xbe84c10c	-0.25928533
113	0x3e7e5980	0.24838829
114	0x3caac426	0.020845484
115	0x3d8f5b87	0.06999879
116	0xbe640fd4	-0.22271663
117	0xbce9ce78	-0.028540835
118	0xbe3caaa6	-0.18424472
119	0x3e08ccce	0.13359377
120	0xbbe97111	-0.0071240743
121	0xbc4cea42	-0.012507023
122	0x3e04c096	0.1296409
123	0x3c974322	0.018464629
124	0x3ddfc9a5	0.109271325
125	0x3c20bf79	0.009811276
126	0x3cec27fa	0.028827656
127	0x3d954db6	0.07290213
128	0xbe0338e8	-0.12814677
129	0x3db0b0d8	0.0862748
130	0xbc415ba0	-0.01180163
131	0x39a7442b	0.0003190351
132	0xbe0c1874	-0.13681203
133	0x3e3833ff	0.17988585
134	0xbe483611	-0.19551875
135	0xbe73c27b	-0.23804657
136	0x3dbc55ed	0.091960765
137	0x3dec9313	0.1155149
138	0xbde6de40	-0.112728596
139	0xbe311f67	-0.17297135
140	0xbe6137ff	-0.21994017
141	0x3dfca3f1	0.12335957
142	0x3e03bb89	0.12864508
143	0xbe3a77e4	-0.18209797
144	0xbddf9cc5	-0.10918573
145	0xbd17cfbc	-0.037063345
146	0x3e12d439	0.14338769
147	0xbe4d00f8	-0.20019901
148	0x3e2e5506	0.17024621
149	0x3db0d484	0.08634284
150	0xbe4a7f75	-0.19775183
151	0xbe81301e	-0.25232023
152	0xbdda0858	-0.10646123
153	0xbe83f82a	-0.25775272
154	0x3e1b529f	0.15168236
155	0x3ddf4240	0.10901308
156	0x3e5d3f51	0.21606185
157	0x3e67e2b8	0.2264508
158	0xbe07a285	-0.1324559
159	0xbda5e045	-0.08099417
160	0xbd813b5d	-0.06310151
161	0x3e216778	0.15762126
162	0x3e807b82	0.2509423
163	0x3de065b1	0.10956896
164	0x3e23a82c	0.15982121
165	0xbe09684f	-0.13418697
166	0xbe73c58c	-0.23805827
167	0x3cac2742	0.021014813
168	0xbd9daa77	-0.07698529
169	0x3e5a625e	0.21326587
170	0xbe3a8c58	-0.182176
171	0x3e6d974b	0.23202245
172	0x3e67b846	0.22628888
173	0xbd0d8b1c	-0.034556493
174	0xbe0767d5	-0.13223203
175	0xbc0562fd	-0.008141276
176	0x3cf5e1cc	0.030014895
177	0xbd93932c	-0.07205805
178	0xbe153fb9	-0.1457509
179	0x3db71ce1	0.08941055
180	0x3e1586d6	0.14602217
181	0xb881788b	-6.173652e-05
182	0x3e5a73f1	0.2133329
183	0xbe55c17c	-0.2087459
184	0xbb3b2b56	-0.0028559766
185	0xbe7fdf23	-0.24987464
186	0xbe51092e	-0.20413658
187	0x3d64357e	0.055715077
188	0xbe55fd17	-0.20897327
189	0x3e217642	0.15767768
190	0xbdc768c1	-0.09736777
191	0x3e283106	0.16424951
192	0xbe33bb5f	-0.17551945
193	0xbcd1c462	-0.025606338
194	0x3cc0231e	0.023454245
195	0xbe42120b	-0.18952195
196	0x3d9e4e6f	0.07729804
197	0x3e654f74	0.2239359
198	0xbda86976	-0.0822324
199	0x3e161145	0.14655025
200	0x3ddf27d5	0.10896269
201	0x3d0cc651	0.034368817
202	0xbe3f57c0	-0.18685818
203	0x3e1056cc	0.1409561
204	0xbdd21bfb	-0.10259243
205	0x3dd3e63a	0.103466466
206	0xbe2004d4	-0.15626842
207	0x3d88b36d	0.06674848
208	0xbdff93c8	-0.12479359
209	0xbdc61f20	-0.096739054
210	0x3e76ed57	0.24113975
211	0x3d021625	0.0317594
212	0xbcc63d37	-0.024199111
213	0x3d1156a5	0.03548302
214	0x3e34ac8a	0.17643943
215	0xbe50cde4	-0.20391041
216	0x3e3d3e1a	0.18480721
217	0xbdd933b1	-0.106055625
218	0xbd9b4849	-0.07582147
219	0xbe12ff82	-0.14355281
220	0x3d904161	0.0704372
221	0xbe2b2366	-0.16712722
222	0xbb3bfdbb	-0.002868517
223	0x3de697a2	0.112593904
224	0x3cc22d24	0.023703165
225	0xbdbb03ca	-0.09131582
226	0x3e7eb3c5	0.24873264
227	0xbe0ea685	-0.1393071
228	0xbd4be25a	-0.049776413
229	0x3e3e65ba	0.18593493
230	0xbe8413dc	-0.25796402
231	0xb8014957	-3.08243e-05
232	0xbe71afa4	-0.23602158
233	0x3e0c999d	0.13730474
234	0xbe498964	-0.19681317
235	0xb77d1b2c	-1.5086302e-05
236	0xbe508d70	-0.20366454
237	0xbe476432	-0.19471815
238	0xbe82eb28	-0.25570035
239	0xbe64da78	-0.22348964
240	0x3cd6db90	0.026227742
241	0x3e3060c1	0.17224409
242	0xbbd3d564	-0.006464647
243	0xbe75fad8	-0.2402147
244	0xbe626057	-0.22107063
245	0xbd8467e0	-0.06465125
246	0x3dcf71dc	0.10129139
247	0xb8ba3379	-8.878759e-05
248	0xb8069c52	-3.2093674e-05
249	0x3e1345cd	0.14382096
250	0x3e3fa820	0.18716478
251	0x3e1a2e75	0.15056784
252	0xbde950cd	-0.11392365
253	0x3de629ac	0.11238417
254	0x3c2e3bdd	0.01063439
255	0xbd837c02	-0.06420137

bn1.weight f4 [256]
0	0x3f7fdbca	0.99944746
1	0x3f7faf0c	0.99876475
2	0x3f7f12fd	0.9963835
3	0x3f7f67d9	0.99767834
4	0x3f7fee38	0.9997287
5	0x3f7fb24f	0.9988145
6	0x3f8006a7	1.000203
7	0x3f808bc7	1.0042657
8	0x3f7f4635	0.997165
9	0x3f8040d8	1.0019789
10	0x3f800c20	1.00037
11	0x3f804bfb	1.0023187
12	0x3f805e22	1.0028727
13	0x3f7f71ec	0.99783206
14	0x3f8037f3	1.0017074
15	0x3f802fcd	1.0014588
16	0x3f8076e1	1.0036279
17	0x3f801f64	1.000958
18	0x3f80235f	1.0010794
19	0x3f7f77cf	0.9979219
20	0x3f7fbfe5	0.9990218
21	0x3f80059f	1.0001715
22	0x3f802b3f	1.0013198
23	0x3f7fd45c	0.9993341
24	0x3f7ff27e	0.9997939
25	0x3f800056	1.0000103
26	0x3f7fb2e1	0.9988232
27	0x3f7f4542	0.99715054
28	0x3f7fe9a5	0.9996589
29	0x3f801d46	1.0008934
30	0x3f7fbc38	0.99896574
31	0x3f7f3009	0.9968267
32	0x3f7f9e63	0.99851054
33	0x3f8013f0	1.0006084
34	0x3f802339	1.0010749
35	0x3f801e4c	1.0009246
36	0x3f7fde4b	0.9994857
37	0x3f7ff0b1	0.9997664
38	0x3f7fb4ae	0.9988507
39	0x3f80409c	1.0019717
40	0x3f807612	1.0036032
41	0x3f803e2d	1.0018975
42	0x3f7f6356	0.9976095
43	0x3f7f610f	0.99757475
44	0x3f7f6309	0.9976049
45	0x3f7fe046	0.9995159
46	0x3f7e9d94	0.99459195
47	0x3f8030de	1.0014913
48	0x3f7fbd55	0.9989827
49	0x3f7fdab2	0.9994308
50	0x3f7f7e1e	0.99801815
51	0x3f802d95	1.001391
52	0x3f8021cf	1.0010318
53	0x3f8036da	1.0016739
54	0x3f8027e1	1.001217
55	0x3f807517	1.0035733
56	0x3f7f2469	0.9966493
57	0x3f7fd089	0.99927574
58	0x3f7fdf0f	0.99949735
59	0x3f7f870d	0.99815446
60	0x3f7f767c	0.9979017
61	0x3f7f5bc9	0.9974943
62	0x3f7f4b62	0.997244
63	0x3f8026b2	1.0011809
64	0x3f801f9e	1.0009649
65	0x3f80365a	1.0016587
66	0x3f7e9bf6	0.9945673
67	0x3f800c11	1.0003682
68	0x3f807db9	1.0038368
69	0x3f7f968b	0.99839085
70	0x3f8053ed	1.0025612
71	0x3f7fa305	0.99858123
72	0x3f7fbc25	0.9989646
73	0x3f7f2257	0.99661773
74	0x3f8027a7	1.0012101
75	0x3f7f6dfd	0.99777204
76	0x3f7fc22b	0.9990565
77	0x3f7ffe65	0.9999755
78	0x3f80897d	1.0041958
79	0x3f7fb4b6	0.9988512
80	0x3f7f9ca6	0.998484
81	0x3f800fe6	1.0004852
82	0x3f7fbcc9	0.9989744
83	0x3f800d11	1.0003988
84	0x3f7f9ce4	0.9984877
85	0x3f7f57b5	0.99743205
86	0x3f7f8c0b	0.99823064
87	0x3f80199b	1.0007814
88	0x3f7fdefe	0.99949634
89	0x3f7f920d	0.9983223
90	0x3f8013b7	1.0006016
91	0x3f80030f	1.0000933
92	0x3f806d6d	1.0033394
93	0x3f7f9052	0.9982959
94	0x3f80336e	1.0015695
95	0x3f7fe85b	0.9996392
96	0x3f7f9d06	0.99848974
97	0x3f7fb9d8	0.9989295
98	0x3f805838	1.0026922
99	0x3f801b33	1.00083
100	0x3f802a65	1.0012938
101	0x3f801d74	1.0008988
102	0x3f806502	1.0030825
103	0x3f805add	1.0027729
104	0x3f7f3bed	0.99700814
105	0x3f7fdadb	0.9994332
106	0x3f7fed81	0.9997178
107	0x3f8003d3	1.0001167
108	0x3f7f31a1	0.996851
109	0x3f803153	1.0015053
110	0x3f80240b	1.0011
111	0x3f800f72	1.0004714
112	0x3f800bde	1.0003622
113	0x3f805932	1.002722
114	0x3f7fe6cf	0.9996156
115	0x3f7faf92	0.99877274
116	0x3f7fc3ce	0.9990815
117	0x3f7fe3e0	0.99957085
118	0x3f808392	1.0040152
119	0x3f7f57b9	0.9974323
120	0x3f7f99b0	0.99843884
121	0x3f7fb731	0.998889
122	0x3f800504	1.0001531
123	0x3f7ffb08	0.9999242
124	0x3f80213d	1.0010144
125	0x3f8051ba	1.0024941
126	0x3f802aac	1.0013022
127	0x3f801c15	1.000857
128	0x3f8060cd	1.0029541
129	0x3f7f9a03	0.9984438
130	0x3f7f7b4a	0.997975
131	0x3f7fc7fb	0.9991452
132	0x3f80664f	1.0031222
133	0x3f80231b	1.0010713
134	0x3f800904	1.0002751
135	0x3f801e5a	1.0009263
136	0x3f7f9399	0.9983459
137	0x3f807681	1.0036165
138	0x3f7f9124	0.9983084
139	0x3f7ff805	0.9998782
140	0x3f807110	1.0034504
141	0x3f804797	1.0021847
142	0x3f7f86da	0.9981514
143	0x3f7f488e	0.99720085
144	0x3f7ef6b5	0.99595195
145	0x3f7f5f62	0.9975492
146	0x3f8017ef	1.0007304
147	0x3f806877	1.003188
148	0x3f7f9794	0.99840665
149	0x3f7ff691	0.99985605
150	0x3f7fb104	0.9987948
151	0x3f7fb1ba	0.99880564
152	0x3f7f5270	0.99735165
153	0x3f7fcbbf	0.99920267
154	0x3f802aa9	1.0013019
155	0x3f803a6d	1.001783
156	0x3f7f4d54	0.9972737
157	0x3f802a5d	1.0012928
158	0x3f800fea	1.0004857
159	0x3f7f8386	0.99810064
160	0x3f7f17b6	0.99645555
161	0x3f8015f6	1.0006702
162	0x3f7fcc54	0.99921155
163	0x3f80351f	1.0016211
164	0x3f805d42	1.002846
165	0x3f7fea41	0.9996682
166	0x3f8050e9	1.0024692
167	0x3f7f51d5	0.9973424
168	0x3f803aee	1.0017984
169	0x3f7fb567	0.99886173
170	0x3f7ff329	0.9998041
171	0x3f804f13	1.0024132
172	0x3f7f0b85	0.9962695
173	0x3f7fb4ea	0.9988543
174	0x3f7f3090	0.99683475
175	0x3f7fb1d0	0.99880695
176	0x3f8021f0	1.0010357
177	0x3f7f8dcc	0.9982574
178	0x3f802732	1.0011961
179	0x3f80469e	1.0021551
180	0x3f8011fe	1.0005491
181	0x3f80559f	1.002613
182	0x3f7fc283	0.99906176
183	0x3f7f1836	0.9964632
184	0x3f7f7bd8	0.99798346
185	0x3f7fa386	0.9985889
186	0x3f7f8cd2	0.9982425
187	0x3f7f5366	0.9973663
188	0x3f7fa528	0.99861383
189	0x3f7f9124	0.9983084
190	0x3f8046cd	1.0021607
191	0x3f800ba9	1.0003558
192	0x3f80376b	1.0016912
193	0x3f7fbe0f	0.9989938
194	0x3f80169b	1.0006899
195	0x3f800625	1.0001875
196	0x3f802934	1.0012574
197	0x3f7f67fb	0.99768037
198	0x3f7fd8af	0.9994001
199	0x3f8003a3	1.000111
200	0x3f803030	1.0014706
201	0x3f7fb8b1	0.9989119
202	0x3f803aec	1.0017982
203	0x3f7f4a69	0.99722916
204	0x3f801910	1.0007648
205	0x3f803161	1.0015069
206	0x3f7fb79b	0.99889535
207	0x3f7f61ac	0.9975841
208	0x3f7ecf30	0.99534893
209	0x3f8012f5	1.0005785
210	0x3f80146b	1.0006231
211	0x3f804796	1.0021846
212	0x3f80302c	1.0014701
213	0x3f7f5316	0.99736154
214	0x3f8028af	1.0012416
215	0x3f802381	1.0010835
216	0x3f8065e9	1.00311
217	0x3f7fd0e4	0.99928117
218	0x3f7fb41e	0.9988421
219	0x3f8030f2	1.0014937
220	0x3f7ff620	0.9998493
221	0x3f7f60ac	0.99756885
222	0x3f8032e9	1.0015537
223	0x3f806d9a	1.0033448
224	0x3f7f50bc	0.99732566
225	0x3f8002f3	1.00009
226	0x3f804a1a	1.0022614
227	0x3f8004f0	1.0001507
228	0x3f80aebb	1.0053324
229	0x3f7eedfa	0.99581873
230	0x3f7f7c7e	0.99799335
231	0x3f8000e1	1.0000268
232	0x3f7fc41e	0.99908626
233	0x3f805b08	1.002778
234	0x3f8029bd	1.0012738
235	0x3f7f8854	0.99817395
236	0x3f801abc	1.0008159
237	0x3f7ffd70	0.9999609
238	0x3f7fec04	0.99969506
239	0x3f8014a0	1.0006294
240	0x3f8009fa	1.0003045
241	0x3f7f44f8	0.9971461
242	0x3f8001d7	1.0000561
243	0x3f7fb258	0.99881506
244	0x3f804cdb	1.0023454
245	0x3f803632	1.0016539
246	0x3f8021b0	1.0010281
247	0x3f805e3a	1.0028756
248	0x3f80525a	1.0025132
249	0x3f7ee130	0.9956236
250	0x3f7fa5aa	0.9986216
251	0x3f800fad	1.0004784
252	0x3f8007c4	1.000237
253	0x3f8025a1	1.0011483
254	0x3f806d15	1.0033289
255	0x3f7f6725	0.9976676

bn1.bias f4 [256]
0	0x39ff9dbe	0.00048754917
1	0x37d55374	2.543044e-05
2	0xba7ffeaa	-0.0009765426
3	0xbb714bff	-0.003681898
4	0x3b01d2b8	0.0019809436
5	0xba73c330	-0.00092987996
6	0x3a661667	0.0008777142
7	0x3bb22aa0	0.00543721
8	0xbb5364c1	-0.00322561
9	0x3a985bbf	0.0011624022
10	0xba0709dc	-0.00051513105
11	0x3b165c79	0.0022943302
12	0x38d882b5	0.00010324029
13	0xbb098b17	-0.0020987445
14	0x3b2ad41f	0.0026066375
15	0x3b8442fa	0.0040363045
16	0x3997bd7a	0.00028942135
17	0x3ac5aaa4	0.0015080762
18	0xba83cac6	-0.0010054938
19	0x39c5aa37	0.00037701588
20	0xbb0d32a8	-0.0021545086
21	0xbb05eca7	-0.0020435245
22	0x3b7b04a3	0.0038302324
23	0x3aa9976c	0.0012938804
24	0x3b0f101d	0.0021829673
25	0xbb32da5f	-0.0027290804
26	0xba4e615c	-0.0007872784
27	0x396fd90a	0.0002287367
28	0xbaefb83f	-0.0018289163
29	0x3a855e08	0.0010175118
30	0x394319c4	0.00018606248
31	0xbb433aa4	-0.0029789591
32	0x3a5c7b0e	0.00084106706
33	0x3ac91bdf	0.0015343389
34	0x3b7d7e2b	0.0038679938
35	0xbae0f39d	-0.0017162446
36	0xbaaeac5d	-0.0013326515
37	0xba7cd881	-0.00096452987
38	0xba182e37	-0.00058052264
39	0x3b175244	0.0023089806
40	0x3b1a5d94	0.0023554312
41	0x38d49a5c	0.000101376994
42	0x3905e9bc	0.00012770941
43	0xbae6520f	-0.0017572063
44	0xba98b853	-0.0011651613
45	0x3a381ae2	0.0007023049
46	0xbb17639d	-0.0023100146
47	0x394f2640	0.00019755308
48	0xbaf7139a	-0.0018850446
49	0x39ed5448	0.00045266957
50	0x3ada9adf	0.0016678235
51	0xba9ce5de	-0.0011970361
52	0xbb585b16	-0.0033013276
53	0x3b149cdc	0.0022676503
54	0xba5aba36	-0.00083437876
55	0x3b4c89ef	0.0031210145
56	0xbafe19a0	-0.0019386299
57	0xba5b0c95	-0.0008356062
58	0xbb1fd604	-0.0024389038
59	0x38e2fba0	0.000108233886
60	0xba8dbd9f	-0.0010813958
61	0xbb0cbda2	-0.0021475335
62	0xbb716ea8	-0.0036839638
63	0xbb62e63c	-0.0034622094
64	0xba05d0bf	-0.0005104653
65	0x3b18dfa1	0.0023326653
66	0xbb2d2222	-0.002641805
67	0x3b1e1b53	0.0024125173
68	0x3b49e9c3	0.00308095
69	0xbb547f91	-0.0032424668
70	0x3ae03e8b	0.0017108483
71	0xba8fa1a4	-0.0010958207
72	0xbab6ac7f	-0.0013936906
73	0xbaf25fd9	-0.00184917
74	0xb98b57ca	-0.00026577554
75	0x3aa06108	0.0012235949
76	0xb9907222	-0.00027550856
77	0x3ab51d50	0.001381794
78	0x3b62e98b	0.0034624066
79	0xba6407fc	-0.00086986995
80	0xbad3cd4d	-0.0016159207
81	0x39d35226	0.00040306262
82	0xbb0dc7af	-0.0021633913
83	0xb80abd20	-3.30779e-05
84	0xbb28be7b	-0.00257483
85	0xba7d93e3	-0.0009673221
86	0xbaded76c	-0.0017001457
87	0x3af9b195	0.0019050116
88	0xba2f2244	-0.0006680826
89	0xbafc8448	-0.0019265497
90	0xb9321484	-0.00016983045
91	0x3a3fa45d	0.0007310564
92	0x3b6f7972	0.0036540893
93	0xba19ec3e	-0.00058716896
94	0x3ab41330	0.0013738628
95	0xbae58ccc	-0.0017513274
96	0xb99fca67	-0.00030477645
97	0x393c9431	0.00017984283
98	0x3b6ad951	0.0035835097
99	0x3b16dc08	0.0023019332
100	0x3abd3ab9	0.0014437056
101	0x3b8bd9c1	0.0042679016
102	0x3b39d510	0.0028355755
103	0x3b2e1ca5	0.0026567366
104	0xbb365de2	-0.0027826955
105	0xba2675b7	-0.00063499383
106	0x3a4835cf	0.00076374126
107	0x3b0e1f68	0.00216862
108	0xba0a448a	-0.00052744953
109	0x3b94e644	0.0045440514
110	0xbb1b5ef2	-0.0023707715
111	0x3b066995	0.002050971
112	0x3a78cdcd	0.0009491116
113	0x3b0950d2	0.0020952714
114	0xb8cb28b4	-9.687376e-05
115	0x3a1b0d41	0.0005914756
116	0xbad8ff1a	-0.0016555518
117	0xba1bcdb6	-0.0005943434
118	0xb9a95732	-0.00032299157
119	0xb9f03e13	-0.00045822616
120	0xba661dc6	-0.00087782403
121	0x3a01d930	0.0004953323
122	0x3ab342ca	0.0013676521
123	0x3b8a1d03	0.0042148842
124	0x3a83f8b8	0.0010068631
125	0xb964bd72	-0.00021814348
126	0xbae4d090	-0.0017457176
127	0xba95873b	-0.00114081
128	0x3ae146ca	0.0017187234
129	0x38e6965c	0.00010995261
130	0xb8aa8dd4	-8.132649e-05
131	0xb923559f	-0.00015576788
132	0x3b118cc0	0.0022209138
133	0x3aa0259b	0.0012218239
134	0xba9bd396	-0.0011888619
135	0x3ae962e3	0.001780596
136	0xba73fe7a	-0.00093076343
137	0x3b1e8072	0.0024185446
138	0xba1aefa4	-0.0005910343
139	0xbab49152	-0.0013776219
140	0xbac12a66	-0.0014737367
141	0x3b1a8190	0.002357576
142	0xba574e50	-0.00082132686
143	0xb9c3d824	-0.00037354336
144	0xbaef5080	-0.0018258244
145	0xb93b95dc	-0.00017889537
146	0xb9e311db	-0.00043310117
147	0xb9d714de	-0.00041023543
148	0xbb0eecc8	-0.0021808613
149	0xbb035854	-0.0020041661
150	0x398edcb8	0.000272488
151	0x38ae7a60	8.319761e-05
152	0xbaf4f2d2	-0.0018688089
153	0x399edf4e	0.00030302483
154	0x3b6b849e	0.00359372
155	0x3a98ead7	0.0011666667
156	0xba97a034	-0.001156813
157	0xba8c5c05	-0.0010708576
158	0x3b3bb94d	0.0028644383
159	0xbabd71b9	-0.0014453448
160	0xbb79df40	-0.0038127452
161	0xb8fab018	-0.00011953729
162	0xbb2dc650	-0.0026515909
163	0x3aa066dc	0.0012237686
164	0xbaddf378	-0.0016933521
165	0xbae72b29	-0.0017636764
166	0x3b45ab69	0.0030161983
167	0x38510d30	4.9841765e-05
168	0x3a6188f4	0.00086034765
169	0xbac22126	-0.0014810904
170	0xba0e7f92	-0.00054358796
171	0x3b2bef77	0.0026235261
172	0x3a1cf4cc	0.00059874053
173	0xbb1ec43b	-0.002422585
174	0x3a0cc025	0.0005369208
175	0xba955342	-0.0011392611
176	0x3a73b40d	0.0009296544
177	0xb941c8ca	-0.00018480714
178	0xb9920d77	-0.00027857322
179	0x3b6cdc4a	0.0036142045
180	0x3abaa8aa	0.001424094
181	0xba6f839c	-0.0009136738
182	0xbadfb90a	-0.0017068696
183	0xbb314289	-0.0027047715
184	0xbb705cd9	-0.0036676435
185	0x3a81254a	0.0009853032
186	0xbafb3342	-0.0019165056
187	0xbb6ac492	-0.0035822731
188	0x3ab5719e	0.0013843065
189	0xba686cb8	-0.0008866298
190	0xb9f766ce	-0.00047188107
191	0x38b758d8	8.7426684e-05
192	0x3aba7557	0.0014225644
193	0xbb11e14e	-0.0022259536
194	0x3b4c1530	0.0031140558
195	0xbb0c15e7	-0.002137536
196	0x3b0e1252	0.00216784
197	0xbb2f645b	-0.0026762697
198	0x3addcdd1	0.00169223
199	0x3a306d47	0.0006730151
200	0xba1bb8cc	-0.00059403176
201	0xb9deb673	-0.00042479075
202	0x3b52bab5	0.0032154743
203	0xbb46f849	-0.0030360392
204	0xba2c4906	-0.00065721606
205	0x399b52e8	0.00029625674
206	0xba1e245e	-0.0006032641
207	0xbb1b795a	-0.0023723454
208	0xbb818845	-0.003953012
209	0x3a4b4e57	0.0007755509
210	0x3b4cad30	0.0031231157
211	0x3ad0d8ec	0.0015933788
212	0xb84e84a8	-4.9237773e-05
213	0xbb58f518	-0.0033105072
214	0x3accd2ed	0.0015626826
215	0x3a51b26d	0.0007999305
216	0x3ae90d9f	0.0017780549
217	0xbb76ad68	-0.003763998
218	0xb9de19d0	-0.00042362371
219	0x3a6a4434	0.00089365547
220	0xba0ab5dd	-0.0005291382
221	0x3aabd96e	0.0013111064
222	0x3a61a340	0.0008607395
223	0x3a4ea29c	0.0007882507
224	0xb99beac2	-0.00029738812
225	0xbaca6a69	-0.001544309
226	0x3a387f6f	0.0007038032
227	0xb9787712	-0.0002369548
228	0x3b4bcd4e	0.0031097713
229	0xba1e8c4c	-0.00060481275
230	0x3b088365	0.002083027
231	0xba3927ae	-0.00070631027
232	0x3a57ae34	0.00082275574
233	0x3ac3ac87	0.0014928736
234	0x35dedac0	1.6603954e-06
235	0xbad12da7	-0.001595904
236	0x3969f7fb	0.00022312991
237	0xba90af68	-0.0011038603
238	0xba651b69	-0.0008739741
239	0x3a6f9af6	0.00091402174
240	0xbae12f31	-0.0017180202
241	0xbb41300c	-0.00294781
242	0xbaf605d2	-0.0018770045
243	0xb99a1d2e	-0.0002939491
244	0x3ae25f52	0.0017270839
245	0x3b60b17e	0.003428548
246	0xbb3646a6	-0.0027813106
247	0xb989dae1	-0.00026293754
248	0x3b3b4057	0.0028572285
249	0xba79ba9b	-0.00095264026
250	0x3acfeaaa	0.0015862782
251	0x3b07f9de	0.0020748298
252	0xb947533f	-0.0001900913
253	0x3a285474	0.0006421276
254	0x3b726366	0.0036985516
255	0xbb9d3f72	-0.004798823

bn1.running_mean f4 [256]
0	0xbe1237b5	-0.14279063
1	0xbda4bfd9	-0.080444045
2	0xbdfc5b12	-0.12322058
3	0xbcd7ecd3	-0.026358044
4	0xbddd4f92	-0.108061925
5	0x3dfb12e2	0.12259461
6	0x3e01de9e	0.12682578
7	0x3e18c9b2	0.1492069
8	0xbe14fc32	-0.1454933
9	0x3db60ba4	0.08888939
10	0xbe113a72	-0.14182451
11	0xbe3c5284	-0.18390852
12	0xbd93a95f	-0.07210039
13	0x3e0962a9	0.13416542
14	0xbca68b6e	-0.020330157
15	0xbe1f3dfc	-0.15550989
16	0xbd50bac7	-0.050959375
17	0x3d491d07	0.04909995
18	0xbe0e7387	-0.13911258
19	0x3d506049	0.050873075
20	0x3e2dfd33	0.16991119
21	0xbe307f26	-0.17236003
22	0xbddb9790	-0.10722268
23	0xbd00209e	-0.031281106
24	0xbd8149fe	-0.06312941
25	0x3e384388	0.17994511
26	0x3dff8905	0.12477306
27	0xbe4bfbca	-0.19920269
28	0x3decb365	0.11557654
29	0xbe0e2656	-0.13881811
30	0x3dbfd74e	0.09367238
31	0xbd1f59b0	-0.038903892
32	0x3e1391e6	0.14411125
33	0xbe0575fb	-0.13033287
34	0x3d71a182	0.058991916
35	0x3d91e187	0.07123094
36	0x3db7641c	0.08954641
37	0xbe01d29a	-0.12677994
38	0xbe1481ec	-0.14502686
39	0xbbc3f708	-0.005980376
40	0xbd837bb3	-0.06420078
41	0xbd420152	-0.04736454
42	0x3e03f0d2	0.12884834
43	0x3d959d53	0.07305398
44	0xbc8fa984	-0.017536886
45	0x3dbc642f	0.09198796
46	0x3d874875	0.06605617
47	0x3ddb931b	0.107214175
48	0x3d499397	0.04921302
49	0xbdcd77af	-0.100325935
50	0x3dd8a52c	0.10578379
51	0xbe589514	-0.21150619
52	0x3e1fc112	0.15600994
53	0x3e3d3bc7	0.18479834
54	0xbe44dbe3	-0.19224505
55	0x3db14232	0.08655204
56	0xbdb3a62c	-0.08771929
57	0x3e5028fa	0.20328131
58	0x3d136381	0.035983566
59	0xbd3da6f6	-0.046301804
60	0x3d1e2145	0.038605947
61	0x3de844ff	0.11341285
62	0xbbf8d933	-0.0075942515
63	0x3e05edb5	0.1307896
64	0x3e358bd2	0.17729118
65	0x3d90d33c	0.0707154
66	0x3d15a788	0.036536723
67	0x3b774858	0.003773233
68	0xbd982a8c	-0.0742999
69	0x3e2fcb9b	0.17167513
70	0x3d04dd78	0.03243777
71	0x3d3146e5	0.0432805
72	0xbd9045d1	-0.070445664
73	0xbd4fa5ba	-0.05069516
74	0xbd9374d0	-0.072000146
75	0x3e4117c6	0.18856725
76	0x3e2aa6ac	0.16665143
77	0xbc1ee178	-0.009697311
78	0xbd4cd1a8	-0.05000463
79	0x3d7812d9	0.06056485
80	0x3df40922	0.119158044
81	0x3b78c098	0.0037956592
82	0xbe284576	-0.16432747
83	0x3de4e9d0	0.11177409
84	0xbe18ede1	-0.14934494
85	0x3e601b7b	0.21885483
86	0xbe69c8a0	-0.22830439
87	0x3e2981f5	0.16553481
88	0x3db66baa	0.08907254
89	0xbe5c3c9e	-0.21507499
90	0x3d5c7ac4	0.053828016
91	0xbe0f5ea3	-0.14000945
92	0xbde62cd4	-0.11239019
93	0xbe033850	-0.1281445
94	0xbb909b68	-0.004413057
95	0x3e47af98	0.19500577
96	0x3e03786d	0.12838908
97	0x3d24b966	0.040215872
98	0x3df34ae8	0.118795216
99	0x3ce53d57	0.02798335
100	0xbd6839ae	-0.056695633
101	0xbe6df132	-0.2323654
102	0xbd93c72c	-0.072157234
103	0x3e1bb502	0.15205768
104	0x3e540bda	0.20707646
105	0x3e0cf4cd	0.13765259
106	0x3c0cc00c	0.008590709
107	0xbd1af80a	-0.037834205
108	0xbe07fb66	-0.13279495
109	0xbe3b8214	-0.1831134
110	0xbd75385d	-0.059868205
111	0xbe39744d	-0.18110771
112	0xbe5bc25b	-0.2146086
113	0x3e3bd486	0.1834279
114	0x3c6e6372	0.014550077
115	0x3d25bad1	0.040461365
116	0xbe4b396b	-0.19846122
117	0xbcff5fbd	-0.031173581
118	0xbe133563	-0.14375834
119	0x3dd578b8	0.10423416
120	0xba895d24	-0.0010480029
121	0xbc8990a4	-0.016792603
122	0x3ddacecc	0.106839746
123	0x3c93c8a5	0.01804001
124	0x3db05838	0.086105764
125	0x3ca73ac4	0.020413764
126	0xbbe7d208	-0.007074598
127	0x3d8bcf76	0.068266794
128	0xbdddba5c	-0.10826561
129	0x3d8873a4	0.06662682
130	0xbc71e3fd	-0.014763829
131	0xbade0180	-0.0016937703
132	0xbe06543c	-0.1311807
133	0x3e225dfa	0.15856162
134	0xbe3441ed	-0.17603274
135	0xbe5b5569	-0.214193
136	0x3dad2ce8	0.08455831
137	0x3dc3530a	0.09537323
138	0xbdb78668	-0.08961183
139	0xbe221ca5	-0.1583124
140	0xbe30eac0	-0.1727705
141	0x3dd5d868	0.10441667
142	0x3dd48bd2	0.10378231
143	0xbe162b8f	-0.14665054
144	0xbd942c50	-0.072350144
145	0xbd66280f	-0.056190547
146	0x3dae0a43	0.08498051
147	0xbe47ea19	-0.19522895
148	0x3e1cef0a	0.15325561
149	0x3d69d6cc	0.057089612
150	0xbe31306f	-0.17303632
151	0xbe423820	-0.18966722
152	0xbdd21815	-0.102584995
153	0xbe5afa85	-0.21384628
154	0x3df0f3a7	0.11765223
155	0x3dcef699	0.101056285
156	0x3e30d215	0.1726764
157	0x3e3101f4	0.17285901
158	0xbe04d3da	-0.1297144
159	0xbd3bc556	-0.04584249
160	0xbd1eaad4	-0.038737133
161	0x3e0fe230	0.14051127
162	0x3e5bd9e2	0.21469834
163	0x3dc3f182	0.09567548
164	0x3e13df41	0.14440633
165	0xbdc025e2	-0.093822256
166	0xbe3d0ef0	-0.1846273
167	0x3d02843d	0.031864394
168	0xbd2312ec	-0.039812967
169	0x3e53b338	0.20673835
170	0xbe0366db	-0.12832205
171	0x3e29119f	0.16510628
172	0x3e4eb008	0.20184338
173	0xbcc31ce8	-0.023817495
174	0xbdd6e5aa	-0.10493024
175	0xbc36c5c4	-0.011155549
176	0x3d19798c	0.03746943
177	0xbd897585	-0.06711868
178	0xbdddf9a8	-0.10838634
179	0x3d92ee0f	0.07174312
180	0x3e0b9aa6	0.13633212
181	0xbbd92d24	-0.0066276956
182	0x3e29e381	0.16590692
183	0xbe28b99b	-0.16477053
184	0x3c740585	0.014893894
185	0xbe630ccf	-0.22172855
186	0xbe29fa25	-0.16599329
187	0x3d16c955	0.0368131
188	0xbe4499ac	-0.19199246
189	0x3e19aacf	0.15006565
190	0xbd9efc61	-0.07762981
191	0x3e24196f	0.16025327
192	0xbe190246	-0.14942273
193	0xbc366a60	-0.01113376
194	0x3ce4e8f4	0.027943112
195	0xbe07d2c4	-0.13263994
196	0x3d72b0b2	0.05925054
197	0x3e3c9722	0.18417028
198	0xbd8f739f	-0.07004475
199	0x3de739be	0.1129031
200	0x3dcf28ea	0.101152256
201	0x3d38bc07	0.04510119
202	0xbe247c9f	-0.16063164
203	0x3e09c814	0.1345523
204	0xbdab0dfe	-0.08352278
205	0x3dd3ba0c	0.1033822
206	0xbe04d53d	-0.12971969
207	0x3c9a5d5e	0.01884335
208	0xbddfd8ed	-0.10930047
209	0xbdc4c022	-0.09606959
210	0x3e53d89b	0.20688097
211	0x3d31398c	0.04326777
212	0xbcc1b585	-0.023646126
213	0x3d4075a8	0.046987206
214	0x3e0ae5ac	0.13564175
215	0xbe17d03f	-0.14825533
216	0x3e15e264	0.14637142
217	0xbda5134d	-0.08060322
218	0xbd70d310	-0.058795035
219	0xbe03434b	-0.12818639
220	0x3d5e0d97	0.05421218
221	0xbe047b3c	-0.12937635
222	0xbcef5edc	-0.029220037
223	0x3db0c8f8	0.08632082
224	0x3c886102	0.01664782
225	0xbdc4a724	-0.09602192
226	0x3e4f1268	0.20221865
227	0xbdb53ca4	-0.08849457
228	0xbd698be5	-0.05701818
229	0x3e1ff66d	0.15621348
230	0xbe7d97aa	-0.24764886
231	0x3c5a8066	0.013336277
232	0xbe19fdec	-0.1503827
233	0x3de63cbb	0.11242052
234	0xbe29f7fb	-0.16598503
235	0x3a3be9f0	0.0007168343
236	0xbe33c5b4	-0.17555887
237	0xbe19df3a	-0.1502656
238	0xbe6c1890	-0.23056245
239	0xbe2a1d61	-0.1661277
240	0x3b173290	0.002307091
241	0x3e092558	0.13393152
242	0x3bd36f6f	0.006452493
243	0xbe46fdb4	-0.19432718
244	0xbe2b70ed	-0.16742297
245	0xbd5fa592	-0.05460126
246	0x3da7ddd4	0.08196607
247	0xbbfff260	-0.007810876
248	0xbbef8da2	-0.007310585
249	0x3e254a4d	0.16141625
250	0x3e117815	0.14205964
251	0x3e013753	0.12618761
252	0xbde2f35c	-0.11081573
253	0x3dd8b1e9	0.10580809
254	0xbbbbcfec	-0.0057315733
255	0xbd87751b	-0.06614133

bn1.running_var f4 [256]
0	0x3eb7c857	0.35895035
1	0x3ea4dcec	0.321998
2	0x3ee52dfa	0.4476164
3	0x3ed947ca	0.42437583
4	0x3eac248b	0.3362163
5	0x3efd7e7f	0.4951057
6	0x3ed3e757	0.41387436
7	0x3e8cc8b4	0.27496874
8	0x3f04d897	0.5189299
9	0x3ebb84f8	0.36624885
10	0x3ea18f46	0.3155462
11	0x3eb1ee25	0.34752002
12	0x3ed43e3e	0.41453737
13	0x3edf684d	0.43634263
14	0x3f12e6e4	0.5738356
15	0x3f2889a7	0.6583504
16	0x3f021f21	0.5082875
17	0x3eef4c45	0.46737877
18	0x3f0a4860	0.54016685
19	0x3f054c86	0.5206989
20	0x3eb80b6b	0.3594621
21	0x3efe727e	0.49696726
22	0x3ee2218a	0.44166213
23	0x3ed82a4c	0.4221977
24	0x3f075fc4	0.528805
25	0x3eaf8e45	0.3428823
26	0x3ebe5d1e	0.37180418
27	0x3ef6e57b	0.48221955
28	0x3ee4f4ac	0.4471792
29	0x3ee091ec	0.4386133
30	0x3ebd753d	0.37003508
31	0x3ed698f6	0.41913575
32	0x3ea85cc6	0.3288328
33	0x3f14fd04	0.5819857
34	0x3ee4d9e6	0.44697493
35	0x3ecbb0b0	0.3978324
36	0x3eeaf454	0.45889533
37	0x3ec88b54	0.391688
38	0x3e8fcf7a	0.2808798
39	0x3ee9c318	0.45656657
40	0x3edff3e4	0.4374076
41	0x3f0d74fd	0.55256635
42	0x3ee43810	0.44574022
43	0x3ef52a4c	0.47883832
44	0x3eaf20ae	0.3420462
45	0x3ee63566	0.44962615
46	0x3eccb9d0	0.39985514
47	0x3ecd72dd	0.40126696
48	0x3eae58cd	0.34052125
49	0x3ede9af4	0.43477595
50	0x3eb38e74	0.3506962
51	0x3ec16151	0.3776956
52	0x3eea5ced	0.45774022
53	0x3efc7927	0.49311182
54	0x3f0308de	0.51185405
55	0x3f01a703	0.50645465
56	0x3f014f01	0.50511175
57	0x3eec3f19	0.4614189
58	0x3ef42504	0.4768449
59	0x3ecb15f0	0.39665174
60	0x3edc02f2	0.42970997
61	0x3eb6c230	0.35695028
62	0x3f0919bd	0.535549
63	0x3ed87504	0.42276776
64	0x3ef224ad	0.47293606
65	0x3ee86703	0.45391092
66	0x3ed6d66a	0.4196046
67	0x3ee03fb2	0.43798596
68	0x3ec5550e	0.38541454
69	0x3ed89698	0.42302394
70	0x3f19ec3b	0.60126084
71	0x3ea8e923	0.3299037
72	0x3eef4d03	0.46738443
73	0x3eed7215	0.463761
74	0x3ee4b028	0.44665647
75	0x3ed1eeec	0.41002595
76	0x3ef84749	0.48491886
77	0x3f013b1b	0.5048081
78	0x3f05088b	0.5196616
79	0x3ecaa2b9	0.39577273
80	0x3ee99a17	0.45625374
81	0x3f10ba4a	0.56534255
82	0x3ef46070	0.47729826
83	0x3ee4be10	0.44676256
84	0x3eca74a4	0.39542115
85	0x3ef3ebff	0.47640988
86	0x3efbeb87	0.4920313
87	0x3f1a1ae9	0.6019731
88	0x3ee5c04a	0.44873267
89	0x3ee0545b	0.43814358
90	0x3f092163	0.5356657
91	0x3efe03fd	0.49612418
92	0x3ec4fdd0	0.38474894
93	0x3edf2509	0.43582943
94	0x3ef0cab8	0.47029662
95	0x3ef5d80a	0.48016387
96	0x3ef9b8da	0.48773843
97	0x3ee7bb98	0.4526031
98	0x3ecb5b91	0.39718297
99	0x3ef30bd4	0.47469962
100	0x3f155bef	0.58343405
101	0x3ee87c51	0.45407346
102	0x3efbef77	0.49206135
103	0x3ef961f5	0.48707548
104	0x3f088e5b	0.5334222
105	0x3edd5082	0.43225485
106	0x3f01723c	0.5056493
107	0x3ebf0d7a	0.3731497
108	0x3efa849d	0.489293
109	0x3ee472f9	0.44618967
110	0x3ec3ee32	0.38267666
111	0x3eea8efc	0.45812213
112	0x3eea41fd	0.4575347
113	0x3efec116	0.49756688
114	0x3ed010ea	0.40637904
115	0x3efeb1c7	0.49745008
116	0x3ed6b0ec	0.41931856
117	0x3ec0881f	0.37603852
118	0x3eb77435	0.35830846
119	0x3eee5429	0.46548584
120	0x3edc30d0	0.4300599
121	0x3ec9eab8	0.3943689
122	0x3eccf8d0	0.4003358
123	0x3f0c7fba	0.54882395
124	0x3efe3aa5	0.49654117
125	0x3eb2306d	0.3480257
126	0x3eec6d60	0.46177197
127	0x3ec2aec1	0.38023952
128	0x3ed6225b	0.41823086
129	0x3ec1f1e5	0.37879863
130	0x3f0ade22	0.542452
131	0x3efb0582	0.4902764
132	0x3ee35d44	0.44407094
133	0x3eedb854	0.46429694
134	0x3ee8e9a8	0.45490766
135	0x3ed235ae	0.4105658
136	0x3ed26cfb	0.4109877
137	0x3eca6702	0.39531714
138	0x3eaa0a90	0.33211184
139	0x3ec467e9	0.38360527
140	0x3ed7f45e	0.42178625
141	0x3ee783e8	0.45217824
142	0x3edceea0	0.43150806
143	0x3eabf819	0.3358772
144	0x3ef58c7f	0.47958753
145	0x3ec0ffe4	0.3769523
146	0x3ef49b7e	0.4777488
147	0x3f06b2c6	0.52616537
148	0x3f00de99	0.5033966
149	0x3ec82802	0.39093024
150	0x3eab07b8	0.33404326
151	0x3eb9d43d	0.36294737
152	0x3f11fe1f	0.57028383
153	0x3eb0afce	0.34509128
154	0x3eb47142	0.3524266
155	0x3ecf1ae8	0.40450215
156	0x3eb99dca	0.36253196
157	0x3ec7e97f	0.3904533
158	0x3edf11a1	0.43568137
159	0x3ed48a3d	0.41511717
160	0x3ec9038c	0.3926052
161	0x3f04bd2a	0.5185114
162	0x3eeef9ac	0.4667486
163	0x3ecce004	0.4001466
164	0x3f12d819	0.5736099
165	0x3ed6ae40	0.41929817
166	0x3ee5e487	0.44900915
167	0x3ee8af99	0.4544647
168	0x3eca775a	0.39544183
169	0x3ee9c208	0.45655847
170	0x3f0eb68d	0.557473
171	0x3ed6c3aa	0.41946155
172	0x3eed9a78	0.46406913
173	0x3ee06ae8	0.43831563
174	0x3ec54ac4	0.38533604
175	0x3ec5bc2a	0.3862012
176	0x3eca4044	0.39502156
177	0x3eef2cce	0.4671387
178	0x3ec7abcb	0.38998255
179	0x3e9aa232	0.3020187
180	0x3eeac286	0.45851535
181	0x3ec75b2b	0.38936743
182	0x3ecc9b15	0.39962068
183	0x3ed2c744	0.41167653
184	0x3ef325d4	0.47489798
185	0x3ef9a502	0.48758703
186	0x3f03ac05	0.51434356
187	0x3f04c3ff	0.51861566
188	0x3efa420e	0.4887852
189	0x3f08a47e	0.53375995
190	0x3f02d747	0.5110974
191	0x3f01af80	0.50658417
192	0x3ef8ddc3	0.4860669
193	0x3ea83508	0.3285296
194	0x3f004723	0.50108546
195	0x3eee0006	0.46484393
196	0x3eb99990	0.3624997
197	0x3eb685f6	0.3564908
198	0x3ee2e550	0.44315577
199	0x3ec03a55	0.37544504
200	0x3ecfe157	0.40601608
201	0x3edb8d95	0.42881456
202	0x3edf86f0	0.43657637
203	0x3f036643	0.51327914
204	0x3eacebde	0.33773702
205	0x3edda601	0.43290713
206	0x3ebf6dbb	0.37388405
207	0x3f148c4e	0.5802659
208	0x3eff640b	0.49881014
209	0x3ebae6f4	0.36504328
210	0x3ed2977f	0.41131207
211	0x3eca7e6f	0.39549586
212	0x3f24180b	0.64099187
213	0x3eb6c3a3	0.35696134
214	0x3eddd6d5	0.43327966
215	0x3ef9bef8	0.4877851
216	0x3eed8f67	0.4639847
217	0x3f267818	0.65027
218	0x3ebbe260	0.36696148
219	0x3ebeec17	0.37289497
220	0x3ef71578	0.48258567
221	0x3f0b6924	0.54457307
222	0x3eee8512	0.465859
223	0x3ee2c3c8	0.44289994
224	0x3ee1a05f	0.44067666
225	0x3ebd5261	0.36976913
226	0x3ed67e9c	0.4189347
227	0x3eb09ff2	0.3449703
228	0x3f038c16	0.5138563
229	0x3e9e6d6d	0.3094286
230	0x3ecf8d20	0.40537357
231	0x3ea6863e	0.32524294
232	0x3f1468a8	0.5797219
233	0x3ee0280d	0.43780556
234	0x3ed87259	0.4227474
235	0x3e886f17	0.26647255
236	0x3eb80f3c	0.35949123
237	0x3ef39edb	0.47582135
238	0x3ecededc	0.40404403
239	0x3ec26854	0.3797022
240	0x3ed6ac4a	0.4192832
241	0x3ec3b10c	0.38221014
242	0x3edc99bd	0.43086043
243	0x3ebeab87	0.3724024
244	0x3f16b862	0.58875096
245	0x3ec306a3	0.38091
246	0x3f018c12	0.50604355
247	0x3f0c4dc8	0.54806185
248	0x3eb45598	0.35221553
249	0x3f1fa415	0.62359744
250	0x3e9b592d	0.30341473
251	0x3eb9df15	0.3630301
252	0x3ef7753b	0.48331627
253	0x3effc1fc	0.49952686
254	0x3ef09ec4	0.4699613
255	0x3ec2a930	0.38019705

fc2.weight f4 [128, 256]
0	0x3c2a5c93	0.010398048
1	0xbd51219a	-0.051057436
2	0xbafadd26	-0.0019139394
3	0x3cf2d551	0.029642733
4	0xbc33a64b	-0.01096494
5	0x3c73253d	0.014840421
6	0x3cca91af	0.02472767
7	0x3d2c29f1	0.042032186
8	0x3d065120	0.03279221
9	0xbc6f4dec	-0.01460598
10	0xbd1ba1f5	-0.03799625
11	0xbd569657	-0.05238947
12	0x3d1f6e6a	0.03892366
13	0xbd3ef88e	-0.04662376
14	0xbd7070aa	-0.058701195
15	0xbca71a54	-0.020398296
16	0x3c9c6def	0.01909539
17	0x3d6edf16	0.05831822
18	0x3d55cd11	0.05219752
19	0x3cbbf15d	0.02294224
20	0x3d3006a8	0.042975098
21	0x3ce2921d	0.027657563
22	0x3c5ed9d1	0.013601736
23	0x3c254176	0.010086408
24	0x3c646f65	0.013942574
25	0xbcc50ce4	-0.024053998
26	0xbd39291b	-0.045205217
27	0xbcc960c8	-0.024582282
28	0xb98ee41c	-0.00027254305
29	0x3ca15a87	0.019696487
30	0x3b8752d4	0.004129747
31	0x3d68942c	0.056781933
32	0xbbd6041a	-0.0065312507
33	0xbd00f9f8	-0.03148839
34	0x3cc351fb	0.023842802
35	0xbcf19e20	-0.029494345
36	0x3bbcdb58	0.0057634525
37	0x3d1a4d69	0.03767148
38	0x3d63fa6a	0.055658735
39	0xbcd48a93	-0.025944984
40	0xbd396965	-0.045266528
41	0x3cad854a	0.021181721
42	0x3d391b34	0.04519196
43	0xbce678a5	-0.0281337
44	0x3d61615c	0.05502449
45	0xbc942b0b	-0.01808693
46	0x3ced4f9e	0.028968628
47	0x3d34384c	0.043999
48	0x3d09829b	0.03357182
49	0xbd7d01bd	-0.061769236
50	0xbcd97a12	-0.026547465
51	0xbce39f08	-0.027785793
52	0xba6264fd	-0.0008636264
53	0x3bdb2937	0.006688263
54	0xbd61f900	-0.055169106
55	0xbd684d98	-0.056714624
56	0x3d817e76	0.06322949
57	0xbd2f3ca4	-0.04278244
58	0x3be62907	0.007023934
59	0x3cbf761c	0.023371749
60	0x3d14525d	0.03621136
61	0xbd18748a	-0.037220515
62	0x3d520e80	0.05128336
63	0xbd4f6c06	-0.05064013
64	0xbce99c67	-0.028516961
65	0x3c625c54	0.013815958
66	0x3d3ca02a	0.04605118
67	0xbd78381a	-0.060600378
68	0x3d6f5083	0.05842639
69	0xbc91db61	-0.017804803
70	0x3c86b603	0.016444212
71	0xbd6bee89	-0.05760053
72	0xbcb39b0d	-0.02192452
73	0x3d2b964a	0.041891374
74	0xbd2af4e2	-0.041737445
75	0xbd2ca441	-0.042148832
76	0xbce52222	-0.027970377
77	0x3d53ff47	0.051757123
78	0xbca15fe2	-0.01969904
79	0x3d3fb0c0	0.04679942
80	0x3ca83e4b	0.020537516
81	0xbc0f3ab5	-0.008742024
82	0xbd71a27c	-0.058992848
83	0xbced5dba	-0.028975356
84	0xbd0ed9c5	-0.03487565
85	0x3d28b2b0	0.041186035
86	0xbcd0187b	-0.025402298
87	0xbc23fac3	-0.010008517
88	0x3d05b5b0	0.032643974
89	0xbcafc4af	-0.02145609
90	0xbd6ee95b	-0.058328014
91	0x3ca7d64a	0.020487923
92	0x3d57478a	0.05255846
93	0x3d4a02b4	0.049318984
94	0xbd140fdc	-0.036147937
95	0xbd5ac6e0	-0.05341232
96	0x38ecd8b8	0.00011293724
97	0xbc24c4a3	-0.0100566475
98	0xbc7f9e8a	-0.0156017635
99	0xbd265ea4	-0.0406176
100	0xbd62c01c	-0.05535899
101	0x3c6e0718	0.0145280585
102	0xbbd27cce	-0.0064235693
103	0x3d4fbb09	0.05071548
104	0xbd6a6ef1	-0.05723471
105	0xbd45de97	-0.04830798
106	0xbc3395d1	-0.010961012
107	0x3cebd38c	0.028787397
108	0xbb4af898	-0.0030970927
109	0xbce855d6	-0.028361242
110	0x3d37591f	0.044762727
111	0x3bd2f945	0.0064384066
112	0x3b64ad44	0.0034893313
113	0x3cfceda4	0.030875035
114	0x3cd93213	0.026513135
115	0xbceec317	-0.02914576
116	0x3b711d7e	0.003679126
117	0x3b03e1de	0.002012364
118	0x3d3f3d1e	0.046689145
119	0x3d715398	0.05891761
120	0xbbf7f352	-0.007566848
121	0xbd36850b	-0.044560473
122	0x3d014b5c	0.03156601
123	0xbd39023d	-0.04516815
124	0x3d6e4722	0.058173306
125	0x3d5b5fe8	0.05355826
126	0x3d49a140	0.049226046
127	0xbbb580e4	-0.0055390466
128	0x3d1ee370	0.03879112
129	0x3c9ec9d6	0.019383352
130	0xbd3a3166	-0.045457266
131	0xbc79efc2	-0.015254917
132	0x3d26bf14	0.04070957
133	0xbd676e4f	-0.056501683
134	0x3cf90f07	0.030402673
135	0x3c62b09c	0.013836052
136	0xbce9d407	-0.028543485
137	0x3cb8b7a7	0.02254851
138	0xbce74828	-0.028232649
139	0x3d0ee1c7	0.034883287
140	0x3c9953a5	0.018716643
141	0x3d5d6500	0.0540514
142	0x3d53ef93	0.051742148
143	0xbd6adbb7	-0.057338443
144	0x3cc7aebd	0.024375314
145	0x3d41c10c	0.047303244
146	0xbd16bf96	-0.036803804
147	0x3b413836	0.0029482967
148	0x3d3b5cce	0.045742802
149	0x3d0bfec5	0.034178514
150	0x3d7fc14c	0.0624402
151	0xbc36e2ad	-0.011162442
152	0x3bb2a360	0.0054516047
153	0xbd21af0a	-0.03947357
154	0xbcaf1429	-0.021371918
155	0x3bce6a6b	0.006299307
156	0xbd7e21f2	-0.06204409
157	0x3d0c271d	0.03421699
158	0x3abae249	0.0014258112
159	0xbd11fd7f	-0.035642143
160	0x3d6d2ea1	0.057905797
161	0x3d0fb020	0.035080075
162	0xbd550c10	-0.052013457
163	0xb9f9a6df	-0.0004761731
164	0xbbfc143b	-0.0076928413
165	0x3d3d060a	0.046148337
166	0xbd22f759	-0.03978667
167	0x3c9e73e3	0.019342368
168	0xbd7704c2	-0.06030727
169	0x3d7f5dbc	0.06234525
170	0x3cf5786a	0.029964644
171	0x3b3f13ca	0.0029156082
172	0x3b3c3d5e	0.00287231
173	0x3c9fa31b	0.019486954
174	0x3cba7aa7	0.022763563
175	0xbb897108	-0.0041943826
176	0xbd19b6e2	-0.037527926
177	0x3c3c0259	0.011475169
178	0xbd216f3e	-0.03941273
179	0x3cb62f40	0.022239327
180	0x3c9774f3	0.018488383
181	0x3d7ab040	0.06120324
182	0x3b6facca	0.0036571496
183	0xbd048295	-0.032351095
184	0xbd7ff75e	-0.062491767
185	0xbcf36c65	-0.029714772
186	0xbcfc9c7e	-0.03083634
187	0x3d577a6e	0.052606992
188	0x3d3d8de2	0.046277888
189	0x3ced590b	0.028973123
190	0xbb84b2c5	-0.0040496313
191	0x3d806a05	0.062702216
192	0xbd737dba	-0.059446074
193	0xbd4ea678	-0.050451726
194	0xbd5933b1	-0.053027812
195	0x3cfc934a	0.030831952
196	0x3bdd86cd	0.0067604543
197	0x3d201cb6	0.03908988
198	0x3d609187	0.054826286
199	0xbc254956	-0.010088285
200	0xbc8681f4	-0.016419388
201	0xbd3c6dc4	-0.04600312
202	0x3c155f98	0.00911703
203	0xbd264900	-0.040596962
204	0xbd5f2630	-0.054479778
205	0xbd6dfdb1	-0.058103267
206	0x3ad62485	0.0016337788
207	0x3d448f4d	0.047988225
208	0xbc5cef74	-0.013484824
209	0x3d4b6d50	0.049664795
210	0xbd116939	-0.03550074
211	0xbd5fbb76	-0.054622136
212	0x3d5e3c80	0.054256916
213	0xbbdb22bd	-0.0066874907
214	0xbb8505ac	-0.004059514
215	0x3c3c9850	0.0115109235
216	0x3c9a70b6	0.018852573
217	0xbc1a40ba	-0.009414846
218	0x3c892388	0.016740575
219	0xbd38154b	-0.04494218
220	0xbc59cfd4	-0.013294179
221	0xbd199032	-0.03749103
222	0xbd3fe840	-0.04685235
223	0x3d74c35e	0.05975663
224	0x3c05b6f0	0.0081612915
225	0x3d017c56	0.031612717
226	0x3c0c50c7	0.008564181
227	0xbc70ff86	-0.014709359
228	0xbbd34510	-0.006447442
229	0x3d02e429	0.03195587
230	0xbd4ae0fe	-0.049530976
231	0x3c18e5f5	0.00933217
232	0xbd4774cf	-0.04869538
233	0x3cb8657d	0.02250933
234	0xbbfb7956	-0.0076743765
235	0x3c47e6c6	0.012201017
236	0xbd455032	-0.048172183
237	0xbd06dd1c	-0.03292571
238	0x3c81535b	0.015786817
239	0x3d36e230	0.044649303
240	0x3cdf0485	0.027223835
241	0xbd4f2c4e	-0.05057936
242	0xbd79bc88	-0.060970813
243	0xbc579e7e	-0.013160346
244	0xbcf41225	-0.029793808
245	0x3ce5fefe	0.028075691
246	0x3d586ad4	0.052836254
247	0xbd38b153	-0.045090985
248	0xbb755f50	-0.0037440844
249	0x3d323ac5	0.04351308
250	0xbb99e42c	-0.0046963897
251	0xbcb25322	-0.021768156
252	0xbd624797	-0.055244055
253	0x3b9e2d6d	0.0048271925
254	0xbd085f95	-0.03329428
255	0x3c32fb04	0.010924105
