tryst/model_round_10.pth (torch, 194766 bytes, 19 tensors)

fc1.weight f4 [256, 14]
000000 21 58 39 3e 0a 69 eb bd 46 25 b3 3c df c2 d0 3d
       0.18100025 -0.11494644 0.02186836 0.10193419
000010 ca 1f ba 3d 70 46 d3 3c 3d bc ae 3d 77 bc 08 3e
       0.090880945 0.025790423 0.08531997 0.13353144
000020 e1 54 0c 3e 56 58 13 3d ea 09 8f 3d 44 76 78 bb
       0.13704254 0.035972916 0.06984313 -0.0037912289
000030 37 47 31 bc d3 c3 b9 bd 58 21 5c 3d 1c 5e ca 3d
       -0.010820202 -0.09070554 0.053742737 0.09881231
000040 66 c9 c9 bc fa 8a 39 be bd 06 43 3d 8e 66 cd 3c
       -0.024632167 -0.18119422 0.047613848 0.025073316
000050 4b f1 bc bd 80 c2 ec bd 78 f9 d6 bd c0 cc 69 3d
       -0.092257105 -0.115605354 -0.10496801 0.05708003
000060 3e 13 8c bc 37 de 8f bd 64 fc c7 3c 0f 0e 17 be
       -0.01709902 -0.07024806 0.024412341 -0.14751457
000070 08 22 06 be 69 2e 75 bd 4f 37 60 3d 63 7e 9e bc
       -0.1309892 -0.059858713 0.054740246 -0.019347375
000080 0d 1f 98 bd 02 2d 54 bd 5e 23 27 3d cc 4b a7 bd
       -0.074277975 -0.051800735 0.040805213 -0.08168754
000090 76 f5 e4 bc 5a 31 8e bd 32 9d 02 3e f6 d2 8b bd
       -0.027949076 -0.06943007 0.12755278 -0.06827347
0000a0 6e 84 63 3d 58 13 df bd b2 ad 1c 3e 42 2c 24 be
       0.055546217 -0.108923614 0.15300635 -0.16032508
0000b0 0c 7f 0a 3c 75 7f 26 be ed 93 35 bd 6d a2 61 bd
       0.008453142 -0.16259558 -0.044330526 -0.055086542
0000c0 fd b6 77 3d a1 ae da bd bf f7 e1 bd ed 6c ba 3d
       0.060477246 -0.10677839 -0.11033582 0.09102807
0000d0 6a 7e 12 3e c2 61 d4 3a 24 a3 ef 3d 82 9d b7 3d
       0.14306036 0.001620345 0.117010385 0.08965589
0000e0 dc 1e b8 bd 24 b6 c2 3d 05 f3 9e bc a1 c2 f1 3d
       -0.08990261 0.09507397 -0.01940299 0.11804701
0000f0 c5 8e 01 bd 56 c0 68 3d ac de cb 3d 39 33 73 3d
       -0.031630296 0.05682405 0.09954581 0.05937502
000100 57 21 f5 bd f8 8e 3f 3c 20 06 27 be ac 60 be 3d
       -0.1196925 0.011691801 -0.1631093 0.092957824
000110 c9 ad 13 bc cd 3e a5 3b 34 e3 9c 3b d2 df 3d 3c
       -0.009013602 0.005042887 0.004787827 0.011589007
000120 4f d6 12 3c b5 3d 21 be 88 45 d8 bd 79 aa d5 3d
       0.008962228 -0.15746196 -0.10560137 0.10432906
000130 3a b2 25 3c 49 ff 53 3d 7d ca 29 3d 70 a3 a0 3d
       0.010113293 0.05175713 0.041452873 0.07843673
000140 7c 7f 21 bd fd 9f 6c 3d 5e 68 cd 3d 7a 60 c8 bd
       -0.03942822 0.057769764 0.10029672 -0.097840264
000150 7a 6a f1 3d 90 06 f2 bc 76 ce c1 3d fb 55 92 bd
       0.11787887 -0.029544145 0.094632074 -0.07145306
000160 75 48 38 3d e1 c5 d1 3d 26 5f d7 3d cd 5d dc 3c
       0.044990975 0.102428205 0.10516195 0.026900196
000170 0c a5 20 bd 62 65 9f b9 ee 94 0d be 3b 30 b5 bd
       -0.0392199 -0.0003040238 -0.13826343 -0.0884709
000180 14 2a 30 bd d8 7c f7 3d e7 b7 95 3d 5e b6 b5 3d
       -0.04300888 0.12084359 0.07310467 0.088726744
000190 4a 40 7a bd 67 92 12 3e 30 3c 76 bd c0 a0 35 bc
       -0.061096467 0.1431366 -0.060115993 -0.011085689
0001a0 ea fe 9a 3d 6b c9 ab 3d 03 d0 bb bd b2 14 22 be
       0.07568152 0.08388027 -0.091705345 -0.15828207
0001b0 8e 79 15 3d 16 e6 a0 bd e5 d7 92 bc ef 63 0b be
       0.036492877 -0.078563854 -0.017925212 -0.1361234
0001c0 af 1c e5 bd 72 94 93 bd 2b c2 c1 3d 29 1b 0d 3d
       -0.111871116 -0.07206048 0.09460863 0.03444973
0001d0 c0 95 83 3d 2b 64 c5 3c 60 70 cc bd de a8 08 be
       0.06425047 0.024095615 -0.09982371 -0.13345668
0001e0 cd 08 b6 bd b0 7f 07 3c ce 93 d2 bd 1b 3b cc bd
       -0.08888397 0.008270189 -0.10282098 -0.09972211
0001f0 d5 e1 ef bd fe 99 2e 3d e7 56 bf bd 96 f1 47 bd
       -0.11712996 0.042627327 -0.09342747 -0.04881438
000200 55 5e 80 b9 ae 14 08 3d dc fb 27 bd 36 aa 69 3d
       -0.00024484345 0.033222847 -0.041011676 0.05704709
000210 b7 e3 11 be 6e 5f 89 bd 44 53 da bc 60 41 04 3d
       -0.14247023 -0.06707655 -0.026651032 0.03228891
000220 64 68 0e be 15 aa b6 bd 22 58 8f 3b aa bf 31 3e
       -0.1390701 -0.08919159 0.00437452 0.1735827
000230 0e 5a 83 3d 52 34 fd bc 4a d2 8e 3d 38 5d ea bd
       0.06413661 -0.030908737 0.06973703 -0.11443561
000240 bd c2 5f 3c 7e c1 8c 3b 45 79 25 be 93 33 0f 3d
       0.013657269 0.004295527 -0.16159542 0.034961294
000250 a9 88 af bd 3a f6 82 bc 38 93 85 bc aa 3c d4 bd
       -0.08570988 -0.01598655 -0.016305551 -0.10363133
000260 49 76 4f bb 02 dd 57 3d 1e 64 7e 3d e2 65 e2 3d
       -0.0031656197 0.052701004 0.062107198 0.11054589
000270 b4 77 bb 3d 3e 48 dc bc 7b a2 a6 bc cc 92 38 3d
       0.09153691 -0.026889917 -0.020341149 0.04506187
000280 de 95 bf bc 5a 50 9a bd b5 1d 80 3c b3 c7 b2 3d
       -0.023386892 -0.07534857 0.015639165 0.08729496
000290 08 56 fd bc f1 6c b4 3c ea dd a1 3d 8d fa 75 3e
       -0.030924812 0.022024604 0.07903655 0.24021359
0002a0 65 67 f9 bd 6e 03 07 bd f6 26 b8 bd 61 99 47 bd
       -0.12177924 -0.032962255 -0.08991806 -0.048730258
0002b0 e8 33 0f be 34 a5 de bd 8c 6b 15 3c ec 1e b8 3c
       -0.13984644 -0.10871354 0.009119879 0.022475682
0002c0 ba 65 b7 bd df 8a b2 3d 36 aa 04 3e 64 a6 c8 bd
       -0.0895495 0.08717894 0.12955555 -0.097973615
0002d0 26 d2 77 bc 7a bd 96 bc 79 55 0c bd 46 1a a7 3c
       -0.015125787 -0.018400896 -0.0342612 0.02039827
0002e0 ab 45 97 bd 06 d9 5b bc 54 8d aa 3d 11 f7 af bd
       -0.07386335 -0.013418442 0.083277375 -0.08592046
0002f0 d4 0f 83 3c e2 04 18 be ad 99 cc 3d e6 86 05 3e
       0.015998758 -0.14845613 0.09990249 0.13039741
000300 a7 6a 64 bd 1f cd 35 3d 64 b7 19 3e 91 bb cc bd
       -0.055765774 0.04438507 0.15011364 -0.09996713
000310 f2 66 fd bd ca 90 10 bd 64 4e 0f be 2f 6b a2 bd
       -0.12373151 -0.03529433 -0.13994747 -0.079306
000320 a1 e3 47 3d 68 41 45 bd 4a 5d ca bd ef e4 c6 3d
       0.04880107 -0.04815808 -0.09881075 0.09711634
000330 06 93 1a 3b cf de 1e be d0 62 9b 3c 31 36 0d 3d
       0.0023586168 -0.15514682 0.018968016 0.03447551
000340 5c e2 25 ba 55 8b cf bd 15 0d ad 3d 22 6d f6 3c
       -0.00063279807 -0.10133997 0.08449761 0.030081335
000350 7e 00 68 bd 34 72 c3 3d d4 7b f4 bd de 1f d6 3d
       -0.056641094 0.09543267 -0.11937681 0.10455297
000360 5a 5b 93 3d c2 cb c7 3d fb bc 02 bd 75 fd 01 3e
       0.07195158 0.097556606 -0.031918507 0.12694342
000370 98 40 20 3e 66 0a ac bd 96 97 19 3e 1a 1a 08 3e
       0.1564964 -0.08400421 0.14999232 0.13291207
000380 57 0c b8 bd 5c 5d 4f 3d 98 01 b3 bb 99 f9 1b bc
       -0.08986729 0.050626144 -0.0054628365 -0.009519958
000390 51 74 22 3d 11 76 f7 bc 09 3f 06 3e f7 b4 8c bd
       0.03966171 -0.030207666 0.13109984 -0.06870454
0003a0 f8 0d 8b bb 9a b7 3e be 5e 5e c2 bd a0 25 e4 bd
       -0.0042436086 -0.18624726 -0.09490655 -0.11139989
0003b0 3b c2 8d 3d 1f 38 59 bd 6e f0 9a 3d a9 df 17 be
       0.06921812 -0.053032037 0.075653896 -0.14831413
0003c0 f6 82 0f 3e 63 98 20 be d0 11 69 bd 04 d4 ed 3d
       0.14014801 -0.15683131 -0.056901753 0.116127044
0003d0 1d 8e 06 be 99 3a c0 bc 0e 58 b3 bd 0b cc ba 3c
       -0.1314015 -0.023465442 -0.087570295 0.022802373
0003e0 00 45 06 bd 3a a3 e4 bd 26 5a a3 bd 53 6a 7a bd
       -0.032780647 -0.111639455 -0.07976179 -0.061136555
0003f0 aa 52 0c bc 4f a3 06 3c 0d 8e 8f bd 33 1b d6 bd
       -0.0085646305 0.008217647 -0.07009516 -0.104544066

fc1.bias f4 [256]
000000 80 db f1 b3 8d d7 88 b6 73 d0 23 36 64 66 44 36
       -1.1262364e-07 -4.0782093e-06 2.4410226e-06 2.9265875e-06
000010 e8 af 8f b6 f4 36 f5 b3 76 8f 79 36 b9 a8 aa 37
       -4.2822103e-06 -1.14186975e-07 3.7187397e-06 2.0344147e-05
000020 c2 b1 9e 35 b4 31 88 b6 20 76 fe b3 f9 1b 52 b7
       1.1823652e-06 -4.058902e-06 -1.18492835e-07 -1.2523488e-05
000030 30 63 f1 35 b0 82 88 b5 d1 0e 8a b6 4e 26 dc b4
       1.7984767e-06 -1.0170825e-06 -4.1144453e-06 -4.1006064e-07
000040 3d e6 f4 b6 49 70 4f b6 17 45 8f 36 c4 8b 68 36
       -7.29857e-06 -3.0910762e-06 4.269775e-06 3.4652048e-06
000050 56 16 8a 36 9f 56 ba 35 92 76 9d b5 46 65 7f 35
       4.1153207e-06 1.388329e-06 -1.173192e-06 9.5142275e-07
000060 ee 63 4c 35 fe fd d9 b5 2c 7a 49 36 00 d6 c1 33
       7.614134e-07 -1.6241681e-06 3.0022447e-06 9.026189e-08
000070 58 45 8d 34 08 e1 53 b6 1d 64 9f b6 54 69 e0 b7
       2.631375e-07 -3.1572436e-06 -4.750224e-06 -2.6751928e-05
000080 6d 1e 68 b6 85 0f 4b 36 90 9f a3 34 ee 77 3b 36
       -3.4588404e-06 3.025839e-06 3.0477213e-07 2.793498e-06
000090 8a 5f 1c b6 48 c2 c2 b6 95 4d 93 36 18 97 1d 35
       -2.3301423e-06 -5.804268e-06 4.389973e-06 5.870693e-07
0000a0 3f 5e b4 35 26 e8 6c b7 f2 2a 65 b5 a8 07 17 36
       1.3438474e-06 -1.4120747e-05 -8.537164e-07 2.250521e-06
0000b0 92 51 27 36 a3 5b fb 36 c8 f3 84 b4 80 81 1c 37
       2.493242e-06 7.491051e-06 -2.476429e-07 9.328476e-06
0000c0 ae 0b 49 b6 7a 1f 13 b7 92 0d 8c 36 ac fe f4 b5
       -2.9958132e-06 -8.7692115e-06 4.173905e-06 -1.8253536e-06
0000d0 70 54 45 36 88 72 16 b6 79 cb a5 36 18 99 36 b6
       2.9404437e-06 -2.2418408e-06 4.9410705e-06 -2.7209226e-06
0000e0 b2 66 51 37 21 ca 12 37 be c6 4b b4 fa cf 54 35
       1.2481281e-05 8.74934e-06 -1.897815e-07 7.92788e-07
0000f0 21 5f 72 b5 51 6a 13 34 ef 4a 36 b5 c6 7c 7d 36
       -9.0290456e-07 1.372912e-07 -6.7909326e-07 3.7772566e-06
000100 d1 5a 07 b6 7f 53 21 b6 a2 33 cf b5 bb 13 1a b5
       -2.016943e-06 -2.403947e-06 -1.5437729e-06 -5.739818e-07
000110 ae a2 fe 36 e4 f2 30 b4 8a ab a2 35 b2 ad 00 b7
       7.5887283e-06 -1.647964e-07 1.2119865e-06 -7.669836e-06
000120 18 01 8e 35 fe d5 c2 36 8a ea 69 b6 61 04 8c b5
       1.0580143e-06 5.8065625e-06 -3.4856225e-06 -1.0432087e-06
000130 bd 07 c7 b4 0a 0e 72 b6 a3 e0 9b 36 42 42 98 b6
       -3.707227e-07 -3.6068982e-06 4.645511e-06 -4.5376664e-06
000140 50 8d 4f 36 47 7d bd b5 7c 95 15 b5 20 8b 44 36
       3.0927658e-06 -1.4118058e-06 -5.5724354e-07 2.9287257e-06
000150 1b a7 55 35 b7 07 2d b6 55 4a 2d 36 78 7e 09 36
       7.9591854e-07 -2.57835e-06 2.5822276e-06 2.0488205e-06
000160 81 24 ac 36 02 48 f8 36 f9 8e 04 b7 87 27 18 b5
       5.130249e-06 7.3993588e-06 -7.9011015e-06 -5.668193e-07
000170 e7 18 aa b6 32 9d 28 36 08 6c 57 b5 06 33 8f 35
       -5.069294e-06 2.512545e-06 -8.025095e-07 1.066918e-06
000180 9e 84 83 35 d1 fa 05 35 70 21 55 b6 38 c0 3e b5
       9.798857e-07 4.9911347e-07 -3.1758937e-06 -7.106023e-07
000190 4c a6 12 36 5c 0f 14 37 db a8 f5 b6 00 74 ca 36
       2.1852493e-06 8.825064e-06 -7.3212263e-06 6.0335733e-06
0001a0 19 b8 99 36 5b 36 7a 36 d4 ca 40 36 3c 52 f2 b5
       4.581187e-06 3.7284542e-06 2.872829e-06 -1.8054338e-06
0001b0 a4 e0 89 36 81 49 09 36 da b3 14 36 73 32 e0 b6
       4.10907e-06 2.0457376e-06 2.2158406e-06 -6.6815933e-06
0001c0 17 13 de b4 b8 1f 07 37 0f c5 9b b6 77 a4 ac b5
       -4.1364612e-07 8.054012e-06 -4.6423006e-06 -1.2862864e-06
0001d0 78 e4 59 36 e2 c1 56 36 39 f2 cc 35 59 de 90 36
       3.2468506e-06 3.200134e-06 1.526968e-06 4.317419e-06
0001e0 b8 3c 2d 37 ad 58 90 b6 d6 b1 bd 35 2a 7c 41 b5
       1.0325741e-05 -4.3018576e-06 1.4133354e-06 -7.2078785e-07
0001f0 fa e9 1e 35 4b 15 30 b7 10 6a 82 35 a0 e9 9c 35
       5.920007e-07 -1.0495375e-05 9.716623e-07 1.16909e-06
000200 c0 f9 b6 36 36 ca 01 35 f4 fd 86 36 1f 29 39 36
       5.4530974e-06 4.83505e-07 4.0230752e-06 2.7591084e-06
000210 68 e8 6f b6 f1 34 6b b6 96 2e 9d 36 70 4d 36 b5
       -3.5749053e-06 -3.5048545e-06 4.684388e-06 -6.791297e-07
000220 e6 2e 31 36 ff 3b 05 37 9c 0f 2a 36 26 60 a1 b5
       2.6402354e-06 7.941387e-06 2.534106e-06 -1.2023418e-06
000230 b8 b4 4f 34 8e 8c 37 b6 73 7e b8 b6 bd 08 f9 b5
       1.9344122e-07 -2.7350939e-06 -5.498348e-06 -1.8554489e-06
000240 44 4b 43 35 0c f7 b5 b6 cf 0d d9 36 de 33 78 b6
       7.2752687e-07 -5.4229804e-06 6.4687115e-06 -3.698507e-06
000250 76 5e 61 b6 d9 b5 3c b6 32 65 77 33 aa be 22 36
       -3.3582596e-06 -2.8120032e-06 5.7601206e-08 2.4250862e-06
000260 82 b9 28 b5 34 32 f3 36 58 84 86 36 a3 57 3b b7
       -6.2854826e-07 7.2478088e-06 4.008918e-06 -1.1166473e-05
000270 56 12 43 37 33 48 39 b7 e3 00 02 b6 02 77 b6 b5
       1.1627175e-05 -1.10436695e-05 -1.9372026e-06 -1.3594693e-06
000280 ac 9b 0c 37 aa c8 88 b5 dc 06 fa b5 7c db aa b2
       8.380895e-06 -1.019119e-06 -1.8628448e-06 -1.9890415e-08
000290 e6 d1 c0 b4 9c 1a f6 b5 00 c3 22 b6 88 9c 51 b6
       -3.5915508e-07 -1.8336173e-06 -2.4253386e-06 -3.123454e-06
0002a0 39 e2 84 36 c0 86 54 b4 df 38 b2 b7 52 4f 94 34
       3.9602423e-06 -1.979306e-07 -2.1245736e-05 2.762486e-07
0002b0 f6 3e f1 b5 dd 50 33 b7 52 0f d2 b4 9d 18 c3 36
       -1.7974223e-06 -1.0688059e-05 -3.9126695e-07 5.8143182e-06
0002c0 b1 93 74 35 7a 1f 8c b4 02 cd a8 b6 6a 4c 47 b6
       9.1112e-07 -2.6099934e-07 -5.030656e-06 -2.969779e-06
0002d0 88 aa 76 35 94 e1 ac 35 e1 bf b6 35 04 7f a7 b5
       9.1890297e-07 1.288065e-06 1.3615901e-06 -1.2479436e-06
0002e0 01 3e 98 b6 80 f8 34 33 25 0b 93 b6 33 cd 8c 36
       -4.537171e-06 4.2135525e-08 -4.382239e-06 4.1962135e-06
0002f0 09 da 42 35 e7 9a bb 35 48 74 1c b6 d1 96 de 36
       7.2587915e-07 1.3977668e-06 -2.3313496e-06 6.633673e-06
000300 d5 ca 91 b6 62 ae 68 b7 2e 8c ef 35 21 f9 8c b5
       -4.3449495e-06 -1.3868879e-05 1.7847685e-06 -1.0503319e-06
000310 f1 af 0d 35 e9 1d bd 36 a1 a4 98 b6 91 12 a9 36
       5.278262e-07 5.636121e-06 -4.5491183e-06 5.038754e-06
000320 58 ee 18 37 58 4a 54 34 fa da 1e 36 82 0c 8a 36
       9.1154e-06 1.9771085e-07 2.3671296e-06 4.1141766e-06
000330 9a 77 df 35 48 4a 8d 33 4f 59 a6 36 d8 fa 29 37
       1.6649603e-06 6.579336e-08 4.9575824e-06 1.0131589e-05
000340 62 47 af b3 57 62 23 36 96 f5 23 b6 68 fe 14 36
       -8.162057e-08 2.4346134e-06 -2.4431843e-06 2.2201802e-06
000350 76 5d 18 b6 74 0e 8c 36 4c ac 55 b6 3a 6e 16 b5
       -2.2704166e-06 4.1740077e-06 -3.1839763e-06 -5.6039755e-07
000360 5e 8d 43 36 47 63 51 36 b5 d3 ab 36 8b 48 a2 34
       2.913955e-06 3.1201214e-06 5.120843e-06 3.0227633e-07
000370 ac b7 6c b5 3e c6 0f 37 60 99 98 b6 5d 9a f8 35
       -8.818413e-07 8.569621e-06 -4.547808e-06 1.8522366e-06
000380 90 9c 01 b6 8f 96 d7 36 4c 23 20 35 12 60 57 36
       -1.931363e-06 6.4250266e-06 5.965601e-07 3.2093417e-06
000390 85 70 68 36 1b 23 44 b7 4b c3 0b b7 31 15 91 b6
       3.463619e-06 -1.1690684e-05 -8.330516e-06 -4.3238038e-06
0003a0 a1 48 21 b6 32 ef d2 35 f3 b1 3f b6 03 e4 5c b7
       -2.4033145e-06 1.5715834e-06 -2.8564798e-06 -1.316611e-05
0003b0 6b b6 15 37 58 68 85 b6 ad 2c a1 b6 25 b5 cd 36
       8.923565e-06 -3.975856e-06 -4.803375e-06 6.130564e-06
0003c0 ea c5 4a b6 31 fd 12 37 78 5e 04 b6 21 f2 05 37
       -3.0215547e-06 8.761229e-06 -1.972452e-06 7.983793e-06
0003d0 2f 59 29 35 9c 68 29 36 fd 47 b1 b6 1e 5a 72 b5
       6.3087185e-07 2.5243853e-06 -5.2833916e-06 -9.0283163e-07
0003e0 5c 18 39 b7 d4 33 66 b3 90 1b 9e b4 51 eb 64 37
       -1.1032531e-05 -5.3598185e-08 -2.9449848e-07 1.3644648e-05
0003f0 06 c6 2d 37 8e b2 12 36 aa 33 e9 35 8a 35 ae b6
       1.03577095e-05 2.1859628e-06 1.7374889e-06 -5.191837e-06

bn1.weight f4 [256]
000000 aa d7 79 3f 38 f2 78 3f ed 3b 74 3f cb 9b 83 3f
       0.975947 0.97244596 0.9540394 1.0281919
000010 4e 4b 6a 3f a8 e4 77 3f fa 3f 6a 3f ea c0 78 3f
       0.91521156 0.96833277 0.9150387 0.97169363
000020 24 fa 79 3f b4 8e 73 3f 42 de 67 3f bd e3 71 3f
       0.9764731 0.9513962 0.90573514 0.94488126
000030 ba 1c 7a 3f d1 4b 76 3f 8c 49 77 3f 80 a6 74 3f
       0.97700083 0.96209437 0.965966 0.9556656
000040 8c 26 69 3f 5e ad 6a 3f cc 1c 73 3f 77 43 6d 3f
       0.9107444 0.9167079 0.94965816 0.9268107
000050 91 ef 68 3f 21 aa 77 3f b0 32 64 3f 44 a5 6b 3f
       0.9099055 0.9674397 0.89139843 0.9204905
000060 28 5f 6d 3f ee 63 77 3f d7 7a 72 3f 0d f1 75 3f
       0.9272332 0.96636856 0.9471869 0.9607094
000070 2c e2 6e 3f 2c b0 6c 3f 3e 7d 76 3f ce 67 85 3f
       0.9331386 0.92456317 0.96284854 1.0422304
000080 a8 69 7b 3f f6 4b 70 3f 61 df 75 3f 60 b8 71 3f
       0.98208094 0.9386591 0.96043974 0.9442196
000090 dc ca 6d 3f 3d 61 6e 3f 55 2a 7e 3f 02 ee 6b 3f
       0.92887664 0.93117124 0.99283344 0.92160046
0000a0 99 d9 72 3f 68 a4 81 3f b5 bb 5e 3f f3 6b 6f 3f
       0.9486328 1.0128298 0.8700517 0.9352409
0000b0 c3 c8 6e 3f 9c af 81 3f ae 6a 72 3f 04 73 85 3f
       0.9327509 1.0131717 0.9469403 1.0425725
0000c0 af e0 6f 3f 2a 0e 80 3f 0e e6 6e 3f 4f 25 74 3f
       0.93702215 1.0004323 0.93319786 0.9536943
0000d0 92 76 7e 3f 55 a9 79 3f 3b 68 7d 3f e3 5e 7a 3f
       0.99399674 0.97524005 0.9898717 0.97801036
0000e0 23 4d 6e 3f 3d 51 75 3f 46 b0 6f 3f 7e ef 77 3f
       0.9308645 0.95827085 0.93628347 0.9684981
0000f0 62 9f 65 3f 4e 17 73 3f 57 bb 6c 3f c4 5f 66 3f
       0.89696324 0.94957435 0.9247336 0.89989877
000100 21 8f 68 3f 07 dc 72 3f d0 03 65 3f 06 35 6f 3f
       0.908434 0.94866985 0.8945894 0.9344028
000110 88 af 66 3f 9e 00 68 3f f2 b4 7a 3f 86 56 73 3f
       0.9011159 0.9062594 0.9793235 0.950539
000120 64 c6 75 3f 41 f4 81 3f d7 96 7d 3f da e9 7d 3f
       0.96005845 1.0152665 0.9905829 0.99184954
000130 99 3b 78 3f 47 db 67 3f f8 cd 62 3f d2 90 75 3f
       0.9696594 0.90568966 0.88595533 0.95924103
000140 d3 0d 70 3f f8 04 70 3f 34 fb 76 3f 48 66 69 3f
       0.93771094 0.9375758 0.96477056 0.91171694
000150 b2 29 7c 3f 44 8e 6e 3f df ca 6e 3f 2c 00 69 3f
       0.9850112 0.9318583 0.93278307 0.9101589
000160 f0 dc 72 3f de e8 77 3f 50 77 7d 3f 1c f8 7a 3f
       0.94868374 0.968397 0.9901018 0.98034835
000170 5a 11 76 3f 4b 99 6d 3f cc 0d 7d 3f 13 d7 6c 3f
       0.96120226 0.9281203 0.9884918 0.9251568
000180 2e 2f 81 3f 24 4c 71 3f ba 68 77 3f f2 47 79 3f
       1.0092523 0.94256806 0.96644175 0.97375405
000190 41 53 71 3f 33 5d 7d 3f 7e a9 83 3f 68 c0 79 3f
       0.9426766 0.98970336 1.02861 0.97559214
0001a0 68 ca 7e 3f e5 a6 6f 3f 0e 58 7d 3f d7 d2 7d 3f
       0.995276 0.93614036 0.98962486 0.9914984
0001b0 e2 bf 5c 3f 74 07 60 3f 08 36 6f 3f 28 75 77 3f
       0.8623029 0.8751137 0.9344182 0.9666314
0001c0 6b d7 77 3f f1 3b 74 3f f8 e3 79 3f 2d 67 6f 3f
       0.96813077 0.95403963 0.9761348 0.9351681
0001d0 3d 8e 76 3f 0b 58 6f 3f 4b c7 74 3f 8f be 70 3f
       0.9631079 0.9349372 0.95616597 0.9404077
0001e0 e6 54 69 3f 06 6d 6e 3f 1e c3 73 3f 18 c0 6e 3f
       0.9114517 0.93135107 0.952196 0.9326186
0001f0 cc 01 72 3f f7 e4 72 3f 2a 95 68 3f e0 ee 70 3f
       0.9453399 0.9488062 0.90852606 0.94114494
000200 d7 69 83 3f 46 3c 68 3f 67 87 68 3f 92 e9 7d 3f
       1.0266675 0.9071697 0.9083161 0.99184525
000210 7d b0 6b 3f 1a a9 80 3f 7f 65 71 3f be d7 72 3f
       0.92066175 1.0051606 0.94295496 0.94860446
000220 aa ff 71 3f bc 54 77 3f 72 23 78 3f 00 a3 75 3f
       0.9453074 0.9661367 0.96929085 0.95951843
000230 6e 2e 68 3f aa 91 78 3f ad b8 82 3f 36 b3 73 3f
       0.90695846 0.97097266 1.0212609 0.9519533
000240 46 51 6b 3f 13 8c 7b 3f 46 7b 69 3f bc 87 73 3f
       0.9192089 0.9826061 0.91203725 0.9512899
000250 24 79 72 3f d3 e1 68 3f e6 23 68 3f 68 ae 6d 3f
       0.94716096 0.9096958 0.90679777 0.9284425
000260 5d 2f 6c 3f 8a ac 76 3f 92 bc 77 3f c2 45 73 3f
       0.9225977 0.96357024 0.9677211 0.95028317
000270 a1 d6 83 3f 9c 0f 81 3f 12 75 7d 3f 78 5a 79 3f
       1.0299875 1.0082889 0.9900676 0.9740367
000280 86 64 88 3f ca d7 67 3f b4 29 74 3f 36 69 76 3f
       1.0655677 0.9056364 0.95376134 0.9625429
000290 04 51 72 3f f1 f0 7c 3f 02 ff 5a 3f e9 87 80 3f
       0.9465487 0.9880515 0.8554536 1.0041476
0002a0 42 f1 6c 3f 3f e3 72 3f 26 d1 75 3f e6 fe 72 3f
       0.9255563 0.94878 0.9602226 0.94920194
0002b0 9a 9e 79 3f 88 52 7b 3f 88 18 63 3f 95 80 82 3f
       0.9750763 0.9817281 0.88709307 1.019549
0002c0 1d 32 84 3f 36 41 70 3f 29 88 84 3f d0 ef 61 3f
       1.0327793 0.93849504 1.0354053 0.8825655
0002d0 72 c2 7b 3f 44 41 63 3f 38 81 72 3f 81 76 64 3f
       0.98343575 0.8877146 0.9472842 0.8924332
0002e0 7c 66 7c 3f b0 fe 67 3f 4d 76 79 3f 18 b7 7d 3f
       0.9859388 0.90623 0.9744614 0.99107504
0002f0 62 71 6f 3f 72 6f 6c 3f c3 d8 80 3f 16 a0 71 3f
       0.93532383 0.9235755 1.006615 0.94384897
000300 e9 4b 74 3f bb 9c 75 3f 3b 21 81 3f 6e 18 6c 3f
       0.9542833 0.95942277 1.0088266 0.92224777
000310 aa 00 85 3f 0d ba 72 3f 45 6a 80 3f b2 eb 73 3f
       1.0390828 0.9481514 1.0032431 0.9528152
000320 c4 80 83 3f ed f1 74 3f 9f 06 64 3f 66 8d 76 3f
       1.0273671 0.9568165 0.89072603 0.96309507
000330 ef ba 6a 3f 1e f8 6e 3f e8 d4 76 3f dc f2 81 3f
       0.9169149 0.93347347 0.9641862 1.015224
000340 ed ae 75 3f 2a 53 6c 3f 0d 69 7e 3f 8b d9 6a 3f
       0.9597004 0.923144 0.99379045 0.91738194
000350 86 d6 6a 3f 2f 73 7c 3f 69 c5 6f 3f 8f 21 68 3f
       0.91733587 0.98613256 0.936606 0.90676206
000360 7c 20 67 3f f6 98 77 3f 02 00 7f 3f 96 78 65 3f
       0.9028394 0.96717775 0.99609387 0.89637125
000370 a4 bd 7a 3f 93 b6 72 3f d6 f0 67 3f 00 56 62 3f
       0.9794562 0.94809836 0.9060186 0.88412476
000380 ec ab 78 3f 8a a0 67 3f d3 94 6c 3f b2 d8 64 3f
       0.9713733 0.9047934 0.9241459 0.8939315
000390 33 69 78 3f 0c aa 7d 3f 70 c8 6b 3f 24 85 71 3f
       0.9703552 0.99087596 0.9210272 0.9434378
0003a0 41 a7 63 3f 3e 22 79 3f 08 50 70 3f 5a 79 7c 3f
       0.88927084 0.97317874 0.9387212 0.9862267
0003b0 6f 99 7b 3f 02 c7 6b 3f 04 e6 78 3f a0 d9 72 3f
       0.98280996 0.92100537 0.97225976 0.9486332
0003c0 22 7e 7c 3f 01 3a 80 3f d8 63 70 3f 0c 26 77 3f
       0.98629963 1.0017701 0.9390235 0.9654243
0003d0 6d 19 73 3f 26 34 74 3f 11 60 7d 3f a6 1c 6a 3f
       0.9496067 0.9539207 0.9897471 0.91449964
0003e0 dc 16 7e 3f f8 70 79 3f a8 5e 67 3f df cc 76 3f
       0.9925363 0.97438 0.9037881 0.9640636
0003f0 fc c9 74 3f 37 c3 72 3f ff ef 67 3f e5 1e 73 3f
       0.95620704 0.94829124 0.9060058 0.94969016

bn1.bias f4 [256]
000000 18 08 c6 bc 3a 5a f3 bd 03 ed 8b 3c 96 81 33 bd
       -0.024173781 -0.11882444 0.01708079 -0.043824755
000010 4f 00 02 be 03 6d 6f bd 96 c7 c9 bd 90 14 25 bd
       -0.1269543 -0.05845357 -0.09852521 -0.040302813
000020 94 8a f1 bd 9e 4d 05 be 3d 49 38 be 3c 8e 0a be
       -0.1179401 -0.1301789 -0.17996688 -0.1353082
000030 42 0a 7d 3c 8a d3 14 bd 8f cc bb bd a8 b4 c0 bd
       0.01544434 -0.036334552 -0.09169876 -0.094094574
000040 d4 64 f5 bd 8c dd e9 bd 1f 3f d4 bd d9 05 ac bd
       -0.11982122 -0.1141921 -0.10363602 -0.08399553
000050 b2 44 c3 bd 28 3c 7e bd e8 a1 ed bd c9 87 4a bd
       -0.09534587 -0.06206909 -0.11603147 -0.0494459
000060 68 72 86 bd 16 7c 5e bd 45 ef 1d be 82 c6 d3 bd
       -0.0656479 -0.054317556 -0.15423305 -0.10340597
000070 81 ba 9e bd fc 82 0c be 94 70 6f bb 7b 8f 97 bd
       -0.077504165 -0.13721842 -0.0036535608 -0.074004136
000080 93 e2 0f be 30 7f b7 bd 07 71 01 bc 34 c5 82 bd
       -0.14051275 -0.08959806 -0.007900483 -0.0638527
000090 b6 e7 ec bd f4 14 20 bd 9c f9 45 be 8b bc 04 be
       -0.11567633 -0.039082482 -0.193335 -0.12962548
0000a0 35 08 e1 bd e5 8e 81 bd a8 42 59 bd bc 65 8f bd
       -0.109878935 -0.06326083 -0.053042084 -0.07001826
0000b0 87 b1 2d bd 72 9d 80 be 48 ae d1 bd 1c 64 c6 bc
       -0.04240563 -0.2512012 -0.1023832 -0.024217658
0000c0 b8 bf af bd 3d fa 50 bd 01 a4 9c bd 16 ee 0e be
       -0.08581489 -0.051019896 -0.07648469 -0.1395801
0000d0 36 90 cd bd d2 3f 16 bd cb c9 49 be 0b 6d aa bc
       -0.10037272 -0.036681958 -0.19705884 -0.020803949
0000e0 b1 f5 a0 bd ec a7 c7 bd 3a c9 ce bd 57 f8 9b bb
       -0.07859362 -0.097488254 -0.10096975 -0.004759829
0000f0 e5 e3 0b be ed ca 21 be f1 b1 db bd ad 45 0f be
       -0.13661154 -0.15800066 -0.10727299 -0.13991423
000100 80 40 9c bd 97 5f a4 bd 86 05 2f be a3 04 f5 bd
       -0.0762949 -0.08026045 -0.17091951 -0.11963775
000110 99 3f be bd 2e d2 74 bd a9 f8 1c bd 1e 1c fd bd
       -0.09289474 -0.059770755 -0.03832308 -0.123588786
000120 f2 03 e8 bd 43 eb 8a bd 69 1d 04 be cf 52 a0 bd
       -0.113288775 -0.06783154 -0.12901844 -0.078282945
000130 42 a6 de bc 38 b6 92 bd 06 31 bf bd 22 9c 9b bd
       -0.027178887 -0.07163662 -0.09335522 -0.07598139
000140 e8 d8 a1 bd a4 42 9e bd 4c 1b 8a bd b4 8d cb bd
       -0.079027 -0.077275544 -0.06743488 -0.09939137
000150 a8 63 e4 bd 0d 31 20 be 3e 8a a1 bd a7 5c 7c bd
       -0.111518204 -0.15643711 -0.07887696 -0.061611798
000160 70 83 b8 bd 0d 30 8b 3a 96 68 de bd cd bf c1 bd
       -0.09009445 0.0010619179 -0.10859792 -0.09460411
000170 71 eb 7b bd 2e 87 9a bd a6 18 97 bd ba b3 c5 bd
       -0.06150383 -0.07545315 -0.07377748 -0.09653421
000180 e7 be 5c bd 8c 89 01 be 8e 48 c7 bc 3a 22 31 bd
       -0.053892996 -0.12650126 -0.024326589 -0.04324553
000190 6b 48 d6 bd ef 8c bf bd fb 3d 3a bd 60 7b e1 bd
       -0.104630314 -0.09353053 -0.045469265 -0.1100986
0001a0 ea 00 24 be c7 66 f8 bc b0 9d 70 b9 12 4a 34 bd
       -0.16015974 -0.030322446 -0.00022946927 -0.04401595
0001b0 56 be f9 bd 44 7f b0 bd 99 56 b1 bd e9 80 82 bd
       -0.12194507 -0.08618024 -0.08659095 -0.06372244
0001c0 7a 45 91 bd 45 79 af bd d0 df 83 bd 69 95 88 bd
       -0.0709333 -0.08568052 -0.06439173 -0.06669123
0001d0 82 1b d1 bd fa 4e d4 bd 15 f5 59 bd 15 c8 97 bd
       -0.10210325 -0.10366626 -0.053212244 -0.074112095
0001e0 2c c0 16 be 56 c5 f2 bd 46 e1 1d be e0 83 b6 bd
       -0.14721745 -0.11854045 -0.15417966 -0.08911872
0001f0 b1 83 09 be 7c d5 90 bd 02 b6 00 be a7 e4 ad bc
       -0.13429143 -0.07071969 -0.1256943 -0.021227194
000200 09 55 f4 bc f7 f7 f5 bd 2c a7 c4 bd 6c 72 0b be
       -0.029825704 -0.12010186 -0.09602198 -0.13617867
000210 af dc a7 bd 68 f8 18 bd a4 d0 09 be 58 6b a6 bd
       -0.08196389 -0.037346274 -0.13458496 -0.08125943
000220 f0 a7 d0 bd 81 c3 de bd 70 79 6e bd 28 be 12 bd
       -0.101882815 -0.10877133 -0.05822128 -0.03582588
000230 78 23 88 bd c0 6d 3b be 64 34 af bd 4d 19 f4 bd
       -0.0664739 -0.18303585 -0.085549146 -0.11918888
000240 8e dc ea bd c8 b3 b7 bd 16 74 df bd ab 59 24 be
       -0.11467849 -0.089698374 -0.109108135 -0.1604983
000250 ef 55 fe bd fc 02 ef bd fb 4c 14 be 12 fa 50 be
       -0.12418734 -0.11670491 -0.1448249 -0.20407894
000260 63 8b 9b bd b2 44 42 bd ac f2 03 bd 2f 87 3a bd
       -0.07594945 -0.047428794 -0.03221385 -0.045539077
000270 a2 97 95 bd 76 a0 38 bd 57 ca b9 bd c1 d2 d5 bd
       -0.07304312 -0.045074902 -0.090717964 -0.10440589
000280 14 48 e8 bd 4e ae a1 bd 47 dd b0 bc a6 ee 8d be
       -0.11341873 -0.07894574 -0.021589888 -0.27721137
000290 a8 e2 0c be 8a cc 18 bd b6 d3 7e bd b3 63 b0 bd
       -0.13758337 -0.03730444 -0.062213622 -0.08612766
0002a0 61 12 98 bd 5a 7d 95 bd 74 85 f7 bb de 9f ad bd
       -0.074253805 -0.072992995 -0.0075537506 -0.08477758
0002b0 03 36 9f bd b3 ac 40 bd 73 03 bc bd 99 1d 2c bd
       -0.07773974 -0.0470397 -0.091803454 -0.042020414
0002c0 49 88 8c bd 46 52 07 bb 55 a2 16 be 21 67 8b bd
       -0.06861932 -0.0020648404 -0.14710362 -0.0680678
0002d0 e7 8d ad bd e9 0f af bd 40 79 16 be 3a 26 37 be
       -0.08474331 -0.085479565 -0.1469469 -0.17885676
0002e0 3a bf 8c bd 0e 6c 05 be ba 49 cf bc ce a0 ae bd
       -0.06872411 -0.13029501 -0.02530371 -0.08526765
0002f0 aa 5f 5f bd 72 0a cf bd 53 e7 68 bd 56 97 af bd
       -0.05453459 -0.10109414 -0.056861233 -0.08573787
000300 2c 47 65 bd 28 33 14 be 4c 40 95 bd c4 aa 86 bd
       -0.055976078 -0.1447264 -0.07287654 -0.0657554
000310 12 8c 9c bc ea 9c f6 bc a4 58 04 bd b3 7d f5 bc
       -0.01910976 -0.03010412 -0.032311097 -0.029967165
000320 1e 2d 2a be f9 e8 38 3b d8 23 43 bd 1b 7d 1b be
       -0.16618773 0.0028215034 -0.047641605 -0.15184443
000330 a4 2c d9 bd 1d 02 88 bd 6d cc c4 bd a0 d1 2a be
       -0.10604218 -0.06641028 -0.096093036 -0.16681528
000340 88 31 d2 bd 05 e0 ba bd 88 85 d4 bd d6 28 39 bd
       -0.102633536 -0.091247596 -0.103770316 -0.04520496
000350 9a 78 58 bd 83 b1 2b be 94 a7 8a bd e4 d4 85 bd
       -0.05284939 -0.16766934 -0.06770244 -0.06534746
000360 ac c2 5e bd 4d 57 2c bd 9a 49 14 be b1 b9 f0 bd
       -0.054384872 -0.042075444 -0.14481202 -0.11754168
000370 35 9a a5 bc 68 30 49 bd 65 a3 d4 bd 1c 29 f3 bd
       -0.020215133 -0.04911843 -0.103827275 -0.11873075
000380 dc aa 26 be 9a 6e 51 bd 4e 79 7d bd 8f 38 f9 bd
       -0.16276115 -0.05113087 -0.061883263 -0.12168991
000390 f7 fe 0b be d3 65 37 bd 02 7f b8 bd 5e 7a ad bd
       -0.1367148 -0.04477484 -0.090086 -0.08470605
0003a0 fe a4 ad bd 70 f3 71 bc 43 a7 8a bd 89 d9 11 bd
       -0.084787354 -0.014767513 -0.06770184 -0.03560785
0003b0 2a de c1 bd 8e c9 3b bd 3b 50 bd bd 65 49 9f bd
       -0.094662026 -0.045846514 -0.09243818 -0.07777671
0003c0 67 a3 b4 bd 1b c5 49 bd e8 36 f8 bc 99 ac 00 be
       -0.08820229 -0.04926024 -0.030299619 -0.12565841
0003d0 5c 0c bc bd ac 54 15 be c8 7d c9 bd db cb d9 bd
       -0.09182045 -0.14583081 -0.09838444 -0.106345855
0003e0 77 89 c3 bd a0 14 b7 bc 22 8b 7e bd 6c d2 ae bd
       -0.09547704 -0.022348702 -0.062144406 -0.085362285
0003f0 f6 9a f3 bd 13 ad b3 bd e0 09 01 bc 20 87 e5 bd
       -0.11894791 -0.08773246 -0.00787589 -0.11207414

bn1.running_mean f4 [256]
000000 41 3e ea 3c 0f 73 0f bd fe 51 7f bc f6 e0 4a 3c
       0.028594138 -0.035021838 -0.015583513 0.012382736
000010 3c 6b a2 bc d5 cf 77 bc f4 2a 10 3d 1c 8a c0 bc
       -0.019826524 -0.015125235 0.035197213 -0.023503356
000020 4c a5 28 3d 30 d9 06 3d 97 81 81 3c 65 9a a0 bc
       0.041173264 0.03292197 0.015808864 -0.019604871
000030 8a 86 43 bc 1d f2 f2 bc 44 07 ed bb c8 0d 1a bd
       -0.011933932 -0.029656464 -0.007233532 -0.0376108
000040 6b 6b 9b bc df 78 65 3d ac df 09 3a 41 2c 26 3d
       -0.01897212 0.056023475 0.0005259465 0.040569548
000050 60 a1 c9 3c a1 8f 30 bc 48 8f 4e bc 04 f5 18 3d
       0.024613082 -0.010776431 -0.012607403 0.03734304
000060 ea 20 26 3d 41 0b e6 3a dc cb a0 3b fc 29 f3 3b
       0.040558733 0.0017550961 0.0049071144 0.0074207764
000070 ec 4c c0 3b eb 26 2b 3d 3e 5c b1 3c 50 24 05 3b
       0.005868545 0.041785162 0.02165043 0.0020315833
000080 38 97 c0 3b 22 5d 13 bc 7c f4 06 3d 68 57 08 bc
       0.0058774017 -0.008994373 0.032948002 -0.0083216205
000090 fe 34 89 bc 43 cf 96 3b fc 56 2d bc e5 73 40 bd
       -0.016748901 0.0046023442 -0.010579821 -0.046985526
0000a0 37 a6 da bc 36 af ff 3c c0 6b a3 b9 2f 0f dd bc
       -0.026690586 0.031211477 -0.00031170063 -0.02698478
0000b0 5c f5 16 bd 44 10 48 bd 40 d6 fd bc 00 dd 8a b9
       -0.036855087 -0.048843637 -0.030985951 -0.0002648607
0000c0 97 c7 43 3d a1 26 77 3d be 2a a7 3c 0e 06 7a 3c
       0.047797766 0.060339574 0.020406123 0.015260233
0000d0 86 f1 1a 3c bc fe 26 3d a8 fa c5 3b 9c b7 ae bc
       0.009456998 0.040770277 0.0060418434 -0.021327786
0000e0 63 1c 62 bd 8d a4 07 bd 17 1e 1a 3d d8 f5 0d bc
       -0.055202853 -0.033115912 0.037626352 -0.008664571
0000f0 21 02 3b bd 31 5a 37 3d af 1b 45 bd 26 26 25 bd
       -0.045656327 0.044763748 -0.048122104 -0.040319584
000100 f8 f3 54 bb 46 c5 d6 3b 54 19 82 bb 4a 92 90 3d
       -0.003249405 0.0065542785 -0.0039703045 0.070591524
000110 02 b6 41 bc 3e 3e 9b bc 83 41 d6 3c ad 97 37 bd
       -0.011823179 -0.018950578 0.026154285 -0.044822384
000120 34 de 4e bb d9 bd ba 3c 08 7b 22 bc d5 d9 79 3c
       -0.003156555 0.022795605 -0.009917028 0.015249689
000130 dc 1a 9d bc 5c 6f 06 bd 0d d4 90 3c 89 fd 1c bc
       -0.019177847 -0.032821044 0.017679239 -0.009581932
000140 98 84 6a 3c f6 91 41 3d c9 b2 e7 bc a8 60 29 bd
       0.014313839 0.04725834 -0.028283494 -0.041351944
000150 5a 56 49 3d 74 12 82 3c d2 ac 89 3b ac 7b 71 ba
       0.049154617 0.01587794 0.00420151 -0.0009211849
000160 f3 8e 1f bd 74 d8 9c bb 1e dc e3 bb 43 e9 87 3b
       -0.038954686 -0.0047865454 -0.0069537302 0.00414768
000170 f3 34 9a 3d 9f 94 86 bc f8 93 c2 3c c3 78 4f bb
       0.075296305 -0.01642829 0.023752198 -0.0031657673
000180 22 80 84 bc 1a e0 bd bc c6 2a 70 3c c6 15 be 3c
       -0.01617438 -0.023178149 0.0146586355 0.023203742
000190 5a 59 ed bc 4d 49 05 bd 9d 90 ab 3c 00 cb 08 3c
       -0.02897327 -0.03254061 0.02094298 0.00834918
0001a0 ac 5d 72 bb 44 cf 68 3a 26 f2 7a bc c7 27 12 bc
       -0.0036982102 0.00088809826 -0.015316522 -0.0089206165
0001b0 11 7a a6 bc ce 6d ac bc 99 82 d1 bc 54 74 1d bc
       -0.020321878 -0.021048453 -0.02557497 -0.009610254
0001c0 c2 fa bf bc ea b9 17 bc f0 93 3f bd 37 5c f5 bc
       -0.023435 -0.009260634 -0.046771944 -0.029951198
0001d0 6e f2 c6 3c 40 f3 78 3c 60 20 49 3c 6a 0b 54 bd
       0.024285521 0.015194714 0.012275785 -0.051768698
0001e0 c3 fb 16 3d 1e b5 6c bb c7 54 82 bc a3 af 2e bd
       0.036861192 -0.0036118696 -0.015909566 -0.04264797
0001f0 65 dc 1c 3d ea 7b bc 3b a6 84 42 bd 3c 5b b5 bc
       0.038296122 0.0057520764 -0.047489785 -0.02213823
000200 38 d1 d7 3c 8b 66 17 bd ce b1 bf 3c b2 d9 21 bc
       0.02634488 -0.036963027 0.023400214 -0.009878563
000210 8f a8 45 bd c6 38 08 bc 2b 7c b4 3b 67 81 4b 3d
       -0.048256453 -0.008314317 0.005507966 0.049683955
000220 c6 ad f7 bc 0d 70 d7 bb 74 2b 2a 3d 3d a6 7d bd
       -0.030234229 -0.006574637 0.041545346 -0.061926115
000230 f9 c7 03 bd 7e 75 c3 bc 0a c2 a1 3c 74 2a 37 bd
       -0.03217313 -0.023859736 0.019745845 -0.04471822
000240 e1 7b 64 bc b5 55 ba 3c 38 92 88 3b 0d 6d 5a 3c
       -0.013945551 0.022745946 0.0041678213 0.013331664
000250 42 20 df 3c a3 d8 6f 3b 28 2b 99 bc 00 0b 25 bc
       0.027237061 0.0036597631 -0.018697336 -0.010073423
000260 54 e1 d1 bc 5e 9e 14 bc 8c ca 2d bb 88 c0 0e 3d
       -0.02562014 -0.009070961 -0.0026518432 0.03485158
000270 3e 80 35 3c 60 f2 df bc 07 5c 6d bd 83 2d c7 bc
       0.011077939 -0.027337253 -0.057949092 -0.024313694
000280 97 89 a2 bc ea 1c 8f 3c 44 83 00 3b 44 fc f7 bb
       -0.019840999 0.017469842 0.001960949 -0.007567914
000290 60 86 df ba 41 5e 44 3d d2 ef b9 3c b1 fd 74 3c
       -0.0017053597 0.04794145 0.022697363 0.014953063
0002a0 ec c9 30 bd c2 02 25 3d a6 67 0d 3d 2c 1a 12 3d
       -0.043161318 0.040285833 0.034522675 0.03566949
0002b0 c4 cd 3f bc be 5f 0e bd 3d ed 05 3c af de a6 bc
       -0.011706773 -0.034759276 0.008174238 -0.020369856
0002c0 c5 ca 82 bd 8c a2 2b bc e4 3f 3f bd ca 19 c3 bc
       -0.063863315 -0.010475766 -0.04669179 -0.023816008
0002d0 25 f2 02 bd d9 23 10 3d 4e 7d 4a bd 53 2d 82 bc
       -0.03196921 0.035190437 -0.049435906 -0.015890753
0002e0 13 85 9b 3c e8 6a 17 3d 6a 7f 70 bd ac ee 7c bb
       0.018984353 0.036967188 -0.05871526 -0.0038594408
0002f0 d0 83 e4 3c 9e 31 64 bc c1 8c 07 3d 70 0a bf bc
       0.027894884 -0.013927845 0.033093218 -0.023320407
000300 fb b9 af 3c 70 5c b4 ba d8 34 78 bc 08 62 02 3d
       0.021450987 -0.0013760459 -0.015149318 0.03183177
000310 be cf 5e 3c a5 a9 db 3c 70 b2 9d bb 94 49 06 3c
       0.013599334 0.026814291 -0.004812531 0.008196253
000320 1c 7b be 3c 8b 45 11 bc 79 8e 11 bc 18 20 09 3d
       0.023252062 -0.008866678 -0.008884066 0.033477873
000330 4c 84 0d 3d e4 83 1e bd 2f 24 8c 3c c6 e5 ff bc
       0.034549996 -0.0387 0.017107097 -0.031237494
000340 b4 d9 17 3b ce 12 e4 bc b3 33 ef 3c 32 d9 15 bd
       0.0023170533 -0.027840998 0.029199457 -0.036584087
000350 c8 dc 47 3c 47 09 6d 3b 4e d2 90 3d a0 c1 8a 3a
       0.012198634 0.003616886 0.070713624 0.0010586269
000360 97 80 c3 3c 75 e6 06 3d c9 34 57 bc 8c ec 1b bd
       0.023865027 0.032934625 -0.013135144 -0.038067386
000370 27 8c 9f 3b 14 99 02 3d 9f 0f c6 3c 53 8c 20 3d
       0.0048690024 0.031884268 0.02417737 0.039196324
000380 08 a1 e4 3c 60 5c 5c 3d 3e 39 cc 3c d8 52 c3 3c
       0.027908817 0.053799033 0.024929639 0.023843214
000390 a9 b7 e4 3b bc ec c1 3c d4 66 ad bc a7 8e bd bc
       0.006979902 0.023672454 -0.021167196 -0.023139311
0003a0 d4 b2 86 bc 18 62 4f bc cf f4 12 3d 0e 54 ca 3c
       -0.016442694 -0.012657665 0.035878 0.024698284
0003b0 15 0a 1b 3d 66 82 af bc a6 26 01 3c 2e 8d 80 bb
       0.03785141 -0.021424484 0.00788275 -0.00392308
0003c0 08 7d 17 3d 5d b4 48 3d de 44 99 3b 6b ca 43 bd
       0.036984473 0.049000133 0.004677399 -0.047800463
0003d0 2c 0a b7 ba 45 91 cb bb 50 bd 75 3b a8 7c 88 3c
       -0.0013964823 -0.006212386 0.0037496872 0.016661003
0003e0 74 79 6e bc 74 dc d7 bb 56 4f 81 3c f0 d2 8b 3c
       -0.014555324 -0.0065875594 0.0157849 0.017068356
0003f0 04 58 d2 bc 0c c2 1f 3d 7a 12 9e bd 2c aa 3a bd
       -0.025676735 0.039003417 -0.07718368 -0.045572445

bn1.running_var f4 [256]
000000 31 7a d9 3d 43 ba e7 3d 4c a0 bf 3d a0 ad 1b 3e
       0.10619009 0.113148235 0.09356746 0.15202951
000010 c3 81 a0 3d c6 5f d1 3d a6 fe c0 3d 9c 8c ba 3d
       0.0783725 0.102233455 0.0942357 0.0910885
000020 c9 c5 fb 3d 88 3b cf 3d 52 99 a5 3d e8 e0 de 3d
       0.12293584 0.101187766 0.08085884 0.10882741
000030 c2 96 ef 3d 3a 4c 81 3e e0 e0 f6 3d 48 16 dc 3d
       0.11698677 0.2525347 0.1205461 0.10746437
000040 a0 8e ac 3d 8f ff 16 3e 13 db 92 3d 46 52 cd 3d
       0.08425641 0.14745925 0.07170691 0.10025458
000050 d9 2d 0f 3e c6 52 f2 3d 77 e7 b3 3d 50 06 09 3e
       0.13982333 0.11832194 0.08784383 0.13381314
000060 b1 6f d8 3d 51 e6 c7 3d 2f cc 96 3d 60 01 c0 3d
       0.105681784 0.09760726 0.07363164 0.09375262
000070 61 cd 12 3e d9 8d fd 3d 7f 5c d6 3d 9c 37 9c 3d
       0.14336158 0.12380571 0.10466861 0.07627794
000080 fe 4d ac 3d 15 4f 8c 3d 30 b3 75 3e 69 96 db 3d
       0.08413313 0.06851021 0.23994136 0.10722048
000090 42 1d c8 3d a0 60 ba 3d 6c e5 d0 3d 02 b4 5c 3e
       0.097712055 0.09100461 0.10200009 0.21553043
0000a0 b4 70 f4 3d 5a a1 de 3d bf 34 f9 3d ba 24 86 3d
       0.11935559 0.10870619 0.12168264 0.06549974
0000b0 78 4d 0e 3e 20 a2 fa 3d 8a 5d b9 3d 72 a5 00 3e
       0.1389674 0.12237954 0.09051044 0.12563112
0000c0 ef 37 db 3d 03 44 63 3e bd 04 f2 3d b4 49 ae 3d
       0.10704028 0.22193913 0.1181731 0.085101515
0000d0 f0 99 c2 3d 12 20 17 3e dc 20 99 3d 3f ce cf 3d
       0.095020175 0.14758328 0.074769706 0.1014676
0000e0 7e 3b 35 3e 83 31 3e 3e 55 09 e3 3d 3e a8 8f 3d
       0.17698476 0.18573575 0.11085764 0.070145115
0000f0 58 ec 0f 3e 9d 91 73 3d 44 d4 22 3e 46 b2 ed 3d
       0.14055002 0.05946504 0.15901285 0.116062686
000100 c2 d5 7f 3d 3b a5 dd 3d d0 45 a9 3d ea 54 ad 3d
       0.062459715 0.10822531 0.08265269 0.08463462
000110 85 02 cc 3d 78 f5 ad 3d 1f 9f f8 3d 63 3a 74 3d
       0.09961418 0.08494085 0.12139725 0.059625994
000120 49 a5 fd 3d bb e4 d0 3d 7c 99 df 3d a1 1a 78 3e
       0.12385041 0.10199877 0.10917947 0.24228908
000130 3d 19 1a 3e 4d 3f 0b 3e 7f cc b5 3d f1 6c 20 3e
       0.1504869 0.13598366 0.08876895 0.15666558
000140 a3 b7 23 3e cc 76 f4 3d fc f6 e9 3d ae 61 8e 3d
       0.1598802 0.11936721 0.11424062 0.06952225
000150 91 c9 a1 3d a4 d3 ea 3d 0e a8 1d 3e 22 8b 91 3d
       0.07899774 0.114661485 0.15396139 0.071066156
000160 c2 3d b9 3d 0a ab a2 3d 78 3e a3 3d c4 28 b7 3d
       0.090449825 0.07942779 0.07970899 0.08943322
000170 bc 3d 22 3e 57 74 c0 3d 8a a8 41 3e 3e dd de 3d
       0.15843862 0.0939719 0.18911949 0.10882042
000180 eb f5 cf 3d 70 ae 0c 3e 6a f1 da 3d a9 d6 21 3e
       0.10154327 0.13738418 0.10690577 0.15804543
000190 07 ca d3 3d 94 df 1b 3e 7e 4e 12 3e f5 3f 02 3e
       0.10341268 0.15222007 0.14287755 0.1271971
0001a0 8a 5b ae 3d 5c 58 52 3d 70 f1 b5 3d f4 9e 76 3e
       0.085135534 0.051353797 0.08883941 0.24084073
0001b0 f3 bc 13 3e 59 71 72 3d 4f fa 04 3e a8 5f 01 3e
       0.14427547 0.059190128 0.1298611 0.12634146
0001c0 70 c9 30 3e 0c e3 f2 3d d1 82 a3 3d ff 64 e9 3d
       0.17264342 0.11859712 0.079839356 0.113962166
0001d0 ba 13 01 3e 3a 22 a5 3d 0f 04 4a 3e a4 61 f6 3d
       0.12605181 0.08063169 0.1972811 0.12030342
0001e0 76 77 ac 3d 42 96 bc 3d dc 3a b5 3d b6 2c aa 3d
       0.08421223 0.09208347 0.08849117 0.08309309
0001f0 ae 1f d1 3d e4 49 b0 3d fb b6 c1 3d 48 f1 d3 3d
       0.102111205 0.086078435 0.09458729 0.10348755
000200 fa fe 77 3d 00 e6 10 3e 06 f5 91 3d c0 55 3b 3e
       0.0605459 0.14150238 0.07126813 0.1829443
000210 57 02 d7 3d 52 03 fe 3d e6 2c a7 3d 64 a7 ef 3d
       0.10498493 0.12402977 0.081628606 0.11701849
000220 51 ce d4 3d 56 ae 8d 3d c3 27 16 3e 7a fe f5 3d
       0.10390914 0.069180176 0.14663605 0.12011428
000230 fd f1 17 3e 77 1a 99 3d 3e 78 38 3e ec 24 0d 3e
       0.14838405 0.07475751 0.18014619 0.13783616
000240 83 56 25 3e 7e 6f d4 3d 8a 22 8b 3d 91 94 3b 3e
       0.16146283 0.10372828 0.06793697 0.18318392
000250 a1 42 50 3e 34 70 02 3e b4 42 17 3e 6c 7b ab 3d
       0.20337917 0.12738115 0.14771539 0.0837315
000260 f6 2f a0 3d 36 8d 61 3e 30 81 dd 3d e2 10 b7 3d
       0.07821648 0.22026524 0.10815656 0.08938767
000270 23 79 d1 3d be e1 70 3d 71 49 07 3e e3 8e 3b 3e
       0.10228183 0.058809035 0.1321161 0.18316226
000280 a0 61 e9 3d d9 1e 18 3e 1a be 8e 3d b8 60 9f 3d
       0.113955736 0.14855517 0.06969853 0.077821195
000290 43 af 77 3d 1d df 25 3e b3 1c f2 3d e7 8e 35 3e
       0.060469877 0.16198392 0.1182188 0.17730294
0002a0 94 c9 0c 3e 5d c1 24 3e f8 13 33 3e 7b d0 3e 3e
       0.13748771 0.16089387 0.17488086 0.18634216
0002b0 bd bf 35 3e 72 21 e4 3d da 3a af 3d 86 e1 db 3d
       0.17748924 0.11139192 0.08556147 0.107363746
0002c0 eb e0 e9 3d a9 c1 f4 3d 7f b8 88 3d 73 a4 ee 3d
       0.11419853 0.11951 0.06675815 0.1165246
0002d0 70 31 dd 3d 0c 6c 02 3e 7f 86 a1 3d 0b 1c c3 3d
       0.10800445 0.12736529 0.07886981 0.09526833
0002e0 9f b5 10 3e c0 56 2d 3e 67 80 13 3e b2 33 ac 3d
       0.14131783 0.16927624 0.1440445 0.084082976
0002f0 cf ae f9 3d 2f 87 c2 3d 34 09 f1 3d 42 e8 bc 3d
       0.12191545 0.094984405 0.117693335 0.09223987
000300 e7 31 c7 3d 55 c6 48 3e 85 27 a1 3d a4 ca 34 3e
       0.09726315 0.19606908 0.07868866 0.17655426
000310 06 72 3e 3e e4 d0 00 3e dd f7 18 3e ff ff 31 3d
       0.18598184 0.12579685 0.14938302 0.043457028
000320 36 0e b0 3d 66 65 05 3e aa 31 fc 3d 96 95 77 3d
       0.085964605 0.13026962 0.1231416 0.06044539
000330 d3 d9 b7 3e 3e 0e 1c 3e 2d fb b4 3d 2c 1f bf 3d
       0.35908374 0.15239808 0.088369705 0.093321174
000340 95 9a 62 3e 38 14 b8 3d 26 2b 0e 3e 21 2a d8 3d
       0.22129281 0.089882314 0.13883647 0.105549105
000350 e9 7f 9b 3d 4c 45 f6 3d d3 c2 11 3e fe 29 0f 3e
       0.07592756 0.12024936 0.14234476 0.13980862
000360 b2 ce d2 3d 07 04 d7 3d 1a 4c c4 3d 0c 61 05 3e
       0.1029333 0.10498815 0.09584828 0.13025302
000370 06 f6 f0 3d 74 50 5b 3d 42 f9 26 3e eb ec 1a 3e
       0.11765675 0.053543523 0.16306022 0.1512944
000380 0c f1 47 3e fa 77 08 3e 0b 57 da 3d f7 56 ed 3d
       0.19525546 0.13327017 0.106611334 0.11588853
000390 de 9c af 3d b0 4a cb 3d b2 5c b3 3d d8 2f 10 3e
       0.08574842 0.09926355 0.087579146 0.14080751
0003a0 7a 4b 0b 3e 74 ff dc 3d a0 b6 10 3e 32 93 c2 3d
       0.13603011 0.10790911 0.14132166 0.095007315
0003b0 c0 67 f2 3d 30 41 da 3d 59 ea ab 3d d0 1e ed 3d
       0.11836195 0.10656965 0.08394308 0.11578143
0003c0 ab ab db 3d e6 3e 91 3e 0e f2 0e 3e 9b 48 ac 3d
       0.107261024 0.283683 0.13959524 0.08412286
0003d0 0a 8d 03 3e fd e6 cf 3d 51 1f 0e 3e e2 d3 34 3e
       0.12846771 0.101514794 0.13879134 0.17658952
0003e0 00 a6 b6 3d 63 9c ad 3d 0e 3b f7 3d 30 0e 51 3e
       0.08918381 0.08477094 0.12071811 0.20415568
0003f0 39 09 2c 3e 23 d0 f6 3d 51 81 3a 3e 18 88 a0 3d
       0.16800393 0.12051418 0.18213393 0.07838458

fc2.weight f4 [128, 256]
000000 dc e2 16 bd 37 bb d8 3d f7 95 33 3b ff 2c 82 3d
       -0.036837444 0.105825834 0.0027402618 0.063562386
000010 42 22 75 bc e2 ad 5f bc 77 f7 5c bc 16 c9 e8 bc
       -0.014961781 -0.013652297 -0.013486735 -0.028416198
000020 13 97 22 bc c0 b6 23 bd d6 f3 93 bd 97 96 24 bd
       -0.009923714 -0.039969206 -0.072242424 -0.040182676
000030 87 d3 2e 3d c8 c5 32 3d 47 49 2f 3c 6f 91 8b bc
       0.042682197 0.04364565 0.010698623 -0.017037122
000040 de a6 8c 3c be 8b 3e 3d 92 67 98 bd 11 87 14 3d
       0.017169412 0.046519987 -0.074416295 0.036261622
000050 8c 06 53 3d 29 26 8b bd 57 2b f7 3c ad bd e5 3c
       0.051519915 -0.06794388 0.030172033 0.028044546
000060 da de 45 3d 1b 6d c5 3c 0e 4b 7e 3c 6d 0e 6d 3d
       0.04830823 0.024099877 0.015520824 0.057875086
000070 a9 98 cd 3c 36 a2 65 bd 32 9a 94 3c 58 af 82 bc
       0.025097208 -0.0560629 0.018139932 -0.015952751
000080 a8 4f 6c bd aa 61 8e bd d0 a2 03 bd f2 2f 28 bd
       -0.057693154 -0.06952222 -0.032137692 -0.04106135
000090 31 fe 9a bd f8 44 78 3d 5f f8 95 3c 73 3f 63 3d
       -0.075680144 0.06061265 0.01830691 0.05548043
0000a0 42 4f 3e 3c a9 b5 19 3d 80 5d 36 bd dd 5f 80 bd
       0.011615576 0.03752676 -0.044522762 -0.062682845
0000b0 0a 52 95 3c 6f 59 e7 bc 46 23 f1 3c 75 d1 ab bc
       0.018227596 -0.028240887 0.029435765 -0.0209739
0000c0 77 4a 85 bd c2 54 3a bd 0b 94 57 3d f7 a8 21 3d
       -0.06508344 -0.045490988 0.05263142 0.039467778
0000d0 bb 67 f3 3a 81 59 0e 3d de 69 a9 3c e1 cd 9c 3c
       0.0018570343 0.034753326 0.020680364 0.01914114
0000e0 49 b2 2e 3c 11 fd 04 bd 01 7f 54 3c 46 32 ce bc
       0.010662624 -0.032467905 0.012969733 -0.025170457
0000f0 09 cd 71 3d 9f d8 c8 bc 6e 14 ae 3b de 73 03 3c
       0.059033427 -0.024517355 0.005312494 0.00802323
000100 9b e5 5c bd 6b 1a a3 3b f6 1c e5 bc b8 1b b7 bc
       -0.053929906 0.0049775145 -0.027967911 -0.022352085
000110 4d 9b 25 ba 43 f0 fe 3c d4 63 70 3d 47 81 31 3c
       -0.0006317392 0.031120425 0.058688954 0.010834045
000120 d0 cc 19 ba 48 6d 3a 3d ca 8b 92 bc fe e1 3c 3d
       -0.0005867006 0.045514375 -0.017888922 0.04611396
000130 b8 96 bc bd a4 f4 23 3d 42 07 9d bc 70 13 fd bb
       -0.09208435 0.04002823 -0.0191685 -0.0077232644
000140 63 d2 ef bc ce 11 0b bd 92 5e 2f 3d 16 9d 62 bd
       -0.029275125 -0.033952527 0.0428148 -0.05532559
000150 0e 37 76 bb f9 3a 76 bb 60 f2 1d 3d 42 a8 7b bb
       -0.0037569436 -0.0037571772 0.038561225 -0.003839985
000160 25 a2 a8 3a 10 6f 43 3d 90 a1 d7 b9 a8 98 0d 3d
       0.0012865706 0.04771334 -0.0004112837 0.034569412
000170 9c 0c bf bb 7b fa 9f 3b 36 71 50 3d a2 91 81 bc
       -0.0058303606 0.0048821545 0.050889216 -0.015816513
000180 36 4e 50 bb a0 30 f6 bc 19 2f a3 3a 7a ad da bc
       -0.0031784899 -0.030052483 0.0012449949 -0.026694048
000190 24 d4 3f 3d b0 8d 58 bd 69 44 2b bb af 18 14 bb
       0.046833172 -0.0528695 -0.0026133305 -0.002259772
0001a0 0a 82 58 bd ae d7 1d bc 5c ae 80 3b 59 da a7 bc
       -0.05285839 -0.009633942 0.0039270353 -0.020489858
0001b0 74 11 e5 bc 1c eb a5 bc b4 8d 14 bc b5 56 72 bc
       -0.027962424 -0.02025371 -0.009066988 -0.01479118
0001c0 ad 79 07 bc 98 32 2c 3d 3a 55 7f bc 4b 1f 6f bd
       -0.008268756 0.042040437 -0.015584284 -0.058379453
0001d0 52 3e f0 bc 92 9a 58 bd 83 05 9f 3d ac 5d bb bc
       -0.029326592 -0.052881785 0.07764723 -0.022871815
0001e0 fa 66 08 bc 24 78 20 3c 25 07 3e bc 99 3e e0 3b
       -0.008325333 0.009794269 -0.011598383 0.0068433997
0001f0 e8 c4 94 3d d5 0d 55 bc 46 61 0e 3b 04 56 23 bd
       0.072641194 -0.013003786 0.002172546 -0.039876953
000200 72 a0 2d bd c8 15 54 bd e0 61 75 3c b6 84 00 bd
       -0.04238934 -0.051778585 0.0149769485 -0.031376563
000210 f2 46 96 3c 48 d0 b8 bc e1 34 18 3b ce ff 33 3d
       0.018344376 -0.022560254 0.0023224878 0.043945126
000220 b6 b9 83 bd f6 a2 03 bd 04 d0 12 3d 74 d7 5a bd
       -0.06431906 -0.032137834 0.03584291 -0.05342813
000230 1c 9a 46 3b bc ee 3c bb 17 5e 2a bd 59 90 17 bd
       0.0030304259 -0.002882882 -0.041593637 -0.037002895
000240 7d 67 fa bc 3a 27 9f bc 24 06 5f 3d 16 35 6a 3d
       -0.030566925 -0.019427884 0.054449216 0.057179533
000250 58 bb a2 3b 1b 58 81 3c 38 0c 5d bd 2c 4d 39 bd
       0.004966181 0.015789082 -0.05396673 -0.045239612
000260 ca db c2 3c 54 ac 11 3d 7b 72 82 3d 12 9d 69 bd
       0.023786444 0.035564736 0.06369492 -0.05703456
000270 0c 83 00 3d de 4f 5a bd 60 81 a8 bc 88 cf 8c 3c
       0.031374976 -0.053298824 -0.020569503 0.017188802
000280 5f 80 0a bb c6 1a 8e 3c a0 ea 64 3d ba a6 6b bc
       -0.0021133644 0.017346751 0.05588782 -0.014383012
000290 83 fd 8d 3c 06 f1 d6 3c 10 e7 5a bd b6 d7 29 bd
       0.017332798 0.026237976 -0.053443015 -0.041465484
0002a0 45 71 82 3d f8 e0 80 3d 68 fe fd bd 5c 08 37 3d
       0.06369261 0.062929094 -0.1240204 0.044685706
0002b0 be ce 93 3c 11 bc a1 bc 1f de 28 3d 22 75 82 bd
       0.018042918 -0.019742997 0.041227456 -0.063699976
0002c0 27 d7 50 3d 17 e4 29 3c 03 6e cc bc 08 d2 6e 3d
       0.050986435 0.010369322 -0.024954801 0.05830577
0002d0 5b 21 ec 3b ae 4b 09 bd 04 7b 3d bc 9c ee b1 bc
       0.0072061247 -0.03351944 -0.011564974 -0.021720223
0002e0 32 a8 a1 bd fd 25 ed ba 6a 42 26 bd 0f 5c 9a bd
       -0.07893409 -0.0018092986 -0.04059068 -0.0753709
0002f0 cd 6a 75 ba d9 9b a3 bd 00 40 a6 ba 72 71 54 bc
       -0.0009361923 -0.0798871 -0.0012683868 -0.012966501
000300 86 f9 bf 3c ee 81 d1 bc 8d 66 98 3c b4 af c2 bb
       0.023434412 -0.02557465 0.018603588 -0.0059413556
000310 14 74 81 3d 40 9c 71 bb 16 5f 2f bd 0e d7 3d 3d
       0.06320968 -0.0036866814 -0.04281529 0.04634767
000320 f8 03 d0 3a 03 34 ee 3c dc 5c 81 bd ad 37 ee bc
       0.0015870323 0.029077535 -0.0631654 -0.029079283
000330 2c 2b 95 bc 3d 84 5e 3d ba 5b 9a bd 5b 14 08 3d
       -0.018209063 0.05432533 -0.07537027 0.033222537
000340 bd fd d6 ba fd 29 85 bc 02 00 23 bd 00 6b ce 3d
       -0.0016402524 -0.016255373 -0.03979493 0.100790024
000350 e3 da cc bb a2 98 a8 bd 6a cb 13 bd 6e 82 03 ba
       -0.0062516793 -0.082322374 -0.036082663 -0.0005016689
000360 89 e2 53 bd cb 84 af 3c 67 b3 94 bc f0 2d 2a bd
       -0.051729713 0.021425625 -0.018151952 -0.041547716
000370 ab 19 62 3d ac 13 13 bd e0 00 c5 bc 55 bc c8 bb
       0.05520026 -0.035907432 -0.024048269 -0.0061259666
000380 f1 7d e5 bc 28 16 40 bd 98 57 bd bc f3 89 3f bd
       -0.028014155 -0.04689613 -0.023113057 -0.046762418
000390 b6 84 dc bb 1d 88 83 3d 64 de 4b bd c5 86 e7 3c
       -0.0067296876 0.06422446 -0.049772635 0.028262505
0003a0 31 4d 07 bd e8 06 84 3b bf f9 6b bd 55 ab 0e 3d
       -0.0330326 0.0040291436 -0.057611223 0.034831364
0003b0 c3 fd a1 bd d8 b8 3e 38 bb 39 ce 39 e7 ef 11 bd
       -0.07909729 4.547168e-05 0.00039334394 -0.03562918
0003c0 83 a0 39 bd f6 3d 1a 3d ce ab 15 bd 9b c7 9a bc
       -0.04531909 0.037656747 -0.0365408 -0.018894007
0003d0 e8 b4 ab bb bc 3f f8 3b 52 a8 c5 bd 2c 11 83 bd
       -0.0052400716 0.007575957 -0.09651245 -0.0639976
0003e0 e1 2b bd bc 7e 3d 60 bc 31 a1 22 bd 12 d1 4b 3c
       -0.023092212 -0.013686536 -0.039704505 0.012439983
0003f0 31 ce de 3a e4 db d9 39 15 1c 21 bd ac 50 5f bd
       0.0016998706 0.00041553297 -0.03933342 -0.054520294
