tryst/model_round_6.pth (torch, 193715 bytes, 19 tensors)

fc1.weight f4 [256, 13]
0	0xbdc88454	-0.097908646
1	0xbe587733	-0.21139221
2	0xbe3036aa	-0.17208353
3	0x3d1971a8	0.037461907
4	0xbc1b5fbf	-0.009483277
5	0xbc99266a	-0.018695075
6	0xbc7f308e	-0.015575541
7	0x3e17fd53	0.1484273
8	0xbdc8e2bd	-0.09808872
9	0xbe82c03b	-0.25537285
10	0xbe385ef6	-0.18004975
11	0xbe2a7923	-0.16647772
12	0xbd048eb4	-0.032362655
13	0xbde6282b	-0.1123813
14	0xbdf5406c	-0.11975178
15	0xbdfc253e	-0.12311791
16	0xbd221dc7	-0.03957918
17	0xbd307e1c	-0.043089017
18	0xbe31f170	-0.17377257
19	0xbdd8b4b4	-0.105813414
20	0xbe08379f	-0.13302468
21	0xbdf26e15	-0.11837403
22	0x3d816368	0.06317788
23	0xbccf982f	-0.025341121
24	0x3e810707	0.25200674
25	0x3da76598	0.08173674
26	0xbe24d81a	-0.16098061
27	0x3e1eec29	0.15519775
28	0x3e381867	0.17978059
29	0xbe86901f	-0.2628183
30	0x3b861183	0.004091443
31	0xbe28e4b5	-0.16493495
32	0x3c624ae2	0.013811799
33	0x3e1fa81b	0.15591471
34	0xbd4d4aea	-0.05012027
35	0x3e63f3b8	0.2226094
36	0xbe2d54f6	-0.16926941
37	0xbd9a328d	-0.07529173
38	0x3d534638	0.051580638
39	0xbe6147ee	-0.22000095
40	0xbcfd7ac8	-0.030942336
41	0x3e8d5b4c	0.27608716
42	0xbde771f4	-0.11301032
43	0x3d72edfc	0.05930899
44	0x3e572125	0.21008737
45	0x3e2c81a6	0.16846332
46	0xbdcde68e	-0.100537404
47	0x3e8c9650	0.2745843
48	0x3dfafcba	0.12255235
49	0x3e6bacba	0.23015109
50	0x3e632682	0.22182658
51	0xbe5b8d20	-0.21440554
52	0x3e0d4c2d	0.1379859
53	0x3d5b6e5e	0.05357205
54	0xbdcb09e4	-0.09913996
55	0x3caec9df	0.021336494
56	0x3e63da01	0.2225113
57	0xbbbd11e8	-0.005769957
58	0x3e3c8304	0.18409353
59	0x3e190700	0.14944077
60	0x3e04a86c	0.12954873
61	0xbdf1db5a	-0.11809416
62	0xbd8883d0	-0.06665766
63	0xbe5a7460	-0.21333456
64	0xbd99a874	-0.07502833
65	0xbc8eb182	-0.017418627
66	0xbe844458	-0.25833392
67	0xbe1c5641	-0.15267278
68	0xbe38fe0b	-0.1806566
69	0xbe1f87fc	-0.15579218
70	0x3e812a2e	0.25227493
71	0xbe7a5db8	-0.24449813
72	0xbe4ce130	-0.20007777
73	0x3d8f88ff	0.07008552
74	0xbe7992db	-0.24372427
75	0x3de45467	0.11148911
76	0x3e267278	0.16254604
77	0xbcb4665a	-0.022021461
78	0x3e14ed86	0.14543733
79	0xbde7c0ad	-0.11316047
80	0x3e1f834b	0.15577428
81	0x3e2d6525	0.16933115
82	0xbe8c9d1c	-0.27463615
83	0xbcf231f8	-0.029564843
84	0x3d5541f5	0.052064855
85	0xbdd854a4	-0.10563019
86	0xbd8cb0df	-0.06869673
87	0xbd57c14c	-0.052674577
88	0x3e789f86	0.24279603
89	0xbe31b5fa	-0.17354575
90	0x3e8c0ecb	0.27355036
91	0xbc876696	-0.016528409
92	0xbc41bc6c	-0.011824708
93	0xbdf455de	-0.1193044
94	0x3de29ffd	0.110656716
95	0xbd2bfd16	-0.04198941
96	0x3d3791b2	0.04481668
97	0xbe2f0267	-0.1709076
98	0xbdbd220c	-0.092350096
99	0x3cda01b5	0.026612142
100	0x3d046364	0.03232135
101	0x3e3e4a2c	0.18582982
102	0x3a74db18	0.0009340509
103	0xbdcce352	-0.100042954
104	0x3deaf6ae	0.11472832
105	0x3bb88bc1	0.0056318943
106	0xbd43a278	-0.047762364
107	0x3e8154d4	0.2526003
108	0x3e193823	0.1496282
109	0xbe820bc6	-0.25399607
110	0xbe88e637	-0.2673814
111	0x3d4a17b5	0.049339015
112	0xbe1df431	-0.15425183
113	0xbe71f122	-0.23627141
114	0x3de8ca16	0.1136667
115	0xbe693800	-0.22775269
116	0xbe17abbc	-0.14811605
117	0xbdf3141a	-0.118690684
118	0x3d96bf5f	0.0736072
119	0x3ba7490e	0.0051051443
120	0x3e892bb6	0.2679116
121	0xbe2555d0	-0.16146016
122	0xbe274434	-0.16334611
123	0xbdd5dea7	-0.10442858
124	0x3d2e1656	0.04250177
125	0xbcd12c8c	-0.025533937
126	0x3e6861dc	0.2269358
127	0x3d5882a2	0.052858956
128	0x3e7440c7	0.23852836
129	0xbbcc1fba	-0.006229368
130	0xbe200051	-0.1562512
131	0xbcc5a231	-0.02412519
132	0x3d3fbcb1	0.04681081
133	0x3e73c4d6	0.23805556
134	0x3dc450ca	0.09585722
135	0x3dc0cd31	0.09414137
136	0xbc9af3f2	-0.01891515
137	0x3d94f0b4	0.07272473
138	0xbde2d85f	-0.11076426
139	0x3bc8b6eb	0.006125321
140	0x3d0a63ca	0.033786573
141	0xbdb2aa97	-0.08723944
142	0xbdfe8662	-0.12427975
143	0x3de8e8aa	0.11372502
144	0xbc2b9375	-0.010472168
145	0x3e5f4c75	0.2180651
146	0xbe03ffce	-0.1289055
147	0x3e59bf48	0.21264374
148	0x3e120023	0.14257865
149	0xbc538b86	-0.012911683
150	0xbe749ce3	-0.23887973
151	0xbd880772	-0.06642045
152	0x3e1408c7	0.14456473
153	0x3e6cdbcc	0.23130721
154	0xbe203feb	-0.15649383
155	0xbc58ffc6	-0.013244575
156	0xbe4d278f	-0.20034622
157	0x3d20007e	0.03906297
158	0xbb9b3c10	-0.0047373846
159	0x3e04097d	0.12894244
160	0xbe1338f0	-0.14377189
161	0xbe536be0	-0.2064662
162	0x3d856461	0.065132864
163	0xbe8c8b8d	-0.2745022
164	0x3e2a1a0c	0.16611499
165	0x3ac4968d	0.0014998481
166	0x3e86fb60	0.2636366
167	0x3e15a02b	0.1461188
168	0x3e6df4dc	0.23237938
169	0x3e830da6	0.2559635
170	0xbd8acc33	-0.06777229
171	0x3e61df1a	0.22057763
172	0xbe09c508	-0.13454068
173	0x3cd7b000	0.02632904
174	0x3da78ace	0.08180772
175	0xbdec0a34	-0.115253836
176	0xbe47182a	-0.19442812
177	0x3e4e85d4	0.20168239
178	0x3e4b8872	0.19876269
179	0x3b7b96e5	0.00383895
180	0xb8d60580	-0.0001020534
181	0xbc257528	-0.010098733
182	0x3c4244ef	0.011857255
183	0x3e704921	0.23465396
184	0xbb5b68fc	-0.0033479324
185	0xbe68c1a4	-0.22730118
186	0xbe7f94ee	-0.24959156
187	0xbe6545cc	-0.22389907
188	0x3e835d3a	0.25657064
189	0xbdbdf18e	-0.092745885
190	0xbe059f0e	-0.13048956
191	0x3c4e7577	0.012601248
192	0x3e5a269a	0.21303788
193	0x3cba3da4	0.02273447
194	0x3e8bad66	0.2728073
195	0xbe7a1e84	-0.24425703
196	0x3e4c23c2	0.19935516
197	0x3e1c900f	0.15289329
198	0xbdeec948	-0.11659485
199	0xbe377ad2	-0.17917946
200	0xbe73848c	-0.23781031
201	0x3e3943aa	0.18092218
202	0x3e6cbaa2	0.2311807
203	0xbdfbfce7	-0.12304097
204	0xbbd3e95d	-0.006467028
205	0x3e47a371	0.19495942
206	0x3c39da94	0.011343617
207	0x3db8bf9c	0.090209216
208	0xbe5d4f48	-0.21612275
209	0xbe749ec4	-0.2388869
210	0x3dafc9a9	0.085833855
211	0x3e7ee719	0.24892844
212	0x3e5368c0	0.20645428
213	0x3de5859a	0.11207123
214	0xbe88fa6a	-0.2675355
215	0xbe2f0661	-0.17092277
216	0xbcae8a9d	-0.02130633
217	0xbe871453	-0.26382694
218	0x3dfb10e5	0.12259082
219	0xbc99bd99	-0.018767165
220	0xbe745c9a	-0.2386345
221	0xbe8a58c9	-0.27020863
222	0x3ce1b01a	0.027549792
223	0x3e825177	0.25452778
224	0xbcced90a	-0.025249977
225	0x3e6eb15e	0.23309848
226	0x3e8a210c	0.26978338
227	0x3e462238	0.19348991
228	0x3da9947b	0.082802735
229	0x3c958c8b	0.018255493
230	0x3e20c330	0.15699458
231	0xbe3d0954	-0.1846059
232	0xbba7749b	-0.005110336
233	0xbe674850	-0.22586179
234	0x3e85a7be	0.2610454
235	0x3e84a025	0.2590343
236	0xbdf6569e	-0.1202824
237	0x3e45fef6	0.19335541
238	0xbd7c0115	-0.06152447
239	0x3d960790	0.07325661
240	0xbe4198a1	-0.1890588
241	0xbe6fbd3f	-0.23412035
242	0x3deab979	0.11461157
243	0xbd49174c	-0.049094483
244	0xbe11c6c5	-0.14235981
245	0xbe79fe14	-0.2441333
246	0x3d0c8786	0.034308933
247	0x3d7799b0	0.060449302
248	0x3e0ea5d0	0.1393044
249	0x3df7d4fd	0.12101171
250	0xbde5f0c6	-0.112275645
251	0x3dfbb072	0.12289514
252	0x3e037d1e	0.12840697
253	0x3d3c51f9	0.045976613
254	0x3e7da1fd	0.24768825
255	0xbbad6b30	-0.0052923188

fc1.bias f4 [256]
0	0xbe34cccf	-0.17656253
1	0xbdfb92aa	-0.12283833
2	0xbe0ad41c	-0.13557476
3	0xb8f1d290	-0.00011530996
4	0xbdf25ebe	-0.11834477
5	0x3df2246e	0.11823355
6	0x3e16eabc	0.14737982
7	0x3e377a9c	0.17917866
8	0xbe337197	-0.175238
9	0x3de1e737	0.11030429
10	0xbe137b50	-0.14402509
11	0xbe5e5901	-0.2171364
12	0xbdb6ef3e	-0.089323506
13	0x3e2a3164	0.16620404
14	0xbd49819a	-0.049195863
15	0xbe3cf9e2	-0.18454698
16	0xbd11e2b3	-0.035616588
17	0x3dccd07f	0.10000705
18	0xbe1dac97	-0.15397869
19	0x3d69243b	0.056919318
20	0x3e4f2ac3	0.20231156
21	0xbe77cf56	-0.24200186
22	0xbdf73a03	-0.12071612
23	0xb9e522d5	-0.00043704236
24	0xbd9fc377	-0.07800954
25	0x3e679825	0.22616632
26	0x3e14f546	0.1454669
27	0xbe798734	-0.24367982
28	0x3e0ac087	0.13550006
29	0xbe2c99fa	-0.16855612
30	0x3dfd15eb	0.12357696
31	0xbd4c88cc	-0.049935147
32	0x3e46b5b6	0.19405255
33	0xbe44b627	-0.1921011
34	0x3d6ad5c6	0.057332776
35	0x3de2adc8	0.110683024
36	0x3deb1b95	0.1147987
37	0xbe1568b4	-0.14590722
38	0xbe321951	-0.1739247
39	0xbcfb1040	-0.030647397
40	0xbd2258d1	-0.039635483
41	0xbd9e54f9	-0.07731051
42	0x3e1cb330	0.1530273
43	0x3d61da27	0.055139687
44	0xb81c3161	-3.7239286e-05
45	0x3dd9ce10	0.106350064
46	0x3d9a0a49	0.07521493
47	0x3dc3ccff	0.09560584
48	0x3d103dea	0.035215296
49	0xbe03ac3e	-0.12858674
50	0x3e0f93f7	0.14021288
51	0xbe7e8bc6	-0.24858007
52	0x3e653612	0.22383907
53	0x3e731e35	0.23741992
54	0xbe6fafe4	-0.2340694
55	0x3dbb3cd4	0.091424614
56	0xbd9bf8ef	-0.0761584
57	0x3e79f397	0.24409328
58	0x3d85ec0e	0.065391645
59	0xbcbacd67	-0.022803022
60	0x3da77d16	0.08178155
61	0x3e17c34c	0.14820594
62	0xbc1511f9	-0.009098523
63	0x3e2dbc7e	0.16966435
64	0x3e77b939	0.2419175
65	0x3db7dd9c	0.089778155
66	0x3bd02ca7	0.006352979
67	0xb68e11ef	-4.2340175e-06
68	0xbdb95eac	-0.0905126
69	0x3e67228a	0.2257177
70	0x3c833831	0.016018005
71	0x3d807186	0.06271653
72	0xbdc4316e	-0.095797405
73	0xbd64d64c	-0.055868432
74	0xbd9f5328	-0.07779533
75	0x3e6844b4	0.22682458
76	0x3e5d84fa	0.21632758
77	0xbbb436b7	-0.0054996866
78	0xbd6728d6	-0.05643543
79	0x3d85ea5c	0.06538841
80	0x3e25248f	0.16127227
81	0xbc2246ae	-0.009904547
82	0xbe2a8f72	-0.16656283
83	0x3e0b93a2	0.13630536
84	0xbe3616f1	-0.17782189
85	0x3e6fd67e	0.23421666
86	0xbe81f802	-0.25384527
87	0x3e5177a0	0.2045579
88	0x3dcdf958	0.10057324
89	0xbe798672	-0.24367693
90	0x3d429038	0.04750082
91	0xbe3bf812	-0.1835635
92	0xbe299660	-0.1656127
93	0xbe294192	-0.1652892
94	0x3895fa2a	7.15147e-05
95	0x3e6334cf	0.22188114
96	0x3e0db756	0.13839468
97	0x3cacb2c0	0.021081328
98	0x3e152506	0.14564905
99	0x3cb2ee9a	0.02184229
100	0xbd91585e	-0.07096933
101	0xbe82384e	-0.25433582
102	0xbdbd450c	-0.09241685
103	0x3e459438	0.19294822
104	0x3e793be4	0.24339253
105	0x3e4caff9	0.19989003
106	0x37f73a6e	2.9471903e-05
107	0xbd5d3730	-0.05400771
108	0xbe423c7e	-0.18968388
109	0xbe6fedd0	-0.23430562
110	0xbd9c5b57	-0.07634609
111	0xbe6ee954	-0.23331195
112	0xbe833964	-0.25629723
113	0x3e7b4a54	0.24540073
114	0x3c936229	0.017991142
115	0x3d894dbb	0.06704279
116	0xbe610109	-0.21973051
117	0xbcd21b72	-0.025647853
118	0xbe399c9d	-0.1812615
119	0x3e05c06e	0.13061687
120	0xbb948a00	-0.0045330524
121	0xbc1fb0c9	-0.009746739
122	0x3e01b466	0.12666473
123	0x3c8007e4	0.015628763
124	0x3dd9b395	0.10629956
125	0x3be9196a	0.0071136253
126	0x3cd472a4	0.025933571
127	0x3d8f3eff	0.069944374
128	0xbe002cca	-0.12517086
129	0x3daa9eb5	0.08331052
130	0xbc145b22	-0.009054931
131	0xb9220d1e	-0.0001545441
132	0xbe090bef	-0.13383459
133	0x3e352611	0.17690302
134	0xbe4527c8	-0.19253457
135	0xbe70b374	-0.23505956
136	0x3db642a4	0.088994294
137	0x3de67c38	0.112541616
138	0xbde0c7bc	-0.10975596
139	0xbe2e11a7	-0.16998921
140	0xbe5e2940	-0.21695423
141	0x3df68c32	0.12038459
142	0x3e00af65	0.12566908
143	0xbe3769e8	-0.17911494
144	0xbdd986b8	-0.10621399
145	0xbd0bdcac	-0.034145996
146	0x3e0fc76f	0.14040922
147	0xbe49f294	-0.19721442
148	0x3e2b475a	0.16726437
149	0x3daac260	0.08337855
150	0xbe47711f	-0.19476746
151	0xbe7f5105	-0.2493325
152	0xbdd3f2ac	-0.1034902
153	0xbe827085	-0.2547647
154	0x3e184587	0.14870273
155	0x3dd92c3a	0.10604139
156	0x3e5a30a3	0.21307616
157	0x3e64d3dc	0.22346443
158	0xbe049632	-0.1294792
159	0xbd9fcf59	-0.0780322
160	0xbd766026	-0.060150288
161	0x3e1e5a2c	0.15464085
162	0x3e7de7d1	0.24795462
163	0x3dda4f98	0.106597126
164	0x3e209acf	0.15684055
165	0xbe065be9	-0.13120998
166	0xbe70b684	-0.23507124
167	0x3c94c2f8	0.018159375
168	0xbd979a95	-0.07402531
169	0x3e5753ba	0.21028033
170	0xbe377e5c	-0.17919296
171	0x3e6a885a	0.22903576
172	0x3e64a96c	0.22330254
173	0xbd019e4a	-0.031645097
174	0xbe045b85	-0.12925537
175	0xbbb44aff	-0.0055021043
176	0x3cde23f5	0.027116755
177	0xbd8d84b6	-0.06910078
178	0xbe1232d8	-0.14277208
179	0x3db10a15	0.08644501
180	0x3e1279f3	0.14304332
181	0x38486398	4.777647e-05
182	0x3e57654e	0.21034738
183	0xbe52b2ef	-0.2057607
184	0xba4932e0	-0.00076751225
185	0xbe7ccff3	-0.24688701
186	0xbe4dfab8	-0.20115173
187	0x3d5825a0	0.052770257
188	0xbe52ee8a	-0.20598808
189	0x3e1e68f7	0.15469728
190	0xbdc15480	-0.09439945
191	0x3e252386	0.16126832
192	0xbe30ad8e	-0.17253706
193	0xbcba2aaf	-0.022725431
194	0x3ca89ff3	0.020584082
195	0xbe3f03e2	-0.18653825
196	0x3d983e76	0.074337885
197	0x3e6240a3	0.2209497
198	0xbda2583f	-0.07926988
199	0x3e13045d	0.14357133
200	0x3dd911d0	0.105991006
201	0x3d00d9ff	0.031457897
202	0xbe3c49a8	-0.18387473
203	0x3e0d4a1b	0.137978
204	0xbdcc06de	-0.09962247
205	0x3dcdd0fe	0.10049628
206	0xbe1cf794	-0.15328819
207	0x3d82a6bd	0.06379459
208	0xbdf97be4	-0.121818334
209	0xbdc00afa	-0.093770936
210	0x3e73de44	0.23815256
211	0x3cec62b5	0.02885566
212	0xbcaeb192	-0.021324906
213	0x3d056760	0.03256929
214	0x3e319eb2	0.17345694
215	0xbe4dbf6f	-0.20092557
216	0x3e3a300d	0.18182392
217	0xbdd31e14	-0.10308471
218	0xbd9538b4	-0.07286206
219	0xbe0ff2b6	-0.1405743
220	0x3d8a3371	0.06748093
221	0xbe2815d0	-0.16414571
222	0xba4adde6	-0.0007738754
223	0x3de08123	0.10962131
224	0x3caaa6ea	0.020831544
225	0xbdb4f09d	-0.08834956
226	0x3e7ba49a	0.2457451
227	0xbe0b99e5	-0.13632925
228	0xbd3fd958	-0.046838135
229	0x3e3b57a6	0.18295154
230	0xbe828c37	-0.254976
231	0x362545dd	2.4627582e-06
232	0xbe6ea0a4	-0.23303467
233	0x3e098d13	0.13432722
234	0xbe467b13	-0.19382887
235	0x3804b918	3.1643634e-05
236	0xbe4d7efc	-0.20067972
237	0xbe4455ec	-0.19173402
238	0xbe816386	-0.25271243
239	0xbe61cba8	-0.22050345
240	0x3cbf3c00	0.02334404
241	0x3e2d5307	0.16926204
242	0xbb803280	-0.00391227
243	0xbe72ebc9	-0.23722757
244	0xbe5f5192	-0.2180846
245	0xbd7cb7f0	-0.061698854
246	0x3dc95cf5	0.09832183
247	0x3852528b	5.0144776e-05
248	0x36020809	1.9376187e-06
249	0x3e1038ff	0.14084242
250	0x3e3c9a06	0.1841813
251	0x3e172167	0.14758836
252	0xbde33a22	-0.11095072
253	0x3de01334	0.10941163
254	0x3c01aa61	0.007914157
255	0xbd7ae08e	-0.06124931

bn1.weight f4 [256]
0	0x3f7fac7f	0.99872583
1	0x3f7f5841	0.9974404
2	0x3f7ecfca	0.9953581
3	0x3f7f539c	0.9973695
4	0x3f8025bc	1.0011516
5	0x3f7fd4a7	0.99933857
6	0x3f802142	1.001015
7	0x3f809bbb	1.0047525
8	0x3f7f46dc	0.997175
9	0x3f808266	1.0039794
10	0x3f802848	1.0012293
11	0x3f801f34	1.0009522
12	0x3f804f67	1.0024232
13	0x3f7f495f	0.9972133
14	0x3f804cdc	1.0023456
15	0x3f802f90	1.0014515
16	0x3f808754	1.0041299
17	0x3f8001ee	1.0000589
18	0x3f800b64	1.0003476
19	0x3f7f63b2	0.997615
20	0x3f7fd17a	0.9992901
21	0x3f7fe1ae	0.99953735
22	0x3f804d2d	1.0023552
23	0x3f7ff70c	0.9998634
24	0x3f800f6e	1.0004709
25	0x3f801bf8	1.0008535
26	0x3f7f938a	0.998345
27	0x3f7f09b4	0.9962418
28	0x3f8024d2	1.0011237
29	0x3f8011ea	1.0005467
30	0x3f7f65d6	0.99764764
31	0x3f7f898c	0.99819255
32	0x3f7f4e90	0.9972925
33	0x3f802dce	1.0013978
34	0x3f801ce8	1.0008821
35	0x3f7fd178	0.99929
36	0x3f7f9fb9	0.9985309
37	0x3f7fe372	0.9995643
38	0x3f7f91c6	0.9983181
39	0x3f8068bd	1.0031964
40	0x3f807d1b	1.0038179
41	0x3f804b98	1.0023069
42	0x3f7f95b2	0.9983779
43	0x3f7f671e	0.9976672
44	0x3f7f9072	0.9982978
45	0x3f7fa9d4	0.9986851
46	0x3f7e3ce7	0.9931168
47	0x3f802620	1.0011635
48	0x3f7feaab	0.9996745
49	0x3f802070	1.0009899
50	0x3f7f40c8	0.99708223
51	0x3f802b99	1.0013305
52	0x3f8023ab	1.0010885
53	0x3f8023aa	1.0010884
54	0x3f801fab	1.0009664
55	0x3f8050c2	1.0024645
56	0x3f7f48a4	0.99720216
57	0x3f7fbcac	0.99897265
58	0x3f7fa2ca	0.9985777
59	0x3f7f8380	0.9981003
60	0x3f7f6f5c	0.99779296
61	0x3f7f98d7	0.9984259
62	0x3f7f4774	0.99718404
63	0x3f800590	1.0001698
64	0x3f801793	1.0007194
65	0x3f80085e	1.0002553
66	0x3f7dfd34	0.9921448
67	0x3f803bea	1.0018284
68	0x3f809198	1.0044432
69	0x3f7fafc4	0.9987757
70	0x3f801d45	1.0008932
71	0x3f7fc334	0.9990723
72	0x3f80137b	1.0005945
73	0x3f7f42fe	0.99711597
74	0x3f801478	1.0006247
75	0x3f7f83f8	0.99810743
76	0x3f7fa480	0.9986038
77	0x3f800060	1.0000114
78	0x3f808adc	1.0042377
79	0x3f802f26	1.0014389
80	0x3f7f9114	0.99830747
81	0x3f7ffe2f	0.9999723
82	0x3f7fd44e	0.99933326
83	0x3f802a4b	1.0012907
84	0x3f7fb1cc	0.9988067
85	0x3f7f55e8	0.9974046
86	0x3f7fc373	0.99907607
87	0x3f7ff0c0	0.9997673
88	0x3f8016b7	1.0006932
89	0x3f800198	1.0000486
90	0x3f7fd733	0.9993774
91	0x3f800749	1.0002223
92	0x3f8093f1	1.0045148
93	0x3f7fd33c	0.99931693
94	0x3f8045fb	1.0021356
95	0x3f7fda86	0.99942815
96	0x3f7f4528	0.997149
97	0x3f7f8cc6	0.9982418
98	0x3f806c2d	1.0033013
99	0x3f801a1c	1.0007968
100	0x3f801cde	1.000881
101	0x3f8033fe	1.0015867
102	0x3f8033a4	1.001576
103	0x3f805f80	1.0029144
104	0x3f7facd3	0.99873084
105	0x3f802a0f	1.0012835
106	0x3f7ff6ce	0.9998597
107	0x3f7ff48a	0.9998251
108	0x3f7f7b90	0.99797916
109	0x3f803ec1	1.0019151
110	0x3f8034d8	1.0016127
111	0x3f800fc6	1.0004814
112	0x3f803645	1.0016562
113	0x3f805ad4	1.0027719
114	0x3f7fb668	0.99887705
115	0x3f7fb90e	0.99891746
116	0x3f7fb056	0.9987844
117	0x3f7f96ee	0.99839675
118	0x3f808639	1.0040962
119	0x3f7f87a6	0.9981636
120	0x3f7fb75f	0.9988918
121	0x3f7fe57f	0.9995956
122	0x3f7fbe52	0.9989978
123	0x3f7fef7a	0.9997479
124	0x3f8003af	1.0001124
125	0x3f80571a	1.0026581
126	0x3f803c3a	1.001838
127	0x3f803280	1.0015411
128	0x3f805073	1.0024551
129	0x3f7f63be	0.9976157
130	0x3f7f65d2	0.9976474
131	0x3f7f7df0	0.9980154
132	0x3f80481b	1.0022005
133	0x3f8040fb	1.001983
134	0x3f7fd31b	0.99931496
135	0x3f80180c	1.0007339
136	0x3f7f9526	0.9983696
137	0x3f80722a	1.003484
138	0x3f7f38d8	0.9969611
139	0x3f7fbd3c	0.99898124
140	0x3f805195	1.0024897
141	0x3f804123	1.0019878
142	0x3f7f7722	0.9979116
143	0x3f7eed06	0.9958042
144	0x3f7e9214	0.9944165
145	0x3f7fae34	0.9987519
146	0x3f8010e0	1.000515
147	0x3f80844a	1.0040371
148	0x3f7fd298	0.99930716
149	0x3f801afe	1.0008237
150	0x3f7fc66c	0.9991214
151	0x3f7f8c84	0.99823785
152	0x3f7fbe0e	0.99899375
153	0x3f8004a6	1.0001419
154	0x3f802696	1.0011775
155	0x3f803c6e	1.0018442
156	0x3f7f9d0b	0.99849004
157	0x3f8030fe	1.0014951
158	0x3f8006ee	1.0002115
159	0x3f7fa1dd	0.9985636
160	0x3f7ef0e8	0.99586344
161	0x3f800f42	1.0004656
162	0x3f800e75	1.0004412
163	0x3f80235c	1.0010791
164	0x3f809aa7	1.0047196
165	0x3f7fd5b8	0.99935484
166	0x3f803fc8	1.0019464
167	0x3f7f1338	0.996387
168	0x3f8024ac	1.0011191
169	0x3f7f531f	0.9973621
170	0x3f7ff8ba	0.999889
171	0x3f806454	1.0030618
172	0x3f7ef047	0.99585384
173	0x3f7f88d5	0.99818164
174	0x3f7f2980	0.996727
175	0x3f7fdf83	0.99950427
176	0x3f7ffed7	0.9999823
177	0x3f7f2ee6	0.99680936
178	0x3f801efe	1.0009458
179	0x3f807384	1.0035253
180	0x3f7fc3e9	0.9990831
181	0x3f8039ac	1.00176
182	0x3f7f4e0a	0.99728453
183	0x3f7ef593	0.99593467
184	0x3f7f6452	0.9976245
185	0x3f7f86ba	0.9981495
186	0x3f7f7e36	0.9980196
187	0x3f7f332e	0.9968747
188	0x3f7fcdd0	0.9992342
189	0x3f7ee293	0.99564475
190	0x3f806539	1.0030891
191	0x3f802296	1.0010555
192	0x3f804e7b	1.002395
193	0x3f80098d	1.0002915
194	0x3f80242a	1.0011036
195	0x3f7f9d76	0.9984964
196	0x3f801092	1.0005057
197	0x3f7f1c1f	0.99652284
198	0x3f7fd04a	0.999272
199	0x3f8019f0	1.0007915
200	0x3f802215	1.0010401
201	0x3f7fcd74	0.9992287
202	0x3f80641a	1.0030549
203	0x3f7f9c5e	0.9984797
204	0x3f801b64	1.0008359
205	0x3f801c71	1.000868
206	0x3f8002c8	1.0000849
207	0x3f7f0da1	0.9963017
208	0x3f7eafa5	0.9948676
209	0x3f7ff69d	0.99985677
210	0x3f7fe4e6	0.99958646
211	0x3f803e27	1.0018967
212	0x3f801f83	1.0009617
213	0x3f7f267a	0.99668086
214	0x3f803c33	1.0018371
215	0x3f802a7d	1.0012966
216	0x3f807747	1.00364
217	0x3f7fb612	0.9988719
218	0x3f7fa10e	0.99855125
219	0x3f80583e	1.0026929
220	0x3f800094	1.0000176
221	0x3f7f5460	0.9973812
222	0x3f804bc7	1.0023125
223	0x3f80a5bd	1.0050579
224	0x3f7f7dc6	0.9980129
225	0x3f8020f4	1.0010056
226	0x3f8008ff	1.0002745
227	0x3f802a4b	1.0012907
228	0x3f80e78d	1.0070664
229	0x3f7e9c75	0.99457484
230	0x3f7f6174	0.99758077
231	0x3f8005f5	1.0001818
232	0x3f7fec12	0.9996959
233	0x3f8052cc	1.0025268
234	0x3f7fffdf	0.99999803
235	0x3f7f62c6	0.9976009
236	0x3f8005f9	1.0001823
237	0x3f80242f	1.0011042
238	0x3f7fadfa	0.9987484
239	0x3f7fbc8a	0.9989706
240	0x3f7fe3a3	0.9995672
241	0x3f7f178c	0.99645305
242	0x3f7ff200	0.9997864
243	0x3f7f5fd5	0.99755603
244	0x3f8047b9	1.0021888
245	0x3f802cb3	1.0013641
246	0x3f80308a	1.0014813
247	0x3f802e5b	1.0014147
248	0x3f802716	1.0011928
249	0x3f7ee293	0.99564475
250	0x3f7f88a9	0.998179
251	0x3f7ffce7	0.99995273
252	0x3f801e9a	1.0009339
253	0x3f805b9c	1.0027957
254	0x3f808901	1.004181
255	0x3f7f4a5a	0.99722826

bn1.bias f4 [256]
0	0x39cfe020	0.00039649103
1	0xba10a2b4	-0.0005517409
2	0xbae6c437	-0.0017606084
3	0xbb88b8be	-0.0041724136
4	0x3b4a2f22	0.0030850847
5	0xb9ed51bd	-0.00045265062
6	0x395ece02	0.00021248314
7	0x3bb0e2dc	0.0053981375
8	0xbaf4562e	-0.0018641406
9	0x3b5696f2	0.003274378
10	0x399effbe	0.0003032665
11	0x3a83e5e4	0.001006302
12	0xb9150166	-0.00014210268
13	0xbb596df7	-0.0033177116
14	0x3b8fdf38	0.0043906234
15	0x3b60ff80	0.0034331977
16	0x3a2b6d7f	0.00065394485
17	0x39d5b810	0.00040763663
18	0xbb15624c	-0.0022794185
19	0x390b099a	0.0001325965
20	0xbb226b71	-0.0024783278
21	0xbb3023be	-0.0026876773
22	0x3b9a4ae6	0.0047086356
23	0x3b41e4dd	0.0029585876
24	0x3b56a70e	0.003275338
25	0xbb07dc59	-0.0020730703
26	0xb9acf380	-0.00032987818
27	0x3a0d2167	0.00053837005
28	0xb9259433	-0.00015790835
29	0x3a0a044a	0.00052649213
30	0xba61cff6	-0.00086140574
31	0xbad2fb78	-0.0016096672
32	0x390700c7	0.00012874893
33	0x3a95d46c	0.0011431105
34	0x3b7774d8	0.0037758853
35	0xbb6e8d00	-0.003639996
36	0xba07b5fe	-0.000517696
37	0xba751a30	-0.00093499105
38	0xbae475da	-0.0017430142
39	0x3b27249a	0.0025503994
40	0x3b82d676	0.003992851
41	0xb889e830	-6.575917e-05
42	0x3a4269bd	0.0007416269
43	0xbaf21594	-0.0018469566
44	0xbae8a640	-0.0017749742
45	0xbaa0d0f4	-0.0012269304
46	0xbb72ded5	-0.0037059088
47	0xba35df71	-0.00069378974
48	0xbab28236	-0.0013619128
49	0x3a122c1c	0.0005576031
50	0xb84ec5d0	-4.9298455e-05
51	0xba773eff	-0.00094316894
52	0xbb36f899	-0.0027919172
53	0x3ab22eb6	0.0013594243
54	0xbacf123d	-0.0015798282
55	0x3b282717	0.0025658065
56	0xbb4d0f78	-0.0031289738
57	0xbad12056	-0.0015955071
58	0xbb37282b	-0.0027947526
59	0x3abdd424	0.0014482778
60	0xba4f989a	-0.0007919163
61	0x3977da04	0.00023636973
62	0xbb8aed63	-0.0042397245
63	0xbb56a63a	-0.0032752887
64	0xb98df63d	-0.00027077078
65	0x3a51c3f8	0.0008001919
66	0xbba5b96e	-0.0050575053
67	0x3b83cfc0	0.0040225685
68	0x3b697f56	0.0035628877
69	0xbb3c293d	-0.0028711103
70	0x3a41bcaf	0.0007390482
71	0xba19aeda	-0.0005862542
72	0xb93de261	-0.00018108777
73	0xbafdce2a	-0.001936381
74	0xbaf41f88	-0.001862512
75	0x3ab1e591	0.0013572444
76	0xba265686	-0.00063452905
77	0x3b43ac6b	0.0029857408
78	0x3b68cc72	0.003552225
79	0x3b00838d	0.001960966
80	0xbb128524	-0.002235719
81	0x385e7910	5.3041673e-05
82	0xbb1315a9	-0.002244333
83	0x39e60277	0.00043870855
84	0xbb685e5a	-0.0035456629
85	0xbb03fb8e	-0.0020138952
86	0xbae2dd30	-0.0017308351
87	0x3acaaac8	0.0015462274
88	0xba0b8f4d	-0.00053237827
89	0xba494c53	-0.00076789147
90	0xba17bc8c	-0.00057882885
91	0x3a92cf33	0.0011200666
92	0x3b9a5fe9	0.0047111404
93	0xb94d62fa	-0.00019587195
94	0x3a446ca1	0.00074929936
95	0xbabc8def	-0.0014385561
96	0xbb16284b	-0.00229122
97	0xb9bb4c20	-0.00035724137
98	0x3b8e248f	0.004337854
99	0x3b0dafb4	0.002161962
100	0x39bcafe7	0.00035989212
101	0x3b88a0d7	0.004169564
102	0x3b1a198b	0.002351376
103	0x3b69f60d	0.0035699636
104	0xbaef6663	-0.0018264767
105	0x3a68bb98	0.00088780513
106	0x3ad4a599	0.0016223668
107	0x3b816514	0.003948817
108	0x3a526386	0.00080256944
109	0x3bb63110	0.005560048
110	0xba544235	-0.0008097024
111	0x3b398a2f	0.0028311124
112	0x3afb8675	0.0019189852
113	0x3b4a1101	0.003083289
114	0xbb0110a5	-0.0019693759
115	0x3ad48394	0.001621353
116	0xbb247eb4	-0.0025099935
117	0xbad58ee2	-0.0016293193
118	0x3a19bfba	0.00058650563
119	0x3a2723f4	0.0006375902
120	0xba9fcb34	-0.0012191297
121	0x3ab0f3c8	0.0013500387
122	0x3acadbbc	0.0015476863
123	0x3b7efe8f	0.0038909053
124	0xb94263cd	-0.0001853846
125	0xb85910c0	-5.175243e-05
126	0xbabd04c1	-0.0014420972
127	0x395c162e	0.00020989098
128	0x3a2c70c7	0.00065780844
129	0x37ae0fa0	2.0749692e-05
130	0x3a18ab62	0.0005823878
131	0xba1d576e	-0.0006002103
132	0x3a8e2370	0.0010844301
133	0x3a74069c	0.0009308846
134	0xba2edf54	-0.0006670852
135	0x3af418c1	0.00186231
136	0x39e564da	0.00043753424
137	0x3b37d1a4	0.002804854
138	0xbadf5f9c	-0.0017042044
139	0xbb3fe33c	-0.002927973
140	0xbb14689d	-0.0022645362
141	0x3adce700	0.0016853511
142	0xba2b6efa	-0.0006539669
143	0xbadd33cd	-0.00168764
144	0xbb517c6e	-0.0031965035
145	0x39a3b1d3	0.00031222272
146	0xbaa7f0b9	-0.001281283
147	0xba7e63cc	-0.0009704202
148	0xbaca1cd9	-0.0015419974
149	0xba082b29	-0.00051944196
150	0xb9178a14	-0.0001445192
151	0x3a082940	0.0005194135
152	0xbaf5bd18	-0.0018748371
153	0x3a82160d	0.0009924785
154	0x3b8065eb	0.0039183996
155	0x3ae97cfc	0.0017813738
156	0x39f49677	0.00046651412
157	0x38d61798	0.0001020871
158	0x3b317616	0.0027078441
159	0xba91013b	-0.0011062989
160	0xbb8305ef	-0.00399851
161	0xb9efee02	-0.00045762962
162	0xbaafd613	-0.001341524
163	0x3af592ce	0.0018735768
164	0x3909e144	0.00013149256
165	0xbb2a72f3	-0.0026008456
166	0x3aab2e7c	0.0013060118
167	0xba607243	-0.0008561948
168	0x3910b368	0.00013799744
169	0xbb0f30ec	-0.0021849228
170	0xb948a362	-0.00019134351
171	0x3b400c91	0.0029304365
172	0xb82330e8	-3.8907776e-05
173	0xbad3346b	-0.0016113644
174	0x39c7d5d5	0.00038115555
175	0xbab9f8f1	-0.001418857
176	0x3a02a746	0.0004984032
177	0xba6441a5	-0.00087072916
178	0x38c13358	9.212521e-05
179	0x3b886254	0.0041621123
180	0x39ab73c9	0.00032701928
181	0xbac85497	-0.0015283999
182	0xbb5a48bb	-0.003330751
183	0xbb63ca02	-0.0034757857
184	0xbb6aa66f	-0.0035804769
185	0x3a8bc40c	0.0010663285
186	0xbb3028b0	-0.002687972
187	0xbb8b93b8	-0.004259553
188	0x3a9d3ba7	0.0011995927
189	0xbb28a068	-0.0025730375
190	0x3a0ac80a	0.00052940904
191	0x3a995646	0.0011698685
192	0x3aca0690	0.0015413333
193	0xbb03b82d	-0.002009879
194	0x3b362da7	0.0027798207
195	0xbb84d4b6	-0.0040536774
196	0x3b0e4498	0.0021708366
197	0xbb7c6f68	-0.0038518552
198	0x3a94e17a	0.0011358701
199	0x3a8c4eb6	0.001070461
200	0xb7b4b6d0	-2.15428e-05
201	0xba35ece8	-0.0006939904
202	0x3b4daf29	0.0031384921
203	0xbac8f26e	-0.0015331039
204	0xba651671	-0.0008739001
205	0xb68c2a60	-4.1772582e-06
206	0x393d3338	0.00018043525
207	0xbb2e1195	-0.0026560773
208	0xbb8e6025	-0.0043449574
209	0x3a76c790	0.00094138924
210	0x3b6df116	0.0036307028
211	0x3a5d7166	0.00084473786
212	0x39b2c85c	0.00034100085
213	0xbb58c077	-0.0033073702
214	0x3b1513ff	0.0022747514
215	0x3a7db5ba	0.00096782635
216	0x3aca468c	0.0015432402
217	0xbba0c9c0	-0.004906863
218	0xbad6e802	-0.0016396048
219	0x3a9dfa16	0.0012052681
220	0xba3077ee	-0.0006731738
221	0x3a8bbeee	0.001066176
222	0x3a93c4f2	0.0011273904
223	0x3b0bf69f	0.0021356714
224	0x3a21a094	0.00061655906
225	0xbaaa999a	-0.0013015748
226	0xba73f54c	-0.00093062664
227	0x3af4c896	0.0018675502
228	0x3b946768	0.0045289285
229	0xbab21cd3	-0.0013588913
230	0x3a926927	0.0011170254
231	0xbaabe962	-0.0013115818
232	0xb90c1b86	-0.00013361694
233	0x3b1b6246	0.0023709699
234	0xba84e281	-0.0010138304
235	0xbb5b82f4	-0.0033494802
236	0xb988d860	-0.00026101153
237	0x39294018	0.00016140973
238	0xbb07b2fc	-0.0020706048
239	0xb9a8ae62	-0.00032173382
240	0xbaec3409	-0.0018020879
241	0xbb62cc10	-0.0034606494
242	0xbaf16978	-0.0018418273
243	0xbaf1f192	-0.0018458834
244	0x3b0081f1	0.00196087
245	0x3ba23816	0.0049505336
246	0xbb259d48	-0.002527075
247	0xba1ecccd	-0.00060577394
248	0x3b5f4856	0.0034070215
249	0x3880cea2	6.142004e-05
250	0x39b44d0a	0.00034389674
251	0x3a0ed7a4	0.0005449003
252	0x3aee3348	0.0018173242
253	0x3a891f08	0.0010461519
254	0x3b9a84b7	0.004715528
255	0xbbab5211	-0.005228289

bn1.running_mean f4 [256]
0	0xbe121c60	-0.14268637
1	0xbdccdc07	-0.100029044
2	0xbe032cd6	-0.12810072
3	0xbc8f7a9e	-0.017514523
4	0xbde95172	-0.113924876
5	0x3e094656	0.13405737
6	0x3e1c5a3d	0.15268798
7	0x3e21121a	0.15729561
8	0xbe1e18f9	-0.15439214
9	0x3daef664	0.08543089
10	0xbe14524a	-0.14484516
11	0xbe49f1e9	-0.19721188
12	0xbd9ba77b	-0.07600304
13	0x3e04e1ff	0.12976836
14	0xbb524592	-0.0032084924
15	0xbe0b71fa	-0.13617697
16	0xbd5b0d4c	-0.053479478
17	0x3d58d57d	0.052937973
18	0xbe20a3ee	-0.15687534
19	0x3d9679b2	0.0734743
20	0x3e2dc608	0.16970074
21	0xbe5a218c	-0.2130186
22	0xbdba72ff	-0.09103965
23	0xbccb5f91	-0.024825843
24	0xbd6842aa	-0.0567042
25	0x3e2dd0de	0.16974208
26	0x3e0199cf	0.1265633
27	0xbe501f4e	-0.20324442
28	0x3dd95d44	0.10613492
29	0xbe170065	-0.14746244
30	0x3dd45759	0.10368223
31	0xbd078b29	-0.033091698
32	0x3e152609	0.1456529
33	0xbe0c0374	-0.13673192
34	0x3d92cc59	0.071678825
35	0x3daaf2f0	0.08347118
36	0x3dddb3f4	0.10825339
37	0xbe0a0cbd	-0.13481422
38	0xbe170014	-0.14746124
39	0xbbc8d396	-0.0061287386
40	0xbd7ef4f8	-0.06224534
41	0xbd02bf7b	-0.03192089
42	0x3df05a29	0.11735947
43	0x3da4bee4	0.08044222
44	0xbc97f697	-0.0185502
45	0x3d9d591d	0.07683013
46	0x3da1151b	0.07865354
47	0x3dc235e0	0.09482932
48	0x3d750a2b	0.05982415
49	0xbde6ce16	-0.112697765
50	0x3de4317e	0.111422524
51	0xbe6b454a	-0.2297565
52	0x3e3265d8	0.17421663
53	0x3e5f69ea	0.21817747
54	0xbe486d25	-0.19572885
55	0x3dda1cbc	0.10650012
56	0xbdc449b9	-0.09584374
57	0x3e4ea2ff	0.20179366
58	0x3d2e4ada	0.042551853
59	0xbcf15fdb	-0.029464653
60	0x3d7fd1f0	0.06245607
61	0x3de91ca6	0.113824174
62	0xbb9ce606	-0.004788163
63	0x3e0cd5a1	0.13753368
64	0x3e50f938	0.2040757
65	0x3d8d4764	0.06898382
66	0x3d2681d8	0.040651172
67	0xbc9e4f08	-0.019324794
68	0xbd8318be	-0.064012036
69	0x3e4268c2	0.18985274
70	0x3b740900	0.003723681
71	0x3d40ab8a	0.047038592
72	0xbdb0d85b	-0.086350165
73	0xbd3f9a33	-0.046777915
74	0xbdb054ed	-0.08609948
75	0x3e3dcbb1	0.18534733
76	0x3e32ea5f	0.17472218
77	0x3bfa0dcd	0.0076310397
78	0xbd51cab0	-0.05121869
79	0x3d4997e3	0.049217116
80	0x3e07cf8e	0.1326277
81	0x3cf1fadb	0.029538563
82	0xbe33fdde	-0.17577311
83	0x3dbad252	0.09122147
84	0xbe2e74e5	-0.17036779
85	0x3e6de9d3	0.23233728
86	0xbe551a31	-0.20810772
87	0x3e581c78	0.2110461
88	0x3d9b6068	0.075867474
89	0xbe6748b5	-0.2258633
90	0x3da16611	0.07880796
91	0xbe07f0cb	-0.13275449
92	0xbe04f963	-0.12985758
93	0xbe094d83	-0.13408475
94	0x3cc85bad	0.024457777
95	0x3e4f95f5	0.20272048
96	0x3dff0546	0.12452178
97	0x3cac287c	0.021015398
98	0x3e112b01	0.14176561
99	0x3c878120	0.016541064
100	0xbd576e32	-0.052595325
101	0xbe7445d9	-0.2385477
102	0xbd6bc7f2	-0.05756373
103	0x3e2f7ba3	0.17137007
104	0x3e572cb0	0.2101314
105	0x3e08efb8	0.13372695
106	0x3c0f611a	0.008751178
107	0xbd0ccc8f	-0.03437477
108	0xbe1c1880	-0.15243721
109	0xbe37d672	-0.17952898
110	0xbd863f62	-0.06555058
111	0xbe622530	-0.22084498
112	0xbe5a736a	-0.2133309
113	0x3e4ca158	0.19983423
114	0x3ba7c76e	0.0051202094
115	0x3caf878e	0.021426942
116	0xbe55b8ed	-0.20871325
117	0xbca79195	-0.020455161
118	0xbe258c8b	-0.16166894
119	0x3df03c2d	0.117302276
120	0xbc206906	-0.009790665
121	0xbbfda857	-0.007741015
122	0x3dd9b182	0.1062956
123	0x3acd3130	0.0015654918
124	0x3d80b44a	0.062843874
125	0x3cf489db	0.02985089
126	0xbb77a144	-0.003778533
127	0x3d913c7c	0.070916146
128	0xbdbb1259	-0.09134359
129	0x3d932aaa	0.07185872
130	0xbd14f631	-0.0363676
131	0xbc3ec7f0	-0.0116443485
132	0xbe1ec451	-0.15504576
133	0x3e2d8ee6	0.16949043
134	0xbe41e92a	-0.18936601
135	0xbe5c0bcb	-0.21488874
136	0x3dca264e	0.09870587
137	0x3ded61e2	0.11590935
138	0xbdc41b98	-0.095755756
139	0xbe28f920	-0.16501284
140	0xbe48bab5	-0.19602473
141	0x3de72895	0.11287037
142	0x3ddffacb	0.10936507
143	0xbe2c75d6	-0.16841826
144	0xbd7ee8e0	-0.062233806
145	0xbd5e0542	-0.054204233
146	0x3dd3998f	0.10332023
147	0xbe3f6f01	-0.18694688
148	0x3e256e0e	0.16155264
149	0x3d5f323b	0.054491263
150	0xbe4cc3d5	-0.19996579
151	0xbe4c08cf	-0.19925235
152	0xbdcbd95a	-0.09953566
153	0xbe7e3d27	-0.24828015
154	0x3ded5fe7	0.115905575
155	0x3de6d9fd	0.11272047
156	0x3e3b0cbc	0.18266577
157	0x3e40ad96	0.18816218
158	0xbe068b5a	-0.13139096
159	0xbd55f231	-0.052232925
160	0xbd8c286c	-0.06843647
161	0x3e0aeb5f	0.1356635
162	0x3e5930f2	0.21210077
163	0x3daa558c	0.08317098
164	0x3debd846	0.1151586
165	0xbdd186e8	-0.102308095
166	0xbe43e366	-0.19129714
167	0x3d47be03	0.048765194
168	0xbd43db3a	-0.047816493
169	0x3e405f30	0.18786311
170	0xbdefc59c	-0.11707613
171	0x3e44bfd5	0.19213803
172	0x3e56c082	0.20971873
173	0xbd0d31ed	-0.03447144
174	0xbdfb8088	-0.12280375
175	0xbbf29400	-0.007402897
176	0x3d0eba90	0.03484589
177	0xbda943e4	-0.08264902
178	0xbdf2600e	-0.11834727
179	0x3db7074e	0.0893694
180	0x3e1fd6f3	0.1560934
181	0xbb89991c	-0.0041991603
182	0x3e40e564	0.18837506
183	0xbe31fc1c	-0.17381328
184	0x3c7e7269	0.015530207
185	0xbe7bddef	-0.2459638
186	0xbe25412d	-0.16138144
187	0x3cd5a06f	0.026077477
188	0xbe5a9488	-0.21345723
189	0x3e36792c	0.17819661
190	0xbdcad211	-0.09903348
191	0x3e4086f0	0.18801475
192	0xbe2db263	-0.1696258
193	0xbc7ced75	-0.015437474
194	0xbc0adb94	-0.008475203
195	0xbe171372	-0.14753512
196	0x3d558f66	0.05213871
197	0x3e4d4764	0.20046765
198	0xbdc0376a	-0.093855694
199	0x3e05e3fa	0.13075247
200	0x3dcc7107	0.09982496
201	0x3d26be3d	0.04070877
202	0xbe3e4d5a	-0.18584195
203	0x3e19f9d6	0.15036711
204	0xbdd97b7d	-0.10619257
205	0x3dc2f290	0.095189214
206	0xbe047329	-0.12934555
207	0x3d260328	0.040530354
208	0xbe058a1d	-0.13040967
209	0xbdcc0c70	-0.0996331
210	0x3e6af307	0.2294427
211	0x3d21f211	0.039537493
212	0x3a9803d8	0.0011597825
213	0x3d5228b2	0.05130834
214	0x3e06e934	0.13174897
215	0xbe4293c6	-0.19001684
216	0x3e356cdc	0.17717308
217	0xbd9fc771	-0.07801712
218	0xbd4580fc	-0.048218712
219	0xbe002a6d	-0.12516184
220	0x3d3edb97	0.046596136
221	0xbe1e655b	-0.15468352
222	0xbcc5f921	-0.024166645
223	0x3da0a91c	0.07844755
224	0x3cbbb4be	0.022913333
225	0xbdc4b6e9	-0.096052
226	0x3e58b1de	0.21161601
227	0xbdb2f16d	-0.087374546
228	0xbd6816b3	-0.056662273
229	0x3e2a4530	0.16627955
230	0xbe806ec3	-0.25084504
231	0x3c280afe	0.010256527
232	0xbe245ec6	-0.16051778
233	0x3de681b7	0.1125521
234	0xbe29c3b7	-0.16578566
235	0x39458d40	0.00018840004
236	0xbe383f4c	-0.17992896
237	0xbe3dcd79	-0.18535413
238	0xbe767e6c	-0.24071664
239	0xbe41a146	-0.18909177
240	0x3cb7e3d2	0.0224475
241	0x3e15ce7b	0.14629547
242	0x3c8e9cde	0.017408784
243	0xbe642c8c	-0.22282618
244	0xbe244bc4	-0.16044527
245	0xbd8d7bc2	-0.069083706
246	0x3da7f6e7	0.0820139
247	0x3c901dbc	0.017592303
248	0x3c18f4d1	0.0093357125
249	0x3e3a9e5e	0.18224475
250	0x3e19a5a6	0.15004596
251	0x3e05579a	0.13021699
252	0xbdd99f72	-0.10626115
253	0x3db32e5a	0.08749075
254	0x3c8536b8	0.016261443
255	0xbd9cef85	-0.07662872

bn1.running_var f4 [256]
0	0x3ea00d57	0.31260177
1	0x3e8be84f	0.27325675
2	0x3ed73c6c	0.42038286
3	0x3ebfcc60	0.37460613
4	0x3e92dabd	0.2868251
5	0x3ee85554	0.453776
6	0x3ec0e224	0.37672532
7	0x3e69898f	0.2280638
8	0x3ef26ecc	0.47350156
9	0x3ea465f7	0.32109043
10	0x3e898056	0.26855725
11	0x3e99d3ee	0.30044502
12	0x3ec26010	0.37963915
13	0x3ecb6a5e	0.3972959
14	0x3f0e6c03	0.5563356
15	0x3f216c70	0.6305609
16	0x3ef47d78	0.47751975
17	0x3ee4dad4	0.44698203
18	0x3f025a07	0.5091862
19	0x3ef767c2	0.48321348
20	0x3ea1ac6d	0.31576863
21	0x3ee4d953	0.44697055
22	0x3ecc501c	0.3990487
23	0x3ec2cc6f	0.38046595
24	0x3ef6468c	0.48100698
25	0x3e96b2ec	0.29433382
26	0x3ea6d30e	0.32582897
27	0x3ee2d7aa	0.44305164
28	0x3ece04aa	0.40237933
29	0x3ece71f6	0.4032132
30	0x3ea5a28b	0.32350573
31	0x3ec1fcc2	0.3788815
32	0x3e8f687b	0.280094
33	0x3f086b87	0.53289074
34	0x3ecb5f7c	0.39721286
35	0x3eb7a819	0.35870436
36	0x3ed04d9e	0.40684217
37	0x3eb19af1	0.34688523
38	0x3e6e35ba	0.23262683
39	0x3edcd6c1	0.43132594
40	0x3eccf719	0.4003227
41	0x3f06269a	0.5240265
42	0x3eccfef7	0.40038273
43	0x3edeb464	0.43497002
44	0x3e98bc7b	0.298313
45	0x3ec79d92	0.38987404
46	0x3eb65359	0.35610464
47	0x3eb62984	0.3557855
48	0x3e963232	0.2933517
49	0x3ec82820	0.39093113
50	0x3e99b257	0.30018875
51	0x3eaaaf3a	0.33336812
52	0x3ed66c9a	0.4187973
53	0x3edc0de8	0.4297936
54	0x3ef57b71	0.4794574
55	0x3eeebb44	0.46627247
56	0x3ef4081a	0.4766243
57	0x3ed4ec64	0.41586602
58	0x3edc2ec3	0.43004426
59	0x3eadc088	0.33935952
60	0x3ec058e6	0.37567824
61	0x3ea32beb	0.31869444
62	0x3f03d046	0.51489675
63	0x3ec58bd8	0.38583255
64	0x3ee03e12	0.43797356
65	0x3ed17ccd	0.40915528
66	0x3ebf89be	0.37409776
67	0x3ec7c58b	0.390179
68	0x3eb0033c	0.34377468
69	0x3ec08d0b	0.37607607
70	0x3f13c646	0.57724416
71	0x3e93d44f	0.28872916
72	0x3edf8e35	0.43663183
73	0x3edfc305	0.43703476
74	0x3ece8c31	0.40341333
75	0x3ebe49f5	0.371658
76	0x3ee81610	0.45329332
77	0x3ef01e9c	0.46898353
78	0x3ef6fe1a	0.4824074
79	0x3eb61852	0.3556543
80	0x3ed60245	0.41798607
81	0x3f060dd6	0.5236486
82	0x3ee62270	0.4494815
83	0x3ecf3880	0.40472794
84	0x3eb5cd87	0.35508367
85	0x3ee3dfce	0.44506687
86	0x3ee432d4	0.4457003
87	0x3f0e8fae	0.5568799
88	0x3ed000f5	0.4062573
89	0x3ecaad8c	0.3958553
90	0x3efb087a	0.49029905
91	0x3ee7cf5e	0.45275396
92	0x3eae80f0	0.34082747
93	0x3ec939e4	0.3930198
94	0x3eda3b46	0.42623347
95	0x3ee1119b	0.43958744
96	0x3ee4930b	0.44643435
97	0x3ed84191	0.42237523
98	0x3eb255da	0.34831125
99	0x3ee224e8	0.44168782
100	0x3f094652	0.53622925
101	0x3edbc6c2	0.42925078
102	0x3eeb5b68	0.45968175
103	0x3ee1296a	0.4397691
104	0x3efed149	0.49769047
105	0x3ec4dfd6	0.38452023
106	0x3ef416c1	0.4767361
107	0x3ea85572	0.3287769
108	0x3edd9819	0.43280104
109	0x3ecf2b09	0.4046252
110	0x3eb262ec	0.34841096
111	0x3ed530ca	0.41638786
112	0x3ed6ac54	0.4192835
113	0x3ee7d076	0.4527623
114	0x3ebc2bfa	0.367523
115	0x3ee85759	0.4537914
116	0x3ec2c2c7	0.38039228
117	0x3ea955bc	0.33073223
118	0x3ea0de6c	0.31419694
119	0x3ed6ad0e	0.41928905
120	0x3ec9481b	0.39312825
121	0x3eb1ef89	0.34753063
122	0x3eb832e3	0.35976323
123	0x3f00bd69	0.50289017
124	0x3ee8b0ac	0.4544729
125	0x3e9b0b1e	0.3028192
126	0x3ed7b88d	0.4213299
127	0x3eada630	0.33915854
128	0x3ebd454a	0.36966926
129	0x3ea52d89	0.32261303
130	0x3efea86a	0.49737865
131	0x3ee1f7d4	0.4413439
132	0x3eccc230	0.39991903
133	0x3ee25ffe	0.4421386
134	0x3ed5ebf6	0.41781586
135	0x3eb8fb14	0.36129057
136	0x3ebf4a56	0.373614
137	0x3eb14725	0.3462459
138	0x3e929b3f	0.28634068
139	0x3eaae1da	0.33375436
140	0x3ec31704	0.38103497
141	0x3ed7d9c0	0.42158318
142	0x3eca4d50	0.3951211
143	0x3e94cdec	0.29063356
144	0x3ede8595	0.4346129
145	0x3ea99169	0.33118752
146	0x3ee3b0fa	0.4447096
147	0x3ef96db9	0.48716524
148	0x3eee40d6	0.4653384
149	0x3eb1c83e	0.34723085
150	0x3e927541	0.28605083
151	0x3e9f66ca	0.3113311
152	0x3f0b2fd4	0.54369855
153	0x3e997817	0.29974434
154	0x3e9d4705	0.30718246
155	0x3ebc9c89	0.36838177
156	0x3ea028f3	0.31281242
157	0x3ead6a97	0.33870384
158	0x3ecb0339	0.39650896
159	0x3ec07d5c	0.37595642
160	0x3eb07733	0.34465942
161	0x3ef37727	0.47551844
162	0x3eda8c7a	0.426853
163	0x3eb52989	0.3538325
164	0x3f07c204	0.5303042
165	0x3ebafeb4	0.36522448
166	0x3ece951e	0.40348142
167	0x3ed4c1b0	0.41554022
168	0x3eb227ef	0.34796092
169	0x3eda43ca	0.42629844
170	0x3f04383a	0.51648295
171	0x3ec25a57	0.3795955
172	0x3edaec96	0.42758626
173	0x3ecb6aa4	0.39729798
174	0x3eaea720	0.3411188
175	0x3eb25383	0.3482934
176	0x3eb49839	0.35272387
177	0x3edefc7a	0.43552
178	0x3eb70fb7	0.35754177
179	0x3e81caa0	0.25349903
180	0x3ed3eed9	0.41393164
181	0x3eb25228	0.34828305
182	0x3eb2e324	0.3493892
183	0x3ebe161a	0.37126237
184	0x3ede45bb	0.43412575
185	0x3ee2d025	0.44299427
186	0x3eef1310	0.4669423
187	0x3ef77d84	0.48337948
188	0x3ef0cb36	0.47030038
189	0x3ef981ae	0.4873175
190	0x3eeef807	0.46673605
191	0x3eebcc40	0.46054268
192	0x3ee36ed6	0.444205
193	0x3e92b0b0	0.28650427
194	0x3eeb2ea1	0.45934013
195	0x3edd12f6	0.4317853
196	0x3ea1fdcf	0.31638953
197	0x3e9e8d7b	0.30967316
198	0x3ece831f	0.40334412
199	0x3ea8365e	0.3285398
200	0x3eb9de05	0.363022
201	0x3eca0067	0.39453432
202	0x3ece2f74	0.4027058
203	0x3efb5020	0.49084568
204	0x3e941206	0.2892
205	0x3ec709f4	0.3887478
206	0x3ead9e98	0.3391006
207	0x3f0e82f1	0.5566855
208	0x3ee55aa1	0.44795707
209	0x3ea35cd6	0.31906766
210	0x3ebd6a2a	0.3699506
211	0x3eb8b610	0.36076403
212	0x3f1e1530	0.6175108
213	0x3ea015f1	0.3126674
214	0x3ec26d13	0.37973842
215	0x3ee13b6f	0.43990657
216	0x3ed3c632	0.4136215
217	0x3f225e86	0.6342548
218	0x3ea11474	0.31460917
219	0x3eac80a1	0.33691886
220	0x3ee3ecf3	0.44516715
221	0x3f04ca37	0.51871055
222	0x3edcd348	0.43129945
223	0x3eceef51	0.4041696
224	0x3ec7feb2	0.39061505
225	0x3ea6e0c6	0.32593364
226	0x3ec027d8	0.37530398
227	0x3e99fdfd	0.3007659
228	0x3efba30b	0.4914783
229	0x3e87b0bc	0.26502025
230	0x3eb99621	0.36247352
231	0x3e8a3765	0.26995388
232	0x3f1028e8	0.5631242
233	0x3ec85886	0.39130038
234	0x3ece2030	0.40258932
235	0x3e5b423f	0.2141199
236	0x3ea37ec0	0.3193264
237	0x3ede4db0	0.43418646
238	0x3eba3106	0.36365527
239	0x3eaa42ae	0.33253998
240	0x3ebdbb53	0.3705698
241	0x3ea866d4	0.32890952
242	0x3ecb390a	0.39691955
243	0x3ea8297c	0.3284415
244	0x3f0c4239	0.5478855
245	0x3eafd7e6	0.34344405
246	0x3ef2c416	0.47415227
247	0x3f011d3d	0.5043524
248	0x3e98f94a	0.29877692
249	0x3f1a02b0	0.6016035
250	0x3e81cab4	0.25349963
251	0x3e9ee372	0.31032902
252	0x3ee356af	0.44402072
253	0x3ee89bb8	0.45431304
254	0x3ed6552b	0.41861853
255	0x3eac4888	0.33649087

fc2.weight f4 [128, 256]
0	0x3c310be9	0.010806062
1	0xbd571e4c	-0.052519128
2	0xba4de3c8	-0.00078540714
3	0x3cf71965	0.030163476
4	0xbc4bad36	-0.012431433
5	0x3c5cc7ff	0.013475417
6	0x3cc50416	0.0240498
7	0x3d297552	0.04137165
8	0x3d05a31d	0.03262626
9	0xbc502f0d	-0.01270653
10	0xbd170cbc	-0.03687738
11	0xbd4fefa6	-0.050765656
12	0x3d1aded6	0.03781017
13	0xbd3ff830	-0.04686755
14	0xbd70ec53	-0.058819126
15	0xbca0b982	-0.019619707
16	0x3c941211	0.018075021
17	0x3d70b171	0.05876297
18	0x3d58b9ba	0.052911498
19	0x3cacbd24	0.021086283
20	0x3d32bc00	0.043636322
21	0x3cda5780	0.026653051
22	0x3c478061	0.012176604
23	0x3c25d880	0.010122418
24	0x3c5d336e	0.013501031
25	0xbccfc60d	-0.025362993
26	0xbd3af88e	-0.045647196
27	0xbcc72d75	-0.024313668
28	0x392b34b4	0.00016327464
29	0x3c96a4e7	0.018389178
30	0x3b93ad15	0.004506717
31	0x3d682b0e	0.056681685
32	0xbba9da49	-0.0051834923
33	0xbd000476	-0.031254254
34	0x3cba31c7	0.022728814
35	0xbcf4dbe0	-0.02989
36	0x3ba398de	0.0049925884
37	0x3d1a888e	0.037727885
38	0x3d636d9a	0.055524446
39	0xbce208ec	-0.027592145
40	0xbd3ce6a5	-0.046118397
41	0x3cb57d95	0.022154609
42	0x3d3aa8ba	0.045571066
43	0xbcf33a30	-0.029690832
44	0x3d602290	0.05472046
45	0xbc9532e2	-0.01821274
46	0x3cf2e94d	0.029652262
47	0x3d335a05	0.04378702
48	0x3d08e914	0.033425406
49	0xbd7b99f5	-0.06142612
50	0xbcd8f212	-0.026482616
51	0xbce4490a	-0.027866859
52	0xba2a7a64	-0.0006503223
53	0x3bd6ee3b	0.006559161
54	0xbd648bc4	-0.055797353
55	0xbd678ff2	-0.05653376
56	0x3d82da1a	0.06389256
57	0xbd2e22b4	-0.042513564
58	0x3bcf18d3	0.006320098
59	0x3cc2a0d8	0.023758337
60	0x3d106ead	0.0352618
61	0xbd1aa8ed	-0.037758756
62	0x3d5470d8	0.05186543
63	0xbd4eaf90	-0.0504604
64	0xbce1815e	-0.027527507
65	0x3c4e2063	0.012580964
66	0x3d3e041c	0.046390638
67	0xbd71f256	-0.059069
68	0x3d6d4a8e	0.05793243
69	0xbc8fa85e	-0.017536338
70	0x3c877a3a	0.016537774
71	0xbd6d5950	-0.057946503
72	0xbcb2200c	-0.021743797
73	0x3d2815d4	0.041036442
74	0xbd33ab27	-0.043864395
75	0xbd325934	-0.043542102
76	0xbce3e150	-0.027817398
77	0x3d506a1a	0.050882436
78	0xbcae3551	-0.021265658
79	0x3d3d49ec	0.046213076
80	0x3ca1f6e6	0.01977105
81	0xbc191bec	-0.009345036
82	0xbd7103e8	-0.058841616
83	0xbce8c029	-0.028411942
84	0xbd11a0e2	-0.03555382
85	0x3d266788	0.04062608
86	0xbcdd8a20	-0.027043402
87	0xbc2c4da7	-0.010516561
88	0x3d01f207	0.031724956
89	0xbcaca2a9	-0.021073656
90	0xbd71fe24	-0.059080258
91	0x3c9d3bbc	0.019193523
92	0x3d5662e7	0.052340414
93	0x3d49152e	0.049092464
94	0xbd1cd486	-0.038288616
95	0xbd54893d	-0.051888693
96	0xba3052d1	-0.0006726208
97	0xbc3175ab	-0.010831277
98	0xbc7e45fb	-0.015519614
99	0xbd2866b8	-0.041113585
100	0xbd666fb2	-0.056258865
101	0x3c5afce4	0.013365958
102	0xbbf41033	-0.00744822
103	0x3d4e1449	0.050312314
104	0xbd69decf	-0.057097252
105	0xbd4357fc	-0.04769133
106	0xbc32afc2	-0.010906162
107	0x3ce3381c	0.027736716
108	0xbb577cca	-0.0032880777
109	0xbce9d326	-0.028543066
110	0x3d36046e	0.04443782
111	0x3bc493aa	0.0059990482
112	0x3b74dcc0	0.0037363023
113	0x3cfe0d2b	0.031012138
114	0x3cd4f456	0.025995415
115	0xbce68eb6	-0.028144222
116	0x3b07c44a	0.0020716363
117	0x3ade5d1e	0.0016965007
118	0x3d3cca6e	0.04609149
119	0x3d6df095	0.058090765
120	0xbc0211d3	-0.00793882
121	0xbd3d3cf4	-0.046200708
122	0x3d054d88	0.032544643
123	0xbd3b4496	-0.045719706
124	0x3d6eaca6	0.05827012
125	0x3d5f6d69	0.0545477
126	0x3d445e52	0.047941513
127	0xbbb71b6a	-0.005587985
128	0x3d1db76e	0.03850501
129	0x3ca00d80	0.019537687
130	0xbd34a988	-0.04410699
131	0xbc80424a	-0.01565661
132	0x3d29ce70	0.04145664
133	0xbd6b360f	-0.0574246
134	0x3cf4eab2	0.029897068
135	0x3c570302	0.013123276
136	0xbce77869	-0.028255658
137	0x3cb3fe63	0.021971887
138	0xbce6ba1f	-0.028164921
139	0x3d12a4c3	0.03580166
140	0x3c9f0a71	0.019414159
141	0x3d5f20ce	0.054474644
142	0x3d4e22b1	0.050326053
143	0xbd6cfd3c	-0.05785869
144	0x3cbfa958	0.02339618
145	0x3d3ed0ea	0.046585955
146	0xbd1580d5	-0.036499817
147	0x3b5788df	0.0032887978
148	0x3d37c24f	0.04486304
149	0x3d089526	0.033345364
150	0x3d81b030	0.06332433
151	0xbc39064a	-0.011293003
152	0x3ba79274	0.005113894
153	0xbd214d1a	-0.03938017
154	0xbcb0b9b4	-0.021572925
155	0x3bb2ade0	0.0054528564
156	0xbd79fc84	-0.061031833
157	0x3d089147	0.033341672
158	0x3aefc5c0	0.0018293187
159	0xbd138909	-0.03601936
160	0x3d6a2822	0.05716718
161	0x3d0e4f24	0.034743443
162	0xbd5045bd	-0.050847758
163	0xba2d1767	-0.00066029135
164	0xbc009efc	-0.007850405
165	0x3d3d5af9	0.046229336
166	0xbd21eabf	-0.039530512
167	0x3c9401d0	0.01806727
168	0xbd785e77	-0.060636964
169	0x3d7fd812	0.06246192
170	0x3cfc4e35	0.03079901
171	0x3aa0f3e5	0.0012279717
172	0x3b512cc8	0.003191756
173	0x3ca4af14	0.020103015
174	0x3cba330b	0.022729417
175	0xbbb20997	-0.005433272
176	0xbd176864	-0.03696479
177	0x3c45e86e	0.012079341
178	0xbd21a515	-0.039464075
179	0x3cae427a	0.021271933
180	0x3c90e22b	0.01768597
181	0x3d7fe8ee	0.062478
182	0x3b7172bd	0.003684207
183	0xbd07fd39	-0.033200476
184	0xbd823a1e	-0.06358741
185	0xbcfa4fab	-0.030555567
186	0xbcf7b4c8	-0.03023757
187	0x3d50f49f	0.05101454
188	0x3d42de34	0.04757519
189	0x3ce68010	0.028137237
190	0xbb8ba4bd	-0.0042615817
191	0x3d80adc6	0.06283145
192	0xbd756212	-0.05990798
193	0xbd51bfc0	-0.051208258
194	0xbd581d5c	-0.052762374
195	0x3cf90be9	0.030401187
196	0x3bc93499	0.0061403033
197	0x3d1e1e40	0.038603067
198	0x3d5f1ae4	0.054469004
199	0xbc0f25ad	-0.00873701
200	0xbc87809d	-0.01654082
201	0xbd3daa01	-0.046304706
202	0x3c26b78c	0.010175597
203	0xbd261795	-0.040549833
204	0xbd5adc47	-0.05343273
205	0xbd702385	-0.058627624
206	0x39b9f308	0.00035467022
207	0x3d4540a2	0.04815734
208	0xbc5d094e	-0.013490988
209	0x3d4d5014	0.050125197
210	0xbd109ce4	-0.035305873
211	0xbd636346	-0.055514596
212	0x3d5e8eb7	0.054335322
213	0xbbcc964c	-0.0062435027
214	0xbb5be281	-0.0033551755
215	0x3c23e53e	0.010003386
216	0x3c9574df	0.018244205
217	0xbc2feeaf	-0.010738059
218	0x3c8a3f94	0.01687602
219	0xbd3c3509	-0.045949016
220	0xbc4d4847	-0.012529439
221	0xbd15bf6b	-0.036559504
222	0xbd3eb7ef	-0.04656213
223	0x3d7baf92	0.061446734
224	0x3bef9577	0.007311519
225	0x3cfbc680	0.0307343
226	0x3c1968a5	0.009363328
227	0xbc783409	-0.015149125
228	0xbbcdee71	-0.006284528
229	0x3d04f018	0.032455534
230	0xbd4a8166	-0.04943981
231	0x3c05fc8d	0.008177889
232	0xbd4c56b4	-0.049887374
233	0x3cc2af84	0.023765333
234	0xbbf81049	-0.0075703007
235	0x3c3e7da9	0.011626639
236	0xbd425cd5	-0.047451813
237	0xbd08a3a7	-0.033359196
238	0x3c861456	0.016367119
239	0x3d341de2	0.04397381
240	0x3ce593f9	0.02802466
241	0xbd4ae407	-0.04953387
242	0xbd7da0e3	-0.06192101
243	0xbc50f470	-0.012753591
244	0xbcfc7cb0	-0.030821174
245	0x3cef88ec	0.029240094
246	0x3d51e748	0.051245958
247	0xbd42f89e	-0.04760038
248	0xbb91cb38	-0.0044492744
249	0x3d3192f5	0.04335304
250	0xbb9f47b1	-0.004860841
251	0xbcb70498	-0.022341058
252	0xbd5b1c74	-0.053493932
253	0x3bb572a0	0.005537346
254	0xbd0a994e	-0.03383761
255	0x3c308bd0	0.010775521
