tryst/model_round_4.pth (torch, 194739 bytes, 19 tensors)

fc1.weight f4 [256, 14]
00000000: 46d4 353e 0733 efbd 1d41 b83c b2ac d53d
00000010: 3e2b c43d 1b42 013d 48a1 a03d 6c79 053e
00000020: 4b37 0b3e ccdd 103d 16a9 903d 7d08 bdbb
00000030: 0bd7 e3bb 4279 b4bd e694 6b3d 7270 cb3d
00000040: 398f b4bc a9be 3bbe 619e 2f3d f068 fb3c
00000050: c769 c5bd 649a e5bd 11c5 d1bd 7223 703d
00000060: 295b 8ebc 1b97 91bd 0645 f73c edc9 12be
00000070: b54c 01be b1b3 45bd e012 6f3d bcee abbc
00000080: c0ad 92bd 0f9d 51bd c4f9 333d 867e a1bd
00000090: 516e 00bd 6c9b 8dbd d1c6 0f3e f16a 8abd
000000a0: 3a53 633d 485c d9bd e518 1b3e c82e 28be
000000b0: a3ec 1d3c c445 23be c627 1dbd 61e6 66bd
000000c0: 60de 643d c688 ddbd 25f2 dcbd 9aef c03d
000000d0: 4980 163e eda0 dd3a 34ca e53d b03d b93d
000000e0: f9c1 babd 96e2 cd3d 26fa 98bc c1ce f43d
000000f0: 7182 10bd c9df 5a3d abf3 c93d cca8 673d
00000100: f709 f1bd 3e79 3c3c d669 2bbe aee2 b43d
00000110: 521c 44bc c61a 6b3b e53d 063c 6722 233c
00000120: 0b5b 393c 0fa8 1dbe 504c d2bd aa11 d43d
00000130: 76e2 0e3c 3aaa 5e3d aa79 1d3d 3e39 ac3d
00000140: 3069 22bd 01bd 6d3d 30d4 cb3d 4ec7 c2bd
00000150: 476d e33d 2fbf 10bd ac51 ba3d da01 91bd
00000160: bc28 503d 12a2 dd3d 6c2b e03d 98eb d53c
00000170: 3edd 1fbd 64d1 513b 2d67 0cbe c2d5 a7bd
00000180: 8830 21bd 9bef f73d 0afc 9d3d da56 c33d
00000190: 913f 76bd 1848 103e 4d49 72bd 85bc 5cbc
000001a0: 6e3e a03d 0f6d 9b3d cce6 bcbd a276 21be
000001b0: b489 113d 4f48 9bbd 072f b5bc 5bfb 0abe
000001c0: 5709 ecbd cd6d 8bbd 842a d13d 1909 0a3d
000001d0: c4a4 883d 1ee8 b53c 0871 b9bd 09b0 00be
000001e0: 7356 bfbd eeb2 4b3a 9433 cabd 7f2b e2bd
000001f0: 7c9b f5bd 3ac8 2a3d f24a bbbd 116e 4cbd
00000200: 71df 963b 6554 ff3c a7ac 1bbd 3a9f 783d
00000210: c823 0ebe 2af9 8dbd 2d52 d6bc be5c ef3c
00000220: 274d 0cbe 4dc3 b7bd f235 103c 7508 333e
00000230: b1c0 833d 6ab2 0ebd 7512 933d d21b f2bd
00000240: 4a67 603c 622f 9e3b ca3f 1abe 5ff9 203d
00000250: 1e38 adbd 9cf4 86bc e60d 8fbc 528f d7bd
00000260: 7626 073b 48c3 663d 9a26 6d3d 93e8 d63d
00000270: fc16 c63d a14d e4bc 822c a0bc 86e5 433d
00000280: b3e9 a1bc 4e51 a1bd 7d0c 823c 99f3 af3d
00000290: 42ce f8bc c2f3 ce3c d855 9f3d 4079 713e
000002a0: 8da9 f3bd 79a8 d5bc f46b ccbd 41b6 47bd
000002b0: a5e8 05be f5cb e1bd b854 853c c470 b43c
000002c0: a0d3 b2bd 40ab ba3d c594 013e f6e1 cebd
000002d0: e087 4cbc 41b2 81bc 56f0 dfbc 4fb5 ac3c
000002e0: 9328 96bd b533 2abc a5a1 ad3d 02b1 b5bd
000002f0: 4414 823c 4b2b 16be e472 b13d f7c5 0a3e
00000300: 114c 78bd 0814 413d 6008 173e 5b1b d1bd
00000310: d991 f9bd 624f 1cbd 12a7 17be 02a0 99bd
00000320: bd2e 6c3d f3b2 59bd 2fef d5bd 727f b83d
00000330: a404 3939 52b6 13be 7bbb 833c 98e2 f03c
00000340: 9e60 883b 4e76 d1bd 0fed a93d 0a02 e23c
00000350: fccd 70bd bca2 bc3d bb80 f7bd bc17 d73d
00000360: 30a9 a13d 4c20 c03d 2419 fbbc fffb 003e
00000370: fd83 1e3e e74f babd 7de2 163e a614 0e3e
00000380: 5ea1 b7bd 7b54 503d 96a6 ccbb deef 5ebc
00000390: c251 133d 68d0 f3bc 8b64 0b3e 57bb 8cbd
000003a0: 771d 7fbb 0210 3cbe c8a5 abbd c207 e1bd
000003b0: e83c 923d fd79 61bd 7ade 993d 3df4 16be
000003c0: 6e2b 153e fe6e 19be 7ef6 7abd 7c56 f23d
000003d0: b56d 03be eddb 9abc a8ce b7bd 8dc5 853c
000003e0: ca6e 11bd 7f9d e4bd 765c 9cbd 88ce 81bd
000003f0: f738 19bc 42a9 f53b b1b5 a6bd ab68 d6bd
0.17756757 -0.116796546 0.022491986 0.1043333 0.0957856 0.031557184 0.07843262 0.130346
0.13595311 0.035367772 0.070635006 -0.005768834 -0.0069531254 -0.088121906 0.057515047 0.099335566
-0.02204095 -0.1833445 0.04287565 0.030689687 -0.09639316 -0.11211088 -0.102426656 0.058627553
-0.017377453 -0.07108899 0.03018428 -0.14334841 -0.12626918 -0.04826707 0.05836761 -0.02098786
-0.071620464 -0.051175173 0.043939367 -0.078854606 -0.031355206 -0.0691441 0.14040686 -0.06758679
0.055499293 -0.106133044 0.15146215 -0.16424096 0.009638938 -0.15944582 -0.03836801 -0.05637205
0.055876136 -0.10817103 -0.10788373 0.094207 0.14697374 0.0016908922 0.11220208 0.09044969
-0.091190286 0.100529835 -0.018673968 0.11953498 -0.03528065 0.053436074 0.09860929 0.05655746
-0.11769479 0.011503516 -0.16739592 0.08832298 -0.011969643 0.0035874113 0.008193468 0.009956933
0.01131321 -0.1539614 -0.10268462 0.10354932 0.008720985 0.05436156 0.038446106 0.084093556
-0.039651096 0.058041576 0.09952581 -0.095106706 0.111048274 -0.035338577 0.09097609 -0.07080431
0.050820097 0.10821928 0.10945782 0.026113316 -0.039029352 0.0032015676 -0.13711233 -0.08195068
-0.039352924 0.12106248 0.07714088 0.0953805 -0.060119215 0.14090002 -0.059151936 -0.013472681
0.078244075 0.07589161 -0.092237085 -0.15767911 0.035531715 -0.07582151 -0.022117151 -0.13572447
-0.11525219 -0.06808052 0.10213187 0.033700082 0.066720515 0.022205409 -0.09054762 -0.12567152
-0.09342661 0.0007770498 -0.09873119 -0.110434525 -0.11992547 0.041694857 -0.09145154 -0.049909655
0.004604273 0.031168172 -0.03800645 0.060698725 -0.13880837 -0.0693229 -0.026162231 0.029219028
-0.13701306 -0.089727975 0.008801924 0.17483695 0.06433237 -0.034838118 0.07181255 -0.118217126
0.013696501 0.004827426 -0.15063396 0.03930032 -0.08457969 -0.01647406 -0.017462682 -0.10525383
0.002062229 0.05633858 0.05789814 0.10493579 0.09672353 -0.027869048 -0.019552473 0.047826312
-0.019764757 -0.07876836 0.015875096 0.085913844 -0.030371789 0.025262717 0.07780045 0.2358141
-0.118975736 -0.02608131 -0.09981528 -0.048757795 -0.13077028 -0.1102523 0.016275749 0.022026427
-0.087317705 0.091146946 0.12654407 -0.101016924 -0.012483567 -0.015832068 -0.02733628 0.021082548
-0.07331958 -0.0103883045 0.08478097 -0.08871652 0.015878804 -0.14664952 0.08664492 0.1355208
-0.060619418 0.047138244 0.14749289 -0.10210296 -0.12186021 -0.038161643 -0.14809826 -0.07501222
0.05766176 -0.053149175 -0.10446011 0.09008683 0.00017644704 -0.14425018 0.016080609 0.029404923
0.0041619083 -0.10227643 0.082971685 0.027588863 -0.058790192 0.092107266 -0.120851 0.10502574
0.07893598 0.0938116 -0.030651636 0.12596129 0.15480037 -0.090972714 0.14734836 0.13875064
-0.08966325 0.050861817 -0.0062454445 -0.0136069935 0.035966642 -0.029762462 0.13612573 -0.0687167
-0.0038927475 -0.18365481 -0.0838123 -0.10987808 0.07140523 -0.055047978 0.07513137 -0.14741607
0.14567348 -0.14983746 -0.06127023 0.11832902 -0.12834819 -0.018903697 -0.089749634 0.016329551
-0.035506047 -0.111628525 -0.07634823 -0.06338221 -0.00935196 0.0074969837 -0.08140124 -0.104691826

fc1.bias f4 [256]
00000000: 910d 0cb6 27ab e2b6 ba8f 5e36 b431 8fb6
00000010: 6fc9 c4b6 bb2a 2b36 60b1 0eb6 9c20 13b7
00000020: b64d 8735 4c7e 2137 a57e e0b6 223e bab6
00000030: a8b6 9936 b368 ab36 f40a 9836 dcce d3b6
00000040: 9511 c8b5 7acb be36 33f1 11b7 5a91 cf35
00000050: faa2 1fb6 52e0 aeb7 2695 a136 204b 1a33
00000060: 0c02 c8b5 9cdd 9136 f445 9bb5 3aee 65b7
00000070: 9976 72b6 c2c7 07b6 bee9 9237 f07d 3837
00000080: 1332 97b6 21cc 7f36 5c95 9736 80af 69b6
00000090: abd3 e936 5adc 93b7 6e01 f835 62cc 8136
000000a0: fd5c fcb5 ca27 94b7 5976 b435 fca0 c9b6
000000b0: 80d8 db34 f068 f9b6 d872 9cb7 f4f6 85b5
000000c0: bade 1d36 b3c7 bd36 7f29 6ab6 b663 1a37
000000d0: 823c 0f37 9033 86b6 3c5f 71b5 847f eab7
000000e0: 619a b2b6 54c7 0937 f670 4c36 9873 0f35
000000f0: eeda b1b6 0ebe 49b6 90f0 d3b5 662e bcb6
00000100: 28d5 3cb7 e24b 10b6 fb44 2e36 9a9e aeb4
00000110: 3a38 f236 b8ea 2d36 df74 9d36 f831 62b7
00000120: 3be5 97b5 bd69 4b36 5461 0e35 7e45 18b6
00000130: 2646 80b6 d93c d7b6 c8de 4136 f0db 1237
00000140: 1d8f 0ab6 4413 a235 2e66 4d37 ad78 0fb7
00000150: 93f6 8636 133d 3fb7 aebb a7b6 f0fb 0fb7
00000160: d4fc dab5 3077 0636 1211 cf36 990e 05b6
00000170: 3ec5 1eb6 942f 8036 fb0d 30b7 4a96 8db6
00000180: 9e27 32b6 b0ed 93b4 8fda 1e37 45ee 1db7
00000190: e256 1937 f8fd e335 c2ea e136 220a 4db6
000001a0: 8f8c b937 8042 f3b3 a94d a037 b395 f2b5
000001b0: 912b dc35 87f7 4237 069f fab5 1a62 c0b6
000001c0: 4882 c836 ec5e 0eb7 ff88 81b6 bd5e 5236
000001d0: 9036 8036 38e8 dd36 20dd 0b36 a619 1c37
000001e0: 7140 e636 9bf3 a6b6 58e1 8b37 444b 9636
000001f0: f073 2037 1679 2836 845d 32b7 270f 2137
00000200: e051 d037 54bb ae34 1311 c435 0e7b 92b5
00000210: bb11 9737 434e 0cb6 67ba 61b6 3ce8 a536
00000220: 12d8 23b6 7e66 0335 2695 8237 907f f4b3
00000230: 6608 4536 ea5e c435 9890 2b37 ce5a 57b6
00000240: 864a d7b6 72bc 1936 0083 22b5 042d 8d36
00000250: 5bb1 d7b4 21e7 5eb6 6225 a635 8c1e 9bb7
00000260: a4b7 5036 f88a 7fb6 bb9e cc36 4eb7 ae36
00000270: c022 84b4 fa2c e8b6 9c79 0db6 4aff bab6
00000280: 5279 9336 94e6 2537 8e2d c6b6 f389 0b36
00000290: f002 e5b2 26a0 81b5 d621 fcb6 6a8e 45b5
000002a0: 8552 c535 e0be 60b3 da93 33b6 92a3 8ab6
000002b0: 6e25 cf36 3802 a9b5 0967 de34 ad80 60b5
000002c0: 4566 db36 5c70 f635 78f7 00b6 5eab 8f36
000002d0: 9aae 12b7 a8c4 8c36 25b1 34b6 f058 b8b6
000002e0: fcaa e036 c369 1e37 ea93 ab37 569d 8b37
000002f0: 8ca6 0a36 1ed8 88b6 ba19 87b6 1929 a7b7
00000300: ef6e 0037 738c 2a37 e0d4 0d37 b93e 0d36
00000310: 78f7 c2b5 528f 4cb7 b49d c336 16cf 42b6
00000320: a61d 3937 a07d 47b6 6c83 ccb5 28f8 c9b4
00000330: c0e9 3a33 363f 30b7 d4ff 3ab5 5f6a 3736
00000340: 188d 4033 5086 b3b5 9ed2 0bb7 c2c8 9f36
00000350: 466d dd35 5375 41b7 0225 5a36 de0f 51b5
00000360: adef 6db6 3d20 3137 c0f1 0935 ce0e 48b6
00000370: 60bf 37b7 7e99 dc35 60c7 12b4 3c3a 2836
00000380: dc07 e436 a3f6 5db5 736b d8b6 42da 9936
00000390: 9888 c434 cd81 9db5 7502 92b6 251c 8736
000003a0: 2127 0637 4d10 67b6 6831 b5b6 aa35 9936
000003b0: 256b 3637 a57c 1137 2a50 da37 63c8 35b6
000003c0: 0686 ddb6 f262 efb6 ce10 acb6 759b 7c36
000003d0: 85ac a536 10e5 3c37 f2b9 3db7 261b 5036
000003e0: 10db 3db5 b3e9 6137 2766 7c36 8cf1 0937
000003f0: 583e 1436 a4ce a9b5 b8db c535 7d3d efb5
-2.0869522e-06 -6.7552496e-06 3.3164238e-06 -4.2675183e-06 -5.864705e-06 2.5505858e-06 -2.1262895e-06 -8.769475e-06
1.0080901e-06 9.625754e-06 -6.6904636e-06 -5.550465e-06 4.5810193e-06 5.1083857e-06 4.531228e-06 -6.3123716e-06
-1.4906278e-06 5.686129e-06 -8.698832e-06 1.5465005e-06 -2.3787711e-06 -2.0846874e-05 4.815537e-06 3.5924245e-08
-1.4901757e-06 4.3471355e-06 -1.1568759e-06 -1.370493e-05 -3.6129843e-06 -2.0232842e-06 1.7513401e-05 1.0996577e-05
-4.50598e-06 3.811678e-06 4.5175384e-06 -3.482186e-06 6.9685825e-06 -1.7626375e-05 1.8477856e-06 3.868293e-06
-1.8802526e-06 -1.7661503e-05 1.3445489e-06 -6.009008e-06 4.0949453e-07 -7.4329946e-06 -1.8650127e-05 -9.981145e-07
2.3524467e-06 5.655887e-06 -3.489287e-06 9.202331e-06 8.537552e-06 -3.999514e-06 -8.991808e-07 -2.7954353e-05
-5.3227855e-06 8.212246e-06 3.046412e-06 5.343986e-07 -5.300498e-06 -3.006196e-06 -1.5790738e-06 -5.608238e-06
-1.12553025e-05 -2.1501842e-06 2.5968172e-06 -3.2525423e-07 7.2187077e-06 2.5915633e-06 4.69257e-06 -1.3482284e-05
-1.1317092e-06 3.0310905e-06 5.3040753e-07 -2.2690215e-06 -3.8228636e-06 -6.414583e-06 2.8888917e-06 8.753486e-06
-2.0646905e-06 1.2075548e-06 1.2242743e-05 -8.551561e-06 4.022216e-06 -1.1398707e-05 -4.9988366e-06 -8.582123e-06
-1.6315848e-06 2.0036932e-06 6.171068e-06 -1.9827041e-06 -2.3658645e-06 3.820236e-06 -1.0493673e-05 -4.2196234e-06
-2.6547127e-06 -2.7553824e-07 9.468421e-06 -9.413406e-06 9.13974e-06 1.6986733e-06 6.732852e-06 -3.0553279e-06
2.2119171e-05 -1.13276656e-07 1.910965e-05 -1.8073973e-06 1.6403957e-06 1.1620933e-05 -1.8672733e-06 -5.7334664e-06
5.975631e-06 -8.48596e-06 -3.860448e-06 3.1347583e-06 3.821049e-06 6.613347e-06 2.0841326e-06 9.304296e-06
6.862036e-06 -4.975545e-06 1.6675025e-05 4.4791104e-06 9.563737e-06 2.5104432e-06 -1.06314e-05 9.599876e-06
2.4833658e-05 3.2546325e-07 1.4608107e-06 -1.0913661e-06 1.800886e-05 -2.090718e-06 -3.3636113e-06 4.944419e-06
-2.4414662e-06 4.895045e-07 1.556666e-05 -1.1385339e-07 2.9360176e-06 1.4630762e-06 1.022606e-05 -3.2090352e-06
-6.416175e-06 2.2908466e-06 -6.0540333e-07 4.207368e-06 -4.0175914e-07 -3.3215113e-06 1.2378844e-06 -1.8491664e-05
3.1101308e-06 -3.8078852e-06 6.0981524e-06 5.2069436e-06 -2.46122e-07 -6.9193748e-06 -2.1081423e-06 -5.5729515e-06
4.395065e-06 9.888452e-06 -5.906163e-06 2.079291e-06 -2.6660445e-08 -9.657858e-07 -7.5141243e-06 -7.359546e-07
1.470166e-06 -5.2327664e-08 -2.675914e-06 -4.1317626e-06 6.173438e-06 -1.2592127e-06 4.142569e-07 -8.363375e-07
6.5386143e-06 1.8361129e-06 -1.9217532e-06 4.281682e-06 -8.742931e-06 4.195219e-06 -2.6925202e-06 -5.493981e-06
6.6956254e-06 9.442158e-06 2.0453666e-05 1.6643357e-05 2.0660545e-06 -4.078275e-06 -4.0263085e-06 -1.9927089e-05
7.655223e-06 1.01654905e-05 8.453819e-06 2.1047147e-06 -1.4526149e-06 -1.2192717e-05 5.829812e-06 -2.9028793e-06
1.1033762e-05 -2.9726434e-06 -1.5237433e-06 -3.7619725e-07 4.3519094e-08 -1.0505135e-05 -6.966268e-07 2.733104e-06
4.4831808e-08 -1.3375629e-06 -8.334084e-06 4.7619405e-06 1.6497586e-06 -1.1531013e-05 3.2506073e-06 -7.7881657e-07
-3.5455262e-06 1.0557528e-05 5.138827e-07 -2.981094e-06 -1.0952208e-05 1.6435949e-06 -1.3669842e-07 2.5067848e-06
6.7958445e-06 -8.268782e-07 -6.4498104e-06 4.585164e-06 3.660723e-07 -1.1735189e-06 -4.351425e-06 4.02659e-06
7.996133e-06 -3.443117e-06 -5.399972e-06 4.5660026e-06 1.0872992e-05 8.671695e-06 2.6024954e-05 -2.7087742e-06
-6.6019156e-06 -7.134274e-06 -5.127956e-06 3.7641414e-06 4.937467e-06 1.1259006e-05 -1.1308572e-05 3.1010218e-06
-7.0726765e-07 1.3465457e-05 3.7610387e-06 8.222076e-06 2.2090007e-06 -1.2651622e-06 1.474159e-06 -1.7824783e-06

bn1.weight f4 [256]
00000000: e669 793f a74d 763f 685c 753f a42a 833f
00000010: 9a90 6a3f 94f0 773f 0244 6a3f 23e6 783f
00000020: 8674 793f 8ed2 723f e56a 693f 5ccc 703f
00000030: ab8f 7c3f 6500 763f 8c18 783f 9c4e 763f
00000040: 7790 6a3f e878 6b3f c08f 743f 44c8 6d3f
00000050: d322 6b3f 2c60 783f 1564 653f da72 6d3f
00000060: 9183 6f3f d454 783f b861 733f 528a 763f
00000070: cf1a 6f3f 2e3b 6f3f 1edd 763f 7164 853f
00000080: 4aa9 7a3f aa7c 6f3f 5017 773f 1a12 713f
00000090: de66 6e3f c51a 703f 0474 7d3f 5e7a 6b3f
000000a0: 402f 723f 8299 803f d68b 5f3f 6feb 703f
000000b0: ed9b 6f3f 2e2e 813f 07bb 703f ea08 853f
000000c0: c585 6f3f b911 7f3f 4d14 6f3f 486a 743f
000000d0: 0a9a 7f3f 2da8 793f c351 7c3f 441e 7a3f
000000e0: ac70 6c3f 5351 743f 9ece 6e3f fafb 763f
000000f0: f544 673f bc8d 743f 9027 6d3f 56b8 673f
00000100: bc4b 683f 52d4 733f 8459 683f 597e 6f3f
00000110: ba30 673f aa34 673f 2211 7b3f 7036 743f
00000120: aafd 743f 4e15 833f f753 7e3f e198 7e3f
00000130: a5f4 763f 069f 683f bfc4 623f ad0c 753f
00000140: 9e1a 6f3f 2ca3 703f 8378 783f 58ae 6a3f
00000150: 7cb8 7b3f e7ae 703f e4fb 6d3f 75d5 6a3f
00000160: ce41 733f 6cff 773f 5e03 7d3f 9caa 793f
00000170: c19d 773f ca16 6e3f 2958 7b3f 3caa 6d3f
00000180: 86a7 803f b4a2 713f 012e 763f 02ee 793f
00000190: 0e26 723f 36c3 7b3f 1ea8 833f d846 783f
000001a0: f7f2 7d3f e635 703f dade 7d3f 7774 7b3f
000001b0: 1aba 5c3f 02b8 613f 3b87 703f 8407 763f
000001c0: 844a 773f 7053 733f 3613 7b3f 06bc 6d3f
000001d0: c84b 773f 84b8 703f 9243 753f 8bd2 733f
000001e0: ff09 6a3f d3d7 6d3f 3c9b 753f 02be 6f3f
000001f0: 5a2f 733f ee0a 743f 577e 673f cac6 713f
00000200: 581d 833f 6cc7 683f 304f 6a3f 4426 7e3f
00000210: c411 6d3f 2e25 813f dc3e 723f 14a9 743f
00000220: 9032 713f ab81 783f 08d5 783f 3248 773f
00000230: 340e 6a3f e351 773f 572f 823f 44f8 733f
00000240: 525b 6a3f bd5c 7c3f 6a0f 6b3f 5996 743f
00000250: b02a 723f 0d78 693f 9680 693f 3c13 703f
00000260: 2358 6d3f b78c 773f 3bab 773f a033 743f
00000270: aa0f 833f 82d5 803f 029a 7d3f a20f 7a3f
00000280: 1415 883f 1d6a 6a3f 505d 733f defb 753f
00000290: 35eb 713f ca98 7d3f b4d4 5c3f 881d 803f
000002a0: 8bd2 6c3f 065b 743f c94e 733f 9a3d 723f
000002b0: 771e 7a3f 4f75 7b3f 8e78 623f a2c1 823f
000002c0: 1653 833f 5c6b 703f 55ec 833f 93a7 643f
000002d0: ff3f 7c3f b64d 653f 0a80 713f 08da 643f
000002e0: aa80 7c3f f595 683f 5eba 793f 9c33 7e3f
000002f0: 62e7 6f3f 7130 6e3f 812d 803f 5f62 723f
00000300: e488 733f b37d 753f 9e9c 803f 78ed 6e3f
00000310: c8f5 853f e026 723f ee62 813f f555 733f
00000320: 0e23 833f aa79 753f 919a 643f d818 773f
00000330: d9e6 693f 11f5 703f 4834 783f e53d 823f
00000340: a9e5 773f 8fa2 6c3f 04ea 7d3f d202 6b3f
00000350: 0d37 6c3f aa73 7d3f bd89 703f 6271 663f
00000360: 7376 673f 8043 783f 9fbe 7e3f c5b4 643f
00000370: cdba 7b3f 2725 733f f848 683f 88fd 633f
00000380: 59f7 783f 4f75 683f d8ea 6c3f 57e5 643f
00000390: 3e0f 793f 887d 7e3f 6e53 6d3f 0add 703f
000003a0: e42b 663f 3fa0 793f 9884 703f c2ce 7f3f
000003b0: 5cc9 7c3f bad4 6c3f 2ddc 783f bc97 743f
000003c0: be44 7d3f d317 803f 923f 6f3f 2010 783f
000003d0: 6132 753f 8606 763f 1097 7d3f a427 6a3f
000003e0: aaf5 7e3f 788c 793f 783a 673f dba3 763f
000003f0: 0624 763f 2c74 743f 76dd 673f ea94 733f
0.97427213 0.9621224 0.95844126 1.0247388 0.91626894 0.9685147 0.9151002 0.9722616
0.97443426 0.9485253 0.91178733 0.9406183 0.9865672 0.9609435 0.96912456 0.962137
0.91626686 0.91981363 0.95531845 0.92883706 0.9185001 0.97021747 0.8960584 0.92753375
0.9356013 0.9700444 0.9507098 0.9630481 0.9340028 0.93449676 0.9643115 1.0421277
0.97914565 0.935496 0.9651995 0.94168246 0.9312571 0.9379085 0.9900515 0.9198359
0.9460335 1.0046847 0.8732275 0.94109243 0.935973 1.0092218 0.9403538 1.0393345
0.9356349 0.9963642 0.9339035 0.9547467 0.9984442 0.9752224 0.9856226 0.9770243
0.92359424 0.9543659 0.9328402 0.96478236 0.90339595 0.9552877 0.9263849 0.9051565
0.9074056 0.9524585 0.9076159 0.93552166 0.90308726 0.90314734 0.9807302 0.95395565
0.9569956 1.0240877 0.9934687 0.99452025 0.9646705 0.9086765 0.8858146 0.95722467
0.9339999 0.9399898 0.97058886 0.9167228 0.98328376 0.9401688 0.9296248 0.9173196
0.95022285 0.9687412 0.9883326 0.97525954 0.9672509 0.93003523 0.98181397 0.9283788
1.0051124 0.9438889 0.96163946 0.97628796 0.94589317 0.98344743 1.028568 0.969831
0.9919886 0.9383224 0.9916817 0.98224586 0.8622147 0.881714 0.93956345 0.9610522
0.96598077 0.9504919 0.9807619 0.92865026 0.9660001 0.9403155 0.9580623 0.9524314
0.914215 0.92907447 0.95939994 0.93649304 0.9499413 0.9532918 0.90427154 0.94443953
1.024333 0.90929294 0.9152708 0.9927714 0.92605233 1.0089471 0.94627166 0.9557049
0.9421778 0.9707286 0.9720006 0.96594536 0.9142792 0.96609324 1.0170697 0.953007
0.91545594 0.9857901 0.91820395 0.9554191 0.94596386 0.9119881 0.9121183 0.9377935
0.9271261 0.9669909 0.9674565 0.95391273 1.0239155 1.0065157 0.9906312 0.97680104
1.0631433 0.91568166 0.9506426 0.96087444 0.9449952 0.9906126 0.8626206 1.0009012
0.92508763 0.9545139 0.9504209 0.94625247 0.97702736 0.98225874 0.884652 1.0215342
1.0259731 0.9391382 1.0306498 0.893182 0.9853515 0.895717 0.94336 0.8939519
0.98633826 0.90853816 0.9755 0.992975 0.9371244 0.93042666 1.0013887 0.9468135
0.95130754 0.95894927 1.0047796 0.933311 1.0465631 0.9459057 1.0108316 0.95053035
1.0245073 0.9588877 0.8929835 0.96522284 0.9136787 0.9412394 0.96954775 1.0175139
0.9683481 0.92435545 0.99185205 0.9180118 0.922715 0.99004614 0.9396017 0.9001676
0.90415114 0.96977997 0.99509615 0.8933833 0.9833191 0.94978565 0.9073634 0.89058733
0.9725242 0.90804 0.92545843 0.89412445 0.9728888 0.99410295 0.9270543 0.9408728
0.8991072 0.9751014 0.9395232 0.9992486 0.9874475 0.92512095 0.9721096 0.9554403
0.9893302 1.000727 0.93456376 0.96899605 0.9578 0.96103704 0.9905863 0.91466737
0.99593604 0.97479963 0.9032359 0.96343774 0.9614872 0.95489764 0.905723 0.951491

bn1.bias f4 [256]
00000000: 7c0b e3bc 4317 01be 39d2 9a3c b69f 45bd
00000010: 265d fdbd 3d1b 70bd 0fa4 cdbd 65c4 09bd
00000020: 6d86 f6bd b2e1 07be 553d 37be 650c 0ebe
00000030: 45a2 b83c fd83 12bd 1b72 b2bd f695 b7bd
00000040: 9aaf e1bd 0894 ecbd e476 cbbd 6480 b0bd
00000050: 1eb6 bbbd b5f9 82bd 2acc eabd e4da 35bd
00000060: a471 70bd 58da 5abd 2d7c 1abe 1231 cbbd
00000070: f5dc a7bd d019 06be a051 91bb b03b 90bd
00000080: 6732 13be 0441 bbbd 2f26 14bc 7842 8abd
00000090: 0fe1 e8bd c37d 0dbd 5857 4bbe 030e 07be
000000a0: 16c4 e8bd 40e4 94bd 1ee8 3fbd d32a 84bd
000000b0: 286e 1abd c439 82be 9d6f dfbd 5c36 02bd
000000c0: 51f7 b0bd c996 60bd 1d02 92bd 593d 0dbe
000000d0: 1963 c8bd 98a8 24bd 3c34 4ebe 56bb 8cbc
000000e0: 0d87 b2bd 2243 bdbd 5224 d7bd 042d 18bc
000000f0: 24b1 06be 30c1 1ebe f251 e0bd f8cb 0abe
00000100: aa9f 9bbd 5391 a1bd f085 24be baf2 f1bd
00000110: 057f b9bd fe68 88bd b42e 22bd fd7b f3bd
00000120: f011 f3bd 6dd9 70bd 60c3 02be 5f87 9ebd
00000130: e005 1ebd 54b5 92bd ab4e b9bd 811d 98bd
00000140: f3ad a2bd 435c a3bd baef 81bd b6d8 bcbd
00000150: d6d4 e6bd 88ba 15be bf2d 9cbd fa3b 6fbd
00000160: be99 b7bd 504b 8b39 6d42 d3bd 306a c7bd
00000170: aba3 78bd 401a 9bbd ef6b a0bd 7c16 c6bd
00000180: 7e52 6dbd 42a7 ffbd 6b40 0fbd 6519 3abd
00000190: 0cb7 c9bd 93a0 c3bd fa13 3cbd d9c7 ebbd
000001a0: 0c49 25be 9629 cfbc 058d 833b a933 4cbd
000001b0: 0aa9 fcbd 8ef9 a7bd c509 a8bd db46 83bd
000001c0: 9cec 91bd d15e b6bd ec0b 86bd 3372 8bbd
000001d0: 5afd c8bd a7a1 cfbd b241 51bd 786a 80bd
000001e0: 728f 15be 2042 fabd 60c3 14be c8f1 b1bd
000001f0: 051e 04be 8c97 88bd adce 02be 4b97 a3bc
00000200: 07c1 efbc dc02 f3bd fa1a b1bd 2709 0fbe
00000210: 26a5 9dbd 0120 09bd ff92 05be d3b9 9abd
00000220: bdb1 d5bd c71b d8bd 5b79 63bd 05c2 13bd
00000230: 0ce6 77bd 671c 3cbe beea bbbd ada2 ebbd
00000240: 2e24 ebbd 7d4a babd 1098 d1bd a711 22be
00000250: f315 00be ac57 e8bd c6dd 0cbe 187c 49be
00000260: 9c48 91bd f688 57bd 4904 10bd b62d 21bd
00000270: 1d14 9abd ec88 37bd 4c69 babd 559f d5bd
00000280: 7c18 ecbd ab9f 97bd bcbb c7bc 8238 8ebe
00000290: 95b1 0fbe ff68 f8bc 777e 82bd fcf9 b4bd
000002a0: 0e3e 9abd b37f 8abd 9f2b 8dbc 7222 b3bd
000002b0: 380c 8fbd 09d7 25bd c195 c0bd 4f13 1dbd
000002c0: 91a9 8cbd e456 b43a a610 1abe 6424 7abd
000002d0: c377 acbd c726 9fbd 122c 17be 952b 36be
000002e0: 1484 88bd 25dd 03be 4ae7 f6bc 76fb a8bd
000002f0: 11a8 57bd 9c75 c5bd 9ce0 74bd b8ae aebd
00000300: 0331 65bd e1cb 17be 5627 91bd b2f8 73bd
00000310: 832f 4bbc 7af9 13bd 941c ffbc 7223 debc
00000320: 20a5 2bbe 2a59 163c 9965 55bd 68da 19be
00000330: 644a debd 68be 7dbd a88c babd 3efa 28be
00000340: 3462 c0bd 9e60 c1bd cf57 dabd 47d2 39bd
00000350: 547a 52bd 6628 26be 1018 85bd 4862 98bd
00000360: 81db 44bd 4849 1dbd 5fdb 10be 9074 febd
00000370: bfec 85bc 18ee 3ebd 4517 d0bd dddc e6bd
00000380: 7ab0 24be 1b77 45bd 065e 6cbd fcbe 00be
00000390: 8d71 09be ea4a 25bd 6960 a2bd 82bf b6bd
000003a0: b2a0 9ebd a7d5 36bc 7360 89bd 7244 c5bc
000003b0: a3ec b0bd ceba 2cbd c641 c2bd 6d44 8bbd
000003c0: 348b aebd 718f 47bd 1380 0fbd 3159 f1bd
000003d0: 3790 abbd 6dba 0ebe d14a c4bd 62e1 dbbd
000003e0: bf7d b8bd 50f9 b9bc 2cf5 85bd a40d adbd
000003f0: 6f3c e6bd 00db acbd 2045 10bc 6653 e6bd
-0.027715437 -0.1260653 0.01889907 -0.048248015 -0.12371282 -0.058619726 -0.10041057 -0.033634562
-0.120373584 -0.1326969 -0.1789449 -0.13871916 0.022538314 -0.035770405 -0.0871317 -0.0896415
-0.110198215 -0.11551672 -0.09934786 -0.086182386 -0.091655955 -0.06395284 -0.114647225 -0.044398203
-0.058702126 -0.053430885 -0.15086432 -0.09921469 -0.08196441 -0.13095784 -0.0044347793 -0.070426345
-0.14374696 -0.0914326 -0.009042307 -0.06750959 -0.113710515 -0.034543764 -0.19857538 -0.13188939
-0.113655254 -0.07270098 -0.046852224 -0.064534806 -0.03770271 -0.25434697 -0.109099604 -0.031790122
-0.08640922 -0.0548313 -0.07129309 -0.13792934 -0.097845264 -0.040199846 -0.20137113 -0.017179172
-0.08717165 -0.0924132 -0.105049744 -0.009288076 -0.13153511 -0.15503383 -0.1095313 -0.1355437
-0.07598813 -0.078890465 -0.16066718 -0.118138745 -0.0905743 -0.06660651 -0.03959532 -0.11888883
-0.11868656 -0.058801103 -0.12769842 -0.07740664 -0.03857982 -0.07163492 -0.09048208 -0.074275024
-0.079433344 -0.07976582 -0.06344552 -0.09221022 -0.11271064 -0.14621937 -0.07625913 -0.058406807
-0.08964871 0.00026568258 -0.10315404 -0.097370505 -0.06070296 -0.07573366 -0.07833087 -0.09672257
-0.05794 -0.12483074 -0.034973543 -0.045434374 -0.098493665 -0.095521115 -0.04591749 -0.11512727
-0.16141146 -0.025288384 0.0040146136 -0.049853954 -0.12336929 -0.08201896 -0.082049884 -0.06409999
-0.07125208 -0.089048035 -0.06545243 -0.06808891 -0.09813948 -0.101382546 -0.051088043 -0.06270307
-0.14605501 -0.122196436 -0.14527655 -0.08688694 -0.12902077 -0.0666953 -0.12774153 -0.019969603
-0.029266847 -0.1186578 -0.086477235 -0.13968335 -0.07697515 -0.033477787 -0.13044356 -0.075549744
-0.104342915 -0.10552173 -0.055535655 -0.036073703 -0.060522124 -0.1837021 -0.09175633 -0.11505637
-0.1148151 -0.09096239 -0.10234082 -0.15827046 -0.12508373 -0.11344847 -0.13756475 -0.19676244
-0.07093927 -0.05262085 -0.035160337 -0.039350234 -0.075233676 -0.044808313 -0.09102115 -0.10430781
-0.115281075 -0.07403501 -0.02438151 -0.27777487 -0.14032586 -0.030323504 -0.063717775 -0.08836743
-0.07531367 -0.06762638 -0.017232714 -0.08746804 -0.069847524 -0.040488277 -0.09403563 -0.038348492
-0.0686828 0.0013758806 -0.15045413 -0.06106986 -0.0842128 -0.07771068 -0.14762905 -0.17790063
-0.06665817 -0.12877329 -0.030139584 -0.08251087 -0.052650515 -0.09641573 -0.059784517 -0.08529419
-0.055954944 -0.14823867 -0.07087581 -0.059563346 -0.012401464 -0.03612659 -0.031141557 -0.027116511
-0.16762209 0.009176532 -0.052098844 -0.15024722 -0.10854033 -0.061949164 -0.09108859 -0.1650171
-0.09393731 -0.094422564 -0.106612794 -0.04536655 -0.051386192 -0.16226348 -0.0649873 -0.07440621
-0.048060898 -0.038399965 -0.14146183 -0.12424576 -0.01634824 -0.046613783 -0.10160688 -0.11272595
-0.16082945 -0.04820929 -0.057706855 -0.12572855 -0.13422222 -0.040354647 -0.07928545 -0.08923246
-0.07745494 -0.011159337 -0.06707849 -0.024080489 -0.08638885 -0.04217034 -0.094852015 -0.068001606
-0.08522645 -0.04872078 -0.03503425 -0.1178459 -0.08377116 -0.13938303 -0.095845826 -0.10736348
-0.09008359 -0.02270189 -0.065409034 -0.08449867 -0.112419955 -0.084402084 -0.008805543 -0.11246376

bn1.running_mean f4 [256]
00000000: 8561 0cbd fa84 453b b297 9dbc 0f96 02bd
00000010: 8ed0 02bb 8092 7b39 fc38 fbbb 5091 d0bc
00000020: 0879 5d3c f77e 203d 38ad 403c 20fc e33c
00000030: 93f0 97bb 9421 823a e6e2 513c 3611 10bb
00000040: ca88 c2bb ea95 f7bb 712e 253d 0813 c03c
00000050: 18e5 80bc 58af 043d 54a4 dabc dcde b83c
00000060: 84f4 83ba bff4 033d 8978 0e3c f0e2 3d3b
00000070: 087a 033d 4693 3dbb 45ba 2abc 3bb5 883b
00000080: 25c6 bd3b a4d5 07bb ab29 59bb 73a3 483c
00000090: 938f f1bc 28d5 2a3d c2f5 da3c 19c4 29bc
000000a0: 0a49 523c 1225 ddbc b070 ce3b d2f9 853c
000000b0: 705b d13c 18bf e13c 9cf0 9839 eb33 2fbc
000000c0: bfdb 26bc cb19 113c 0444 65bb 3980 cbbc
000000d0: 94e1 28bd f01e bebc e278 393c 5037 f53b
000000e0: f043 eb3b 24b2 333b 783f 7a3c a68f 0a3c
000000f0: 0b75 1e3c ee6f a8bb 7464 08bb 660b cc3c
00000100: 0a88 2abb 80f8 f63b 643a 2ebc 902f 803c
00000110: 9c80 1f3d b57b 5fbc 88bf c7bc 00a2 a73a
00000120: 4aa2 9a3c 3878 c8bc 1ecd d63c ec7b 14bc
00000130: 98c6 7bbb 4882 cc3c a65c 0d3d 793a 443d
00000140: 708c 78ba e0c7 d639 e537 313c 7ae5 073c
00000150: e817 223c e84e f63c da09 32bd 0068 df3c
00000160: 2ded 1a3c b67a 0a3c 7354 313d e63f cbba
00000170: 07cb bd3c 64e3 e8ba 9cca ce3a 2a25 b53c
00000180: 8451 323c a05a 113c 7c92 d3ba 00cb 12bc
00000190: e08f efb9 a6fe 3e3d b7aa 913c 8e83 643b
000001a0: 9e9a 693b de2b fc3c f434 cd3c 11bd 503c
000001b0: 6cb7 a93c 92ce 0b3b 3cb2 5f3b 353f 8dbc
000001c0: 374d d33c be41 8b3a 9af4 9ebc 9da9 f4bc
000001d0: f0e4 193b 3e62 d4bc b217 41bc dae9 a9bb
000001e0: ebbd 3bbc 3e67 9e3c b0e9 84bc a80b 3c3c
000001f0: 27ab 17bd 0817 ebbc e612 343c 16a5 c3bb
00000200: 7485 543b e1d6 acbc fa56 49bc 4cf7 183c
00000210: e4bc 03bc 38f3 543c 0064 883a 253e cd3b
00000220: 86b1 1ebb 2057 303c 488d d0bc 7dd6 5abc
00000230: 90f8 a73c ce42 22bb 7042 7abb a4bd adbb
00000240: 6759 cabc c233 83bc 4d5b b03c 4fec 58bc
00000250: 409d 953b 90cc 093a a48f 7ebc 5028 80ba
00000260: cf0c d3bc 9972 b8bc 5cec 573b bfd3 c4bb
00000270: 704c 7aba 865a 06bc 66b3 103c 66a8 9b3c
00000280: 0f45 1b3d 2e64 823c c424 ddbc d412 843c
00000290: 06a6 debb 1840 9b3a 10c2 40bc e02f bf3c
000002a0: b6c4 bf3b 4a45 d8bc 6026 f53a be37 8bbc
000002b0: 8f67 7b3c d89e 0fbc 3e89 7a3c 9d84 bfbc
000002c0: 828f 9d3c 1428 73bb d5d1 4a3c 375c 283c
000002d0: 77ba 8b3c 6398 4dbd 4a76 52bc 0077 4ab8
000002e0: 72d0 323d 4ecb 33bc 0065 2cba 1f7d b73c
000002f0: b09c 53bc 024f 4b3c a5fe 43bc 71fb 24bd
00000300: 59e4 e6bc c60b 80bc b075 703c b89b 2cbd
00000310: a8c7 283b 6a82 a63c fc25 ae3c 0419 9f3a
00000320: 768b f1bb b0be 673b b23f 273d 0962 ad3b
00000330: 10d7 2ebb 1b88 ba3c 96d9 c4bc cec1 933c
00000340: d74f 12bc f948 2fbc 7ed2 2b3c 1e60 fe3c
00000350: e1f3 0ebc 4e35 f0bc 04fe e93b 228d ba3b
00000360: 1a86 1f3c 8082 d6ba 971d b2bc 9e6f 8ebc
00000370: 02df b83c 7009 653a a6a1 9f3b d2c0 6f3c
00000380: b821 3dbc f83b 03bd 624d e43b a251 35bc
00000390: 2737 23bd 3204 643c a149 0c3d 50bf 2d3c
000003a0: 1abf 2b3d 6aec ae3b e204 8cbc c6cc 063c
000003b0: 32b6 11bd 47db 16bb 644b a23b 480a 4dbc
000003c0: e298 22bc a82c 983a 17be 1fbd 4052 5d3c
000003d0: 55d8 d9bc 1c6f 3cbb 6aef b73b db5a 5c3c
000003e0: b38d 7fbb b674 223c ca52 03bd 6cf0 8d3b
000003f0: c053 8dbc aed1 cf3c 10b5 d9bc 7ad9 da3c
-0.03427269 0.0030139075 -0.019237373 -0.03188139 -0.0019960734 0.00023991801 -0.007666705 -0.025459915
0.013517626 0.039183583 0.011760049 0.027830184 -0.004636833 0.000992822 0.012810444 -0.0021982915
-0.0059367167 -0.007555713 0.040327493 0.023446575 -0.01573424 0.032393783 -0.026689686 0.022567205
-0.0010067378 0.03221583 0.00869573 0.0028974377 0.0320988 -0.0028926893 -0.010420387 0.004171995
0.005791443 -0.0020726705 -0.0033136408 0.012246001 -0.029487407 0.041707188 0.026728515 -0.010361695
0.012834797 -0.026995216 0.0063000545 0.016354475 0.025556296 0.02755694 0.00029170967 -0.010693531
-0.0101842275 0.008856247 -0.0034983167 -0.024841415 -0.041230753 -0.023208112 0.011320325 0.0074834004
0.0071797296 0.0027419413 0.015273921 0.0084571 0.00967146 -0.005140296 -0.0020811828 0.024907779
-0.0026021027 0.0075369477 -0.010634039 0.01564768 0.03894101 -0.013640334 -0.024383321 0.0012789369
0.018876214 -0.024471387 0.026220854 -0.009062748 -0.0038417932 0.024964467 0.034512185 0.047907326
-0.0009481376 0.0004096618 0.010816549 0.008294458 0.009893395 0.030066922 -0.043466426 0.02727127
0.009455961 0.008452108 0.043293428 -0.0015506714 0.0231681 -0.0017767963 0.0015776935 0.022112448
0.010883693 0.008871704 -0.0016141678 -0.008959532 -0.00045692828 0.04662957 0.017781598 0.0034868452
0.0035645138 0.030782636 0.025049664 0.012740389 0.020717345 0.0021332842 0.0034133336 -0.017242054
0.025793655 0.0010624451 -0.019403744 -0.029866034 0.0023482405 -0.025925752 -0.011785435 -0.005185348
-0.011458854 0.01933634 -0.016224712 0.011477388 -0.037028458 -0.028697506 0.010990834 -0.0059706075
0.0032428177 -0.021098556 -0.012288803 0.009336304 -0.0080406405 0.012997441 0.0010405779 0.0062635117
-0.00242147 0.01076296 -0.025457993 -0.013356802 0.020504266 -0.0024759057 -0.0038186572 -0.005302148
-0.024700833 -0.016015891 0.02152791 -0.013239934 0.004565865 0.00052566174 -0.015537176 -0.0009777639
-0.025762944 -0.022515582 0.0032947278 -0.0060066874 -0.0009548133 -0.008200293 0.008831834 0.019001197
0.037907656 0.01591691 -0.02699507 0.01612226 -0.006794694 0.0011844663 -0.011765018 0.023338258
0.005852307 -0.026400227 0.0018703453 -0.016994353 0.0153445145 -0.008765899 0.01529151 -0.023378665
0.019233469 -0.0037102746 0.012379129 0.010275892 0.017056687 -0.050194155 -0.012845585 -4.827138e-05
0.04365582 -0.010973765 -0.00065763295 0.02239853 -0.012915775 0.012408974 -0.011962567 -0.040278856
-0.028185057 -0.015630614 0.014676496 -0.042140692 0.002575377 0.020325858 0.021258347 0.0012138193
-0.0073713614 0.0035361461 0.04083223 0.0052912277 -0.002667848 0.022769978 -0.024029534 0.01803675
-0.008930168 -0.01069855 0.010487197 0.031051692 -0.008725137 -0.029322293 0.0071408767 0.005693094
0.009736562 -0.0016365796 -0.021742625 -0.017387208 0.022567276 0.0008737063 0.004871565 0.014633374
-0.011543684 -0.032039613 0.0069672326 -0.011066826 -0.03984752 0.013917016 0.034249905 0.0106046945
0.041930296 0.0053382413 -0.017092172 0.008227533 -0.035574146 -0.0023018883 0.004952835 -0.012514658
-0.009924145 0.0011609988 -0.038999643 0.013508379 -0.026592413 -0.002875275 0.005613257 0.013449396
-0.0038994371 0.009915521 -0.032061376 0.004331639 -0.01725185 0.025368538 -0.026575595 0.026715029

bn1.running_var f4 [256]
00000000: b288 ec3d 4e63 bc3d 2654 a43d cc0c f43d
00000010: 74a7 8f3d 2df9 9c3d a2f9 ee3d b2cd bc3d
00000020: 521d cc3d adaf a13d c659 b23d aaa2 bd3d
00000030: 1207 083e 0080 943e aa73 0c3e 1b0e f63d
00000040: 51d3 813d f920 0b3e 6bd0 9b3d 71ab aa3d
00000050: f245 083e 9c2b 153e 9443 c03d 1971 0a3e
00000060: 1319 c33d 7646 a13d a85b 993d 3eac b73d
00000070: 1e6b ee3d 5fea f43d a061 053e 4c24 693d
00000080: a1cc 953d 3bb8 b53d 4e0e 663e cc3a b93d
00000090: 507f ba3d 9941 993d 2160 903d 6274 4d3e
000000a0: 0b44 0e3e 1758 ae3d 9656 073e 937c 603d
000000b0: 400d c13d b81c e63d 2256 a03d d1aa ee3d
000000c0: ef9a cb3d 64c9 5a3e 02b0 043e a576 033e
000000d0: 8e62 953d fef9 cf3d 1bb6 b33d 2de2 e23d
000000e0: 9f6c 2c3e de9b 343e e614 f63d 0d9c a83d
000000f0: b80c f73d 52c9 853d 3ccc 053e 5cd2 163e
00000100: da0e 483d cbf3 c53d 2a4f b03d 3faa af3d
00000110: 917c 9a3d 2235 be3d 088f e43d 5665 413d
00000120: 3a18 103e ee5b a93d 3aaa c23d 2393 713e
00000130: dbf2 1c3e fd64 fe3d beb9 b63d 6192 303e
00000140: e87a f63d 5e34 d73d c2f4 f03d 9ec8 793d
00000150: 8f02 9a3d ade4 cf3d b2d8 0d3e 22c2 9a3d
00000160: 4730 c43d ea8d 9b3d 7182 ac3d 5420 b23d
00000170: 00d2 183e e971 b13d 45c9 313e f068 d43d
00000180: e4bc b63d fe26 293e 8ae4 cf3d 9e90 f93d
00000190: e50b f83d 8e05 063e 0e45 bf3d c2ff eb3d
000001a0: 39dd 863d 7cc4 5a3d 60c7 8f3d d6d8 553e
000001b0: d530 213e 6661 7d3d 230c 053e 42cb 143e
000001c0: a757 483e 1a1d e53d 6b84 ad3d 74a4 cc3d
000001d0: ffac d73d 0159 973d 8e82 333e 8740 e63d
000001e0: 3009 a63d d611 ca3d 06b6 b03d 5793 943d
000001f0: 84bf ad3d 34b0 903d e27c a83d 15a6 ae3d
00000200: 825f 763d d1f1 1a3e aff4 813d 83c5 343e
00000210: 744e d83d 3062 113e ef43 ac3d 85b7 173e
00000220: 8c9c f83d 71af 843d 8a8f 013e c5d0 0c3e
00000230: e4bf d43d 45cd 933d 2378 2b3e e4ab 1f3e
00000240: 3138 2d3e e87e c93d af18 573d cb6b 2d3e
00000250: bea5 403e 7b57 0a3e f57c f73d 9c2a a73d
00000260: 608d 8d3d e093 6d3e dc11 ea3d dfc7 973d
00000270: 85da 833d 5059 4e3d 7c78 f43d 8e33 363e
00000280: 92a6 dc3d f435 273e b2b1 883d c68b 823d
00000290: b24a 8d3d 4fc2 0d3e b1bd d53d b831 2a3e
000002a0: de2a 273e 7524 133e 40c5 3b3e 6bcb 543e
000002b0: 51a1 193e 3c60 f33d 16aa b63d 7568 aa3d
000002c0: 3674 d83d 4089 fd3d 242b 923d ba25 e13d
000002d0: 94fa de3d bd58 053e f841 ad3d 045a df3d
000002e0: 9ac5 183e 5cc5 073e 628c 213e a8cb 913d
000002f0: 6ad9 fc3d a033 e13d 3e74 c43d 07e3 b33d
00000300: f71b b83d 80c3 3f3e ca90 de3d 2da5 2a3e
00000310: 6db9 fb3d 5d62 c93d 6243 173e 1165 6b3d
00000320: c128 9f3d 421d ce3d 3303 133e 5c47 823d
00000330: 88c3 a83e f384 123e 433b a53d ca44 c43d
00000340: de3a 8c3e 4adf a73d a4bd 273e 7f89 c13d
00000350: d510 943d 4a00 e83d daa0 133e 9575 183e
00000360: cff8 ab3d 57da f23d b0ed aa3d 65db db3d
00000370: 9e0e c83d 3865 713d acea f23d e430 193e
00000380: 7468 3d3e fa24 d23d 7aff ae3d 0dfb fc3d
00000390: 0fb8 663d 7c2e a93d a7d9 9f3d 5123 de3d
000003a0: 4ed6 023e 1e30 0d3e 801e eb3d 7162 a03d
000003b0: c6ec fc3d 82c9 c83d 539a 9e3d e2c8 093e
000003c0: 5412 b63d 3ebe 7e3e ebc5 073e e597 c63d
000003d0: 5988 283e 5a50 f03d 215e 0e3e 2e74 373e
000003e0: e739 b73d 6768 893d d6bc d53d 378f 463e
000003f0: 3084 443e 18d0 123e e0a3 2e3e 7df3 973d
0.1154951 0.09198628 0.080238625 0.11916503 0.07014361 0.07664714 0.116687074 0.09218921
0.0996653 0.078948356 0.08708529 0.09259541 0.13283947 0.29003906 0.13715997 0.12014409
0.063391335 0.13586797 0.07608112 0.08333481 0.13307932 0.14567417 0.093878895 0.13519706
0.09526267 0.078747675 0.07488185 0.089683995 0.11641525 0.11958765 0.13025522 0.05691938
0.073144205 0.0887303 0.22466394 0.09044418 0.09106314 0.07483215 0.07049585 0.20063928
0.13893144 0.085128956 0.13216624 0.054806303 0.09426355 0.112359464 0.078289285 0.116536744
0.099416606 0.21365887 0.12957767 0.12838228 0.072941884 0.10155104 0.08774968 0.11078296
0.1683831 0.17637584 0.12015705 0.08232889 0.12062973 0.065325394 0.1306619 0.14728683
0.04884229 0.096656404 0.08608849 0.08577394 0.075432904 0.09287478 0.111600935 0.047215782
0.14071742 0.08269487 0.095051244 0.23591284 0.15327017 0.12421606 0.08922146 0.17243339
0.12035161 0.10508035 0.11765434 0.06098234 0.07520019 0.10151038 0.13852194 0.07556559
0.09579521 0.07595427 0.08423317 0.08697572 0.14923859 0.08664305 0.17361934 0.10371578
0.08922747 0.1651878 0.10151012 0.12185787 0.12111644 0.13088056 0.09339343 0.11523391
0.065851636 0.05341004 0.0702045 0.20883498 0.15741284 0.061860465 0.12992911 0.14530662
0.19564687 0.11187191 0.08472522 0.099923044 0.10531043 0.07390023 0.17530271 0.11242776
0.08107221 0.09866683 0.08628468 0.07254665 0.08483794 0.07064858 0.082269445 0.085277714
0.060149677 0.15131308 0.06345498 0.1765347 0.10561839 0.14197612 0.08411395 0.14816101
0.12139234 0.06478775 0.12652412 0.13751514 0.10388163 0.072168864 0.16745047 0.15592915
0.16915967 0.098386586 0.052513774 0.16935651 0.18813226 0.13509934 0.120843805 0.08162424
0.06911731 0.23200941 0.11429188 0.07411169 0.06438164 0.050378144 0.11937043 0.17793104
0.10773958 0.16329175 0.06674518 0.06374316 0.068990126 0.13843654 0.104365714 0.16620529
0.16324946 0.14369376 0.18336964 0.20780723 0.15002944 0.118835896 0.0891916 0.08320705
0.105690405 0.12379694 0.07137135 0.10993524 0.10887638 0.13022132 0.08459848 0.10905841
0.14919129 0.1325888 0.15776208 0.071189225 0.12346156 0.10996175 0.09592484 0.087835364
0.08989709 0.18726921 0.1086746 0.16664572 0.122912265 0.098332144 0.14771798 0.05746943
0.07771445 0.10064174 0.14356689 0.06361267 0.32961679 0.14308529 0.08067944 0.09583433
0.27388662 0.08196886 0.16380936 0.094500534 0.07229773 0.1132818 0.14416829 0.14888604
0.08397066 0.11858051 0.083461165 0.107352056 0.09768413 0.05893442 0.11861166 0.14960057
0.18496877 0.10260959 0.08544822 0.12352572 0.056327876 0.08260819 0.07805186 0.1084658
0.12777063 0.13787887 0.11480427 0.07831276 0.123498484 0.098040596 0.07744279 0.13455537
0.088902146 0.24877259 0.13259093 0.0969694 0.16458263 0.11734076 0.13903095 0.17915413
0.08946591 0.06709366 0.10436408 0.1939057 0.1919105 0.14337194 0.17054701 0.074194886

fc2.weight f4 [128, 256]
00000000: 92bf 21bd e3d1 cc3d ce5a 163b f4f6 813d
00000010: a81a 60bc 4ac4 8abc 3f8a 7cbc 3718 f3bc
00000020: d26f 40bc f973 25bd 0655 8dbd 5c13 1fbd
00000030: a0e7 3f3d 2e75 153d e2f9 ff3b 34d6 3bbc
00000040: bfb1 573c af97 433d f73a 90bd a4c3 133d
00000050: e0f4 583d 33bf 81bd 2c56 023d 6b3e ed3c
00000060: f07b 4b3d 7a98 ad3c b281 aa3c 8a5d 823d
00000070: 7457 d23c 59be 5dbd 0a3f a33c 50ab 6bbc
00000080: 7a7d 7cbd 4a64 91bd 79a2 febc 1e44 14bd
00000090: 1087 a0bd 73ba 783d 0984 e13c 2bac 4f3d
000000a0: 0290 463c 6ed8 1f3d b069 39bd ece1 86bd
000000b0: aaf0 463c 9377 f9bc e625 c13c 2cee c7bc
000000c0: d097 83bd c9b9 29bd 5aa2 4b3d d207 0a3d
000000d0: 8663 8939 3522 333d c171 9e3c bca9 a83c
000000e0: 76ef 043c 8e52 19bd 6e1d 7a3c e2ab d5bc
000000f0: 755a 613d 5726 ecbc 31c2 003b 74e2 d73b
00000100: d633 7ebd 7400 0f39 2aff 0abd b78d c8bc
00000110: 4f1a 9d3a 10c9 c63c 2011 7f3d 8cd2 4d3b
00000120: ccc9 d73b 2272 4b3d 0c33 94bc f629 5a3d
00000130: 0497 b2bd 7998 003d 9854 64bc e16b 15bc
00000140: 1555 14bd e5be 19bd 18db 1d3d 6383 45bd
00000150: be3a 033b fed0 d5bb 3e08 283d 373f a5bb
00000160: 8504 43bb 3f7a 343d 60dd 0c39 9783 0c3d
00000170: 24e3 2fbc 28fd 563c ab9b 5a3d e9c9 9cbc
00000180: 5ef2 57bb c545 e5bc 9542 c53a e4e1 e8bc
00000190: d05e 2f3d e25e 49bd 5eb3 d63b d280 dcbb
000001a0: ee3b 5bbd 6309 2fbc f22a 273c d721 d3bc
000001b0: f226 08bd 2291 9fbc bdf8 61bc 04ec 6dbc
000001c0: dc10 95ba 27f8 193d 6ff9 24bc 4a0b 68bd
000001d0: 3661 efbc 042e 6abd 9c92 9f3d a575 fcbc
000001e0: e7b8 9dbb 25da e53b 4957 93bb 7031 ff3a
000001f0: 8da2 883d 42cd 5dbc 9310 30bb 271b 36bd
00000200: c77a 1fbd 9b41 74bd e074 e23b 98a0 15bd
00000210: 4e85 8a3c 0126 b4bc 8aff e5ba 4ecd 343d
00000220: be56 7cbd 3a9a 0fbd 2cde 1e3d 72e8 4cbd
00000230: 70b5 5db8 e4cf 25bc 5bf5 1ebd 48d1 2dbd
00000240: 10a5 fcbc 031f 95bc bef4 4b3d 9c28 733d
00000250: 6895 1c3b 3b63 3d3c 5c6e 77bd 64ce 43bd
00000260: b2a7 893c 5c48 f03c 138e 7c3d beec 67bd
00000270: 32e7 d63c 6c32 73bd c9f9 e5bc 2b52 333c
00000280: 8c46 ac39 9b52 993c 4cf0 5b3d c2b6 3bbc
00000290: 5623 813c 3ee1 ec3c 30b4 3ebd 3022 09bd
000002a0: bcd6 6c3d 54d8 693d cbf1 eabd 782a 3f3d
000002b0: 2e94 8f3c 2632 b3bc cfad 143d b8fd 84bd
000002c0: 751c 3f3d 2de7 453c 9c5b debc 0e83 743d
000002d0: b249 8b3b 566f 11bd ad81 9dbc b2f2 cdbc
000002e0: 4a66 9ebd 61a6 75bb 27c8 24bd 6072 99bd
000002f0: afdf 23bb 9c55 a5bd 5f03 aaba 5e33 91bc
00000300: c24c 943c 5b56 a6bc 008f c63c bce2 10bc
00000310: fdcc 803d a4c1 d838 acdf 34bd c668 2d3d
00000320: f703 b03b 64e2 f03c ba63 84bd 6e89 0abd
00000330: c686 74bc 375a 513d 4b68 a8bd 1980 163d
00000340: 7d9e b5bb ef6b c1bc d078 35bd 0a02 d33d
00000350: 07d4 11bc 2737 acbd 340e 09bd 0898 d6bb
00000360: 131a 4abd dcef d73c 7740 b2bc f15e 4abd
00000370: 5cd4 4a3d 0db2 1fbd 9463 acbc 2e3d 5cbb
00000380: 0527 d3bc 0ef1 5abd 46d7 dcbc ae95 30bd
00000390: 6181 f1bb b076 7c3d c715 50bd b698 ea3c
000003a0: bab9 0fbd 61f9 013c f2f4 81bd 7438 213d
000003b0: 66f5 a3bd d0f2 33bb 8d0f 9d3a 1875 20bd
000003c0: 60ca 48bd ca7c 1f3d a5d2 f0bc 8378 d9bc
000003d0: 27b6 3dbc 11ab 1c3c f6b5 b7bd fdee 8abd
000003e0: 7f14 d4bc 21c0 91bc 47fa 23bd 85d8 8a3c
000003f0: 9251 ad39 2898 94bb a32a 0fbd f058 56bd
-0.039489336 0.1000097 0.0022942307 0.06345931 -0.01367823 -0.016939301 -0.01541382 -0.029674632
-0.01174541 -0.040393803 -0.069009826 -0.038836822 0.046851754 0.036488704 0.007811771 -0.011464644
0.013164937 0.04775208 -0.07042497 0.03607525 0.052967906 -0.063352965 0.03182046 0.028960427
0.049678743 0.02119087 0.020813797 0.063654974 0.025676467 -0.054136608 0.01992752 -0.014384106
-0.0616431 -0.07099207 -0.031083332 -0.036197774 -0.07838261 0.060724687 0.02752878 0.0507013
0.012119295 0.039024763 -0.045266807 -0.0658606 0.01214234 -0.030452525 0.023577642 -0.024405561
-0.0642544 -0.041436944 0.049715377 0.033698864 0.00026204827 0.043733794 0.019341351 0.020588748
0.008113733 -0.037432246 0.015265806 -0.026082937 0.055017907 -0.028826876 0.0019646997 0.0065882746
-0.062061153 0.00013637712 -0.03393475 -0.024481637 0.001198599 0.024265796 0.06227219 0.0031406013
0.0065853354 0.049669392 -0.018090747 0.053262673 -0.0872021 0.03139541 -0.013936184 -0.009119959
-0.036213953 -0.037535567 0.038539022 -0.048221003 0.0020024027 -0.006525158 0.041023485 -0.005042936
-0.0029757333 0.044061895 0.00013433909 0.03430518 -0.010735307 0.013121881 0.053371113 -0.019139247
-0.0032950859 -0.02798737 0.001504975 -0.028428026 0.04281503 -0.049162753 0.006552144 -0.0067292238
-0.05352395 -0.01068339 0.01020311 -0.025772972 -0.033240266 -0.019478384 -0.013792214 -0.014521603
-0.0011372822 0.037590172 -0.010069235 -0.05665139 -0.029221158 -0.05717279 0.077916354 -0.030817816
-0.004813302 0.0070145302 -0.004496489 0.001946969 0.06671629 -0.013537707 -0.0026865348 -0.04445949
-0.03893545 -0.05963288 0.0069109052 -0.036530107 0.016909268 -0.021990778 -0.001754747 0.044141106
-0.06160616 -0.03505919 0.0387861 -0.050026365 -5.2859483e-05 -0.010120366 -0.038808208 -0.042435914
-0.030840427 -0.018203264 0.04979395 0.0593649 0.0023892764 0.011559303 -0.06040798 -0.04780425
0.016803596 0.029331379 0.06165893 -0.05662226 0.02623329 -0.059374258 -0.028073208 0.010944883
0.00032858958 0.018716147 0.05369596 -0.011457147 0.01576392 0.028915998 -0.04655856 -0.03347987
0.057821974 0.057091072 -0.114718996 0.04667136 0.017526712 -0.021874499 0.03629857 -0.064937055
0.046657998 0.012079042 -0.027143292 0.059695296 0.0042507285 -0.03550657 -0.019226873 -0.02514014
-0.07734354 -0.0037483203 -0.040229943 -0.074925184 -0.0025005152 -0.08072969 -0.0012970975 -0.01772469
0.018103007 -0.02030485 0.02423811 -0.00884312 0.062890984 0.00010335751 -0.044158623 0.042336248
0.0053715664 0.029404826 -0.06464334 -0.03382247 -0.014924711 0.051111426 -0.08223017 0.036743257
-0.005542575 -0.023611037 -0.04430467 0.10303123 -0.008900649 -0.08408957 -0.03346081 -0.0065488853
-0.049341273 0.026359491 -0.021759255 -0.04940695 0.049518928 -0.03898816 -0.021043576 -0.0033605802
-0.025775442 -0.053452544 -0.02695812 -0.043111496 -0.0073701595 0.061636627 -0.05080202 0.028637271
-0.035089232 0.007932992 -0.06345548 0.03936048 -0.080057904 -0.002745796 0.0011982784 -0.03917417
-0.049021125 0.038937367 -0.029397318 -0.026546722 -0.011579073 0.00956227 -0.08970253 -0.06783865
-0.02588868 -0.01779181 -0.040033605 0.016948948 0.00033057906 -0.00453474 -0.03495277 -0.05233091

fc2.bias f4 [128]
00000000: a6a5 ad36 226d 2fb6 fcd7 c8b5 097b 5e36
00000010: 1671 ee36 4022 6835 88b1 7cb4 f4e6 2536
00000020: 00e8 0131 b270 9bb6 a6f0 2937 11cf 29b6
00000030: 32d1 96b5 4c94 8036 da83 a0b6 9ef6 af35
00000040: 4200 60b6 210b c5b5 48fc 2a36 ee13 61b6
00000050: 1784 b336 62ee 1ab7 60b2 5836 a2c5 e0b4
00000060: 58c2 8c35 a644 6ab6 8891 9cb6 2071 01b4
00000070: 4c51 7eb6 27ec f7b5 5c39 2fb4 e050 88b5
00000080: a724 1fb6 726a 5636 80bf 4333 3007 32b4
00000090: f082 b634 b2bc 1a36 2845 e733 cc1e 0337
000000a0: eaa1 8636 7205 9235 9acc 2236 9cea 3f35
000000b0: 5d6d e736 cffc ac36 edff 6434 ac0c 5236
000000c0: ec16 5ab7 1747 a036 e4b6 abb6 2904 54b7
000000d0: a882 b636 d611 1736 5a1e a4b7 1060 a3b5
000000e0: 347a 0736 9368 8236 ebcf 93b5 0496 59b6
000000f0: 2a44 d335 3052 9636 be88 3135 bab5 47b6
00000100: 14b1 00b5 1aca 19b4 aa0e 4e36 aac2 33b7
00000110: 92ce 96b6 bcbb 3b36 3bb3 e7b4 0e6d d934
00000120: cff3 fcb6 6a58 3eb5 60b6 b835 6571 2536
00000130: f6ae 1936 e81c e236 b295 4bb6 a44f ba35
00000140: 2afd d3b5 ef9d 90b5 7dde edb6 6f3d cab6
00000150: aac1 b4b5 2aa0 ae34 c8fc da34 bd86 a636
00000160: e083 0d35 aec8 a3b5 4600 6e34 8417 80b6
00000170: 4cb9 26b6 04a7 4136 b457 3037 8eff c0b6
00000180: 98e4 93b5 77d3 09b7 b8a7 3e34 5f21 1037
00000190: 7009 23b5 4e8f d335 7637 a8b4 06d0 0c36
000001a0: 326a 8934 56da 8a35 e7f9 a235 2a49 b636
000001b0: 74fd 24b3 2056 c236 a0fb 3eb6 602b d5b4
000001c0: b63e 0834 27b0 5a36 b806 38b6 208d 2eb7
000001d0: b08c 5836 4cb0 34b7 f440 cab5 a33a e336
000001e0: e20f 9235 5a89 5836 9a49 2f37 02f4 2c36
000001f0: 8d75 0e37 9814 aa36 3a62 93b6 ef6a 89b5
5.175086e-06 -2.6140556e-06 -1.4964021e-06 3.3152194e-06 7.1061177e-06 8.6476575e-07 -2.3533914e-07 2.4721348e-06
1.8903847e-09 -4.6324794e-06 1.0129215e-05 -2.530349e-06 -1.1236755e-06 3.8319613e-06 -4.783721e-06 1.3110291e-06
-3.3378751e-06 -1.4680883e-06 2.547882e-06 -3.3539213e-06 5.349993e-06 -9.234618e-06 3.2290336e-06 -4.1867048e-07
1.0487374e-06 -3.4908676e-06 -4.6661044e-06 -1.2055216e-07 -3.789627e-06 -1.8471663e-06 -1.6319012e-07 -1.0156327e-06
-2.371418e-06 3.1950444e-06 4.5576144e-08 -1.6580157e-07 3.399541e-07 2.3057623e-06 1.0769355e-07 7.815379e-06
4.0123605e-06 1.0879432e-06 2.4258975e-06 7.1494446e-07 6.897068e-06 5.1554302e-06 2.132726e-07 3.1299815e-06
-1.29991495e-05 4.7766475e-06 -5.1174884e-06 -1.2637153e-05 5.439233e-06 2.2511135e-06 -1.9564457e-05 -1.2172404e-06
2.01877e-06 3.886476e-06 -1.1012866e-06 -3.242284e-06 1.5740563e-06 4.4799162e-06 6.6136624e-07 -2.975909e-06
-4.79414e-07 -1.432276e-07 3.0704928e-06 -1.0714555e-05 -4.4943963e-06 2.7974447e-06 -4.315751e-07 4.0498747e-07
-7.5385683e-06 -7.0909175e-07 1.3762146e-06 2.465292e-06 2.2900617e-06 6.73869e-06 -3.0336491e-06 1.3881258e-06
-1.5794405e-06 -1.0774801e-06 -7.0890515e-06 -6.027221e-06 -1.3467409e-06 3.252656e-07 4.0789587e-07 4.962871e-06
5.2718497e-07 -1.2202852e-06 2.2165577e-07 -3.817435e-06 -2.4843785e-06 2.8856457e-06 1.05108375e-05 -5.7517964e-06
-1.1018883e-06 -8.215072e-06 1.7756145e-07 8.590839e-06 -6.0735965e-07 1.5762432e-06 -3.1332792e-07 2.0982711e-06
2.5595506e-07 1.0345345e-06 1.2142672e-06 5.43254e-06 -3.841474e-08 5.791677e-06 -2.8458671e-06 -3.97059e-07
1.2688801e-07 3.2587066e-06 -2.7422047e-06 -1.0404066e-05 3.22684e-06 -1.0769883e-05 -1.5069077e-06 6.7719534e-06
1.088247e-06 3.2266457e-06 1.04479495e-05 2.5772028e-06 8.491229e-06 5.0687922e-06 -4.3923765e-06 -1.0238417e-06
