tryst/model_round_8.pth (torch, 193715 bytes, 19 tensors)

fc1.weight f4 [256, 13]
00000000: 0361 c5bd aebf 57be 0c01 30be ae4e 183d
00000010: 361a 10bc f3d9 96bc c8e1 90bc 41f8 183e
00000020: e2d6 c2bd bde5 82be d841 39be eddc 2abe
00000030: a6a0 f9bc bfe5 e0bd ec83 f6bd ec41 febd
00000040: 273f 23bd 24bc 34bd 3a40 32be c493 d5bd
00000050: df8f 07be c0b0 f1bd a4db 7f3d efeb cbbc
00000060: 4faf 813e b34e a63d 16f7 24be 5533 1d3e
00000070: d7d9 353e 6ad0 86be 0ea7 4b3b 6c6e 29be
00000080: 7296 753c 2874 1f3e 40c0 54bd 3de4 643e
00000090: 2058 2ebe ae3c 99bd fb53 4d3d 0673 63be
000000a0: d7ea fdbc 032d 8d3e 074f e6bd 28a8 733d
000000b0: 2a65 553e 7142 2f3e c030 c9bd 031e 8d3e
000000c0: ccb8 fb3d 14dd 6a3e f86f 653e 4f43 58be
000000d0: 6822 0e3e 502d 643d 1549 cabd ec39 b03c
000000e0: 90b9 613e 5b63 a3bb de41 3d3e 6687 183e
000000f0: d6d0 053e 1bea edbd 24f4 89bd 8885 5cbe
00000100: 3bf8 97bd acac 9ebc 9eb2 83be 04e9 1cbe
00000110: f63b 39be 4f69 21be 9836 813e 94e4 7abe
00000120: 8a39 4fbe 30ba 903d f022 7abe 0271 e43d
00000130: 36c3 253e 9446 b1bc 6adb 143e 1293 e7bd
00000140: 6821 213e f552 2e3e 1656 8cbe 6605 fabc
00000150: c1cb 4f3d 3882 d8bd 331b 8ebd 8c63 4fbd
00000160: f488 773e 3d70 2fbe a431 8b3e a376 64bc
00000170: 99f5 4abc 50a6 f1bd c1c0 e43d 0a0c 2bbd
00000180: 0aba 3e3d 4ce5 2dbe 2b57 bdbd 6c24 e33c
00000190: fa82 013d eaa6 3f3e 1526 053b d1e7 ccbd
000001a0: 1913 eb3d 091f 563b ca5d 3fbd e059 813e
000001b0: a45d 183e 7e81 81be 9aed 89be dc10 473d
000001c0: c9ec 1cbe 0e20 70be bd31 e53d 7d05 68be
000001d0: 8c4f 18be 7843 f7bd 72e7 923d e8ed 8a3b
000001e0: 59a4 883e e6e1 24be 4f32 27be 3aad d9bd
000001f0: a8b7 363d f4cd cebc 1598 683e ba58 583d
00000200: 3808 753e c3d1 1abc bc26 20be 47b8 b3bc
00000210: 5dd3 3c3d 393d 763e 765e c33d c30d bd3d
00000220: ec6c 99bc 3aeb 943d f66d dfbd 90b2 dc3b
00000230: 5c7a 093d 072d afbd c31d febd 1126 ee3d
00000240: 457a 3cbc 5656 5f3e 8267 03be 05f6 583e
00000250: 7a9c 113e df2e 67bc 2e21 77be a320 87bd
00000260: a6b2 143e aa4c 6b3e 705c 20be 55ff 6bbc
00000270: 1451 4ebe c89f 243d 3626 93bb 59ba 023e
00000280: f2e5 13be c35e 52be 8c7c 823d fae9 8bbe
00000290: 6689 2a3e a624 233a ccd5 863e f0ba 143e
000002a0: 48d4 6d3e f674 833e fb48 8dbd 4c43 633e
000002b0: 24ad 08be 3fe0 d93c 2797 a53d 5469 edbd
000002c0: d3f7 44be be91 4c3e 402c 4e3e 660f 213b
000002d0: 9275 5f3a cc6f fdbb 2e3f 583c 8f5c 703e
000002e0: f9f5 adbb 9168 65be 5949 80be e255 66be
000002f0: 98d8 823e 6e68 bebd 5243 04be dc49 493c
00000300: 9c5c 5a3e 2fbf b93c 0067 8c3e 6d5e 79be
00000310: 759e 4c3e a7d9 1b3e 79b0 ecbd 94f1 35be
00000320: 341d 74be 5312 393e e413 6f3e 4ec4 fcbd
00000330: 32c7 19bc 4cf5 473e 94df 233c 90ea b63d
00000340: 6d52 5fbe 002b 74be bade ae3d fb51 7e3e
00000350: 0ab6 523e 79bb e83d 4420 88be 3a01 30be
00000360: 6abd abbc ed9a 87be db53 fa3d cff7 98bc
00000370: d5ac 72be 0f33 8abe 2a4f d83c 8235 823e
00000380: b5d5 cabc 6e50 6f3e 5584 8a3e 8043 443e
00000390: a476 a83d de1e 903c d0a8 213e fc99 3dbe
000003a0: 48ca 90bb 4f53 66be d4f0 853e 59bd 843e
000003b0: a1dc fbbd 966a 463e 2922 79bd 26a9 943d
000003c0: 747f 41be 6230 6fbe 89d6 ea3d f2b0 45bd
000003d0: 6858 11be f764 7abe 3265 033d b2df 763d
000003e0: f909 0e3e a663 f73d b945 e0bd 7754 f63d
000003f0: 34eb 063e 699c 3a3d eecc 7d3e 5e8f c2bb
-0.09637644 -0.21069214 -0.171879 0.03718441 -0.008795312 -0.018414473 -0.017685786 0.14938451
-0.09513642 -0.255659 -0.18091524 -0.16685839 -0.030472111 -0.109813206 -0.12036881 -0.12414917
-0.03985515 -0.044124737 -0.17407313 -0.10428575 -0.13238476 -0.118012905 0.062465325 -0.024892775
0.25329062 0.081204794 -0.16109881 0.15351613 0.1775888 -0.26330882 0.0031074914 -0.16546029
0.014989482 0.15571654 -0.051941156 0.22352691 -0.17025805 -0.07482277 0.05012892 -0.22211847
-0.03099577 0.27573404 -0.11245542 0.05948654 0.20839372 0.17115189 -0.098237514 0.2756196
0.122911066 0.22935897 0.22405994 -0.21119426 0.13880312 0.055707276 -0.098772205 0.021511994
0.22043443 -0.0049862093 0.18482158 0.148954 0.13067946 -0.11616918 -0.06736019 -0.21535313
-0.07420393 -0.019369446 -0.25722212 -0.15323263 -0.1808928 -0.15762828 0.25236964 -0.24501258
-0.20236793 0.070667624 -0.2442739 0.11154367 0.16187748 -0.0216401 0.14536825 -0.11307348
0.157354 0.17023833 -0.27409428 -0.030520152 0.050731424 -0.10571712 -0.069387816 -0.050632045
0.24173337 -0.1713266 0.2718631 -0.013944301 -0.012387657 -0.117993 0.111695774 -0.04175953
0.04656414 -0.16982001 -0.092451416 0.027727328 0.03161905 0.18716016 0.0020316888 -0.10005153
0.11478252 0.0032672307 -0.046720304 0.25263882 0.14879471 -0.25294107 -0.26939088 0.048600063
-0.15324701 -0.23449728 0.111911274 -0.22658344 -0.14874095 -0.120734155 0.07173051 0.0042397864
0.26687887 -0.16101798 -0.16327785 -0.106287435 0.044608742 -0.02524469 0.22714265 0.05281899
0.23928916 -0.009449425 -0.15639776 -0.021938456 0.04610001 0.24046792 0.09539501 0.092311405
-0.018728696 0.072714284 -0.10909645 0.0067351535 0.033563957 -0.0855351 -0.1240802 0.11628354
-0.011503761 0.21810278 -0.12832454 0.21187599 0.14219847 -0.014110296 -0.24133751 -0.06598022
0.14521274 0.22978464 -0.15660262 -0.014404138 -0.20148116 0.04019144 -0.004490639 0.12766398
-0.14443186 -0.20543961 0.06371412 -0.27326947 0.16653976 0.00062234176 0.2633499 0.14524436
0.2322551 0.25675172 -0.068986855 0.2219364 -0.13347298 0.026596187 0.08085471 -0.11592355
-0.19235162 0.19977471 0.20134068 0.0024575829 0.0008524294 -0.0077342745 0.013198657 0.23472808
-0.0053088632 -0.2240317 -0.2505596 -0.22493699 0.25555873 -0.09297262 -0.12916306 0.012285676
0.2132439 0.022674171 0.27422333 -0.24352427 0.19982322 0.15219747 -0.11557097 -0.17767936
-0.23839265 0.18073396 0.23347431 -0.1234213 -0.009385871 0.19527167 0.010002036 0.08931458
-0.21808787 -0.23844528 0.085385755 0.2483596 0.20577255 0.113638826 -0.26587117 -0.17187968
-0.020964343 -0.26485386 0.122230254 -0.018672852 -0.23698743 -0.2699208 0.026404936 0.25431448
-0.024760107 0.23370525 0.27054086 0.19166374 0.08225754 0.017592844 0.15787053 -0.18515772
-0.004418645 -0.22492717 0.261603 0.2592571 -0.12297941 0.19376597 -0.060823593 0.07258825
-0.18896276 -0.233583 0.114667006 -0.04826445 -0.1419388 -0.24452578 0.03207893 0.060271926
0.13870992 0.12079553 -0.109507985 0.12027829 0.1317566 0.04555932 0.24785206 -0.005937501

fc1.bias f4 [256]
00000000: 31b1 2ebe 9d63 efbd 51bb 04be d494 3ab8
00000010: b830 e6bd 6cf6 e53d f7d0 103e dc5e 313e
00000020: 0c56 2dbe 37bb d53d cf61 0dbe a93b 58be
00000030: 51ca aabd 5c16 243e 3775 31bd e0dd 36be
00000040: 0117 f4bc 9ca7 c03d 5992 17be 2605 513d
00000050: f80d 493e 37b1 71be 700b ebbd 03a4 d6b8
00000060: f5a3 93bd 7f7a 613e a8db 0e3e 0a69 73be
00000070: bfa7 043e d07e 26be b4e6 f03d 617a 34bd
00000080: 4499 403e ca99 3ebe d2b5 523d af81 d63d
00000090: 68ee de3d 0e4f 0fbe d8fd 2bbe 2da1 cbbc
000000a0: f36d 0abd dd35 92bd 0299 163e ecbe 493d
000000b0: c031 1db8 34a3 cd3d 5eec 8d3d a0a5 b73d
000000c0: dcd1 f03c 3b28 fbbd c47a 093e 7a6d 78be
000000d0: 8018 5f3e 3900 6d3e 0092 69be 0c17 af3d
000000e0: 7ada 8fbd 68d5 733e afa9 733d 9cfd 8bbc
000000f0: 9b5b 9b3d 77a9 113e e7d8 7dbb 40a1 273e
00000100: 199b 713e 80b8 ab3d b6db c73a f8ce d1b5
00000110: 4439 adbd e804 613e ebf2 2a3c fbb8 683d
00000120: ff09 b8bd 6db9 4cbd c633 93bd 0a27 623e
00000130: a867 573e e128 69ba d20a 4fbd 4ea6 733d
00000140: d409 1f3e 2503 97bb 6774 24be c87a 053e
00000150: 44fb 2fbe 96b8 693e 93d1 7dbe be5a 4b3e
00000160: 43d0 c13d 4668 73be c088 2a3d 1adc 35be
00000170: 5f7b 23be 9926 23be c096 3a38 4b17 5d3e
00000180: 4b9e 073e 502d 7c3c 640b 0f3e 5f3a 843c
00000190: 203d 85bd 2a52 7ebe e01e b1bd d177 3f3e
000001a0: bb1d 733e 4693 463e 8da4 af37 7b1e 45bd
000001b0: 3c20 3cbe eacf 69be c83c 90bd 73cb 68be
000001c0: 242a 80be 1e2c 753e 427a 4a3c 7f6a 7a3d
000001d0: 96e3 5abe 3506 a3bc c380 33be 3550 ff3d
000001e0: 3dd0 90b9 b73f 92bb ef38 f73d c4c0 243c
000001f0: b788 cd3d d43d 0c3b 3357 a53c 6d24 833d
00000200: 082a f4bd 7b7c 9e3d b63b 7bbb 9b18 4cb8
00000210: 4ef3 02be 700a 2f3e 660b 3fbe 8895 6abe
00000220: da1d aa3d a34f da3d e29b d4bd 67f6 27be
00000230: e90b 58be b15d ea3d 212f f53d 2a4e 31be
00000240: e05b cdbd c31b e8bc 3aae 093e 00d6 43be
00000250: 422c 253e 1fa0 9e3d a354 41be b032 79be
00000260: a9c8 c7bd 95c2 7ebe aa2b 123e 7301 cd3d
00000270: 6d13 543e 4cb6 5e3e f6fb fcbd d4af 93bd
00000280: ac3a 5ebd e13f 183e 88c9 773e a324 ce3d
00000290: 5e80 1a3e 8643 00be 9898 6abe 7d2c 4d3c
000002a0: 647d 8bbd a136 513e 9e62 31be 9b6a 643e
000002b0: de8b 5e3e 16bf d3bc a486 fcbd de28 69ba
000002c0: 9bf0 ae3c bc6a 81bd 7219 0cbe 66e6 a43d
000002d0: 8660 0c3e 7c05 6d37 3448 513e 0096 4cbe
000002e0: 1572 feb8 b1b1 76be f9dd 47be e00f 403d
000002f0: 9ad1 4cbe ab4e 183e 922d b5bd cb08 1f3e
00000300: 2a92 2abe fb5c 8bbc b728 743c c7e7 38be
00000310: 1221 8c3d 2723 5c3e 0d38 96bd e6ea 0c3e
00000320: 09e7 cc3d 2739 d23c ad2d 36be 1931 073e
00000330: 17de bfbd eea7 c13d 60dd 16be 9f21 6d3d
00000340: 114d edbd 4ae4 b3bd 42c0 6d3e f60f bd3c
00000350: 810d 80bc d544 db3c 4283 2b3e b0a2 47be
00000360: 2c14 343e 32f4 c6bd 3d1c 89bd 7dd9 09be
00000370: 4635 7c3d e9fa 21be 8ff4 edb8 5555 d43d
00000380: 3b26 783c 1bcc a8bd 6086 753e 0a81 05be
00000390: e0d3 27bd b43b 353e f4f9 7ebe 5143 0537
000003a0: c782 68be 6574 033e a45e 40be c038 e437
000003b0: 4062 47be 9339 3ebe a4a8 7cbe 32ae 5bbe
000003c0: 755d 903c d037 273e ee44 3537 cbcd 6cbe
000003d0: 3234 59be a18f 64bd 9f34 bd3d fcf2 db36
000003e0: 9038 3e37 c01f 0a3e 067e 363e 9f07 113e
000003f0: f70d d7bd 75e7 d33d efea 383b 19b9 62bd
-0.1705978 -0.116889216 -0.1296208 -4.4484463e-05 -0.11239761 0.11228642 0.14142214 0.17321342
-0.16927356 0.10436099 -0.13806842 -0.21116509 -0.0833937 0.16024154 -0.043324675 -0.17858076
-0.029796125 0.09406969 -0.14801921 0.0510303 0.19634235 -0.23602758 -0.11476791 -0.00010234865
-0.07209007 0.22019385 0.1395098 -0.23770538 0.12954615 -0.16259313 0.11762753 -0.044062022
0.18808466 -0.18613353 0.05144293 0.10473954 0.10885316 -0.13995 -0.16796052 -0.024857128
-0.033796262 -0.0713918 0.14706805 0.049254343 -3.747805e-05 0.10040894 0.06929849 0.08967137
0.029396944 -0.12263533 0.13425738 -0.24260512 0.2178669 0.23144616 -0.22809601 0.08549318
-0.07024093 0.23811877 0.059487995 -0.017088704 0.07585832 0.14224802 -0.003873402 0.16370106
0.23594321 0.083848 0.0015247974 -1.5631949e-06 -0.08458188 0.21974528 0.010433893 0.056817036
-0.089862816 -0.049981523 -0.071876094 0.22085205 0.21035635 -0.0008894336 -0.05054743 0.059484772
0.15531093 -0.004608529 -0.16060029 0.13035119 -0.17185694 0.2282432 -0.24786977 0.19858834
0.09463551 -0.23770246 0.04163432 -0.17759743 -0.15965031 -0.15932693 4.4486253e-05 0.21590917
0.13243978 0.015391663 0.13969189 0.016141115 -0.06505799 -0.2483603 -0.08648467 0.1869805
0.2374181 0.19392118 2.093825e-05 -0.04812477 -0.18371671 -0.22833219 -0.07042843 -0.2273386
-0.2503215 0.2394261 0.01235825 0.06113672 -0.2137588 -0.01990042 -0.17529587 0.1246647
-0.0002762097 -0.004463162 0.12071406 0.0100557245 0.10035842 0.0021399157 0.020183181 0.06403432
-0.11922079 0.077385865 -0.003833515 -4.8660306e-05 -0.12788126 0.17093825 -0.18656692 -0.22908604
0.08306475 0.10659721 -0.10381295 -0.16402589 -0.21098293 0.114436515 0.1197188 -0.17314973
-0.100272894 -0.02833355 0.13445368 -0.19124603 0.16130164 0.077453844 -0.18879943 -0.24335742
-0.0975507 -0.24878915 0.14274469 0.10010042 0.20710535 0.21749228 -0.12352745 -0.07211271
-0.054255173 0.14868118 0.24197972 0.10065582 0.1508803 -0.12525758 -0.22909772 0.012522814
-0.06811026 0.20430996 -0.17322776 0.22306292 0.21733043 -0.025847953 -0.12330368 -0.00088943343
0.021354964 -0.06319186 -0.13681582 0.080517575 0.13708696 1.4127578e-05 0.204377 -0.19979095
-0.00012132913 -0.24091221 -0.1951827 0.04689014 -0.20001832 0.1487376 -0.088465825 0.15530698
-0.1665732 -0.01701211 0.014902285 -0.18057166 0.06842245 0.21497785 -0.073349096 0.13761482
0.10005004 0.025662018 -0.17790861 0.13202323 -0.09368532 0.09455858 -0.14732885 0.05789339
-0.11586965 -0.08783777 0.23217872 0.0230789 -0.01563144 0.02676622 0.1674929 -0.19495654
0.1758582 -0.09714545 -0.06694839 -0.13461871 0.061574243 -0.15818371 -0.00011346593 0.10367838
0.015145834 -0.08242055 0.23977041 -0.13037506 -0.040973544 0.17698556 -0.24900037 7.943091e-06
-0.22706138 0.1283737 -0.18786103 2.7206144e-05 -0.19471073 -0.1857665 -0.24673706 -0.21453169
0.017622689 0.16329885 1.080449e-05 -0.23125379 -0.21211317 -0.055801038 0.09238552 6.5549957e-06
1.1338052e-05 0.13488674 0.17821512 0.14163063 -0.105007105 0.10346881 0.0028216203 -0.055352304

bn1.weight f4 [256]
00000000: 8ccf 7f3f 0467 7f3f 73bf 7e3f f4fa 7e3f
00000010: 8c1e 803f 4e0f 803f 6a4e 803f 5c55 803f
00000020: 1031 7f3f fa56 803f 1815 803f a467 803f
00000030: d039 803f 4d2c 7f3f 5c46 803f 8603 803f
00000040: 124f 803f db27 803f f6cd 7f3f 1215 7f3f
00000050: 2e48 7f3f 8801 803f 3f30 803f 3f62 7f3f
00000060: 1ec3 7f3f 1418 803f 727a 7f3f 3674 7e3f
00000070: ef1b 803f ea29 803f 7950 7f3f 4d0e 803f
00000080: 667f 7f3f ce79 803f 7129 803f 7dd2 7f3f
00000090: 9566 7f3f 6502 803f c2ea 7f3f 633f 803f
000000a0: 047f 803f 182b 803f eab9 7f3f 6629 7f3f
000000b0: 3c21 7f3f 3884 7f3f acd6 7e3f 6a44 803f
000000c0: 6908 803f 6b32 803f 063c 7f3f 1251 803f
000000d0: 6838 803f e60a 803f a9fe 7f3f d23b 803f
000000e0: 68de 7f3f cd97 7f3f 8dcd 7f3f e873 7f3f
000000f0: 1534 7f3f 44bd 7f3f 97e8 7f3f 323f 803f
00000100: d409 803f d04b 803f 4241 7e3f 7714 803f
00000110: 2ac9 803f 7b16 803f 2d60 803f 4b08 803f
00000120: d016 803f 1c31 7f3f 51ff 7f3f 606f 7f3f
00000130: 3668 7f3f 3c05 803f 46be 803f 3635 803f
00000140: 4b5f 7f3f 4ceb 7f3f b38d 7f3f 952b 803f
00000150: 2724 803f 5c67 7f3f ff94 7f3f 6122 803f
00000160: 400e 803f f60e 803f 6da6 7f3f 22dd 7f3f
00000170: 9d3f 803f 4ca4 7f3f 8c2f 803f e209 803f
00000180: c323 7f3f ee3e 7f3f 1272 803f 2d39 803f
00000190: 9190 7f3f 3c3e 803f ee31 803f ef71 803f
000001a0: 5611 803f aa48 803f d9ea 7f3f 9cc6 7f3f
000001b0: 92ab 7f3f 3026 803f 5f06 803f 172a 803f
000001c0: 6a3d 803f ef55 803f 85a2 7f3f 42a5 7f3f
000001d0: 431f 7f3f 885e 7f3f 0477 803f 6ada 7e3f
000001e0: 040d 7f3f b4d2 7f3f 5b17 7f3f 0f2f 7f3f
000001f0: 550c 803f 6734 803f 4934 803f 3a4f 803f
00000200: 2643 803f b52d 7f3f df64 7f3f e845 7f3f
00000210: fd52 803f 7c35 803f 5ae6 7f3f 4807 803f
00000220: 276f 7f3f f642 803f 6af6 7e3f 48c0 7f3f
00000230: e264 803f 936b 803f 797e 7f3f 65fe 7e3f
00000240: 5ada 7e3f 1a45 7f3f f079 803f 87b4 803f
00000250: 3217 803f 0504 803f f283 7f3f 318f 7f3f
00000260: 25ee 7f3f b5ec 7f3f 9c60 803f 3a3c 803f
00000270: fc06 7f3f affb 7f3f 7a0e 803f 98ac 7f3f
00000280: e0bc 7e3f e971 803f 93f9 7f3f 1e57 803f
00000290: 98af 803f 32e3 7f3f 9c39 803f f655 7f3f
000002a0: 7817 803f 8ecb 7f3f fb77 7f3f 2370 803f
000002b0: 438c 7e3f f64e 7f3f fc4a 7f3f 1013 803f
000002c0: a4bf 7f3f 28b6 7f3f 52b0 7f3f 2869 803f
000002d0: 54b1 7f3f ec25 803f 8f85 7e3f 26dd 7e3f
000002e0: 7c84 7f3f 8dce 7f3f 0e92 7e3f 04eb 7e3f
000002f0: ec6e 7f3f a1c0 7e3f 0085 803f 331b 803f
00000300: bb67 803f bd19 803f 1428 803f d792 7f3f
00000310: d97d 7f3f b7dd 7e3f 32a8 7f3f 893e 803f
00000320: dcda 7f3f 8ca6 7f3f 7820 803f 5677 7f3f
00000330: 0106 803f 491a 803f 0d08 803f 2e9e 7e3f
00000340: 9808 7e3f 902d 803f 4f1a 803f c444 803f
00000350: 3a4c 803f dcea 7e3f ecef 7f3f f01b 803f
00000360: fc6f 803f f6ff 7f3f 328d 7f3f 781d 803f
00000370: 6115 803f df3a 7f3f 6074 803f 7a96 803f
00000380: eeb6 7f3f 842e 803f def9 7f3f 2c42 803f
00000390: b119 813f d23b 7e3f 342c 7f3f e519 803f
000003a0: 1cfd 7f3f cb50 803f af05 803f 3c65 7f3f
000003b0: 2433 803f 6e07 803f a7b0 7f3f 00d5 7f3f
000003c0: 20d4 7f3f 66b7 7f3f 45c3 7f3f f813 7f3f
000003d0: c840 803f 440d 803f 8146 803f 6a3e 803f
000003e0: 4d43 803f a630 7f3f da72 7f3f 7970 7f3f
000003f0: 0403 803f d18d 803f ca96 803f cf0a 7f3f
0.99926066 0.99766564 0.9951088 0.99601674 1.0009322 1.0004671 1.002393 1.002605
0.9968424 1.0026543 1.0006437 1.0031629 1.0017643 0.9967697 1.0021472 1.0001075
1.002413 1.0012163 0.99923646 0.99641526 0.9971951 1.0000467 1.0014724 0.99759287
0.999071 1.0007348 0.9979621 0.99396074 1.0008525 1.0012791 0.99732167 1.0004364
0.9980377 1.0037172 1.0012647 0.99930555 0.997659 1.0000731 0.99967587 1.0019344
1.0038762 1.0013151 0.9989306 0.99672544 0.99660087 0.99811125 0.99546313 1.0020878
1.0002567 1.0015386 0.99700963 1.0024741 1.0017214 1.0003326 0.99997956 1.0018256
0.9994874 0.99841005 0.9992302 0.99786234 0.99688846 0.9989817 0.9996428 1.0019286
1.0002999 1.0023136 0.99318326 1.0006245 1.006139 1.000686 1.002935 1.0002531
1.0006962 0.9968431 0.99998957 0.9977932 0.9976839 1.0001597 1.0058067 1.0016239
0.9975478 0.9996841 0.9982559 1.00133 1.0011033 0.9976709 0.99836725 1.0010492
1.0004349 1.0004566 0.9986332 0.99946797 1.0019413 0.9986007 1.001451 1.0003016
0.99663943 0.997054 1.0034811 1.0017449 0.99829966 1.0018992 1.0015237 1.003477
1.000529 1.0022175 0.99967724 0.9991243 0.9987117 1.0011654 1.0001944 1.0012845
1.0018742 1.0026225 0.9985736 0.9986154 0.99657077 0.9975362 1.0036321 0.99552023
0.99629235 0.9993088 0.9964501 0.9968118 1.0003763 1.0015992 1.0015956 1.0024178
1.0020492 0.9967912 0.9976329 0.99716043 1.0025326 1.0016322 0.99960864 1.0002222
0.9977898 1.0020435 0.9959475 0.9990277 1.0030787 1.0032829 0.99802357 0.99606925
0.9955193 0.99714816 1.0037212 1.0055093 1.0007079 1.0001227 0.9981071 0.9982787
0.99972755 0.9997056 1.0029483 1.001838 0.9962003 0.99993414 1.0004418 0.9987273
0.9950695 1.0034763 0.99990195 1.0026586 1.0053587 0.9995605 1.0017581 0.9974054
1.0007162 0.99919975 0.9979245 1.0034221 0.9943277 0.9972986 0.9972379 1.0005817
0.99901795 0.99887323 0.9987842 1.0032091 0.99879956 1.0011573 0.99422544 0.99556196
0.9981153 0.99924546 0.9944161 0.99577355 0.9977863 0.9951268 1.0040588 1.00083
1.0031656 1.0007855 1.0012231 0.99833435 0.99801403 0.9955706 0.9986602 1.0019084
0.9994333 0.99863505 1.0009909 0.9979147 1.0001832 1.0008022 1.0002457 0.99460113
0.99231863 1.0013905 1.0008029 1.0020986 1.0023263 0.99577117 0.99975467 1.0008526
1.0034175 0.9999994 0.9982482 1.0008993 1.0006524 0.99699205 1.0035515 1.0045922
0.99888504 1.0014195 0.9999064 1.0020194 1.0085965 0.9931003 0.99676824 1.0007902
0.9999559 1.0024656 1.0001734 0.99763846 1.0015607 1.0002267 0.99878925 0.9993439
0.9993305 0.9988922 0.9990733 0.99639845 1.001977 1.0004048 1.0021516 1.0019047
1.0020539 0.99683607 0.99784625 0.99780995 1.000092 1.0043279 1.0046017 0.9962587

bn1.bias f4 [256]
00000000: de42 603b e892 cc37 30fe 4ebb 814d b9bb
00000010: 1e17 623b f0f8 4739 5fd2 c23a 4c53 5a3b
00000020: f272 f0ba aa56 bf3a 1eb8 f7b9 91e3 053b
00000030: 08ed 0bbb 5f84 48bb d17a 9b3b e88b 423b
00000040: 1364 a7ba 9086 a738 0f5f 47bb 095e a7ba
00000050: 3620 87bb c0e9 1bbb 4046 2e3b 2e4c 4d3a
00000060: 8868 6b3b 91b4 3bbb 1cdf 17ba 08ca 2eba
00000070: 5487 8aba 5481 ef3a 5e04 5dba e129 123a
00000080: 775d d9ba aab6 3e3b 348a 8b3b f7a0 91bb
00000090: 9b64 30bb 5ebe 0a3b 32e3 86ba 9c1f 163b
000000a0: f602 513b 8773 81b9 1915 8e3a 0b15 0fbb
000000b0: 859a 33bb f240 18bb 804d 0cbb fec8 e338
000000c0: acd4 61ba 1b20 d439 c847 59ba 1e55 0cb9
000000d0: 8bf2 05bb b414 e33a 1c1e d6ba 29d9 1e3b
000000e0: 2675 8bba d054 07bb 4601 4fbb e1b2 013a
000000f0: 6189 17bb 3448 d1b9 ca58 58bb d43c 3bbb
00000100: 78a8 c5b8 071e 173b 386c 65bb baf3 6b3b
00000110: 9dfe 323b c50b 0ebb 2645 143b 275c 043b
00000120: 4e5f 50b9 5153 33bb 9ef0 05bb 9e7d 0d3a
00000130: f0ac 36bb 14a6 813b 9e23 6d3b 2d62 383b
00000140: e654 23bb ff99 49ba b5fc 86bb b2a0 a83a
00000150: 2d28 0abb 2a9d c9ba 8578 b5ba f467 033b
00000160: 74e5 9dba 64f3 8eba d92d fbba 2b74 6aba
00000170: 5b1e a13b 013c 37bb e753 bc3a ef00 d7ba
00000180: 741f 0cbb ea32 1bba 0937 a83b a47a 153b
00000190: f339 0fbb 57a0 783b 4567 513b d724 8b3b
000001a0: 4b35 f8ba 793a 1e3b eab7 f039 efa8 463b
000001b0: 128b af3a 6651 cd3b 5c18 2dba 0bbf 833b
000001c0: d2e0 c53a 218b 103b 425d 31bb 0ccf 38ba
000001d0: 3570 89bb c459 22bb 8038 18b9 b03f 1abb
000001e0: e220 fdba 8c85 ef3a 48f7 1bbb 290e d83a
000001f0: 5cb8 e5ba a180 27bb ee09 86bb f03c bd3a
00000200: fbe9 c839 a443 64b9 8e42 443a fba8 32bb
00000210: 8f4e 213b 20bf 0439 6887 daba 3c4c fa3a
00000220: ff53 243a fe38 9f3a 6bc3 02bb 9056 09bb
00000230: 69cc 3a3a 2304 5e3b a0cd a037 aa87 48bb
00000240: e9cc 0fbb 2016 a2ba 6288 5839 9e55 9639
00000250: 2666 daba d437 7bba 3c8b 46b9 0d75 683a
00000260: cee0 a2ba 64c2 b83a 9762 b63b 512a 9e3a
00000270: 36ae 9aba 96de afba ce09 163b c757 d8ba
00000280: 0095 7fbb 81d6 cb3a e88a 3eba 4f15 603b
00000290: 405e 1436 e525 81bb d85f 5339 172d ca39
000002a0: 1850 b8b8 94dd 40ba 7f4c 92ba 6321 393b
000002b0: 1036 37b9 d463 0fbb 3d10 ba3a 0728 8cba
000002c0: 20b4 a6b7 a265 ac3a 5a46 5fba 188d 533b
000002d0: 78d0 98ba e2ce 8fba 7fed cfbb 8295 73bb
000002e0: 5f22 5ebb 8edc 283b 6043 f3bb fd59 c9bb
000002f0: 1a59 273b 2f01 95bb 8b32 753a 46e9 113b
00000300: ef74 4a3b 5222 b8ba 84a6 493b 2902 8cbb
00000310: 5ef2 fe3a c926 9abb e477 d639 a813 273b
00000320: 8a2d 44bb 7698 b839 fcc9 b93a 8812 14bb
00000330: b2af c5ba fe2e cdba 826a 6dba 9277 84bb
00000340: a02e e4bb 8861 3a3b 4791 9c3b 31be 6d3a
00000350: 34ee 753a 15a4 59bb ded6 a339 0184 2e3a
00000360: 327f 763b acbf 96bb 1a90 6aba 2c20 9db8
00000370: ec39 50ba af19 c33a 6651 873a 13c2 1e3b
00000380: eada 093b e611 28bb b4b9 14ba 42ac 3d3b
00000390: ad94 9e3b 82ed 04bb a0b5 de39 e1d0 98ba
000003a0: 7c69 37ba 672f 423a b696 93ba a5f6 5fbb
000003b0: ef01 b23a 26dd 4fba f8ac 99ba 98aa 5eb9
000003c0: 245c 47bb 8ade 27bb 0d49 36bb 6365 9eba
000003d0: 99ed af3a 00bc 933b 27f7 76bb 6080 54b7
000003e0: 075f 813b 586c 9cb9 0aa9 0e3a b979 3139
000003f0: eabe 0d3b 2830 fd38 9a90 463b ec27 e7bb
0.0034219543 2.4387104e-05 -0.0031584613 -0.005654991 0.0034498642 0.00019070855 0.0014863721 0.003331381
-0.0018344803 0.0014597971 -0.0004724869 0.002042983 -0.0021350998 -0.0030596477 0.0047448655 0.0029685441
-0.0012770913 7.988245e-05 -0.003042165 -0.0012769114 -0.004123713 -0.002379045 0.0026592165 0.0007831481
0.003592046 -0.0028641562 -0.0005793439 -0.0006667678 -0.0010568895 0.0018272796 -0.0008431132 0.00055756985
-0.0016583641 0.0029100575 0.0042584185 -0.0044442373 -0.0026915434 0.0021170597 -0.0010291098 0.0022907024
0.0031892634 -0.00024690872 0.0010840028 -0.002183261 -0.0027405333 -0.002323207 -0.0021408498 0.00010861641
-0.00086147594 0.0004045971 -0.00082885893 -0.00013383149 -0.0020438756 0.0017324896 -0.0016335878 0.0024238324
-0.0010639771 -0.0020649917 -0.0031586452 0.00049476145 -0.0023122656 -0.00039917382 -0.0033011907 -0.0028570192
-9.425072e-05 0.002305867 -0.003500713 0.0036003427 0.0027312406 -0.0021674496 0.0022624223 0.0020196529
-0.0001987193 -0.0027362893 -0.0020437608 0.00053974416 -0.0027874075 0.0039565656 0.003618456 0.002813469
-0.002492243 -0.0007690489 -0.0041194805 0.0012865274 -0.0021081076 -0.0015381922 -0.0013845122 0.0020050975
-0.0012046532 -0.0010906276 -0.0019163444 -0.0008943702 0.0049169487 -0.002795935 0.0014368267 -0.0016403476
-0.0021381052 -0.00059203675 0.005133514 0.0022808695 -0.0021854609 0.0037937367 0.0031952423 0.004246335
-0.0018936781 0.002414374 0.00045913394 0.0030313095 0.0013392887 0.006265807 -0.0006603056 0.004020577
0.0015096909 0.0022055584 -0.0027063643 -0.00070498954 -0.0041942843 -0.0024772743 -0.00014516897 -0.0023536496
-0.0019312168 0.0018274053 -0.0023798514 0.0016483712 -0.0017526257 -0.0025558847 -0.004090539 0.0014437716
0.00038321302 -0.00021768973 0.0007486724 -0.0027261365 0.0024613475 0.000126597 -0.0016672434 0.0019096206
0.000626862 0.0012147722 -0.0019952904 -0.0020956136 0.00071257964 0.0033876977 1.9169238e-05 -0.003059844
-0.0021942204 -0.0012366213 0.00020650172 0.0002867402 -0.0016662523 -0.0009583209 -0.0001893462 0.00088675396
-0.0012426616 0.0014096019 0.005565952 0.0012067055 -0.0011801186 -0.0013417776 0.0022894028 -0.0016505652
-0.0038998723 0.0015551598 -0.00072686234 0.0034192388 2.210858e-06 -0.003941285 0.00020158233 0.00038562037
-8.788722e-05 -0.00073572365 -0.0011161714 0.002824866 -0.0001747238 -0.002187957 0.0014195513 -0.0010693081
-1.987262e-05 0.0013152848 -0.0008517258 0.0032280143 -0.0011658808 -0.001097169 -0.0063454504 -0.003716797
-0.0033894998 0.0025766226 -0.007423803 -0.0061447606 0.0025535286 -0.0045472602 0.000935354 0.0022264286
0.0030892452 -0.0014048314 0.0030769417 -0.0042727184 0.0019450893 -0.0047043306 0.00040906586 0.0025493894
-0.002993437 0.00035208807 0.0014174576 -0.0022594053 -0.0015082269 -0.0015654264 -0.00090567034 -0.004042574
-0.006963566 0.002843948 0.0047780606 0.0009069173 0.00093815033 -0.0033209373 0.0003124987 0.00066572434
0.0037612435 -0.004600486 -0.00089478644 -7.492336e-05 -0.00079432013 0.0014884974 0.0010323941 0.0024224564
0.0021035024 -0.0025645434 -0.0005673424 0.0028941785 0.004839501 -0.0020283167 0.0004247846 -0.001165893
-0.00069966144 0.0007407576 -0.0011260125 -0.0034174111 0.0013580899 -0.0007929377 -0.0011724522 -0.00021235121
-0.003041991 -0.0025614821 -0.0027814538 -0.0012084659 0.001342225 0.0045084953 -0.0037683935 -1.2666074e-05
0.0039480957 -0.0002983536 0.0005442059 0.0001692538 0.0021628686 0.0001207295 0.0030298592 -0.0070543196

bn1.running_mean f4 [256]
00000000: 0b59 f3bd 50a7 22be 1d43 01be 9f0c 863c
00000010: 0318 b3bd b481 ee3d befb 193e 1ff6 283e
00000020: bad4 e1bd 4d5a 633d dcdc bdbd 30d8 2fbe
00000030: aaba 0ebe d279 fe3d 88f3 8abd 5e57 09be
00000040: 7d97 ec3c fddc 083e 548a 45be 9a33 f03d
00000050: 0072 453e b1ae 92be eb15 bcbd 069a 52bc
00000060: 3dac d3bd a1ec 343e c4f5 073e 8c79 63be
00000070: 2c85 8c3d babf 02be cce1 e73d bc07 83bd
00000080: d0c9 4d3e 5db0 e7bd 71cd 2e3d fe47 273e
00000090: bc64 c43d ce65 41be 8dc6 1abe d430 7cbd
000000a0: 4276 3ebd 6395 45bd c4fd c43d 80f4 b03d
000000b0: 4833 a53c d04b ca3d 080d c03d 3c6b aa3d
000000c0: 4a17 dd3c 6872 38be 10be 243e f9b9 78be
000000d0: e6b3 433e 0957 6d3e 6699 64be 121e 9b3d
000000e0: bcb5 92bd 6c06 6c3e 16f6 c93d 0cd1 c9bc
000000f0: 538f fa3d c6c5 123e fb08 29bd 1580 363e
00000100: 15ae 7e3e 2d65 3d3d 704a a73c 365e 06bd
00000110: 3583 5abd 74e3 3d3e d72c 1ebd 649d 153d
00000120: 1d11 d8bd 626a 80bd 7697 59bd a50d 2e3e
00000130: 98b8 603e ba91 a03c aef3 3dbc f69e dc3c
00000140: 6702 4a3e e255 463d ddea 1fbe 09ef c53d
00000150: 8b8f 59be e6eb 5d3e e5b8 fcbd eb6e 833e
00000160: 546b 303d 8d1b 74be da5a aa3d efda 29be
00000170: b4b3 3abe 4366 f3bd 1b4d a73d 9072 723e
00000180: e702 013e 6c63 0abd 7c58 473e a8ae 073b
00000190: d657 4e3c 96cf 62be 12bc 8bbd 5aaa 4c3e
000001a0: eda9 263e c2c6 3b3e aa35 9bbc 8f54 0dbd
000001b0: 2408 2bbe 8ae4 5bbe 78c1 f3bd 4024 88be
000001c0: 144f 63be 3e3f 713e 24ef aa3c b2d5 3c3d
000001d0: 1611 33be 9579 493b a32d 46be e700 993d
000001e0: c666 2e3b 9263 b33c d815 153e f9da 923c
000001f0: 3430 2c3d 28ff 463d 80da 4d3d ec12 863d
00000200: 15c0 82bd 1ab4 593d 4d23 99bc c646 9fbd
00000210: 87e6 ddbd 2061 003e 49dd 3cbe 2264 5fbe
00000220: 575d c73d 26e4 ec3d 8e86 02be 1c72 17be
00000230: 0bf7 6bbe c8a6 c93d f0de 003e 66c7 34be
00000240: 5f9c cfbd af69 babc df59 0d3e acb2 1fbe
00000250: 1bac 2b3e ea87 c33d cb94 66be db4a 50be
00000260: e6dd 83bd 9d8c 88be 5a8e 173e f314 103e
00000270: c638 6c3e 12b9 723e 686c dbbd 3a76 b0bd
00000280: d045 ecbd 60bc ac3d cd13 503e e2c4 9e3d
00000290: 0617 883d e341 a6bd f7d8 49be 3334 993d
000002a0: 36e3 99bd 6a8e 093e 94dd 33be fa73 7c3e
000002b0: cd2e 463e 08ee adbd 017a ebbd 7c4f ecbb
000002c0: 00b3 613d 1682 aabd af5a 10be 3a4b e23d
000002d0: 38a9 e53d 0203 a8bc 6907 603e 262c 21be
000002e0: e853 aa3c 9039 96be 13b8 3bbe adf0 f83c
000002f0: 40a6 51be 61f9 323e 22af f6bd fc36 2e3e
00000300: 20c4 42be 8637 73bc 35fa 8cbd 2849 62be
00000310: 0cf9 9c3d 8c4f 3c3e 0438 e1bd 9367 383e
00000320: 6d01 0f3e 485d 4d3c dd4f 4dbe f3af 2d3e
00000330: 2c19 01be 409c 463d 8052 15be 9af8 c03d
00000340: 9a90 25be bf43 a7bd b647 573e 6484 443c
00000350: 62f6 bc3c 2c77 973c 83d0 243e 7710 89be
00000360: c0b0 353e 4c7e a2bd 9c79 c0bc b844 e4bd
00000370: 6ca8 b63d 2b3d 3abe 2831 41ba 898e 133d
00000380: 11b7 cebc ed68 85bd e6f0 373e 0286 05be
00000390: 3087 5ebd eb62 3b3e f586 43be 3510 483c
000003a0: e266 53be c862 cd3d c586 12be 9422 de3a
000003b0: 0248 40be 1dbc 64be b011 72be 3058 56be
000003c0: 8568 623d d23f 263e 8e1e d73c b352 8abe
000003d0: 85d0 43be c236 dcbd 259b cf3d 070d 643d
000003e0: a872 c33c 1e94 293e 90bb 2f3e e252 e03d
000003f0: 043b c4bd cc29 ff3c c155 013d 616c 36bd
-0.11882218 -0.15884137 -0.12623258 0.01636344 -0.08744814 0.11645833 0.15037438 0.16500138
-0.110269025 0.05550604 -0.09270641 -0.17172313 -0.13938394 0.12425579 -0.06784731 -0.13412234
0.028880829 0.1336555 -0.19291049 0.11728592 0.19281769 -0.28648904 -0.09183868 -0.012854105
-0.10335586 0.17668392 0.13277346 -0.22214335 0.06861338 -0.1276845 0.11322364 -0.063979596
0.20096517 -0.113129355 0.042676393 0.16336057 0.09589526 -0.18886492 -0.15114804 -0.061570004
-0.0464995 -0.04823817 0.096187145 0.08640385 0.020166054 0.09877741 0.093774855 0.083212346
0.026988644 -0.18012393 0.16088128 -0.24289693 0.19111595 0.23177733 -0.22324142 0.07574095
-0.07163569 0.23049325 0.0986139 -0.024635814 0.12234368 0.14333257 -0.04126833 0.17822297
0.24871095 0.046239067 0.020421237 -0.03280469 -0.053347785 0.18543798 -0.03861698 0.036527053
-0.10550139 -0.06270291 -0.05312296 0.16997392 0.21945417 0.019600738 -0.011593742 0.026931267
0.19727479 0.048421748 -0.15616937 0.09664733 -0.21246164 0.2167202 -0.12339953 0.2567056
0.043071106 -0.23838635 0.0831811 -0.16587423 -0.18232614 -0.11884739 0.081690036 0.23676515
0.12598763 -0.033786222 0.19467348 0.0020703468 0.012594184 -0.221495 -0.06822981 0.19986859
0.16275759 0.18337539 -0.018946487 -0.03450447 -0.16702324 -0.214739 -0.119021356 -0.26590157
-0.22198135 0.23559281 0.020865984 0.046102233 -0.17486987 0.0030742635 -0.19353347 0.07470875
0.002661155 0.021898065 0.14559114 0.01792668 0.042038158 0.04858318 0.050257206 0.06546578
-0.06384293 0.053150274 -0.01869359 -0.07777171 -0.10834985 0.1253705 -0.18443789 -0.21815541
0.097346 0.11566953 -0.12746641 -0.14789623 -0.23043458 0.09846264 0.12585044 -0.1765419
-0.10137247 -0.022755472 0.13803814 -0.15595502 0.16764872 0.09547408 -0.22517698 -0.20341055
-0.06438808 -0.2666978 0.14800397 0.14070491 0.23068532 0.23703411 -0.10714036 -0.086163
-0.11536753 0.08434367 0.20320053 0.07752396 0.06645016 -0.08118036 -0.19711672 0.07480659
-0.0751404 0.13433233 -0.17564994 0.24653617 0.1935379 -0.084926665 -0.1149788 -0.0072116237
0.05510235 -0.08325593 -0.14097093 0.110495046 0.112139165 -0.020509247 0.21877827 -0.15739498
0.020791963 -0.29340792 -0.18331937 0.0303882 -0.20473576 0.17477943 -0.12045123 0.17013162
-0.19020128 -0.014844781 -0.06883661 -0.2209822 0.076646894 0.1838972 -0.10997012 0.1800826
0.13965388 0.012534447 -0.20049997 0.1696165 -0.12607259 0.048488855 -0.14582253 0.09422417
-0.16168442 -0.081672184 0.2102345 0.011994455 0.023066703 0.018489443 0.16095166 -0.26770374
0.17743206 -0.079342455 -0.023495488 -0.111459196 0.08918843 -0.18187396 -0.00073696906 0.036024604
-0.025233777 -0.06514154 0.17962989 -0.13039401 -0.054328144 0.18299453 -0.19094451 0.012210895
-0.20644715 0.10028607 -0.14309223 0.0016947561 -0.18777469 -0.22337385 -0.2363956 -0.20932078
0.05527546 0.16235283 0.026259687 -0.2701622 -0.19122513 -0.10752632 0.10137013 0.055676486
0.023858383 0.16560408 0.17161393 0.10953309 -0.09581569 0.03114786 0.031575922 -0.044536952

bn1.running_var f4 [256]
00000000: 6fb1 753e 1036 4f3e d238 bc3e ce4e a93e
00000010: de8c 5c3e 2cc6 c33e e983 a53e 1ccb 243e
00000020: 3079 d83e f0e8 7c3e 252e 553e a62f 893e
00000030: b49c a43e 13b6 b43e 3404 0a3f c4d7 1b3f
00000040: a2d5 e03e b0b4 c63e 3aca de3e cad4 dc3e
00000050: e5e1 813e 5be6 d23e 1ae0 a53e f4d0 b23e
00000060: f38d e33e f528 783e 0dd0 953e 60ba d63e
00000070: 5773 b63e 9c46 b63e a553 8c3e efbe ab3e
00000080: b8ed 663e 6d22 053f 1d4a b03e d89a 963e
00000090: f843 b23e 8c01 943e 8db2 2d3e b280 c33e
000000a0: 491a b83e 9488 e93e ad13 aa3e 21f1 bd3e
000000b0: 4e50 713e 7a07 aa3e 072d 943e 981e a53e
000000c0: e695 7f3e 50b4 a03e 4957 823e 9f65 893e
000000d0: 7499 c13e ac69 d33e efe4 e23e c1d9 e83e
000000e0: 048b cd3e 02ed bb3e 17f3 cd3e 39b1 9b3e
000000f0: a8c0 a93e a7a4 773e 205f f23e cf61 af3e
00000100: e67a ce3e cde4 ba3e 93e7 9e3e 9037 ab3e
00000110: d2a2 983e a608 9d3e ee09 073f 91c7 6f3e
00000120: f04e cc3e 785d b33e dd6d c13e 5591 9b3e
00000130: 65cc d63e 92ed e73e 355c e63e bbf7 983e
00000140: a491 bc3e 977e e63e 187e d73e d917 b33e
00000150: 3f91 9d3e bf66 cd3e 26f4 b93e 4065 f53e
00000160: 9229 b03e b52f a93e c308 f23e bafe c93e
00000170: 4a5d 8e3e 52e6 ad3e 88cc b33e 97da df3e
00000180: c6ac c13e 66a2 bd3e 1e65 8a3e 9e13 cd3e
00000190: 9d74 013f 06db be3e 385b e13e 038a cc3e
000001a0: 364b f43e f411 ae3e 9a50 d03e 383f 863e
000001b0: 8268 d13e 6354 cc3e d1ba 913e 3a6a c03e
000001c0: 4add b63e 8eb0 d13e 84b2 9b3e 7b09 c93e
000001d0: a247 a83e 3ac9 953e 0229 863e 7df2 ca3e
000001e0: 1932 b43e e434 903e 69d3 af3e 6b90 e63e
000001f0: 2a32 cd3e 0acb 713e 835d c33e bc28 8a3e
00000200: 9f80 9e3e 32e9 8b3e 0e27 ee3e 17a9 ce3e
00000210: 3dea b23e fcdf c63e 4a96 ca3e 1513 a13e
00000220: f5af 9c3e 93bd 9c3e f7a2 603e 10e0 8c3e
00000230: db48 a73e f3b7 a93e fc2b 9f3e 428b 743e
00000240: 1080 bc3e 3b7f 913e 2f47 ce3e d980 ff3e
00000250: a1c4 ca3e c990 8e3e 8728 593e aec4 7f3e
00000260: 04af f63e a0fc 723e cce3 823e cd2d 993e
00000270: 4219 833e be3a 933e 7d56 af3e e6b9 9e3e
00000280: 2010 923e ce33 dc3e d400 c43e 130e 943e
00000290: e92d ef3e b763 a13e 3fc0 ae3e d803 b03e
000002a0: 723c 933e 1d44 c53e eadb fa3e 17fc a73e
000002b0: 2aa0 cc3e 27e0 a93e 1080 953e 9b23 933e
000002c0: 812c 9b3e e0e2 d53e 33a8 9d3e 3616 443e
000002d0: 51d3 bc3e db8a 993e 6642 973e dd4a a13e
000002e0: 482e cd3e e782 c73e 68e6 e53e 0885 de3e
000002f0: 9eba c93e cb55 d23e 831f d83e 701f c73e
00000300: 74b2 ca3e e5d3 6e3e 4550 c13e 7838 bb3e
00000310: b1c7 853e 7bd9 7d3e acde af3e 0929 923e
00000320: c5a7 b43e fc53 b03e 2974 b13e 3bca d53e
00000330: 108f 743e 48db a83e 5745 913e 55a4 083f
00000340: f178 bc3e 9682 8f3e bc20 a23e 2245 8c3e
00000350: 2df2 1c3f c337 883e 327e ad3e c256 c43e
00000360: 648d bd3e fe43 0e3f 8f46 823e 23d0 863e
00000370: fce4 ce3e 4f91 f43e 870c c23e 4956 ad3e
00000380: 5535 b23e 3fb0 913e 20a8 a43e e492 763e
00000390: e763 e13e f063 563e 8a93 9c3e 284a 5f3e
000003a0: 70fc 093f 2212 b83e f4b4 b13e e85f 1b3e
000003b0: d422 913e 66aa c43e 6ec2 a23e cbae a23e
000003c0: 8835 a03e c9be 8d3e 4a44 a93e b48a 7c3e
000003d0: c6b4 063f c1cf 913e 3afb dd3e 0787 e93e
000003e0: ec21 7a3e 3363 163f a6a9 433e 4e69 843e
000003f0: 24f5 dc3e 7de8 c33e f64b b43e 200a 873e
0.23993467 0.20235467 0.367621 0.33067936 0.21538112 0.3823713 0.32327202 0.16093105
0.4227996 0.24698234 0.20818384 0.26794165 0.32150805 0.35295162 0.53912663 0.6087611
0.4391299 0.3880973 0.43513662 0.43131095 0.25367656 0.41191372 0.32397538 0.34925044
0.44444236 0.24234374 0.29260293 0.41939068 0.35634872 0.35600746 0.27407566 0.33544108
0.2255162 0.52005655 0.34431544 0.2941501 0.3481748 0.2890743 0.16962643 0.38184124
0.35957554 0.45612013 0.33218136 0.3709803 0.2356579 0.3320883 0.28940603 0.32249904
0.24959525 0.31387568 0.25457218 0.26835343 0.37812388 0.4129156 0.44315287 0.45478633
0.40145123 0.3670426 0.40224525 0.30408648 0.33154798 0.24183904 0.473382 0.3425431
0.4032814 0.36502686 0.31036052 0.33440828 0.29811722 0.3067066 0.52749527 0.23415972
0.39903975 0.35032248 0.37779132 0.30384317 0.41952816 0.4529844 0.44992223 0.29876503
0.36829865 0.45018455 0.4208839 0.34979132 0.30774876 0.40117452 0.36319083 0.4792881
0.34406716 0.3304421 0.4727231 0.39452153 0.2780555 0.33964783 0.35116982 0.43721458
0.37827128 0.37037963 0.2703027 0.4005403 0.5056856 0.37276477 0.44014907 0.39949045
0.4771363 0.33998072 0.40686494 0.26220107 0.40900046 0.39908132 0.28462842 0.37581044
0.35715705 0.40955013 0.30409634 0.39265046 0.32867151 0.29255086 0.2620316 0.3963813
0.3519447 0.28165352 0.3434098 0.45032057 0.40077335 0.2361261 0.3815728 0.26984203
0.30957505 0.2732635 0.4651417 0.4036338 0.34944335 0.38842762 0.39567786 0.3145987
0.30602995 0.30613384 0.21937166 0.27514696 0.32672772 0.33148155 0.31088245 0.23881248
0.36816454 0.28417382 0.40288684 0.4990299 0.3960314 0.27844837 0.21206866 0.24977371
0.481804 0.23729181 0.2556442 0.29917756 0.25605208 0.28755754 0.34245673 0.31001204
0.28527927 0.43008274 0.38281882 0.28916988 0.46714714 0.3152139 0.34131047 0.34377933
0.28757054 0.3852853 0.48995906 0.32809517 0.39965945 0.33178827 0.29199266 0.28738102
0.3030739 0.41774654 0.30792388 0.19149098 0.36879972 0.2998875 0.29542845 0.3150243
0.40074372 0.38967058 0.4490235 0.4346087 0.3940019 0.4108108 0.42211542 0.38891172
0.39589274 0.23323019 0.37756553 0.3656652 0.26128915 0.24789993 0.34349573 0.28546932
0.35284248 0.34439075 0.34658936 0.41755852 0.23882699 0.32979798 0.28373215 0.5337575
0.3681102 0.28029317 0.316656 0.27396494 0.6130703 0.26605043 0.33885342 0.3834744
0.37021935 0.555725 0.25444457 0.2633067 0.40409076 0.47767112 0.37900183 0.33854893
0.34806314 0.28454778 0.3215952 0.24079472 0.44021532 0.2093656 0.30581313 0.21805632
0.53900814 0.35951334 0.3470837 0.15173304 0.28346884 0.38411254 0.31788963 0.3177398
0.3129084 0.2768462 0.33059913 0.24662286 0.5261959 0.28478816 0.43355733 0.4561083
0.24427003 0.58745116 0.19107684 0.2586159 0.43155777 0.38263312 0.35214204 0.26374912

fc2.weight f4 [128, 256]
00000000: 3e44 273c 42d6 59bd 3ada d2ba 0bdf f23c
00000010: 62f5 54bc b822 473c 5477 d53c b1fb 2a3d
00000020: 67b2 053d a83b 39bc ad89 18bd d70c 4bbd
00000030: 6765 193d 943d 44bd d1e9 74bd 092e aabc
00000040: 63f8 823c e3db 6f3d 4f20 583d 7cb3 a23c
00000050: 81ce 2e3d d085 d13c e81d 5d3c c064 423c
00000060: 2add 4b3c d42a d8bc 199b 36bd fe52 cdbc
00000070: 3c0b ad39 8033 a23c ce34 943b 7bd8 6a3d
00000080: bf78 63bb f418 ffbc b3fe ba3c f274 f0bc
00000090: ea10 cc3b 9047 183d 333a 5c3d 4a75 edbc
000000a0: 65ac 37bd 251f bc3c 7adc 373d b46d 03bd
000000b0: 827a 573d ce2d 8cbc 6c11 023d a5dd 393d
000000c0: 4a16 073d 6f2a 74bd 6953 d9bc f2e6 cfbc
000000d0: e222 f3b8 2897 ce3b 5892 67bd 9df4 66bd
000000e0: 220f 803d 092e 2dbd c08f 9f3b b172 c13c
000000f0: 1d6c 0c3d 1c30 22bd 22db 553d e6a5 4dbd
00000100: 37fd dbbc 62f3 2d3c 1051 413d 036a 73bd
00000110: 502c 6d3d 6936 8abc 3407 763c 881d 6fbd
00000120: 9b19 aebc 02e1 303d 8992 31bd b0c1 36bd
00000130: 8f53 edbc 1641 4c3d 6e75 b0bc 90d0 3b3d
00000140: 9510 a13c a5e4 29bc 50a5 6cbd b60f efbc
00000150: ea35 1bbd 4997 253d 9cd4 e1bc 1484 2cbc
00000160: e133 013d 8304 a4bc cb0c 72bd d655 983c
00000170: fffb 5c3d c637 4e3d 80aa 1dbd d049 56bd
00000180: b1c5 d9b9 ee05 28bc d065 79bc e3ba 21bd
00000190: 4548 62bd 3cf0 613c d9d0 11bc 3838 533d
000001a0: 2c1b 6bbd 2660 4abd 5634 23bc 9a03 d03c
000001b0: af95 53bb 5e76 e9bc c73e 373d deb4 b53b
000001c0: eac8 623b 453e 063d 1ed6 c03c 6ace e2bc
000001d0: 8a98 513b 0430 273a 5b17 383d 0ebf 6f3d
000001e0: 623d efbb ce58 44bd 5446 063d 6be7 3fbd
000001f0: b4da 6b3d a498 5d3d b66a 413d 8386 8dbb
00000200: de3a 1c3d 8018 8e3c fcd0 34bd 93bb 71bc
00000210: b401 263d b165 6ebd 16e1 f83c c26d 4e3c
00000220: 31de f2bc 10f1 bd3c 1047 e4bc 5e5b 153d
00000230: e7a8 9f3c f8aa 603d 73ef 473d a011 6fbd
00000240: bee5 c83c 7e28 3b3d 51d5 10bd e50f 293b
00000250: 2e1f 383d faa7 063d a437 833d 5e65 4bbc
00000260: 2b0d dc3b a3f2 21bd 9a89 bbbc 6c21 d93b
00000270: 0420 7fbd 486d 0b3d 9d85 583b 1769 11bd
00000280: 2a06 693d 2b37 103d f2dd 49bd 7c52 1aba
00000290: 7760 0abc 1aec 413d 7b90 25bd 16b6 953c
000002a0: 988f 79bd 7e89 7e3d 1cb7 ed3c 97bd 923a
000002b0: cef4 5e3b 1fb2 9e3c 3f2e ba3c b026 b7bb
000002c0: 70cb 17bd 46a5 413c db49 21bd 845d ae3c
000002d0: 02ea 8c3c 7192 843d ad99 9f3b 8a65 0cbd
000002e0: 5354 84bd 0b49 f2bc d9c2 ffbc e0d5 4f3d
000002f0: 0477 453d 2e80 e43c cfc1 9abb df9d 803d
00000300: ccfa 7bbd c7fb 53bd 4aa7 58bd e74d ef3c
00000310: 5171 c63b 0416 183d 6748 643d 719f d5bb
00000320: bd79 81bc d6fc 36bd adf1 383c f914 26bd
00000330: 4855 5cbd a878 6ebd defb 0b3a c0fc 483d
00000340: 111d 50bc 898e 4d3d 47ec 0ebd b369 65bd
00000350: 6d97 5d3d b8b7 c1bb 3afe 5ebb aff0 103c
00000360: 96fb 8b3c 35db 34bc 0ad5 883c 5a75 38bd
00000370: 512e 50bc 5728 19bd 5264 44bd 87ac 803d
00000380: f9e4 0e3c 0ee1 013d a88a 1b3c 5ce5 89bc
00000390: cadc cebb 82df 033d 3ac9 4bbd d1c9 f23b
000003a0: a38e 4dbd 5200 bb3c a825 e8bb e7ce 313c
000003b0: 008d 4bbd c104 13bd 4ccb 923c 2538 343d
000003c0: 663c ef3c 804b 4bbd 54a4 7bbd e809 2ebc
000003d0: 010c f3bc 1b1d ef3c 8c86 533d 50d0 47bd
000003e0: 6428 98bb 8554 2f3d de19 9dbb d0b7 b6bc
000003f0: 0d59 61bd 4828 ac3b 1be7 00bd 7a4e 0a3c
0.010209141 -0.053182848 -0.0016086765 0.02964737 -0.012997957 0.012154274 0.026057877 0.041743938
0.03264084 -0.011305727 -0.037240673 -0.049572792 0.03745022 -0.047910288 -0.059793297 -0.020773904
0.01598758 0.05855931 0.052765187 0.019860975 0.042677406 0.025576502 0.0134959 0.011864841
0.012442866 -0.02638761 -0.044581506 -0.025063988 0.00033005502 0.019799948 0.0045228964 0.057335358
-0.0034709421 -0.031139828 0.022826528 -0.029352639 0.0062276023 0.037177622 0.05376644 -0.028986592
-0.044842143 0.02296407 0.044887997 -0.032087043 0.052607067 -0.017111685 0.031754896 0.045377392
0.03298024 -0.05961078 -0.02652903 -0.025378678 -0.000115936404 0.0063046403 -0.05653605 -0.056385625
0.06252886 -0.04228023 0.0048694313 0.02361426 0.034282792 -0.039596662 0.052210934 -0.05020704
-0.02685414 0.010617109 0.047196448 -0.059427273 0.057903588 -0.016871648 0.015016366 -0.058377773
-0.021252444 0.043183334 -0.043352637 -0.04461831 -0.028970508 0.04986676 -0.02154037 0.045853198
0.019661227 -0.0103694545 -0.05777484 -0.029182296 -0.037893213 0.04042748 -0.0275672 -0.010529537
0.031543616 -0.020021683 -0.05909423 0.018595617 0.05395126 0.05034616 -0.03849268 -0.052316487
-0.00041536757 -0.01025532 -0.015222028 -0.03948487 -0.055244703 0.0137901865 -0.008899891 0.051567286
-0.05739896 -0.0494081 -0.009961208 0.025392342 -0.0032285263 -0.028498825 0.044737604 0.0055452427
0.0034604617 0.03277423 0.023539599 -0.027686317 0.003198179 0.00063776993 0.04494415 0.058531813
-0.0073010186 -0.047936253 0.032781914 -0.046851557 0.05758162 0.054100648 0.047220908 -0.0043190136
0.038142078 0.017345667 -0.044144616 -0.014754194 0.040528968 -0.05820245 0.030380767 0.0125994105
-0.029646965 0.023186237 -0.027865916 0.036464088 0.019489719 0.05485055 0.04881234 -0.058366418
0.024523612 0.045692913 -0.035359684 0.0025796827 0.04495161 0.03287504 0.06407097 -0.012414305
0.006715437 -0.039538037 -0.022892762 0.0066262987 -0.06228639 0.034039766 0.0033038624 -0.035500612
0.056890644 0.035208862 -0.04928393 -0.0005886925 -0.008445851 0.047344305 -0.04042099 0.018275302
-0.060927957 0.06214284 0.029017977 0.0011195418 0.0034020427 0.019372044 0.02272713 -0.0055893287
-0.037059247 0.011819189 -0.039377075 0.021284826 0.017201427 0.06473244 0.0048706145 -0.034276523
-0.06461396 -0.029575845 -0.03122084 0.050741076 0.048209205 0.027893152 -0.004722811 0.062801115
-0.061518475 -0.051753785 -0.052893914 0.029211951 0.006055989 0.03713037 0.05573311 -0.006519251
-0.01580512 -0.044674717 0.011288089 -0.040547345 -0.053792268 -0.058220536 0.00053399603 0.049069166
-0.0127022425 0.05018476 -0.0348933 -0.056009006 0.05409949 -0.0059117936 -0.0034026043 0.008846446
0.017087739 -0.011038591 0.016703147 -0.04503379 -0.012706355 -0.037391987 -0.047947235 0.06282907
0.0087215835 0.03170877 0.009493507 -0.016833 -0.006312941 0.032195576 -0.04975245 0.0074093123
-0.050184857 0.022827301 -0.007084567 0.010852552 -0.049695015 -0.035893206 0.017919205 0.043998856
0.029203605 -0.04963255 -0.061436012 -0.010622479 -0.02966881 0.029188683 0.051641986 -0.048782647
-0.004643487 0.042805213 -0.0047943434 -0.022304446 -0.055016566 0.0052538253 -0.0314704 0.008441562

fc2.bias f4 [128]
00000000: ea17 f137 9f93 663c 671b 08bd 1958 483c
00000010: dc5f d33b d01f c33b 30f0 47bb a196 1f3d
00000020: 2443 1bbd 9f98 433c 7d61 57b8 fca5 2739
00000030: d932 d63c aa16 a037 72fb 3737 10e7 3a38
00000040: c7a7 18b8 1c2a 9dbb abb4 b5bc 5cd7 6f3c
00000050: e895 183d 59fa fab7 d353 23bb ec33 50bc
00000060: cfd2 dcbb 6c6c 5e3c 0ed6 6137 86a8 a53c
00000070: a869 423c d925 0239 c1f3 1b3d d91e 3f39
00000080: 21be 0abd 3d24 87bb 3e58 91b8 a6e9 08bd
00000090: cc7d b236 9cd9 bdbb b32a 043d f61c d3bc
000000a0: e10c 1a3d 90ae 523c 4a61 5d37 637b 90b8
000000b0: 9409 f5b7 b467 a7b6 b943 a7bb cd63 093c
000000c0: 4c1d 613b 46af 1ebd 353d 303c 784a 483c
000000d0: 8e27 0e3d fc60 443b e64e a43b d465 0839
000000e0: db17 cdbc 28d6 c53c 0cae a2bb 3082 9437
000000f0: 59f0 6037 5f21 863b 6b3e 5fb8 00dd 49bc
00000100: c698 ec3c 8232 f1b6 4e10 0937 1d56 e33c
00000110: f92b 123d a877 f2bc c49a 3eb9 4d60 da3b
00000120: 865f 5d3c dae3 38b7 9627 b737 9a5b 26b8
00000130: 0dcd b0bc 5112 853c 22a9 acb7 6a20 c83c
00000140: 27ca 0f3d 7fd7 0d3d 9511 37bc 2105 c53b
00000150: 14c9 083d d311 ce37 82d3 bd3c f7ac 0c3d
00000160: 780e 033d 88ab 9b38 687a d0b7 201e 66b7
00000170: add0 8d3c 41fe 8539 cacc 47bc 3951 efbb
00000180: cac6 ee3b def6 97bc 801e 133d 7163 b4bc
00000190: 26e3 f9b8 36a2 223c acb9 00b6 6e4d 1b3d
000001a0: e2ea 42b8 8945 5ab6 795d 6c3c 4bfd 093c
000001b0: 6e02 c3b5 c548 063a 1c4a d93c 82b2 febb
000001c0: 9547 d837 6447 3335 6da1 60b8 6c63 83b7
000001d0: ff04 013d 4ea2 94bb 98b4 ab3c aa5d 723c
000001e0: 9e37 d0bc 22d8 2bb7 5df0 c23c 822f b5bb
000001f0: 6326 2cb8 1bb3 f337 c470 943c 056c 0bbd
2.8740575e-05 0.014073282 -0.033229258 0.012228035 0.0064506363 0.00595472 -0.0030508153 0.03896201
-0.037905827 0.011938243 -5.1350788e-05 0.00015988195 0.026147293 1.908404e-05 1.0966194e-05 4.456105e-05
-3.639588e-05 -0.0047962796 -0.022180876 0.014638748 0.037252337 -2.99189e-05 -0.002492179 -0.012707692
-0.0067389975 0.0135756545 1.3460884e-05 0.02022196 0.011866011 0.00012411865 0.03807426 0.00018226671
-0.033872727 -0.004124193 -6.930575e-05 -0.03342595 5.319458e-06 -0.0057937633 0.032267284 -0.025770646
0.03760994 0.012859002 1.3195278e-05 -6.889438e-05 -2.9210736e-05 -4.9890605e-06 -0.0051045087 0.008385611
0.0034349738 -0.038741373 0.01075678 0.012224786 0.03470569 0.0029965034 0.0050142882 0.00013007905
-0.02503579 0.02414997 -0.0049645957 1.7703598e-05 1.3407401e-05 0.0040933336 -5.3225474e-05 -0.012320757
0.028881442 -7.1882396e-06 8.169633e-06 0.027751023 0.035686467 -0.029598072 -0.00018177467 0.006664312
0.013511544 -1.10203055e-05 2.1833734e-05 -3.9662795e-05 -0.02158215 0.016244086 -2.0582756e-05 0.024429519
0.035104897 0.03462934 -0.0111736255 0.0060125743 0.033394888 2.4565414e-05 0.023172144 0.03434464
0.03199622 7.422926e-05 -2.4852532e-05 -1.3716082e-05 0.017311418 0.0002555717 -0.012194822 -0.0073033837
0.007286881 -0.018550333 0.03591776 -0.022020074 -0.00011915555 0.009926369 -1.9181562e-06 0.03791564
-4.6471956e-05 -3.2525006e-06 0.0144265825 0.008422206 -1.4529339e-06 0.0005122538 0.026524596 -0.0077727446
2.578254e-05 6.6786583e-07 -5.35561e-05 -1.5662714e-05 0.031498905 -0.00453595 0.020960137 0.014792839
-0.025417145 -1.0242717e-05 0.023796255 -0.005529345 -4.1043746e-05 2.905126e-05 0.018120177 -0.034038562

bn2.weight f4 [128]
00000000: 5c0f 803f 9b49 803f 824f 803f f697 7f3f
00000010: eab0 803f cc20 803f 453e 7f3f 694c 803f
00000020: 6bb1 7f3f 7ba3 7f3f 5044 803f a053 7f3f
00000030: 2901 7f3f 6e08 803f 750f 803f 1400 803f
00000040: 20a9 803f 3045 803f 7c18 803f 946e 7f3f
00000050: 5e81 7f3f 596d 7f3f b402 803f 45d4 7f3f
00000060: 8720 803f 0a73 803f d1d8 7e3f 24e1 7f3f
00000070: 4d1a 803f 620b 803f c030 803f 040c 803f
00000080: deea 7f3f c839 803f b32e 803f 870a 803f
00000090: 4a01 803f b6db 7f3f 05f8 7e3f 7317 803f
000000a0: 2c52 803f d41d 7f3f a233 7f3f 55f1 7f3f
000000b0: 6179 803f 4f27 803f 5b94 7f3f e428 803f
000000c0: b70e 803f 8552 803f 84bf 7f3f 44c8 7f3f
000000d0: b1b4 7f3f 0a0d 803f 5ace 7e3f 8fa7 7f3f
000000e0: a2c6 7f3f 146f 803f 0a52 803f 2086 7f3f
000000f0: d70c 803f d93e 803f d996 7f3f 10c3 7f3f
00000100: f406 803f e61b 803f 652a 7f3f 9f60 803f
00000110: 4de0 7f3f 7395 7f3f 726c 7f3f 3a78 803f
00000120: 6784 7f3f 4131 803f e616 803f a029 803f
00000130: ee44 803f 8f5c 803f 100f 803f 5017 7e3f
00000140: 7110 803f 6ebe 7f3f d93b 803f 194d 803f
00000150: 9fa0 7f3f 8fad 7f3f c6ff 7f3f ac32 7f3f
00000160: 0b29 803f 55c5 7f3f 7a2e 7e3f 3bd8 7f3f
00000170: 1f7d 803f 296b 7f3f 19df 7e3f a874 7f3f
00000180: d3ba 7f3f b568 803f 073f 803f a316 803f
00000190: faef 7f3f e82d 803f 6471 803f 251f 803f
000001a0: 6427 803f 3bbf 7f3f 79a0 7f3f a2fc 7f3f
000001b0: 20f7 7e3f 4a0d 803f c20f 7f3f e3f5 7e3f
000001c0: ffe6 7f3f 0426 7f3f ec2e 803f 2c18 803f
000001d0: 634c 7f3f aaf5 7d3f 6e17 803f 45de 7f3f
000001e0: 37c7 7f3f f090 7e3f b913 803f 2638 803f
000001f0: fe93 7f3f da3e 7f3f 8425 803f 9d4d 803f
1.0004687 1.0022463 1.0024264 0.9984125 1.005399 1.0010009 0.9970439 1.0023319
0.99880093 0.99858826 1.0020847 0.99736977 0.99611145 1.0002573 1.0004717 1.0000024
1.0051613 1.0021114 1.0007472 0.99778104 0.99806774 0.99776226 1.0000825 0.9993327
1.0009927 1.0035107 0.99549586 0.9995291 1.0008026 1.0003474 1.0014877 1.0003667
0.99967754 1.0017633 1.0014251 1.0003213 1.0000393 0.9994463 0.995972 1.0007156
1.0025077 0.9965489 0.9968816 0.9997762 1.0037042 1.0011996 0.9983575 1.0012479
1.0004491 1.0025183 0.99901605 0.99914956 0.9988509 1.0003979 0.9953362 0.9986505
0.99912465 1.0033898 1.0025036 0.99814034 1.0003918 1.001918 0.9983955 0.99907017
1.0002122 1.0008514 0.99674064 1.0029486 0.9995163 0.99837416 0.9977485 1.003669
0.99811405 1.0015031 1.0006988 1.0012703 1.0021036 1.0028247 1.0004597 0.9925432
1.0005018 0.9989995 1.0018264 1.0023528 0.99854463 0.99874204 0.99999654 0.99686694
1.0012525 0.9991048 0.9928967 0.99939317 1.0038184 0.9977289 0.9955917 0.9978738
0.99894446 1.0031954 1.0019234 1.0006908 0.9997555 1.001401 1.0034604 1.0009505
1.0012021 0.9990117 0.99854237 0.9999486 0.9959583 1.0004056 0.9963342 0.99593943
0.9996185 0.9966738 1.001432 1.0007377 0.9972593 0.9920298 1.000715 0.9994853
0.9991335 0.9943991 1.0006019 1.0017135 0.99835193 0.9970528 1.0011449 1.0023686
