tryst/model_round_2.pth (torch, 194739 bytes, 19 tensors)

fc1.weight f4 [256, 14]
0.17799455 -0.115867116 0.020826187 0.10454327 0.096885026 0.030689692 0.0768836 0.12722318
0.13477011 0.038771328 0.06990508 -0.0039826287 -0.009729405 -0.08852889 0.058700923 0.09941855
-0.019600924 -0.18290843 0.045491308 0.032414176 -0.09381409 -0.11150163 -0.10084792 0.057042386
-0.021565244 -0.07098735 0.02997293 -0.14296661 -0.12494138 -0.05394455 0.0620289 -0.01843045
-0.07105252 -0.050510757 0.04511524 -0.07827464 -0.030926676 -0.06988905 0.13898945 -0.068222955
0.056126174 -0.10616376 0.15297017 -0.16499482 0.008251163 -0.15950152 -0.03711436 -0.05561802
0.05554359 -0.10552317 -0.11092475 0.09298807 0.1457544 0.0039524217 0.11279154 0.08846036
-0.09382293 0.1036405 -0.01922195 0.11631246 -0.036334183 0.054581877 0.09838788 0.05618691
-0.11769144 0.010043496 -0.1677965 0.08722213 -0.0126189515 0.00409076 0.011761151 0.009003924
0.009899874 -0.15290835 -0.10020716 0.10195668 0.011756371 0.048626058 0.04106096 0.085852884
-0.04262617 0.058613807 0.101777166 -0.09709487 0.114969574 -0.03588901 0.09263486 -0.07176714
0.05288673 0.10789509 0.10733493 0.028005987 -0.04291055 0.0049609044 -0.13659768 -0.08060892
-0.037578873 0.121102616 0.08041661 0.09303476 -0.05877463 0.14216468 -0.057869986 -0.014163685
0.080761835 0.07218187 -0.093036175 -0.16023259 0.035392083 -0.07562751 -0.020047326 -0.13137527
-0.11635609 -0.06836403 0.105801985 0.033997957 0.06744829 0.0240578 -0.0942667 -0.120941475
-0.09124343 0.00074519514 -0.09812697 -0.11289646 -0.11701436 0.04128389 -0.09231875 -0.05050851
0.005403157 0.030943194 -0.040270567 0.058158476 -0.14026706 -0.06741579 -0.02797411 0.02705491
-0.13769267 -0.09018115 0.005796639 0.17166257 0.063849196 -0.03699092 0.07087527 -0.12112919
0.012417128 0.0057082335 -0.14746805 0.042415373 -0.0885279 -0.016337337 -0.013603009 -0.11018339
0.0035340153 0.05444864 0.05764634 0.10599221 0.096906014 -0.029242678 -0.020182556 0.047653057
-0.023596127 -0.0816186 0.018284652 0.08597888 -0.030271553 0.02891008 0.07943806 0.22936708
-0.11859507 -0.027629226 -0.0971585 -0.051466968 -0.13277215 -0.10636115 0.022068396 0.022950334
-0.08707021 0.087512776 0.12851343 -0.09920135 -0.011060924 -0.013825562 -0.02561437 0.019086748
-0.06975715 -0.011428306 0.087392166 -0.09363853 0.01415484 -0.14283867 0.08704847 0.13685721
-0.060033467 0.044576567 0.14854029 -0.09651393 -0.12094878 -0.037647795 -0.14694825 -0.07763888
0.055534095 -0.059143037 -0.107630044 0.08976463 -0.0024619903 -0.14614284 0.014452308 0.028228667
0.0029404839 -0.10086545 0.08849655 0.027916392 -0.06086994 0.093692206 -0.118598014 0.103455864
0.08152701 0.09169993 -0.027375408 0.1263329 0.15220268 -0.08974425 0.1465329 0.13407788
-0.08912178 0.05327774 -0.0041474435 -0.014659275 0.036473606 -0.029062297 0.13687114 -0.0688684
-0.0057844184 -0.18095775 -0.08352142 -0.11255683 0.07272522 -0.055428512 0.075463094 -0.14671043
0.14259961 -0.1510246 -0.06280208 0.1197169 -0.12800679 -0.018639872 -0.08967662 0.02131893
-0.037316546 -0.10835066 -0.08119463 -0.064795695 -0.011623715 0.004537341 -0.07947406 -0.109031804
00000000: 3444 363e bd4b edbd ae9b aa3c c81a d63d
00000010: a86b c63d f368 fb3c 2675 9d3d cb46 023e
00000020: 2d01 0a3e afce 1e3d 652a 8f3d b680 82bb
00000030: 1568 1fbc a24e b5bd 6170 703d f49b cb3d
00000040: 1e92 a0bc 594c 3bbe 1855 3a3d bac4 043d
00000050: 9a21 c0bd f75a e4bd 5b89 cebd 47a5 693d
00000060: 98a9 b0bc d161 91bd ca89 f53c d765 12be
00000070: 44e1 ffbd f6f4 5cbd 0412 7e3d 75fb 96bc
00000080: fc83 91bd 5ee4 4ebd c2ca 383d 744e a0bd
00000090: f159 fdbc fe21 8fbd 4053 0e3e 7ab8 8bbd
000000a0: 8fe4 653d 636c d9bd 36a4 1c3e 67f4 28be
000000b0: e32f 073c 5e54 23be 3a05 18bd b9cf 63bd
000000c0: ad81 633d 881c d8bd 842c e3bd 8770 be3d
000000d0: a440 153e 5183 813b 40ff e63d b52a b53d
000000e0: 3c26 c0bd 7841 d43d 5a77 9dbc 3a35 ee3d
000000f0: 27d3 14bd 3f91 5f3d 967f c93d 3f24 663d
00000100: 3608 f1bd 7a8d 243c d8d2 2bbe 84a1 b23d
00000110: b8bf 4ebc c80b 863b d8b1 403c 3285 133c
00000120: 1533 223c 0294 1cbe 6939 cdbd aace d03d
00000130: cb9d 403c 1e2c 473d 8a2f 283d a3d3 af3d
00000140: c798 2ebd 0815 703d 8c70 d03d add9 c6bd
00000150: 2b75 eb3d 5b00 13bd 58b7 bd3d a6fa 92bd
00000160: c19f 583d 1af8 dc3d 6ad2 db3d d06c e53c
00000170: f9c2 2fbd 158f a23b 43e0 0bbe 4a16 a5bd
00000180: 4eec 19bd a604 f83d 77b1 a43d 0289 be3d
00000190: abbd 70bd 9e93 113e 1409 6dbd cd0e 68bc
000001a0: 7666 a53d 17d4 933d c089 bebd 0314 24be
000001b0: 4af7 103d 99e2 9abd 4a3a a4bc 3d87 06be
000001c0: 1a4c eebd 7102 8cbd b6ae d83d 7141 0b3d
000001d0: 5422 8a3d dd14 c53c e60e c1bd 2ab0 f7bd
000001e0: d6dd babd 3359 433a cbf6 c8bd 4236 e7bd
000001f0: 3aa5 efbd 4c19 293d 9d11 bdbd 03e2 4ebd
00000200: f70c b13b 957c fd3c c0f2 24bd 9537 6e3d
00000210: 2ba2 0fbe 4a11 8abd f629 e5bc 42a2 dd3c
00000220: 4fff 0cbe e5b0 b8bd bbf1 bd3b 50c8 2f3e
00000230: 5ec3 823d ca83 17bd 0e27 913d 9512 f8bd
00000240: 3671 4b3c 220c bb3b dd01 17be bebb 2d3d
00000250: 1e4e b5bd e1d5 85bc 28df 5ebc d4a7 e1bd
00000260: f09a 673b 8a05 5f3d 921e 6c3d 7212 d93d
00000270: a976 c63d 578e efbc e355 a5bc da2f 433d
00000280: aa4c c1bc a727 a7bd b2c9 953c b215 b03d
00000290: 0cfc f7bc d5d4 ec3c 6cb0 a23d 34df 6a3e
000002a0: f9e1 f2bd b056 e2bc 09fb c6bd 07cf 52bd
000002b0: 6cf5 07be e0d3 d9bd c8c8 b43c 5702 bc3c
000002c0: de51 b2bd e639 b33d 0699 033e 142a cbbd
000002d0: e138 35bc 9c84 62bc 3ad5 d1bc d05b 9c3c
000002e0: d6dc 8ebd ca3d 3bbc aafa b23d 8fc5 bfbd
000002f0: b4e9 673c 4d44 12be 7846 b23d 4c24 0c3e
00000300: a7e5 75bd eb95 363d f21a 183e 18a9 c5bd
00000310: feb3 f7bd 9334 1abd 9a79 16be 2201 9fbd
00000320: b877 633d f83f 72bd 246d dcbd 85d6 b73d
00000330: 5859 21bb 78a6 15be 60c9 6c3c ce3f e73c
00000340: 22b5 403b 8c92 cebd ae3d b53d ebb0 e43c
00000350: c252 79bd b3e1 bf3d 84e3 f2bd abe0 d33d
00000360: a2f7 a63d 2ccd bb3d 6442 e0bc 695d 013e
00000370: 05db 1b3e d5cb b7bd b80c 163e b64b 093e
00000380: 7b85 b6bd c239 5a3d 47e7 87bb 752d 70bc
00000390: 5965 153d 0e14 eebc f327 0c3e e00a 8dbd
000003a0: 388b bdbb fd4c 39be 470d abbd 3284 e6bd
000003b0: f6f0 943d 0209 63bd 658c 9a3d 423b 16be
000003c0: a205 123e 31a6 1abe 609e 80bd 222e f53d
000003d0: 3614 03be a5b2 98bc 60a8 b7bd 09a5 ae3c
000003e0: 3cd9 18bd f3e6 ddbd 5f49 a6bd 9bb3 84bd
000003f0: 6571 3ebc faad 943b 4cc3 a2bd 114c dfbd

fc1.bias f4 [256]
-2.9963417e-06 3.267985e-06 5.187366e-06 -1.4996677e-05 8.9063406e-07 -7.0623573e-06 4.516945e-06 -9.14324e-06
-1.1212501e-07 1.6917917e-05 -5.001284e-06 -3.763741e-06 9.074114e-06 1.6474512e-06 2.6744983e-06 -4.8415227e-06
-3.56689e-06 8.702471e-07 -4.1433946e-06 -5.243514e-06 -6.7751553e-06 6.3198127e-07 3.8565224e-07 1.1567471e-05
-3.5282906e-06 7.7419605e-07 -7.645373e-06 9.201001e-07 -5.88298e-06 8.9653696e-07 -3.9959423e-06 -4.177293e-06
-2.1215474e-06 2.7849085e-06 3.068795e-06 -7.709166e-06 2.0754667e-06 9.496856e-06 7.510737e-06 -6.688965e-06
1.0107817e-05 8.560438e-06 1.1216925e-05 -1.5384663e-05 4.091717e-06 2.0823589e-05 -7.647497e-06 2.7510055e-07
6.033174e-06 -6.098541e-06 -8.6268465e-06 -1.316429e-05 6.8816844e-06 -3.8559724e-06 -1.3962849e-05 -1.0964208e-05
5.15966e-06 8.0710834e-08 -2.048923e-05 -9.754849e-07 7.436167e-06 3.8745634e-07 4.796796e-06 1.2226574e-06
-5.9790377e-06 -1.9378236e-05 2.665659e-06 1.6424752e-05 -2.2404888e-06 2.495518e-06 -4.314744e-06 -3.1594398e-05
-6.460149e-07 -1.0643918e-05 -1.0890142e-05 4.7584808e-07 -2.7618114e-06 1.0439038e-07 -1.30609305e-05 -7.113791e-06
6.84538e-06 1.6509786e-06 4.2359648e-06 -4.2569673e-06 4.1430394e-06 5.6215463e-06 -3.3783983e-06 -2.533925e-07
2.6019666e-07 5.2539026e-06 -2.2127547e-06 -7.1417726e-06 -6.106018e-07 1.3446196e-05 1.4307989e-05 9.1970105e-06
1.3188012e-05 1.6450231e-06 -1.3302497e-05 -5.686359e-06 1.4840242e-06 -6.7836722e-06 -1.8744735e-06 -1.18243e-05
1.728846e-06 3.9237217e-05 4.1618923e-06 -4.0785844e-06 -3.8303087e-06 -3.0408228e-06 3.918824e-06 -3.1221075e-06
2.5417285e-07 -1.8093765e-06 1.3878553e-06 3.9228007e-06 -1.456572e-06 -1.9916135e-06 1.3959323e-05 -6.683613e-06
1.0722961e-05 -9.579994e-07 -2.2102935e-05 -1.1645977e-05 -7.807421e-07 -7.084058e-06 5.4391044e-06 3.8410612e-06
-2.1009368e-05 6.7182573e-06 4.115855e-05 1.1003989e-05 -1.2889497e-05 2.7110389e-06 -2.2906059e-05 1.5963343e-06
4.1110397e-06 1.225553e-05 7.4536306e-06 1.70253e-06 6.4057244e-06 -5.5072273e-06 2.545984e-06 -1.7725062e-06
1.3714441e-08 8.267128e-06 1.249973e-06 -3.4699722e-06 1.6187894e-05 2.4196484e-06 8.4117055e-06 9.028447e-06
-2.8423726e-06 8.6039245e-07 2.142682e-07 2.2908545e-05 1.2290084e-05 -1.2646136e-05 -5.209048e-06 -1.0815056e-05
1.29726e-07 3.2956727e-06 -4.326778e-05 -4.4874287e-06 -5.356519e-06 2.2835913e-05 -6.154542e-06 -2.7875421e-07
-8.669363e-06 2.541473e-06 -4.9125483e-06 5.2139603e-06 -1.39329895e-05 -2.1672192e-06 5.476104e-06 1.2926862e-05
-1.877336e-05 4.3369023e-06 -5.061395e-05 1.2613213e-05 5.0741637e-06 8.9560335e-06 -2.309091e-06 -8.032416e-07
4.1076883e-06 3.1465372e-06 6.6183434e-06 4.912252e-06 7.630107e-06 -3.5135943e-06 2.8046884e-06 -4.0455197e-06
-4.0449713e-06 1.0836494e-05 -4.563467e-06 -1.1005128e-05 -1.733441e-06 -7.6210677e-07 2.7431802e-06 9.995492e-06
-5.2703185e-06 2.9933483e-06 1.8149315e-06 -1.0878947e-05 3.1265968e-06 4.3438986e-06 -1.6250273e-05 -2.2484551e-07
-3.3159927e-06 2.7829665e-06 1.7847328e-06 -1.0980042e-05 2.6176663e-06 -5.82667e-07 -1.0681394e-05 -3.889383e-06
4.5479624e-06 -1.5712535e-06 -1.2580512e-05 -3.0685699e-06 8.060817e-06 -3.9438498e-07 4.2329475e-07 -2.4456103e-06
-1.5828293e-06 -1.0246791e-05 -7.5928856e-06 2.2092645e-06 -1.9556202e-05 -1.1924799e-06 1.242637e-05 1.5398668e-05
-3.1923232e-06 6.2176364e-06 -1.0608457e-05 -8.0785503e-07 1.5020602e-05 1.1248362e-05 -3.0939334e-06 -5.8783844e-06
-7.325202e-06 -1.3288867e-05 1.4283141e-06 2.5305744e-06 1.0194971e-05 2.5204622e-06 -2.9870082e-05 -3.28855e-06
-1.6635306e-07 1.0873256e-06 -1.150248e-06 -2.935558e-06 -1.7008579e-06 3.6056667e-06 4.964073e-06 -4.9498994e-06
00000000: c214 49b6 8e4f 5b36 220f ae36 3d9a 7bb7
00000010: e813 6f35 30f9 ecb6 4390 9736 eb65 19b7
00000020: 60c9 f0b3 f3ea 8d37 b4d0 a7b6 9494 7cb6
00000030: 063d 1837 fe1d dd35 887b 3336 5d74 a2b6
00000040: b45e 6fb6 ed9a 6935 7d07 8bb6 71f1 afb6
00000050: 2456 e3b6 6ca5 2935 a40b cf34 e911 4237
00000060: 92c7 6cb6 59d2 4f35 a144 00b7 ccfc 7635
00000070: 6a66 c5b6 8da9 7035 e214 86b6 ac2a 8cb6
00000080: e85f 0eb6 5de4 3a36 7ff1 4d36 9e56 01b7
00000090: 3f48 0b36 b054 1f37 bd04 fc36 c671 e0b6
000000a0: be94 2937 cd9e 0f37 5330 3c37 500e 81b7
000000b0: 954b 8936 51ae ae37 c04d 00b7 88b1 9334
000000c0: 9270 ca36 11a2 ccb6 06bc 10b7 32dc 5cb7
000000d0: 38e9 e636 8d62 81b6 fb41 6ab7 eaf2 37b7
000000e0: 2421 ad36 4053 ad33 49e0 abb7 68ed 82b5
000000f0: 3084 f936 9803 d034 2af4 a036 301a a435
00000100: 8b9f c8b6 728e a2b7 ace3 3236 e3c7 8937
00000110: 4e5b 16b6 ac78 2736 5ec7 90b6 3a84 04b8
00000120: ce69 2db5 4893 32b7 ceb4 36b7 1078 ff34
00000130: 8f57 39b6 382d e033 4520 5bb7 00b3 eeb6
00000140: 5eb1 e536 3197 dd35 a922 8e36 12d7 8eb6
00000150: 7004 8b36 b7a0 bc36 71b8 62b6 000a 88b4
00000160: 28b1 8b34 ae4a b036 d67e 14b6 5ca3 efb6
00000170: 3ce8 23b5 f996 6137 580c 7037 dc4c 1a37
00000180: 1542 5d37 90ca dc35 ca2d 5fb7 74cd beb6
00000190: af2e c735 4d9f e3b6 6b96 fbb5 fb60 46b7
000001a0: b20a e835 a492 2438 62a6 8b36 c6da 88b6
000001b0: 1a86 80b6 f010 4cb6 717e 8336 6685 51b6
000001c0: 4075 8834 b4d9 f2b5 5846 ba35 9aa0 8336
000001d0: 6f7f c3b5 a9a7 05b6 d632 6a37 cc43 e0b6
000001e0: c4e6 3337 9c94 80b5 b169 b9b7 1763 43b7
000001f0: 3094 51b5 98b3 edb6 8d81 b636 77e2 8036
00000200: 463d b0b7 646d e136 a8a1 2c38 c69d 3837
00000210: f83f 58b7 4bef 3536 6326 c0b7 a141 d635
00000220: 90f1 8936 1a9d 4d37 331a fa36 7c82 e435
00000230: c1f0 d636 b9ca b8b6 acdb 2a36 d9e6 edb5
00000240: c09c 6b32 0bb3 0a37 bfc4 a735 abdd 68b6
00000250: 3dcb 8737 3e61 2236 0020 0d37 e278 1737
00000260: 97bf 3eb6 b8f5 6635 9811 6634 ba2b c037
00000270: 8231 4e37 be2a 54b7 62c9 aeb6 5072 35b7
00000280: d04a 0b34 3a2b 5d36 6d7a 35b8 b892 96b6
00000290: 26bc b3b6 c08f bf37 1d83 ceb6 b0a7 95b4
000002a0: a172 11b7 2c8e 2a36 78d6 a4b6 94f3 ae36
000002b0: bcc1 69b7 8b70 11b6 60bf b736 73e0 5837
000002c0: 7c7b 9db7 b585 9136 514a 54b8 569d 5337
000002d0: bc42 aa36 df41 1637 e2f5 1ab6 589e 57b5
000002e0: c6d4 8936 1929 5336 2313 de36 ecd3 a436
000002f0: 0f03 0037 17cb 6bb6 2e38 3c36 c0be 87b6
00000300: 0aba 87b6 63ce 3537 e21f 99b6 aaa2 38b7
00000310: 94a8 e8b5 9493 4cb5 7a17 3836 50b2 2737
00000320: b1d7 b0b6 55e1 4836 9298 f335 b984 36b7
00000330: 86d2 5136 cec1 9136 3251 88b7 106d 71b4
00000340: 5288 5eb6 00c3 3a36 f48a ef35 ec36 38b7
00000350: 2aab 2f36 9268 1cb5 3d34 33b7 8c81 82b6
00000360: b39a 9836 dce3 d2b5 e310 53b7 a1ed 4db6
00000370: f23c 0737 dcbb d3b4 3041 e334 441f 24b6
00000380: 9a71 d4b5 a2e9 2bb7 64c6 feb6 e042 1436
00000390: a00c a4b7 4c0d a0b5 da7a 5037 632c 8137
000003a0: b23b 56b6 17a1 d036 fafa 31b7 60db 58b5
000003b0: ff00 7c37 59b7 3c37 5fa1 4fb6 f03e c5b6
000003c0: 02cb f5b6 40f3 5eb7 80b4 bf35 f0d2 2936
000003d0: 110b 2b37 3625 2936 8391 fab7 dcb0 5cb6
000003e0: c89e 32b4 39f0 9135 3862 9ab5 8100 45b6
000003f0: 0849 e4b5 e2f8 7136 1091 a636 5017 a6b6

bn1.weight f4 [256]
0.97358334 0.9629652 0.9586115 1.0219201 0.9140891 0.96691453 0.9129042 0.9691091
0.9743829 0.9500016 0.9130285 0.94250816 0.98785937 0.9595132 0.9681478 0.96248996
0.9193589 0.91918576 0.9565327 0.9344396 0.91931283 0.96916306 0.8949361 0.9237527
0.9313571 0.967682 0.9491507 0.96195495 0.9330776 0.93516934 0.9653312 1.0402306
0.9779117 0.93987644 0.9660257 0.93974036 0.9347163 0.93854594 0.98643494 0.91673183
0.9429796 1.0036819 0.8774546 0.93873715 0.93473506 1.0068808 0.94423205 1.0397693
0.94022083 0.9945518 0.93412566 0.9514147 1.0023211 0.97413146 0.98124593 0.9738095
0.924599 0.95898616 0.9352046 0.9686904 0.90583193 0.9553174 0.9281521 0.9069206
0.90424716 0.9533347 0.9073009 0.93641275 0.90074503 0.8988373 0.9827303 0.9529099
0.9615171 1.0220569 0.9884211 0.9963068 0.96812135 0.91221726 0.8874099 0.9554
0.9348537 0.9436411 0.96974313 0.9173523 0.98094183 0.94130576 0.93381345 0.91797316
0.9523904 0.9681522 0.9862004 0.9758006 0.97114867 0.92986375 0.9817463 0.92987305
1.00379 0.945697 0.95848644 0.97566026 0.9420586 0.9792821 1.0246851 0.97003686
0.9959722 0.9336873 0.9862473 0.9814238 0.859727 0.882793 0.9374393 0.96190506
0.96242875 0.9520223 0.9783688 0.9300321 0.96887565 0.9435966 0.9556747 0.95966405
0.9182139 0.9286703 0.9607209 0.9390461 0.95195025 0.94916093 0.9085648 0.9443861
1.0258491 0.91390735 0.91976386 0.99225056 0.92744374 1.007306 0.9469847 0.9539844
0.9420788 0.96825653 0.9678361 0.968301 0.91458905 0.96417487 1.018925 0.9542873
0.9137035 0.98231816 0.91909957 0.9579735 0.948376 0.91656953 0.91313624 0.9402679
0.9303972 0.96850264 0.9710361 0.94840676 1.0195524 1.007055 0.99176824 0.9821507
1.060868 0.91571075 0.95367104 0.9607553 0.9458804 0.99191415 0.8631499 1.001786
0.9283482 0.95544946 0.9488756 0.94717443 0.97259617 0.9814726 0.8856473 1.0206695
1.0306017 0.93805134 1.0318503 0.8925349 0.99167275 0.89879227 0.9472185 0.8892715
0.9860601 0.9124713 0.9756146 0.9925649 0.9400237 0.93012327 0.9998026 0.94852334
0.9501038 0.9574792 0.9998873 0.9326648 1.0487077 0.9476947 1.0090076 0.9513877
1.027716 0.95390147 0.8935326 0.9644758 0.915812 0.9401718 0.97310406 1.0213494
0.9685394 0.9251701 0.99324876 0.92081237 0.92655456 0.9879452 0.9432925 0.9009561
0.9063363 0.97123754 0.99589086 0.8948011 0.98456836 0.9489204 0.90812564 0.89059013
0.969407 0.90697914 0.9289622 0.8911792 0.97506624 0.9931863 0.9277644 0.9448734
0.903404 0.9756918 0.933924 0.99686086 0.98893774 0.9225046 0.9695835 0.95964664
0.9896943 1.0047071 0.9300981 0.9672853 0.96056426 0.96217227 0.9899684 0.9140504
0.99740297 0.97374237 0.9026573 0.9658474 0.96086913 0.9555003 0.9041811 0.9504897
00000000: c23c 793f e384 763f 9067 753f 47ce 823f
00000010: be01 6a3f b687 773f 17b4 693f 8917 783f
00000020: 2871 793f 4e33 733f 3cbc 693f 3748 713f
00000030: 5ae4 7c3f a8a2 753f 89d8 773f be65 763f
00000040: 1b5b 6b3f c24f 6b3f 54df 743f 6f37 6f3f
00000050: 1658 6b3f 121b 783f 881a 653f 0f7b 6c3f
00000060: 6b6d 6e3f 02ba 773f 8afb 723f ae42 763f
00000070: 2cde 6e3f 4267 6f3f f21f 773f 4726 853f
00000080: 6c58 7a3f be9b 703f 764d 773f d392 703f
00000090: 9149 6f3f 8c44 703f 0087 7c3f f0ae 6a3f
000000a0: 1c67 713f a678 803f dda0 603f 1451 703f
000000b0: cc4a 6f3f 78e1 803f 31b9 713f 2917 853f
000000c0: 50b2 703f f29a 7e3f dc22 6f3f ea8f 733f
000000d0: 0f4c 803f ae60 793f ef32 7b3f 944b 793f
000000e0: 85b2 6c3f 1e80 753f 9269 6f3f 18fc 773f
000000f0: 9ae4 673f ae8f 743f 609b 6d3f f32b 683f
00000100: be7c 673f be0d 743f df44 683f bfb8 6f3f
00000110: 3a97 663f 341a 663f 3794 7b3f e7f1 733f
00000120: fc25 763f c3d2 823f 2a09 7d3f f60d 7f3f
00000130: cdd6 773f 1287 693f 4c2d 633f 1895 743f
00000140: 9252 6f3f 7792 713f 1641 783f 9ad7 6a3f
00000150: 011f 7b3f 6af9 703f 660e 6f3f 4a00 6b3f
00000160: dbcf 733f d3d8 773f a177 7c3f 11ce 793f
00000170: 339d 783f 8d0b 6e3f ba53 7b3f 290c 6e3f
00000180: 317c 803f 3319 723f 5e5f 753f dfc4 793f
00000190: c12a 713f 3bb2 7a3f e228 833f 5654 783f
000001a0: 09f8 7e3f 2206 6f3f b47a 7c3f 973e 7b3f
000001b0: 1217 5c3f b9fe 613f 06fc 6f3f 693f 763f
000001c0: bb61 763f bcb7 733f 6176 7a3f 9516 6e3f
000001d0: 3c08 783f 8c8f 713f 19a7 743f 8bac 753f
000001e0: 1110 6b3f 56bd 6d3f cef1 753f 5365 703f
000001f0: 03b3 733f 36fc 723f b497 683f 4ac3 713f
00000200: 064f 833f d5f5 693f a575 6b3f 2204 7e3f
00000210: f46c 6d3f 67ef 803f 976d 723f 5238 743f
00000220: 142c 713f a9df 773f 1bc4 773f 93e2 773f
00000230: 8222 6a3f 2ad4 763f 226c 823f 2c4c 743f
00000240: 79e8 693f 3479 7b3f 1c4a 6b3f c03d 753f
00000250: c5c8 723f 4da4 6a3f 4cc3 693f 66b5 703f
00000260: 832e 6e3f caef 773f d295 783f c9ca 723f
00000270: b180 823f 2ee7 803f 86e4 7d3f 3a6e 7b3f
00000280: 86ca 873f 056c 6a3f c923 743f 0ff4 753f
00000290: 3825 723f 16ee 7d3f 64f7 5c3f 863a 803f
000002a0: 3aa8 6d3f 5698 743f 83e9 723f 067a 723f
000002b0: 10fc 783f ca41 7b3f c8b9 623f 4ca5 823f
000002c0: c2ea 833f 2224 703f ac13 843f 2b7d 643f
000002d0: 44de 7d3f 4017 663f e97c 723f 4ca7 633f
000002e0: 6f6e 7c3f b897 693f e1c1 793f bc18 7e3f
000002f0: 65a5 703f 8f1c 6e3f 10f3 7f3f 6dd2 723f
00000300: 013a 733f 5b1d 753f 9df8 7f3f 1fc3 6e3f
00000310: 0e3c 863f 1f9c 723f 2927 813f 258e 733f
00000320: 338c 833f e332 743f 8dbe 643f e3e7 763f
00000330: a872 6a3f 19af 703f 591d 793f 94bb 823f
00000340: 33f2 773f f3d7 6c3f 8d45 7e3f 5cba 6b3f
00000350: ae32 6d3f fae9 7c3f 9e7b 713f 0fa5 663f
00000360: a805 683f 06a3 783f b4f2 7e3f af11 653f
00000370: ac0c 7c3f 73ec 723f ec7a 683f b7fd 633f
00000380: 0f2b 783f c92f 683f 77d0 6d3f 5224 643f
00000390: f19d 793f 7541 7e3f f881 6d3f 39e3 713f
000003a0: 7c45 673f f0c6 793f a515 6f3f 4632 7f3f
000003b0: 062b 7d3f 4329 6c3f a036 783f 67ab 753f
000003c0: 9b5c 7d3f 3e9a 803f e91a 6e3f 02a0 773f
000003d0: 8ae7 753f ec50 763f 926e 7d3f 35ff 693f
000003e0: cd55 7f3f 2e47 793f 8c14 673f c641 773f
000003f0: 85fb 753f ab9b 743f 6a78 673f 4b53 733f

bn1.bias f4 [256]
-0.028442 -0.12639466 0.019302916 -0.05183808 -0.1238696 -0.058687374 -0.09992575 -0.035611812
-0.12021603 -0.12815765 -0.17809154 -0.13737004 0.022172814 -0.040765457 -0.08767983 -0.089586265
-0.10885378 -0.115245216 -0.099496126 -0.081550516 -0.09497524 -0.063401915 -0.11311257 -0.04686433
-0.05935645 -0.05619101 -0.15290691 -0.099141605 -0.083227955 -0.13041976 -1.2397184e-05 -0.07207021
-0.14400823 -0.08872601 -0.010082638 -0.07000528 -0.10976188 -0.037851363 -0.20211497 -0.13438092
-0.11665573 -0.07138109 -0.04397038 -0.06733363 -0.039037287 -0.25591636 -0.10195142 -0.0313441
-0.083368 -0.055758957 -0.070342235 -0.13778637 -0.094875365 -0.03896604 -0.20549706 -0.0151703395
-0.0848539 -0.08666891 -0.10258645 -0.0072197546 -0.13097584 -0.15759575 -0.10622878 -0.13193165
-0.08032504 -0.08137942 -0.16138746 -0.11660452 -0.09215448 -0.07121862 -0.040335856 -0.11955161
-0.11522057 -0.059641287 -0.13151622 -0.07849001 -0.032821037 -0.07144402 -0.08932532 -0.07764154
-0.078350365 -0.075033076 -0.0650457 -0.090185255 -0.11304988 -0.14564067 -0.07197359 -0.05732319
-0.09124218 -0.0014700079 -0.10320961 -0.09901981 -0.056165095 -0.07867047 -0.07777412 -0.095964454
-0.06003776 -0.12339301 -0.03783029 -0.047525875 -0.10066523 -0.09910952 -0.049012493 -0.11444615
-0.156379 -0.027570901 0.0010764595 -0.049034655 -0.12417384 -0.08413349 -0.085656464 -0.06545814
-0.073672146 -0.0877413 -0.06732348 -0.067185536 -0.093752146 -0.10105263 -0.055200715 -0.05607808
-0.14182654 -0.120091856 -0.14500703 -0.081786245 -0.12549487 -0.06937576 -0.12317184 -0.018549243
-0.030015286 -0.114477456 -0.08365029 -0.13671604 -0.07680307 -0.034708247 -0.13120678 -0.077184185
-0.10485977 -0.10860339 -0.060762897 -0.03414028 -0.060805093 -0.18666261 -0.09096517 -0.115654565
-0.11636253 -0.09407234 -0.09896569 -0.15589434 -0.124139786 -0.108282775 -0.13703741 -0.19599827
-0.06892456 -0.052796654 -0.03409704 -0.04524135 -0.078496374 -0.043103658 -0.09118153 -0.1015224
-0.11820646 -0.07185665 -0.02352846 -0.2780763 -0.14156786 -0.02720785 -0.06557877 -0.08928444
-0.07248013 -0.06775779 -0.019638779 -0.08830138 -0.07516664 -0.040514123 -0.093097374 -0.03773437
-0.06629581 -0.00052244886 -0.15027605 -0.06208842 -0.080021404 -0.07778871 -0.14475848 -0.18411526
-0.07018091 -0.12597887 -0.030784993 -0.08294641 -0.04735197 -0.098722726 -0.061779704 -0.08307935
-0.054189146 -0.14976104 -0.07571009 -0.0601958 -0.0077171936 -0.034504745 -0.034623086 -0.027769024
-0.16574584 0.003442239 -0.050546486 -0.15006858 -0.11129666 -0.063156545 -0.087548934 -0.16161582
-0.09486336 -0.09084311 -0.10681226 -0.041812245 -0.04876098 -0.16559395 -0.060132213 -0.07367702
-0.04896384 -0.03693099 -0.14520535 -0.12560359 -0.016139537 -0.04486721 -0.098891966 -0.112149894
-0.16597787 -0.051150393 -0.05497689 -0.12421328 -0.13162072 -0.04397876 -0.080125466 -0.08831686
-0.07773832 -0.010670357 -0.07057633 -0.026915101 -0.08300735 -0.04686408 -0.097516075 -0.06637632
-0.08454662 -0.04568308 -0.038512763 -0.117737025 -0.08005392 -0.13728335 -0.097313605 -0.10847163
-0.08708717 -0.024696182 -0.06561163 -0.08179582 -0.11468961 -0.08570587 -0.011136347 -0.109397344
00000000: 32ff e8bc 9a6d 01be 2621 9e3c 2b54 54bd
00000010: 58af fdbd 2c62 70bd dfa5 ccbd b1dd 11bd
00000020: d233 f6bd c23b 03be a15d 36be bbaa 0cbe
00000030: c3a3 b53c aef9 26bd 7c91 b3bd 0179 b7bd
00000040: bbee debd af05 ecbd a0c4 cbbd f503 a7bd
00000050: 6182 c2bd ddd8 81bd 90a7 e7bd d0f4 3fbd
00000060: c01f 73bd 8b28 66bd a193 1cbe c10a cbbd
00000070: 6b73 aabd c28c 05be 80fd 4fb7 8c99 93bd
00000080: e576 13be fbb5 b5bd a631 25bc ee5e 8fbd
00000090: d6ca e0bd 080a 1bbd 3af7 4ebe 279b 09be
000000a0: 33e9 eebd 4030 92bd 491a 34bd 37e6 89bd
000000b0: 90e5 1fbd 7807 83be e8cb d0bd ac62 00bd
000000c0: d8bc aabd 8163 64bd 970f 90bd df17 0dbe
000000d0: 044e c2bd db9a 1fbd d26d 52be 048d 78bc
000000e0: e2c7 adbd 787f b1bd d818 d2bd b193 ecbb
000000f0: 881e 06be c860 21be 798e d9bd 1719 07be
00000100: 7481 a4bd 41aa a6bd c142 25be 5ace eebd
00000110: 7dbb bcbd 11db 91bd 3637 25bd 79d7 f4bd
00000120: c3f8 ebbd 6c4a 74bd 30ac 06be 5fbf a0bd
00000130: 5a6f 06bd 3e51 92bd 32f0 b6bd 8702 9fbd
00000140: 2876 a0bd f1aa 99bd ae36 85bd 0cb3 b8bd
00000150: b286 e7bd d422 15be e466 93bd b9cb 6abd
00000160: 2edd babd 48ad c0ba 8f5f d3bd e6ca cabd
00000170: 5f0d 66bd fc1d a1bd 0a48 9fbd 0389 c4bd
00000180: 27ea 75bd 79b5 fcbd eff3 1abd 7eaa 42bd
00000190: 9229 cebd eff9 cabd 53c1 48bd be62 eabd
000001a0: d121 20be 5fdc e1bc fd17 8d3a 90d8 48bd
000001b0: db4e febd 2e4e acbd a86c afbd eb0e 86bd
000001c0: 6ce1 96bd b6b1 b3bd e5e0 89bd 9298 89bd
000001d0: 2001 c0bd aef4 cebd 251a 62bd 21b2 65bd
000001e0: fa3a 11be b8f2 f5bd b97c 14be 8c7f a7bd
000001f0: ba81 00be e114 8ebd 8541 fcbd 95f4 97bc
00000200: 9ee2 f5bc 2873 eabd d850 abbd 4aff 0bbe
00000210: ee4a 9dbd 3c2a 0ebd 125b 06be be12 9ebd
00000220: b8c0 d6bd 746b debd 84e2 78bd aed6 0bbd
00000230: c30e 79bd 7c24 3fbe f24b babd 4ddc ecbd
00000240: 7a4f eebd 00a9 c0bd 86ae cabd c4a2 1fbe
00000250: 003d febd 5cc3 ddbd 8953 0cbe c5b3 48be
00000260: 5228 8dbd 4e41 58bd 56a9 0bbd fe4e 39bd
00000270: b5c2 a0bd 768d 30bd 62bd babd faea cfbd
00000280: 3a16 f2bd 9429 93bd c2be c0bc 0460 8ebe
00000290: 2af7 10be ffe2 debc 2a4e 86bd c3da b6bd
000002a0: 7670 94bd 99c4 8abd 81e1 a0bc 5bd7 b4bd
000002b0: f8f0 99bd 23f2 25bd d6a9 bebd 5b8f 1abd
000002c0: 19c6 87bd f3f4 08ba f7e1 19be 6d50 7ebd
000002d0: 43e2 a3bd b04f 9fbd 913b 14be b688 3cbe
000002e0: 02bb 8fbd 9b00 01be cf30 fcbc cfdf a9bd
000002f0: 24f4 41bd 242f cabd b70c 7dbd 8225 aabd
00000300: 70f5 5dbd f55a 19be e40d 9bbd df8f 76bd
00000310: 83e0 fcbb d954 0dbd f0d0 0dbd dd7b e3bc
00000320: 47b9 29be 3097 613b d509 4fbd 94ab 19be
00000330: 81ef e3bd 3858 81bd db4c b3bd 9e7e 25be
00000340: b947 c2bd f40b babd 63c0 dabd 5143 2bbd
00000350: 98b9 47bd 7691 29be 324d 76bd fae3 96bd
00000360: 4f8e 48bd f344 17bd b6b0 14be 3a9e 00be
00000370: 1037 84bc aec6 37bd df87 cabd d8ae e5bd
00000380: 1af6 29be 1383 51bd 732f 61bd 8863 febd
00000390: 95c7 06be 1223 34bd d218 a4bd 78df b4bd
000003a0: 4535 9fbd b9d2 2ebc 538a 90bd 0f7d dcbc
000003b0: c2ff a9bd 8df4 3fbd 82b6 c7bd 4ff0 87bd
000003c0: c726 adbd 2e1e 3bbd 8fbf 1dbd 1c20 f1bd
000003d0: 4ff3 a3bd 0294 0cbe 5b4c c7bd 6026 debd
000003e0: c25a b2bd a64f cabc 645f 86bd 9184 a7bd
000003f0: 63e2 eabd 8f86 afbd 3a75 36bc b70b e0bd

bn1.running_mean f4 [256]
-0.020134952 0.04979644 0.02406114 -0.006249519 9.509991e-05 0.06058015 -0.020967187 -0.011148639
-0.032565527 -0.021991814 -0.010185991 -0.004737857 0.0077579767 0.046583034 0.022371538 -0.0043131467
0.030990241 -0.008326931 0.024270091 -0.030250499 -0.0025310963 -0.0066167824 -0.0050268117 0.011532834
-0.039687447 -0.028506689 -0.013541634 -0.015279494 0.017070001 0.013418082 -0.022065425 0.016761858
-0.0024167078 -0.0030559916 -0.010650611 0.01959569 0.003343598 0.014274862 -0.015663825 0.021262795
-0.027669119 -0.01671291 0.018579407 0.014876965 -0.0045432337 0.043368157 0.052367974 -0.03514988
-0.029530361 -0.05865594 0.00041068485 0.011007531 -0.0023439862 -0.041172706 0.03520435 -0.013947522
0.026224557 0.03526095 -0.032808296 0.021599043 0.06492275 -0.018924262 0.017087836 0.027839381
0.032909796 0.030328833 0.032760136 -0.027999029 -0.042910833 0.007385146 -0.035263136 0.005803451
-0.03893916 -0.033972602 0.0022074552 -0.039804287 -0.03628993 0.022816405 -0.030791309 -0.007895583
0.023053061 -0.0038472228 0.03561546 0.025013585 -0.03715358 0.024125993 0.030579854 0.026450302
0.04580025 0.0031959563 0.017342154 0.036667224 -0.009963447 -0.027306002 -0.03913009 -0.00107814
0.019363167 -0.0036315708 0.0015950918 0.031139351 0.011803489 0.0036971103 -0.04167518 -0.012596037
-0.0016365787 0.02370669 -0.014990658 0.034555458 0.024002574 0.01846299 0.051453393 -0.023644757
-0.010092431 -0.01081826 -0.0022801515 0.0012567788 -0.011965634 0.019678924 -0.0024574865 0.03367128
-0.029768039 -0.013626205 -0.024051774 0.037320714 -0.025568426 0.0017191935 0.028678529 -0.021251976
-0.028097762 0.038702704 0.0030192416 0.0009295158 0.02595818 0.01710096 0.035192564 -0.011845367
-0.007927284 0.012887187 -0.043744594 -0.010571561 -0.015568256 0.037417736 -0.050370406 -0.018384684
0.005023591 -0.023711126 -0.031782195 -0.03983667 0.031500585 0.036804035 -0.002777651 0.028066235
0.023515647 -0.013224129 0.03020005 -0.027215375 0.001954724 0.015281104 0.0059688594 0.045525257
-0.007247989 -0.024285661 0.009269551 0.003980552 -0.006229585 -0.012911264 -0.05038698 -0.05058989
0.032181457 -0.0070888964 -0.035534337 -0.06384991 -0.006581784 0.036675546 0.01080568 -0.00038987678
0.02728154 -0.008236367 0.023272669 0.015283082 0.038382433 -0.02728727 -0.0003236262 -0.009022586
-0.032882366 -0.0024418589 0.040411256 -0.03669607 0.0069503076 -0.019727752 -0.056554 0.01094226
-0.013753141 -0.018710352 0.00052075903 -0.013498054 -0.03167757 -0.01406981 0.021830883 0.0043954626
-0.011416908 -0.005780721 0.0052631646 -0.013462879 -0.042709455 0.033544242 0.02379298 0.021144433
0.037912235 0.05055003 0.014514913 -0.005780437 -0.032986447 -0.00780249 -0.07223104 0.024054505
-0.054887496 -0.022941584 -0.011049615 0.041153606 0.0032609506 -0.018947821 -0.022842538 -0.006274853
-0.03712056 -0.0131566655 -0.041135915 -0.0024222508 -0.0038633165 -0.0267297 0.018553851 0.045199536
0.02963575 -0.009922035 0.018170403 -0.023647193 -0.024832772 0.0036165249 -0.018632006 0.028731503
-0.020510089 -0.026879765 -0.036791645 0.024728732 0.025197307 0.020080075 -0.011380958 -0.047952853
-0.025645994 -0.0074522197 -0.010076115 -0.049976036 -0.01148677 -0.0032115765 0.011090708 0.034140244
00000000: 0ef2 a4bc 5af7 4b3d de1b c53c c4c8 ccbb
00000010: 6070 c738 e422 783d 61c3 abbc c8a8 36bc
00000020: 6e63 05bd 2d28 b4bc 25e3 26bc 0640 9bbb
00000030: a036 fe3b dacd 3e3d 8444 b73c 4c55 8dbb
00000040: 3fdf fd3c ae6d 08bc 12d2 c63c e5cf f7bc
00000050: c0e0 25bb 98d1 d8bb f4b7 a4bb 36f4 3c3c
00000060: 4e8f 22bd dc86 e9bc bbdd 5dbc d856 7abc
00000070: 63d6 8b3c 84d7 5b3c 8dc2 b4bc 2a50 893c
00000080: a161 1ebb 0847 48bb e67f 2ebc 2487 a03c
00000090: 4420 5b3b 1ce1 693c 6c51 80bc 502f ae3c
000000a0: 59aa e2bc 83e9 88bc d733 983c 84be 733c
000000b0: 68df 94bb cfa2 313d cd7f 563d 52f9 0fbd
000000c0: a8e9 f1bc 3641 70bd 3051 d739 ee58 343c
000000d0: 909d 19bb b6a4 28bd 7032 103d 2684 64bc
000000e0: e2d4 d63c c96d 103d fe61 06bd 7af0 b03c
000000f0: 38f6 843d 0e07 9bbc cafb 8b3c 6a0f e43c
00000100: 6ccc 063d 2c74 f83c 7e2f 063d 385e e5bc
00000110: 45c3 2fbd 18ff f13b 1470 10bd e02a be3b
00000120: ab7e 1fbd db26 0bbd f4aa 103b d209 23bd
00000130: c0a4 14bd 78e9 ba3c 0e3e fcbc 7a5c 01bc
00000140: c6d9 bc3c b021 7cbb 84e1 113d 4ae9 cc3c
00000150: 5a2e 18bd e0a3 c53c 9a82 fa3c 4eae d83c
00000160: 0b99 3b3d 4073 513b 2211 8e3c 5f30 163d
00000170: ba3d 23bc d6b0 dfbc e046 20bd 6050 8dba
00000180: 819f 9e3c a6ff 6dbb 6612 d13a f417 ff3c
00000190: 6c63 413c 384b 723b 98b3 2abd 9c5f 4ebc
000001a0: 7882 d6ba 8834 c23c 609b 75bc 068a 0d3d
000001b0: 0ca1 c43c b23f 973c cbc0 523d a6b2 c1bc
000001c0: b95a 25bc 123f 31bc 986e 15bb 80ba a43a
000001d0: 820b 44bc b235 a13c c80d 21bb e5ea 093d
000001e0: 1adc f3bc 7240 5fbc 3a08 c5bc 9bdd 183d
000001f0: e074 d1bc 9056 e13a 3cef ea3c a018 aebc
00000200: 472d e6bc ba86 1e3d 78de 453b c0aa 733a
00000210: 40a6 d43c 5017 8c3c 1426 103d 1213 42bc
00000220: 70e1 01bc c824 533c 882d 33bd 5734 2dbc
00000230: 0012 7fbc 5743 193d 3351 4ebd 7a9b 96bc
00000240: f09c a43b d63d c2bc 0c2e 02bd c72b 23bd
00000250: c206 013d d4bf 163d 4009 36bb 29eb e53c
00000260: e3a3 c03c 04aa 58bc 1866 f73c c7f2 debc
00000270: d41a 003b 985d 7a3c 6c96 c33b b178 3a3d
00000280: 8a80 edbb b9f2 c6bc 51df 173c 4a6f 823b
00000290: 8c21 ccbb c489 53bc 9462 4ebd 5837 4fbd
000002a0: b4d0 033d f949 e8bb 748c 11bd bec3 82bd
000002b0: 02ac d7bb 1939 163d 4f0a 313c 6068 ccb9
000002c0: 897d df3c d4f1 06bc 53a6 be3c e465 7a3c
000002d0: e636 1d3d 8e89 dfbc 60ac a9b9 78d3 13bc
000002e0: a9af 06bd 9807 20bb 4686 253d 9e4e 16bd
000002f0: 68bf e33b 189c a1bc 2ba5 67bd 2a47 333c
00000300: db54 61bc 7446 99bc 8c83 083a f126 5dbc
00000310: 57c0 01bd 0f85 66bc aed6 b23c d007 903b
00000320: fc0d 3bbc 346c bdbb a076 ac3b 6893 5cbc
00000330: 1cf0 2ebd b065 093d 7fe9 c23c 1737 ad3c
00000340: dc49 1b3d 8c0d 4f3d f5cf 6d3c d269 bdbb
00000350: cc1c 07bd 08ac ffbb deed 93bd f40d c53c
00000360: b6d1 60bd fdef bbbc 7209 35bc af90 283d
00000370: acb5 553b 7638 9bbc 4620 bbbc 489d cdbb
00000380: ba0b 18bd 0e8f 57bc 227e 28bd a0be 1ebb
00000390: b22f 7dbb 3ef8 dabc 3ffe 973c 2623 393d
000003a0: acc6 f23c 0890 22bc 19da 943c c2b7 c1bc
000003b0: 196e cbbc 3803 6d3b 26a2 98bc 545e eb3c
000003c0: c604 a8bc f432 dcbc d6b2 16bd e993 ca3c
000003d0: 956a ce3c f87e a43c 3377 3abc 366a 44bd
000003e0: 8c17 d2bc c031 f4bb 4a16 25bc acb3 4cbd
000003f0: 0133 3cbc 5079 52bb cdb5 353c a4d6 0b3d

bn1.running_var f4 [256]
0.119721174 0.10123606 0.09279183 0.10292254 0.08433276 0.08318539 0.09975253 0.10397321
0.10304723 0.09131008 0.09666548 0.1061818 0.1131361 0.22838241 0.13130225 0.112361334
0.07757471 0.111786336 0.08265831 0.10035919 0.118083395 0.13813722 0.07778338 0.14201328
0.097206995 0.072982706 0.09433268 0.08120987 0.14663176 0.10224505 0.14434345 0.06567556
0.08759767 0.08625102 0.1963652 0.098235875 0.119644314 0.089766614 0.08500183 0.1935472
0.11194196 0.080379374 0.13102967 0.052160025 0.12345868 0.09644933 0.077473074 0.12481818
0.09146917 0.18612136 0.113406286 0.113579996 0.089435 0.114536 0.0747111 0.11448531
0.14080845 0.17767425 0.14117242 0.07192053 0.10570209 0.061050095 0.12309338 0.1522842
0.059390552 0.09118584 0.072786845 0.094285525 0.081273936 0.10008533 0.12804489 0.050980445
0.11847182 0.07554018 0.12204177 0.25320652 0.12990117 0.11305837 0.102371834 0.15589876
0.14319202 0.10393066 0.12206158 0.06277443 0.086863175 0.10749707 0.15844508 0.07482725
0.08834665 0.08143393 0.08515392 0.115142494 0.13886929 0.097832054 0.1468761 0.10590622
0.09182513 0.1507345 0.08991722 0.13352408 0.122801065 0.15363082 0.10286689 0.12944429
0.08310958 0.062482037 0.06927232 0.21791673 0.14045773 0.063534 0.14273524 0.110096425
0.14708106 0.119036235 0.10247949 0.101749495 0.1059995 0.075804204 0.15938883 0.13174829
0.09473749 0.09489522 0.089110896 0.06830914 0.085735805 0.06939161 0.08991378 0.07904697
0.05102543 0.1457734 0.072348684 0.15719366 0.10781889 0.1186357 0.09579219 0.14159401
0.0867742 0.06148213 0.12165646 0.12887466 0.102498345 0.06530985 0.15283974 0.123118795
0.1849428 0.08307533 0.07751404 0.16638923 0.18408221 0.100733966 0.15856081 0.10211334
0.07440486 0.21883118 0.10819588 0.0829497 0.097193725 0.06045194 0.13174537 0.15250978
0.12942888 0.1436872 0.050560262 0.08019417 0.06484027 0.12301187 0.10113299 0.1627477
0.14750737 0.16242689 0.14988513 0.17707002 0.1429345 0.14927231 0.08260673 0.08667214
0.08662743 0.09788234 0.06619491 0.11230978 0.12852438 0.13436739 0.09189536 0.11463337
0.14323413 0.12580314 0.18274434 0.07353653 0.102539144 0.08545185 0.089001246 0.097202964
0.09524709 0.18174304 0.088174656 0.15911658 0.14925987 0.08459569 0.16519123 0.056100413
0.08157955 0.11954259 0.12929216 0.058969434 0.3362461 0.13539675 0.08844433 0.095694266
0.21290231 0.07917741 0.14643258 0.096441716 0.06863867 0.12157437 0.1289922 0.13512474
0.073818855 0.12886296 0.090574086 0.11795279 0.11223452 0.05304951 0.11130946 0.1573341
0.19465405 0.10131115 0.07844885 0.11022729 0.083858274 0.09434668 0.094280116 0.10798456
0.12653436 0.14273623 0.14705823 0.100860976 0.1336492 0.09940682 0.07906616 0.102221906
0.10443209 0.2672022 0.12201004 0.078405604 0.16838795 0.12562391 0.12599541 0.14725387
0.1105891 0.05726637 0.13458724 0.18253335 0.19454125 0.1310284 0.16039573 0.07520575
00000000: 6030 f53d da54 cf3d a509 be3d 0dc9 d23d
00000010: a7b6 ac3d 1a5d aa3d 0e4b cc3d e8ef d43d
00000020: 6d0a d33d c700 bb3d 8df8 c53d d875 d93d
00000030: e6b3 e73d 14dd 693e 1974 063e b31d e63d
00000040: 7ddf 9e3d 3cf0 e43d c348 a93d 1e89 cd3d
00000050: b5d5 f13d d873 0d3e e54c 9f3d ee6b 113e
00000060: 7614 c73d f577 953d 7e31 c13d 5c51 a63d
00000070: a326 163e da65 d13d c5ce 133e e880 863d
00000080: 6866 b33d 60a4 b03d f613 493e e42f c93d
00000090: 1408 f53d 8fd7 b73d 7015 ae3d 3d31 463e
000000a0: d441 e53d f19d a43d a42c 063e c0a5 553d
000000b0: e8d7 fc3d 3a87 c53d 34aa 9e3d ada0 ff3d
000000c0: 3054 bb3d 9996 3e3e 8e41 e83d a19c e83d
000000d0: b329 b73d da91 ea3d 2202 993d 4677 ea3d
000000e0: 1730 103e 3df0 353e 818f 103e 124b 933d
000000f0: 567a d83d aa0f 7a3d 6218 fc3d 64f0 1b3e
00000100: 8243 733d a4bf ba3d 4511 953d c518 c13d
00000110: f372 a63d 8af9 cc3d 331e 033e dfd0 503d
00000120: 5ba1 f23d cfb4 9a3d 09f1 f93d 49a4 813e
00000130: d004 053e 268b e73d 53a8 d13d eda3 1f3e
00000140: eea0 123e 99d9 d43d 6cfb f93d e18f 803d
00000150: 52e5 b13d 6d27 dc3d 6d3f 223e 073f 993d
00000160: 17ef b43d d5c6 a63d 2e65 ae3d d4cf eb3d
00000170: c033 0e3e 2c5c c83d b066 163e 5ce5 d83d
00000180: d00e bc3d 255a 1a3e 8526 b83d 89ba 083e
00000190: 207f fb3d 6651 1d3e e0ab d23d 0b8d 043e
000001a0: 5b35 aa3d 2aed 7f3d a5de 8d3d 9025 5f3e
000001b0: 27d4 0f3e 1d1e 823d 3029 123e 3c7a e13d
000001c0: 6b9c 163e 45c9 f33d c4e0 d13d 0a62 d03d
000001d0: 4416 d93d 3c3f 9b3d d336 233e 06e9 063e
000001e0: bb05 c23d 6d58 c23d c67f b63d aae5 8b3d
000001f0: 4196 af3d 301d 8e3d b724 b83d 61e3 a13d
00000200: 0b00 513d 9f45 153e 8c2b 943d 60f7 203e
00000210: 26d0 dc3d 46f7 f23d b22e c43d 05fe 103e
00000220: acb6 b13d b0d4 7b3d 0627 f93d b8f7 033e
00000230: a7ea d13d 2cc1 853d 0582 1c3e b525 fc3d
00000240: a561 3d3e 6623 aa3d aebf 9e3d f061 2a3e
00000250: 0c80 3c3e 9c4d ce3d c45d 223e cc20 d13d
00000260: 9361 983d 4815 603e cd95 dd3d 88e1 a93d
00000270: 810d c73d 749c 773d 42e8 063e 862b 1c3e
00000280: 0189 043e bd22 133e 4718 4f3d d73c a43d
00000290: faca 843d a6ed fb3d d01e cf3d 55a7 263e
000002a0: 2c0c 173e 3c53 263e 7d7b 193e d851 353e
000002b0: 6c5d 123e d7da 183e b82d a93d 2a81 b13d
000002c0: b969 b13d 8976 c83d 3291 873d ac02 e63d
000002d0: e59b 033e 9b97 093e a233 bc3d e6c4 ea3d
000002e0: f8ab 123e 8ad2 003e 5521 3b3e 529a 963d
000002f0: 0b00 d23d 6101 af3d 4946 b63d 5912 c73d
00000300: e810 c33d d91a 3a3e ea94 b43d 75ef 223e
00000310: 94d7 183e 8140 ad3d e427 293e 8cc9 653d
00000320: 2e13 a73d bfd2 f43d 2a65 043e ef89 713d
00000330: 7328 ac3e 72a5 0a3e 4d22 b53d 5bfb c33d
00000340: 1003 5a3e c427 a23d 6cf2 153e 3c83 c53d
00000350: 6e92 8c3d fcfb f83d 8816 043e 245e 0a3e
00000360: 572e 973d a7f4 033e e87e b93d 3b91 f13d
00000370: 36db e53d 714a 593d 37f6 e33d 311c 213e
00000380: 6453 473e 387c cf3d caa9 a03d d8be e13d
00000390: e3bd ab3d d538 c13d ef15 c13d 0227 dd3d
000003a0: 3992 013e 7229 123e 6f96 163e 3390 ce3d
000003b0: 56db 083e ce95 cb3d 70ed a13d b859 d13d
000003c0: 7ee0 d53d bace 883e 66e0 f93d 1e93 a03d
000003d0: e46d 2c3e 8ea3 003e f104 013e b8c9 163e
000003e0: 8a7c e23d 2490 6a3d 3dd1 093e 06ea 3a3e
000003f0: d235 473e 4f2c 063e c73e 243e 7905 9a3d

fc2.weight f4 [128, 256]
-0.042534288 0.09697131 0.0013237646 0.05647573 -0.011156934 -0.016478803 -0.015078949 -0.028178595
-0.011185841 -0.04185056 -0.07014137 -0.04294326 0.044241894 0.0298526 0.009636771 -0.015161457
0.011410618 0.047576718 -0.073969975 0.033710323 0.048915133 -0.06478592 0.029933486 0.028017322
0.047921397 0.020821191 0.020409917 0.06336238 0.023246523 -0.054516207 0.017936757 -0.0147050815
-0.057673454 -0.070447825 -0.029759597 -0.041391198 -0.07894325 0.054231446 0.028558029 0.05026552
0.012007941 0.03790566 -0.047497544 -0.06781516 0.009509671 -0.034119107 0.025316685 -0.023556817
-0.061070323 -0.04044304 0.050627712 0.03513035 -0.0013432817 0.043775797 0.015085804 0.01778817
0.0063794884 -0.03920303 0.013798691 -0.028948389 0.052302122 -0.033218592 1.0554286e-05 0.006328421
-0.061087884 -0.0023771676 -0.04132609 -0.023453273 -0.00020609943 0.022069175 0.06082396 0.005513969
0.0054546683 0.04922281 -0.018931601 0.05079201 -0.091511756 0.027045414 -0.015878955 -0.010025773
-0.041250374 -0.036727782 0.036641534 -0.04621108 -0.00043226773 -0.0075079054 0.04235059 -0.0039865924
-0.0056268405 0.03772725 -0.0011659118 0.032301858 -0.008590649 0.00996985 0.048679143 -0.017755387
-0.003127004 -0.020689847 -0.0011870005 -0.028613374 0.039423496 -0.049909554 0.005275103 -0.00844332
-0.049810022 -0.008205113 0.01017176 -0.02800411 -0.03956632 -0.025102513 -0.017124986 -0.014172049
-0.004393125 0.037538934 -0.009815518 -0.057640977 -0.029513793 -0.0555876 0.07548006 -0.030731233
-0.0076695587 0.009387176 -0.0079548815 9.913492e-06 0.070634454 -0.013654884 -0.003881143 -0.042779546
-0.043832257 -0.061315767 0.006527891 -0.03387958 0.015915154 -0.021945259 -0.0010990936 0.040481616
-0.0629799 -0.035363384 0.037920885 -0.055873286 -0.0007224746 -0.01234415 -0.043183237 -0.04335703
-0.031832367 -0.022805724 0.04624841 0.05708154 0.0006439553 0.006722251 -0.06399763 -0.051472824
0.012724934 0.025971394 0.056441315 -0.056878418 0.025525464 -0.06215792 -0.02882644 0.007966776
0.0014855041 0.018235823 0.053935766 -0.011905979 0.016415538 0.02614448 -0.049606554 -0.03514692
0.054113973 0.052055147 -0.11828446 0.04567336 0.019442046 -0.01924481 0.038126677 -0.06918455
0.045899086 0.009561707 -0.024891213 0.058146637 0.002103915 -0.038178775 -0.024774406 -0.030198593
-0.079612896 -0.00026042032 -0.04260005 -0.07823208 -0.0017520168 -0.079821564 -0.0035426286 -0.020373307
0.016022183 -0.023347788 0.024242256 -0.010125139 0.06210747 -0.003322825 -0.043993898 0.037317295
0.0012481591 0.031924434 -0.06371577 -0.036419325 -0.013280245 0.047877915 -0.08257877 0.038646303
-0.008382338 -0.025038615 -0.049146827 0.09957117 -0.015580896 -0.08509203 -0.036517307 -0.010071395
-0.05498963 0.024270736 -0.023618635 -0.05145016 0.047563523 -0.036647674 -0.024277098 -0.0047072987
-0.026432425 -0.055858135 -0.025480185 -0.0432186 -0.009186466 0.060933065 -0.05539095 0.02986583
-0.039723188 0.010164424 -0.067135006 0.034748413 -0.086500995 -0.0034747536 -0.0022571967 -0.042934645
-0.04820498 0.037670914 -0.030446934 -0.02992186 -0.012592923 0.010438724 -0.08781329 -0.06975784
-0.029415244 -0.014709989 -0.040375177 0.013409049 -0.004165061 -0.0045129163 -0.03799495 -0.050892167
00000000: 6f38 2ebd e598 c63d 2b82 ad3a 1853 673d
00000010: 93cb 36bc 8efe 86bc b20d 77bc ccd6 e6bc
00000020: d144 37bc 7e6b 2bbd 47a6 8fbd 46e5 2fbd
00000030: fd36 353d 718d f43c 8ce3 1d3c c267 78bc
00000040: 9af3 3a3c cedf 423d 927d 97bd d613 0a3d
00000050: 3c5b 483d 7bae 84bd 1237 f53c 9584 e53c
00000060: 3a49 443d 3491 aa3c b332 a73c 23c4 813d
00000070: 7e6f be3c 634c 5fbd 1bf0 923c 95ed 70bc
00000080: 003b 6cbd f346 90bd 66ca f3bc d189 29bd
00000090: 00ad a1bd cb21 5e3d 87f2 e93c 38e3 4d3d
000000a0: f4bc 443c f742 1b3d c98c 42bd ade2 8abd
000000b0: 73ce 1b3c 7ac0 0bbd f064 cf3c 3afa c0bc
000000c0: e024 7abd 9aa7 25bd 015f 4f3d d8e4 0f3d
000000d0: 0e11 b0ba 404e 333d 732a 773c 7fb8 913c
000000e0: 070b d13b 5b93 20bd e813 623c 2c25 edbc
000000f0: c03a 563d 3810 08bd 5012 3137 a55e cf3b
00000100: 4a37 7abd 41ca 1bbb 8c45 29bd 1421 c0bc
00000110: 651c 58b9 6aca b43c 8b22 793d 86ae b43b
00000120: 13bd b23b db9d 493d 7216 9bbc 480b 503d
00000130: 846a bbbd 588e dd3c 9514 82bc 2443 24bc
00000140: 27f6 28bd df6f 16bd 6f15 163d d447 3dbd
00000150: fea1 e2b9 e004 f6bb d077 2d3d f6a1 82bb
00000160: 5c61 b8bb e487 1a3d 82d1 98ba f44e 043d
00000170: cbbf 0cbc 9558 233c c863 473d bf73 91bc
00000180: 6cee 4cbb c17d a9bc 2195 9bba 9866 eabc
00000190: 887a 213d f66d 4cbd c5da ac3b da55 0abc
000001a0: 9805 4cbd bd6e 06bc 74a7 263c e068 e5bc
000001b0: 4b10 22bd c9a3 cdbc b349 8cbc e231 68bc
000001c0: 34f4 8fbb 6dc2 193d 44d1 20bc f218 6cbd
000001d0: e9c6 f1bc d3af 63bd 4a95 9a3d 11c0 fbbc
000001e0: ec50 fbbb abcc 193c 3155 02bc 2052 2637
000001f0: cca8 903d bcb8 5fbc c65a 7ebb 9b39 2fbd
00000200: 7489 33bd 3e26 7bbd ebe7 d53b 51c5 0abd
00000210: 7f60 823c 8bc6 b3bc 760f 90ba 0dd0 253d
00000220: 9bfb 80bd 32d9 10bd ee52 1b3d 63db 64bd
00000230: 7364 3dba 1e3f 4abc e8e0 30bd 2497 31bd
00000240: a862 02bd 12d3 babc f96e 3d3d 55ce 693d
00000250: 1ccf 283a 5446 dc3b 3011 83bd 2bd5 52bd
00000260: 3e7c 503c f6c1 d43c 022f 673d 58f9 68bd
00000270: c71a d13c 4e99 7ebd 6d25 ecbc 1587 023c
00000280: 3fb5 c23a 4b63 953c c0eb 5c3d 4c11 43bc
00000290: e179 863c f32c d63c 3e30 4bbd 37f6 0fbd
000002a0: 9da6 5d3d c737 553d 1f3f f2bd fd13 3b3d
000002b0: ed44 9f3c 4ba7 9dbc b82a 1c3d a1b0 8dbd
000002c0: ae00 3c3d b5a8 1c3c a8e8 cbbc 2b2b 6e3d
000002d0: d6e1 093b 5961 1cbd b2f3 cabc 0a63 f7bc
000002e0: 160c a3bd 0689 88b9 647d 2ebd 2438 a0bd
000002f0: eea3 e5ba 7d79 a3bd 722b 68bb ece5 a6bc
00000300: f440 833c dc43 bfbc b297 c63c e9e3 25bc
00000310: 6764 7e3d c1c3 59bb f232 34bd 05da 183d
00000320: 4599 a33a 32c3 023d 6a7d 82bd 6e2c 15bd
00000330: 6295 59bc a21b 443d 0f1f a9bd 964b 1e3d
00000340: 1356 09bc c81d cdbc 2f4e 49bd f8eb cb3d
00000350: 0447 7fbc bb44 aebd 2c93 15bd 7e02 25bc
00000360: ce3c 61bd 6cd3 c63c de7b c1bc 67bd 52bd
00000370: f8d1 423d df1b 16bd c4e0 c6bc af3f 9abb
00000380: d088 d8bc 80cb 64bd d2bb d0bc fd05 31bd
00000390: d582 16bc f394 793d 9fe1 62bd 2fa9 f43c
000003a0: c8b4 22bd af88 263c 147e 89bd 5a54 0e3d
000003b0: 6f27 b1bd b1b8 63bb 7aed 13bb 3ddc 2fbd
000003c0: 9672 45bd d14c 1a3d d96b f9bc b01e f5bc
000003d0: 8c52 4ebc 2f07 2b3c 74d7 b3bd 33dd 8ebd
000003e0: 3df8 f0bc 2a02 71bc 7160 25bd a1b1 5b3c
000003f0: 107b 88bb 16e1 93bb 98a0 1bbd 4e74 50bd

fc2.bias f4 [128]
2.057858e-05 -1.9748186e-06 -1.5027138e-06 3.968538e-06 1.876874e-05 1.354994e-05 -3.9134643e-06 8.352051e-06
3.2297417e-06 -4.5571637e-06 -1.0892122e-06 2.4408268e-06 -6.763353e-06 1.9533616e-06 -3.652423e-06 2.6462317e-07
-3.4629838e-06 -3.91496e-06 6.813524e-06 -4.3018804e-07 -3.4901184e-06 -8.2344395e-06 -2.5728968e-07 8.134166e-07
2.8892698e-06 6.4911674e-06 3.2989814e-07 1.3096669e-05 -1.4599697e-06 -4.1848716e-06 2.2883369e-06 4.314269e-06
-8.6180364e-07 -1.3011751e-07 -5.888986e-07 -1.1750634e-06 1.0793703e-06 -2.255125e-06 3.9143833e-06 -7.630217e-06
3.4626296e-06 -2.4561123e-06 -2.2087224e-06 -2.5921286e-06 -3.726138e-06 -1.9957515e-06 3.037876e-06 -6.1603953e-07
-7.862723e-07 5.5559917e-06 -2.7315452e-06 2.324706e-06 -1.6842714e-06 -1.0324371e-05 1.00709085e-05 8.342783e-06
2.6845473e-06 7.219036e-06 -4.298879e-06 -4.7250082e-06 1.3930448e-05 6.5091986e-06 -6.4459573e-07 7.054136e-06
-9.645271e-07 -9.0557813e-07 1.4038301e-06 -3.7023046e-06 -4.495827e-06 -5.552657e-06 -2.1920396e-06 3.5131573e-06
-1.4139747e-06 -3.0341653e-07 -8.409887e-08 -2.1356961e-06 -8.81732e-06 3.555097e-06 5.2271553e-06 5.1039037e-06
3.0970439e-06 9.491125e-07 -4.940315e-07 -1.5831433e-06 -1.9924996e-06 3.6568613e-06 2.0159484e-06 2.2043578e-06
-2.263545e-06 2.6105213e-06 2.4849555e-06 -4.272575e-06 5.9186e-07 -2.9769963e-06 3.3580657e-06 1.98109e-05
3.2104758e-06 -6.0832526e-06 -7.2503667e-06 9.1302405e-07 4.19317e-06 4.1765898e-06 -2.3114371e-06 4.8845604e-06
-1.9452873e-06 -5.4662264e-06 8.907794e-06 -1.0454611e-05 -8.053485e-06 3.8535477e-06 3.2217572e-06 1.5167334e-06
-2.6226521e-06 -1.304937e-07 2.8179475e-06 4.0608284e-06 4.337227e-06 3.9621827e-06 -5.2675414e-06 4.5223655e-06
4.3629584e-06 1.851954e-06 5.374176e-07 7.0830436e-07 1.3933807e-06 4.1297284e-07 8.104457e-07 1.0797731e-06
00000000: 2aa0 ac37 2087 04b6 dab0 c9b5 7b29 8536
00000010: 9071 9d37 8d54 6337 6750 83b6 c91f 0c37
00000020: 8abe 5836 bde9 98b6 0c31 92b5 16cd 2336
00000030: c3f0 e2b6 7f16 0336 261c 75b6 8811 8e34
00000040: 9c65 68b6 405d 83b6 ba9f e436 98f4 e6b4
00000050: c737 6ab6 a626 0ab7 a021 8ab4 9059 5a35
00000060: 47e5 4136 b4ce d936 db1c b134 c4b9 5b37
00000070: 2df4 c3b5 c66b 8cb6 5491 1936 4ac3 9036
00000080: b256 67b5 6eb6 0bb4 ce14 1eb5 dfb6 9db5
00000090: e2de 9035 c156 17b6 4c58 8336 8803 00b7
000000a0: 865f 6836 b0d3 24b6 9039 14b6 6ef4 2db6
000000b0: 900e 7ab6 c0ee 05b6 50de 4b36 ea5d 25b5
000000c0: 3910 53b5 9b6d ba36 974f 37b6 2502 1c36
000000d0: 200f e2b5 d636 2db7 39f6 2837 fbf7 0b37
000000e0: 2c28 3436 0c3b f236 173f 90b6 838b 9eb6
000000f0: d2b6 6937 9769 da36 4808 2db5 91b2 ec36
00000100: e674 81b5 db16 73b5 3c6b bc35 1c75 78b6
00000110: dcda 96b6 f650 bab6 f41a 13b6 95c3 6b36
00000120: cdc7 bdb5 40e5 a2b4 d899 b4b3 fb52 0fb6
00000130: 1aee 13b7 1a94 6e36 ec64 af36 3342 ab36
00000140: cfd6 4f36 84c6 7e35 969d 04b5 647c d4b5
00000150: e2b6 05b6 6668 7536 bb49 0736 94ee 1336
00000160: 68e7 17b6 6a30 2f36 36c3 2636 245d 8fb6
00000170: 4fe0 1e35 68c8 47b6 215b 6136 952f a637
00000180: 8e73 5736 be1e ccb6 2d48 f3b6 8916 7535
00000190: 0eb3 8c36 a224 8c36 301e 1bb6 0ee6 a336
000001a0: c88b 02b6 876a b7b6 af72 1537 3666 2fb7
000001b0: 741d 07b7 b94d 8136 5e35 5836 9092 cb35
000001c0: d200 30b6 d61d 0cb4 f81b 3d36 4042 8836
000001d0: 7f88 9136 e4f2 8436 d6bf b0b6 d3be 9736
000001e0: 8765 9236 a890 f835 0e43 1035 4e22 3e35
000001f0: 3204 bb35 8eb6 dd34 688d 5935 b9ec 9035
