tryst/model_round_9.pth (torch, 194739 bytes, 19 tensors)

fc1.weight f4 [256, 14]
0	0x3e38db8b	0.18052499
1	0xbdeda495	-0.11603657
2	0x3cbf7231	0.02336988
3	0x3dc9d2f6	0.09854691
4	0x3db917bc	0.0903773
5	0x3cdaa409	0.026689546
6	0x3dabc01c	0.08386251
7	0x3e092449	0.13392748
8	0x3e0cae71	0.13738419
9	0x3d1a3504	0.037648216
10	0x3d916bdb	0.0710065
11	0xbb6cd03b	-0.0036134857
12	0xbc341526	-0.01099137
13	0xbdbbe3c2	-0.09174301
14	0x3d50e334	0.050997928
15	0x3dcde254	0.10052934
16	0xbcbd1bb2	-0.023084495
17	0xbe3bead0	-0.18351293
18	0x3d3967f7	0.045265164
19	0x3cc718ee	0.02430388
20	0xbdbec196	-0.09314267
21	0xbde2c16a	-0.11072047
22	0xbdda3ff0	-0.10656726
23	0x3d622dc1	0.055219416
24	0xbc680a3d	-0.014162597
25	0xbd9a8311	-0.0754453
26	0x3cbcf938	0.023068056
27	0xbe1650ae	-0.14679214
28	0xbe06b1a9	-0.1315371
29	0xbd6b5458	-0.057453483
30	0x3d5549c2	0.052072294
31	0xbca7d01d	-0.020484978
32	0xbd97a685	-0.07404808
33	0xbd4b479a	-0.04962883
34	0x3d271476	0.040790997
35	0xbda5a8b7	-0.080888204
36	0xbceb3421	-0.02871138
37	0xbd8cab24	-0.0686858
38	0x3e05e054	0.13073856
39	0xbd92d3ee	-0.07169329
40	0x3d5e5f03	0.05428983
41	0xbddc7a7a	-0.10765548
42	0x3e1e196f	0.1543939
43	0xbe265a1e	-0.16245314
44	0x3c0c86b9	0.008577042
45	0xbe24e20e	-0.16101858
46	0xbd2d4944	-0.0423062
47	0xbd64d2ae	-0.055864982
48	0x3d757721	0.059928063
49	0xbdd85a05	-0.10564045
50	0xbde1d4f7	-0.11026948
51	0x3dbdbb3a	0.09264226
52	0x3e11a537	0.1422318
53	0x3b6148e6	0.0034375726
54	0x3dec2ee4	0.11532381
55	0x3db6fea6	0.08935289
56	0xbdb3a825	-0.087723054
57	0x3dc4e9dd	0.096149184
58	0xbca27876	-0.01983283
59	0x3def709c	0.116914004
60	0xbd0117e4	-0.031516925
61	0x3d6fab43	0.058512937
62	0x3dcc202a	0.09967072
63	0x3d6bca96	0.057566248
64	0xbdf44bc6	-0.11928515
65	0x3c4cfba6	0.01251117
66	0xbe27f41d	-0.16401716
67	0x3dbd5307	0.09244352
68	0xbc3592d6	-0.011082372
69	0x3bd627e6	0.006535518
70	0x3b05f695	0.0020441164
71	0x3c56353d	0.013074216
72	0x3c1abc06	0.009444242
73	0xbe2145e6	-0.1574932
74	0xbde194a5	-0.1101468
75	0x3dd2586b	0.10270771
76	0x3c182324	0.009285722
77	0x3d5f4af4	0.05451484
78	0x3d28e931	0.041238014
79	0x3d9f50b6	0.07779066
80	0xbd2237fa	-0.039604165
81	0x3d5a239c	0.053256616
82	0x3dd19e98	0.102353275
83	0xbdc8bede	-0.0980203
84	0x3df3e98c	0.1190978
85	0xbcf923a8	-0.03041251
86	0x3dc0484c	0.093887895
87	0xbd925dab	-0.07146772
88	0x3d448d28	0.04798618
89	0x3dcf23c4	0.101142436
90	0x3ddd2a39	0.10799069
91	0x3cc87f1c	0.024474673
92	0xbd27c718	-0.040961355
93	0x3b4d43ff	0.0031321046
94	0xbe0ef9da	-0.13962498
95	0xbdac21cd	-0.084048845
96	0xbd2fd568	-0.04292813
97	0x3df53f38	0.11974949
98	0x3d967fbe	0.07348584
99	0x3dbace42	0.09121372
100	0xbd7d22b7	-0.061800685
101	0x3e0f270d	0.1397974
102	0xbd8052e6	-0.062658116
103	0xbc201814	-0.009771366
104	0x3d9ceeb0	0.076627135
105	0x3daa1dc4	0.083064586
106	0xbdbba454	-0.091622025
107	0xbe20b3c5	-0.15693577
108	0x3d256e96	0.040388666
109	0xbd9f2adf	-0.07771849
110	0xbca2d54b	-0.019877097
111	0xbe0b96ca	-0.1363174
112	0xbde12a29	-0.109943695
113	0xbd8e161d	-0.069378115
114	0x3dc3b053	0.095551156
115	0x3d147ab9	0.03624985
116	0x3d829436	0.06375925
117	0x3ccba2c9	0.024857895
118	0xbdc9d7f7	-0.09855645
119	0xbe083710	-0.13302255
120	0xbdb2735a	-0.08713408
121	0x3bcccb24	0.006249802
122	0xbdd32a3b	-0.10310789
123	0xbdd22390	-0.10260689
124	0xbdef9120	-0.11697602
125	0x3d3fa0e2	0.04678429
126	0xbdb7d909	-0.08976943
127	0xbd50a3f0	-0.050937593
128	0x3a99bfb8	0.001173011
129	0x3d0cd3cd	0.034381676
130	0xbd20f339	-0.039294455
131	0x3d66e15e	0.05636727
132	0xbe1162cf	-0.14197849
133	0xbd8d8e82	-0.06911947
134	0xbcced342	-0.02524722
135	0x3d085a88	0.033289462
136	0xbe0ee529	-0.13954605
137	0xbdb6d6da	-0.089276984
138	0x3b80c395	0.003929565
139	0x3e2fcc94	0.17167884
140	0x3d83f388	0.06442934
141	0xbd049e19	-0.032377336
142	0x3d90ae2f	0.07064473
143	0xbde9b21e	-0.11410926
144	0x3c5dfbbf	0.0135487905
145	0x3b726ee8	0.0036992375
146	0xbe2597ac	-0.1617114
147	0x3d19a03c	0.037506327
148	0xbdb0e758	-0.08637875
149	0xbc8fa27c	-0.017533533
150	0xbc8bcb09	-0.017064588
151	0xbdd5c34f	-0.10437643
152	0xbb0f2392	-0.002184127
153	0x3d4fc9e0	0.050729632
154	0x3d80d52e	0.06290661
155	0x3ddb2419	0.107002445
156	0x3dc08792	0.09400858
157	0xbcde7e3c	-0.027159803
158	0xbc929bc2	-0.017896537
159	0x3d3bb04e	0.045822434
160	0xbcb18e7c	-0.021674387
161	0xbd9eb033	-0.07748451
162	0x3c55159c	0.01300564
163	0x3db084d6	0.086190864
164	0xbcff9551	-0.03119913
165	0x3cc6e688	0.024279848
166	0x3d9e0c3a	0.07717176
167	0x3e75a486	0.23988542
168	0xbdfdbcfa	-0.1238956
169	0xbcffbadb	-0.03121703
170	0xbdbf6558	-0.09345502
171	0xbd442ac0	-0.047892332
172	0xbe0bff40	-0.13671589
173	0xbddf7f68	-0.10912973
174	0x3c38ad95	0.011271854
175	0x3caa3207	0.020775808
176	0xbdb48bbc	-0.08815715
177	0x3db289ff	0.08717727
178	0x3e0718f1	0.13193108
179	0xbdcb0c00	-0.09914398
180	0xbc6120cb	-0.013740729
181	0xbc8e0167	-0.017334653
182	0xbd0eab47	-0.03483131
183	0x3cb89f68	0.022536948
184	0xbd9961d2	-0.07489361
185	0xbc4531a3	-0.01203576
186	0x3daac01e	0.08337425
187	0xbdab6d2b	-0.083704315
188	0x3c35e219	0.011101269
189	0xbe166de1	-0.14690353
190	0x3dc6cd94	0.0970718
191	0x3e07ba39	0.13254632
192	0xbd600c7b	-0.054699402
193	0x3d3edab6	0.046595298
194	0x3e1a1517	0.15047108
195	0xbdd0316a	-0.10165675
196	0xbdfad288	-0.12247187
197	0xbd1b4d21	-0.037915353
198	0xbe127748	-0.14303315
199	0xbda2792c	-0.07933268
200	0x3d52b9ce	0.05144673
201	0xbd44c605	-0.04804041
202	0xbdca3c1c	-0.09874746
203	0x3dbdb748	0.09263474
204	0x3b3e3e76	0.002902893
205	0xbe1d416a	-0.15356985
206	0x3cae21fb	0.021256438
207	0x3d00b502	0.031422623
208	0x38109990	3.447529e-05
209	0xbdca8de0	-0.09890342
210	0x3dae5089	0.085114546
211	0x3cdf77eb	0.027278861
212	0xbd70a939	-0.058755133
213	0x3dbeb781	0.09312344
214	0xbdf0113e	-0.11722039
215	0x3dd4979c	0.1038048
216	0x3d9a4871	0.07533348
217	0x3dc40644	0.095715076
218	0xbcf946d6	-0.030429285
219	0x3e029556	0.1275228
220	0x3e238ed4	0.15972453
221	0xbdb4247a	-0.0879602
222	0x3e178582	0.14797023
223	0x3e094669	0.13405766
224	0xbdbacc37	-0.09120982
225	0x3d5670b2	0.05235357
226	0xbbd94625	-0.0066306763
227	0xbc5b3f7b	-0.013381834
228	0x3d13f786	0.03612473
229	0xbcf52d7c	-0.029928915
230	0x3e0600eb	0.13086288
231	0xbd8c5eed	-0.06854043
232	0xbbadc203	-0.005302669
233	0xbe416ae0	-0.18888426
234	0xbdb9a75a	-0.09065123
235	0xbde0d2c8	-0.10977703
236	0x3d8beff5	0.068328775
237	0xbd4ccc9d	-0.049999822
238	0x3d9c9fa3	0.07647636
239	0xbe16f626	-0.14742336
240	0x3e101479	0.1407031
241	0xbe201272	-0.15632036
242	0xbd60780a	-0.05480198
243	0x3dec3098	0.11532706
244	0xbe06cd1a	-0.13164178
245	0xbcbc80ff	-0.023010729
246	0xbdb35464	-0.087563306
247	0x3cb670f3	0.022270655
248	0xbd08e4fb	-0.033421498
249	0xbde53400	-0.11191559
250	0xbda253a8	-0.079261124
251	0xbd7d7f1c	-0.0618888
252	0xbbef6ab7	-0.0073064226
253	0x3c08aa47	0.0083413785
254	0xbd921122	-0.07132174
255	0xbdd2f116	-0.1029989

fc1.bias f4 [256]
0	0xb71e7936	-9.4457555e-06
1	0xb613f674	-2.2048162e-06
2	0xb6a25345	-4.83767e-06
3	0x3404c21f	1.2364079e-07
4	0xb706db01	-8.038013e-06
5	0xb543e414	-7.297506e-07
6	0xb68aa2a9	-4.1316566e-06
7	0x37269c82	9.930811e-06
8	0x35ad8d6a	1.2930661e-06
9	0x3695dc68	4.4662047e-06
10	0x366bb03f	3.5120318e-06
11	0x36151607	2.2215552e-06
12	0x369e042e	4.7092535e-06
13	0x3492a5f0	2.7315355e-07
14	0xb4667ce0	-2.1465848e-07
15	0x354085b2	7.1720126e-07
16	0xb718e827	-9.113958e-06
17	0xb535e1da	-6.775641e-07
18	0xb5407fd6	-7.17116e-07
19	0x35dc21fe	1.640117e-06
20	0x3701b2e3	7.7306495e-06
21	0x35226ae6	6.050526e-07
22	0xb7e1208c	-2.6837246e-05
23	0xb5f0091a	-1.7884042e-06
24	0x3785eefa	1.5966118e-05
25	0x36a674aa	4.960767e-06
26	0xb4e9212c	-4.3423768e-07
27	0xb6695878	-3.4771201e-06
28	0xb6f7acb2	-7.381278e-06
29	0x363b1ddf	2.7882559e-06
30	0xb60aef5e	-2.0702932e-06
31	0x375f3790	1.3304772e-05
32	0xb6941e1e	-4.41425e-06
33	0x358e6014	1.0607787e-06
34	0xb7254be0	-9.852432e-06
35	0xb63049a9	-2.626892e-06
36	0x34a35e50	3.0429737e-07
37	0xb682a0b3	-3.8930098e-06
38	0x37453be0	1.1756056e-05
39	0xb71fc5e7	-9.523216e-06
40	0x3684d978	3.9592232e-06
41	0x36ad677a	5.167848e-06
42	0x348f4c56	2.6691367e-07
43	0xb6b4ea66	-5.3917056e-06
44	0xb522ee7f	-6.069676e-07
45	0xb67d4dee	-3.77453e-06
46	0xb76dadcd	-1.4166767e-05
47	0x3726c533	9.940285e-06
48	0xb618065f	-2.2653473e-06
49	0xb72eec9c	-1.0426298e-05
50	0x36ba4a06	5.5518494e-06
51	0xb6c64e25	-5.909957e-06
52	0x3799eea3	1.8350145e-05
53	0xb755458c	-1.2711982e-05
54	0x370df9fb	8.462458e-06
55	0x36f7f2ee	7.3894544e-06
56	0xb61838f5	-2.2682918e-06
57	0x368ba9f7	4.1623093e-06
58	0xb6c82d08	-5.965707e-06
59	0x36de5f9e	6.627247e-06
60	0xb67e516e	-3.7896348e-06
61	0x373e2e94	1.1335727e-05
62	0xb59747c2	-1.1271261e-06
63	0x360ed304	2.1282476e-06
64	0xb7b273ac	-2.1273117e-05
65	0x36d63a63	6.384494e-06
66	0x367b7cbe	3.7474524e-06
67	0xb628cdb8	-2.5153695e-06
68	0x328aaa00	1.6142621e-08
69	0x37672bcb	1.3778869e-05
70	0xb55032d4	-7.7560003e-07
71	0x36a5f15c	4.945481e-06
72	0x368ad820	4.1378808e-06
73	0x3763c67e	1.3576469e-05
74	0x36abbf41	5.118462e-06
75	0x36a4bd4a	4.909617e-06
76	0x373ab93a	1.112959e-05
77	0xb7243e09	-9.789605e-06
78	0x3809647a	3.275692e-05
79	0x358063c4	9.565779e-07
80	0xb6f7953c	-7.378547e-06
81	0x35e91c7e	1.7368145e-06
82	0x362f7fdd	2.6151458e-06
83	0x36b446d0	5.3726617e-06
84	0xb617f67e	-2.264423e-06
85	0x3617cb52	2.2619101e-06
86	0xb4ca7350	-3.7709333e-07
87	0xb6d8de5e	-6.4631886e-06
88	0xb6ffe15e	-7.6258284e-06
89	0x36eefb80	7.122231e-06
90	0xb6aa9f55	-5.0849435e-06
91	0xb6fa5692	-7.4606587e-06
92	0xb59b2536	-1.155923e-06
93	0x36b5c3fb	5.4170355e-06
94	0xb42364a0	-1.5217165e-07
95	0xb6f69f8e	-7.349946e-06
96	0x37927699	1.7459783e-05
97	0xb6150909	-2.220799e-06
98	0xb6eb19b4	-7.006538e-06
99	0x369d731a	4.692364e-06
100	0xb5efa14a	-1.7853829e-06
101	0x3632dc8a	2.6652438e-06
102	0x35f58200	1.8291757e-06
103	0x36a7e3df	5.0035155e-06
104	0x370ddd8b	8.455837e-06
105	0xb6f60a16	-7.3325455e-06
106	0xb7069823	-8.0224445e-06
107	0x368b628c	4.153995e-06
108	0xb61b2a84	-2.3121547e-06
109	0x3786b8c0	1.6060076e-05
110	0xb5956911	-1.1131943e-06
111	0x36789559	3.7041812e-06
112	0x371815ae	9.064954e-06
113	0x37c29c58	2.3199405e-05
114	0xb7effd9e	-2.860912e-05
115	0x370645ad	8.003245e-06
116	0xb6741cec	-3.6375668e-06
117	0xb6051b71	-1.9834517e-06
118	0x35c073e0	1.4338839e-06
119	0xb6d4afa8	-6.3385414e-06
120	0x365d95b8	3.3018714e-06
121	0x3503dd34	4.9123196e-07
122	0xb69121de	-4.3252794e-06
123	0x37932628	1.7541533e-05
124	0x350d6a70	5.268148e-07
125	0xb6e31f70	-6.768787e-06
126	0xb6f96869	-7.432933e-06
127	0x376d346b	1.4138505e-05
128	0x36000268	1.9074887e-06
129	0x37017f55	7.718646e-06
130	0x358bb838	1.0409922e-06
131	0x36ec0f24	7.0351107e-06
132	0xb6ce52b4	-6.1489063e-06
133	0x35788e32	9.259412e-07
134	0x36ed3f37	7.0705096e-06
135	0x36304fa6	2.6272405e-06
136	0x364ff8f0	3.0990304e-06
137	0x37bd5bff	2.2573395e-05
138	0x370afcc5	8.2842935e-06
139	0xb5b8c518	-1.376643e-06
140	0x35ccba56	1.5253415e-06
141	0x375eee9c	1.3287787e-05
142	0x368a2177	4.1166163e-06
143	0x35cd5212	1.5297576e-06
144	0xb581dc5e	-9.675384e-07
145	0x35f5eba7	1.8322506e-06
146	0x351a4598	5.747074e-07
147	0xb598e216	-1.1390682e-06
148	0xb5a31d85	-1.2153038e-06
149	0xb6b456e1	-5.374532e-06
150	0x36db8fa1	6.543429e-06
151	0x36e8bda4	6.936216e-06
152	0xb68d9595	-4.219541e-06
153	0xb69d43a2	-4.686838e-06
154	0xb663f544	-3.39684e-06
155	0x36200772	2.3846192e-06
156	0xb817fd86	-3.6237318e-05
157	0xb79e765a	-1.889018e-05
158	0x34c4bf7c	3.6647168e-07
159	0xb66fe89a	-3.5749167e-06
160	0xb48781d8	-2.5240183e-07
161	0x36c3b499	5.832477e-06
162	0xb800c564	-3.0701412e-05
163	0xb7aa5457	-2.0304853e-05
164	0xb6a71bb7	-4.9802143e-06
165	0x3721654f	9.619936e-06
166	0xb325569c	-3.8495827e-08
167	0xb6e19dc5	-6.7238893e-06
168	0x361031f0	2.148674e-06
169	0xb4e86718	-4.3288378e-07
170	0x3729fa54	1.0131469e-05
171	0xb717f7a9	-9.057964e-06
172	0xb79151e1	-1.7323475e-05
173	0x368eeb14	4.2592965e-06
174	0x36d0b477	6.219892e-06
175	0x36a2c950	4.851412e-06
176	0xb6871933	-4.026247e-06
177	0x36917ae3	4.3356426e-06
178	0x36cb3f34	6.0572293e-06
179	0x37160b40	8.943316e-06
180	0x337c0300	5.867605e-08
181	0xb4cd23cf	-3.821028e-07
182	0x35817a38	9.646819e-07
183	0x35e62948	1.714835e-06
184	0x36a89b5e	5.0248773e-06
185	0xb4ac7b14	-3.2127048e-07
186	0xb739959c	-1.1061693e-05
187	0xb6dc2c42	-6.561663e-06
188	0xb6b5d355	-5.4188226e-06
189	0x37a9ec86	2.025651e-05
190	0xb75ba07d	-1.3090784e-05
191	0x371e3bce	9.431458e-06
192	0xb69bc03f	-4.6417404e-06
193	0xb587770a	-1.0092929e-06
194	0x373e3f9c	1.1339693e-05
195	0xb4c913b6	-3.745351e-07
196	0x37389d5f	1.1003895e-05
197	0xb74b6090	-1.2122226e-05
198	0xb54df4f4	-7.6724905e-07
199	0xb6723eda	-3.6097395e-06
200	0x36bc6cfc	5.615524e-06
201	0x34b85750	3.43362e-07
202	0x3693aed2	4.401293e-06
203	0x363cf66e	2.8157624e-06
204	0xb5e00a9e	-1.669239e-06
205	0xb5ed44dc	-1.7677917e-06
206	0xb6b12594	-5.2793857e-06
207	0xb6c1a3a4	-5.7708985e-06
208	0x35d877c6	1.6128113e-06
209	0x360c02b3	2.0863197e-06
210	0xb5f5cfec	-1.8314436e-06
211	0x36b575ea	5.4079474e-06
212	0x365f762b	3.3298372e-06
213	0x34feb7e0	4.7444973e-07
214	0x36c006a8	5.722821e-06
215	0xb69585b6	-4.456112e-06
216	0xb61c85e5	-2.3323748e-06
217	0x374140f4	1.15188195e-05
218	0xb682777c	-3.8882117e-06
219	0x3674b69c	3.6465126e-06
220	0x35172f04	5.63203e-07
221	0x36d0d44e	6.2235986e-06
222	0xb715b43e	-8.923058e-06
223	0x3493a258	2.7499004e-07
224	0xb721fe0e	-9.6554995e-06
225	0x36a8eda1	5.034454e-06
226	0xb5730716	-9.0534866e-07
227	0xb664218f	-3.3994181e-06
228	0xb4dd86f0	-4.1262638e-07
229	0xb790d7b8	-1.726659e-05
230	0x35166db9	5.603902e-07
231	0x37968445	1.7942986e-05
232	0x3734b6ea	1.0771424e-05
233	0x36f3623e	7.2534012e-06
234	0xb6c8adfd	-5.9807194e-06
235	0xb6a786f6	-4.9926994e-06
236	0xb7dc9e05	-2.6299627e-05
237	0x35a0a23b	1.1968144e-06
238	0xb6526504	-3.1351237e-06
239	0x36c81d2c	5.9638605e-06
240	0xb4d3d720	-3.9458337e-07
241	0xb69d16ff	-4.6816417e-06
242	0x36dbb703	6.548014e-06
243	0xb5071ec8	-5.033621e-07
244	0x351d74a8	5.8656815e-07
245	0xb4f7305a	-4.6042516e-07
246	0x376406c7	1.3591437e-05
247	0x35692a54	8.686086e-07
248	0xb76bdd7b	-1.4058659e-05
249	0x372e0028	1.0371245e-05
250	0xb686ee79	-4.021273e-06
251	0xb71225d6	-8.7110875e-06
252	0xb6123ac1	-2.1789895e-06
253	0x370d8b90	8.436749e-06
254	0xb7505966	-1.2418581e-05
255	0xb58bee2f	-1.0425628e-06

bn1.weight f4 [256]
0	0x3f798f84	0.9748461
1	0x3f78a518	0.97126913
2	0x3f74c4ba	0.9561268
3	0x3f839753	1.0280555
4	0x3f6abe3f	0.9169654
5	0x3f77ce12	0.96798813
6	0x3f6a6aa4	0.9156897
7	0x3f790dd4	0.97286725
8	0x3f7a0e27	0.97677845
9	0x3f731440	0.94952774
10	0x3f688a86	0.9083637
11	0x3f71db44	0.944752
12	0x3f7b69ba	0.982082
13	0x3f7641eb	0.9619433
14	0x3f77acb9	0.9674793
15	0x3f7538af	0.9578962
16	0x3f68fecf	0.9101381
17	0x3f6b2230	0.9184904
18	0x3f733482	0.95001996
19	0x3f6d34a8	0.9265847
20	0x3f6948db	0.91126794
21	0x3f773487	0.96564525
22	0x3f64f890	0.89441776
23	0x3f6c8bf2	0.9240104
24	0x3f6e23b2	0.93023217
25	0x3f78ca98	0.97184134
26	0x3f72eb0f	0.9488992
27	0x3f76366c	0.9617679
28	0x3f6f122c	0.93387103
29	0x3f6db42c	0.92853045
30	0x3f773abe	0.9657401
31	0x3f8592d7	1.0435437
32	0x3f7b08b1	0.9806014
33	0x3f70f6e3	0.9412672
34	0x3f7603ba	0.96099436
35	0x3f726612	0.94686997
36	0x3f6e188e	0.9300622
37	0x3f6e7489	0.9314657
38	0x3f7d4ea2	0.9894811
39	0x3f6b49d2	0.91909516
40	0x3f72f4b6	0.9490465
41	0x3f81b8a4	1.0134473
42	0x3f5f7926	0.8729423
43	0x3f6f9c66	0.9359802
44	0x3f6ec361	0.93266875
45	0x3f822440	1.0167313
46	0x3f72a548	0.9478345
47	0x3f852257	1.0401105
48	0x3f703021	0.9382344
49	0x3f7fb58b	0.9988639
50	0x3f6ead9e	0.9323367
51	0x3f73af5d	0.9518946
52	0x3f7f058e	0.9961785
53	0x3f79ff0d	0.976548
54	0x3f7d55e3	0.9895918
55	0x3f7afd9e	0.9804324
56	0x3f6d7613	0.9275829
57	0x3f7595f2	0.95931923
58	0x3f6f70e0	0.9353161
59	0x3f780576	0.9688333
60	0x3f660f26	0.89866865
61	0x3f72604c	0.9467819
62	0x3f6c68e2	0.9234754
63	0x3f66b391	0.90117747
64	0x3f685637	0.90756553
65	0x3f7238ea	0.94618094
66	0x3f65a69a	0.8970734
67	0x3f6ff62d	0.9373501
68	0x3f6669c4	0.90005136
69	0x3f674e81	0.9035416
70	0x3f7b7e00	0.98239136
71	0x3f746e80	0.9548111
72	0x3f7500f3	0.95704573
73	0x3f823484	1.0172276
74	0x3f7d1430	0.9885893
75	0x3f7da766	0.99083555
76	0x3f77ddab	0.96822613
77	0x3f682ac2	0.90690243
78	0x3f61f01b	0.88256997
79	0x3f7554db	0.95832604
80	0x3f70ed45	0.94112045
81	0x3f700127	0.9375176
82	0x3f77f5ea	0.9685961
83	0x3f69f4f3	0.9138939
84	0x3f7bb256	0.98318994
85	0x3f6f6598	0.93514395
86	0x3f6eef0e	0.9333352
87	0x3f69cd5e	0.9132899
88	0x3f728d07	0.9474644
89	0x3f7823f8	0.96929884
90	0x3f7d3c88	0.9892049
91	0x3f7b6c75	0.9821237
92	0x3f76098b	0.9610831
93	0x3f6e83ab	0.9316966
94	0x3f7bfb16	0.9843
95	0x3f6ce91e	0.9254321
96	0x3f8157de	1.010494
97	0x3f717e85	0.9433368
98	0x3f76ee1a	0.96457064
99	0x3f78d963	0.97206706
100	0x3f71512a	0.9426447
101	0x3f7cf4fc	0.98811316
102	0x3f8391d4	1.0278878
103	0x3f796a7d	0.97428113
104	0x3f7e814f	0.9941606
105	0x3f6f44b4	0.9346421
106	0x3f7de58a	0.99178374
107	0x3f7c96a4	0.9866736
108	0x3f5ccd5a	0.8625084
109	0x3f6025f9	0.8755794
110	0x3f6f6f35	0.93529063
111	0x3f77c2bd	0.9678152
112	0x3f78403a	0.96973
113	0x3f738bde	0.95135295
114	0x3f79f3d4	0.9763768
115	0x3f6fa43c	0.93609977
116	0x3f75b0a5	0.95972663
117	0x3f707e5b	0.93942803
118	0x3f74a8b4	0.9556992
119	0x3f708d17	0.93965286
120	0x3f68bae0	0.9091015
121	0x3f6f02e7	0.93363804
122	0x3f747c29	0.95501953
123	0x3f6ead86	0.93233526
124	0x3f725b40	0.94670486
125	0x3f7393b9	0.9514728
126	0x3f68bbce	0.9091157
127	0x3f71496e	0.9425267
128	0x3f830b10	1.0237751
129	0x3f6856db	0.9075753
130	0x3f6971df	0.9118938
131	0x3f7e7e5d	0.99411565
132	0x3f6c6b82	0.92351544
133	0x3f80ad57	1.0052899
134	0x3f70ea13	0.9410717
135	0x3f7260c0	0.9467888
136	0x3f715ae9	0.9427934
137	0x3f77f069	0.9685121
138	0x3f78a12e	0.9712094
139	0x3f75e8a7	0.96058124
140	0x3f68f278	0.9099498
141	0x3f7882fc	0.97074866
142	0x3f82722e	1.0191095
143	0x3f732f2d	0.9499386
144	0x3f6b959a	0.9202515
145	0x3f7b2d5c	0.9811609
146	0x3f696d1e	0.91182125
147	0x3f73b398	0.95195913
148	0x3f7203a2	0.94536793
149	0x3f68831f	0.90825075
150	0x3f6776c8	0.9041562
151	0x3f6db8c4	0.92860055
152	0x3f6c0de9	0.92208725
153	0x3f76f7ed	0.96472055
154	0x3f76d9a8	0.9642587
155	0x3f749044	0.9553263
156	0x3f83a59e	1.0284917
157	0x3f817d0a	1.0116284
158	0x3f7eb45d	0.9949396
159	0x3f790e14	0.97287107
160	0x3f8861f3	1.0654892
161	0x3f694f75	0.91136867
162	0x3f73ec20	0.95282173
163	0x3f761262	0.961218
164	0x3f72a3b0	0.9478102
165	0x3f7d5268	0.98953867
166	0x3f5b1de0	0.8559246
167	0x3f80271c	1.0011935
168	0x3f6c9cf0	0.9242697
169	0x3f732344	0.94975686
170	0x3f75364a	0.95785964
171	0x3f741e13	0.9535839
172	0x3f791d48	0.97310305
173	0x3f7acbf4	0.9796746
174	0x3f62d266	0.8860229
175	0x3f830422	1.0235636
176	0x3f84226e	1.0323007
177	0x3f709f15	0.9399274
178	0x3f84dc7a	1.0379784
179	0x3f634aba	0.887859
180	0x3f7c8c33	0.9865143
181	0x3f635ab6	0.8881029
182	0x3f73931d	0.9514635
183	0x3f64afcb	0.8933074
184	0x3f7cef35	0.988025
185	0x3f67a551	0.9048663
186	0x3f79b40a	0.9754034
187	0x3f7d7a8a	0.99015105
188	0x3f6ff867	0.93738407
189	0x3f6d2af3	0.9264366
190	0x3f80d0bb	1.00637
191	0x3f713739	0.9422489
192	0x3f742a88	0.953774
193	0x3f75fb6e	0.96086776
194	0x3f815202	1.0103152
195	0x3f6bd01c	0.92114425
196	0x3f84fb23	1.0389141
197	0x3f72e4be	0.9488028
198	0x3f80e8c0	1.007103
199	0x3f744f40	0.95433426
200	0x3f839243	1.027901
201	0x3f74ae1c	0.9557817
202	0x3f64c429	0.89361817
203	0x3f769029	0.9631372
204	0x3f69c066	0.913092
205	0x3f6f7739	0.93541294
206	0x3f77a450	0.96735096
207	0x3f828a21	1.0198404
208	0x3f764801	0.9620362
209	0x3f6c39de	0.922758
210	0x3f7d50b2	0.98951256
211	0x3f6bc6e7	0.92100376
212	0x3f6a96ae	0.9163617
213	0x3f7bf4de	0.9842051
214	0x3f70216f	0.93801016
215	0x3f66d08b	0.9016196
216	0x3f673e62	0.90329564
217	0x3f785be3	0.9701521
218	0x3f7ed33e	0.9954108
219	0x3f646dbb	0.89229935
220	0x3f7a8b78	0.9786906
221	0x3f7298e9	0.9476457
222	0x3f683498	0.9070525
223	0x3f6205e0	0.88290215
224	0x3f788302	0.970749
225	0x3f67bb4a	0.90520155
226	0x3f6be2b2	0.92142785
227	0x3f653c4f	0.8954515
228	0x3f7875d9	0.9705482
229	0x3f7deb9d	0.9918764
230	0x3f6c5d3a	0.9232975
231	0x3f70d2de	0.9407176
232	0x3f6451d3	0.89187354
233	0x3f7a5703	0.9778902
234	0x3f6ff372	0.93730843
235	0x3f7cea05	0.98794585
236	0x3f7babc6	0.9830898
237	0x3f6cdfa4	0.9252875
238	0x3f78e2d9	0.9722114
239	0x3f738cfe	0.9513701
240	0x3f7c97d6	0.98669183
241	0x3f7f1229	0.99637085
242	0x3f70a8a4	0.94007325
243	0x3f77a3ca	0.967343
244	0x3f74651e	0.9546679
245	0x3f75719a	0.9587647
246	0x3f7d579b	0.989618
247	0x3f69a539	0.91267735
248	0x3f7e4765	0.9932769
249	0x3f79d47d	0.97589856
250	0x3f67da1d	0.9056719
251	0x3f76a55b	0.9634606
252	0x3f74ad9c	0.95577407
253	0x3f72cfb8	0.94848204
254	0x3f689451	0.9085131
255	0x3f73c818	0.95227194

bn1.bias f4 [256]
0	0xbcd456da	-0.02592032
1	0xbdf38375	-0.11890308
2	0x3c94f080	0.018181086
3	0xbd37ea2e	-0.044901066
4	0xbe016a5e	-0.12638232
5	0xbd6ee6eb	-0.05832569
6	0xbdc839e9	-0.097766705
7	0xbd1b9fec	-0.03799431
8	0xbdee7406	-0.116432235
9	0xbe074121	-0.13208438
10	0xbe381b79	-0.1797923
11	0xbe0b6efd	-0.13616557
12	0x3c9d0f7b	0.01917242
13	0xbd1906a7	-0.03735986
14	0xbdbaf8f1	-0.09129513
15	0xbdbfc372	-0.0936345
16	0xbdf6c389	-0.12049014
17	0xbde82b54	-0.11336389
18	0xbdd3e31e	-0.103460535
19	0xbdae44ed	-0.0850924
20	0xbdc0ba94	-0.09410587
21	0xbd83ff0b	-0.0644513
22	0xbde951a1	-0.113925226
23	0xbd3ddc8e	-0.046352915
24	0xbd7fc8b7	-0.062447276
25	0xbd57629e	-0.052584283
26	0xbe1cdd9d	-0.15318914
27	0xbdd1f242	-0.10251285
28	0xbda005f8	-0.078136384
29	0xbe0b1efa	-0.13586035
30	0xbaa13148	-0.0012298012
31	0xbd90b83d	-0.07066391
32	0xbe100e66	-0.14067993
33	0xbdb30ead	-0.087430336
34	0xbbed9898	-0.0072508566
35	0xbd7c45cd	-0.061590005
36	0xbde9b319	-0.11411113
37	0xbd23494e	-0.03986483
38	0xbe4b4dc3	-0.19853882
39	0xbe086e9b	-0.13323443
40	0xbde00b58	-0.10939664
41	0xbd839774	-0.06425372
42	0xbd525668	-0.051351935
43	0xbd92cd24	-0.07168034
44	0xbd320842	-0.043464907
45	0xbe7edc00	-0.24888611
46	0xbdced80e	-0.10099803
47	0xbcdca0a4	-0.026932068
48	0xbdae264d	-0.08503399
49	0xbd5a1def	-0.053251203
50	0xbd992d13	-0.074793
51	0xbe109ab1	-0.1412151
52	0xbdca4e9d	-0.098782755
53	0xbd20d29e	-0.03926336
54	0xbe4ace4a	-0.19805256
55	0xbc8abba7	-0.016935183
56	0xbda82361	-0.08209873
57	0xbdc1850a	-0.09449203
58	0xbdd24425	-0.10266904
59	0xbb92f36c	-0.0044845846
60	0xbe0a4934	-0.13504487
61	0xbe248811	-0.1606753
62	0xbde214cd	-0.11039124
63	0xbe101521	-0.1407056
64	0xbd9e249c	-0.077218264
65	0xbdabe439	-0.083931394
66	0xbe2c9b23	-0.16856055
67	0xbdf14735	-0.1178116
68	0xbdc4644d	-0.09589443
69	0xbd80e859	-0.06294317
70	0xbd0d080a	-0.034431495
71	0xbdf47a3a	-0.11937375
72	0xbdf0df1f	-0.11761307
73	0xbd888a7f	-0.06667041
74	0xbe057ef1	-0.13036706
75	0xbda2e025	-0.079529084
76	0xbcf5b870	-0.029995173
77	0xbd917a7e	-0.07103442
78	0xbdc27ee3	-0.09496858
79	0xbda18b7b	-0.07887932
80	0xbd9f52e7	-0.07779484
81	0xbda2d083	-0.07949927
82	0xbd832aca	-0.06404646
83	0xbdc8fc4e	-0.09813748
84	0xbde71006	-0.11282353
85	0xbe1c0b9c	-0.15238804
86	0xbd9d3682	-0.07676412
87	0xbd723647	-0.059133794
88	0xbdbc3b45	-0.09190992
89	0x3a98f0f1	0.0011668486
90	0xbdda7424	-0.10666683
91	0xbdc47482	-0.095925346
92	0xbd85a75f	-0.06526064
93	0xbd925278	-0.07144636
94	0xbd9d4759	-0.07679624
95	0xbdc8a530	-0.09797132
96	0xbd562799	-0.052283857
97	0xbe0142cb	-0.12623136
98	0xbcdd6b39	-0.027028667
99	0xbd3d251a	-0.04617796
100	0xbdd4879c	-0.10377428
101	0xbdc32791	-0.09529031
102	0xbd42bb61	-0.04754198
103	0xbde013e0	-0.10941291
104	0xbe24579a	-0.16049042
105	0xbd003d74	-0.031308606
106	0x3a6841ac	0.00088598835
107	0xbd498aab	-0.04920451
108	0xbdfb0fe8	-0.12258893
109	0xbdb41a36	-0.08794062
110	0xbdb113a2	-0.08646323
111	0xbd810634	-0.06300011
112	0xbd8c3519	-0.06846065
113	0xbdb59825	-0.0886691
114	0xbd87324a	-0.06601389
115	0xbd846825	-0.064651765
116	0xbddaf07c	-0.106904
117	0xbdcd4a7f	-0.100239746
118	0xbd5fbf79	-0.054625962
119	0xbd9a0f6f	-0.07522475
120	0xbe185faa	-0.14880243
121	0xbdef4e9e	-0.11684917
122	0xbe1bceac	-0.15215558
123	0xbdb7c9c5	-0.08974031
124	0xbe08b1ae	-0.1334903
125	0xbd8bf9e4	-0.06834772
126	0xbe00c2b1	-0.12574269
127	0xbcbcac1c	-0.023031287
128	0xbd0325ed	-0.03201859
129	0xbdf5a895	-0.11995045
130	0xbdbf3fee	-0.093383655
131	0xbe0a5674	-0.13509542
132	0xbd9f7a42	-0.07786991
133	0xbd199e3d	-0.037504423
134	0xbe0b41ac	-0.1359927
135	0xbdabeea1	-0.08395124
136	0xbdd8a332	-0.10578002
137	0xbddd5eb5	-0.108090796
138	0xbd6e1e69	-0.05813447
139	0xbd1c73aa	-0.038196243
140	0xbd8263ab	-0.063666664
141	0xbe3b6f62	-0.18304208
142	0xbdb4caf4	-0.08827773
143	0xbdfb4bab	-0.12270292
144	0xbdea64fe	-0.11445044
145	0xbdbb9ad1	-0.09160388
146	0xbde2b84f	-0.1107031
147	0xbe236f67	-0.15960465
148	0xbdffab74	-0.12483874
149	0xbdf15324	-0.11783436
150	0xbe1608f6	-0.14651856
151	0xbe51cc0e	-0.20487997
152	0xbd9d1be3	-0.076713346
153	0xbd418984	-0.047250286
154	0xbd178083	-0.036987793
155	0xbd262217	-0.040559854
156	0xbd98a2bc	-0.07452914
157	0xbd2ef5b3	-0.042714786
158	0xbdaffd5f	-0.085932486
159	0xbdd689aa	-0.10475476
160	0xbde9963a	-0.114056066
161	0xbd9b13f9	-0.07572169
162	0xbcbc5bab	-0.02299293
163	0xbe8e470b	-0.27788576
164	0xbe0e8fb7	-0.1392201
165	0xbd11a5b2	-0.03555841
166	0xbd8147e2	-0.06312539
167	0xbdb8ec69	-0.09029467
168	0xbd9c4cbf	-0.07631826
169	0xbd913b04	-0.070913345
170	0xbc408aa3	-0.011751804
171	0xbda52179	-0.08063025
172	0xbd9e9dea	-0.077449635
173	0xbd411f68	-0.047149092
174	0xbdbdb71b	-0.0926344
175	0xbd20015f	-0.039063808
176	0xbd8c42de	-0.068486914
177	0x39e3a824	0.00043422088
178	0xbe160021	-0.14648487
179	0xbd826015	-0.063659824
180	0xbda9b028	-0.08285552
181	0xbdb05afb	-0.08611103
182	0xbe135878	-0.14389217
183	0xbe364cbc	-0.1780271
184	0xbd8bed5f	-0.06832384
185	0xbe07ceb8	-0.1326245
186	0xbccddf21	-0.02513081
187	0xbdb315ca	-0.0874439
188	0xbd58f19e	-0.0529648
189	0xbdcc5f4f	-0.09979116
190	0xbd71d4c6	-0.059040807
191	0xbdb16ebb	-0.08663698
192	0xbd6a721e	-0.057237737
193	0xbe134447	-0.14381514
194	0xbd9140c7	-0.070924334
195	0xbd89ae24	-0.06722668
196	0xbca2cabc	-0.019872062
197	0xbcf627e7	-0.030048324
198	0xbcfe2922	-0.031025473
199	0xbcdfc71f	-0.027316628
200	0xbe2b37f5	-0.16720565
201	0x3ba413ce	0.0050072437
202	0xbd462035	-0.04837056
203	0xbe1bdc2e	-0.1522071
204	0xbde02296	-0.10944097
205	0xbd865562	-0.06559254
206	0xbdc05e17	-0.09392946
207	0xbe267fa7	-0.16259633
208	0xbdcdc796	-0.100478336
209	0xbdbacf8f	-0.0912162
210	0xbddda23c	-0.108219594
211	0xbd31b413	-0.043384623
212	0xbd5f15a8	-0.054464012
213	0xbe2e00dd	-0.16992517
214	0xbd8d0273	-0.06885233
215	0xbd9324c2	-0.07184745
216	0xbd5cd049	-0.053909574
217	0xbd229a40	-0.039697886
218	0xbe120cb9	-0.14262666
219	0xbdf8c84b	-0.12147578
220	0xbcaf0983	-0.02136684
221	0xbd4e64b2	-0.050389
222	0xbdd1a9c2	-0.10237457
223	0xbdf4132e	-0.11917721
224	0xbe2807c1	-0.16409208
225	0xbd4c5f29	-0.04989544
226	0xbd807061	-0.062714346
227	0xbdfcb956	-0.123400375
228	0xbe0a54c5	-0.135089
229	0xbd32409e	-0.043518655
230	0xbdb135f2	-0.086528674
231	0xbdb28e78	-0.0871858
232	0xbdb1adc7	-0.086757235
233	0xbc224898	-0.009905003
234	0xbd90e1a4	-0.070742875
235	0xbd12ddc3	-0.03585602
236	0xbdc1ac85	-0.094567336
237	0xbd2f763d	-0.04283737
238	0xbdc03e4f	-0.093868844
239	0xbd99e87c	-0.07515046
240	0xbdb11c60	-0.0864799
241	0xbd5845e5	-0.05280103
242	0xbcf88578	-0.03033708
243	0xbdfca3b6	-0.12335913
244	0xbdb2ca88	-0.08730036
245	0xbe0fec1b	-0.14054911
246	0xbdcbd6cc	-0.09953079
247	0xbddd2e04	-0.107997924
248	0xbdc11764	-0.094282895
249	0xbcaea0d5	-0.021316925
250	0xbd7f900e	-0.06239324
251	0xbdae5c06	-0.08513646
252	0xbdf22333	-0.1182312
253	0xbdb550ca	-0.088533
254	0xbba3f73e	-0.005003839
255	0xbde20e27	-0.110378556

bn1.running_mean f4 [256]
0	0xbb96394a	-0.004584466
1	0xbc12bcd7	-0.008956156
2	0x3cb16fee	0.021659818
3	0x3d4322fa	0.047640778
4	0xbc9df95b	-0.019283941
5	0x3b9827ef	0.0046434323
6	0x39a6e8a4	0.00031835318
7	0xbcb02818	-0.021503493
8	0xbc819f5e	-0.015823063
9	0xbc6142d9	-0.013748848
10	0xbc5e4c88	-0.013568051
11	0x3b004f0c	0.0019578366
12	0x3c9086bd	0.017642373
13	0x3ca1314e	0.01967683
14	0x3bc5f5ea	0.006041278
15	0x3b2cc156	0.0026360354
16	0x3ca45462	0.020059768
17	0xbc69a547	-0.014260597
18	0xbae05760	-0.0017115884
19	0x3c7873c1	0.015164317
20	0x3d5d5132	0.054032512
21	0xbb4f49dc	-0.0031629717
22	0xbc6f09ea	-0.014589766
23	0x3c23fb4d	0.010008645
24	0xbb5608ee	-0.003265913
25	0xbc7f2fb5	-0.015575339
26	0x3c24a913	0.010050076
27	0xbd04766d	-0.032339502
28	0x3bcccf9e	0.006250336
29	0xbb9fb522	-0.0048738876
30	0x3c55b83e	0.013044415
31	0xbc170669	-0.009217837
32	0xbb6c4acc	-0.0036055325
33	0xbc9dfbe5	-0.019285152
34	0x3ae8a188	0.0017748335
35	0x3cd210d6	0.025642794
36	0xbbeaf1ee	-0.0071699535
37	0x3b166bb0	0.002295237
38	0x3c807940	0.015682817
39	0xbce2ef94	-0.02770213
40	0xbce72496	-0.028215688
41	0x3c360ea9	0.011111894
42	0x3cb43171	0.021996232
43	0xbcf771d2	-0.030205641
44	0xbc9d5c45	-0.019209037
45	0xbc03e3a1	-0.008049876
46	0xbb49d6f2	-0.0030798283
47	0x3c73bc57	0.014876447
48	0xbc264aba	-0.010149652
49	0xbc679107	-0.014133698
50	0x39bf5040	0.0003649015
51	0x3b032665	0.0020011899
52	0xbc156221	-0.009117634
53	0xbc128495	-0.008942743
54	0x3c207ffe	0.009796141
55	0x3b6e61c4	0.003637419
56	0xbcb41a5c	-0.021985225
57	0xbc6f1529	-0.014592447
58	0x3bd5d2a2	0.0065253535
59	0x3c96f532	0.018427465
60	0x3d057cfc	0.032589898
61	0x3b026d0e	0.0019901427
62	0xbce20893	-0.02759198
63	0x3c7acdb4	0.0153078325
64	0x3b3428f6	0.0027490235
65	0x3c900186	0.017578851
66	0x3d1dd900	0.038537025
67	0x3bda9e96	0.006671737
68	0xbce42936	-0.027851682
69	0x3c279dd2	0.010230498
70	0x3c422712	0.011850135
71	0xbce6b2ad	-0.028161371
72	0xbcc6971d	-0.024241978
73	0x39f4c520	0.00046686176
74	0x3c8303d8	0.015993044
75	0x3c918a11	0.01776603
76	0x3c17687c	0.00924122
77	0x3c3b4658	0.0114303455
78	0xbc6741fc	-0.014114853
79	0xbc85becd	-0.016326332
80	0x3bfa93cf	0.0076470147
81	0x3d0ca582	0.034337528
82	0x3ac07cf2	0.0014685674
83	0xbc2a1c50	-0.010382727
84	0x3bae2ce9	0.0053154123
85	0xbc2eef00	-0.010677099
86	0x3c97401e	0.01846319
87	0xbbbc3201	-0.0057432656
88	0x3c0e3305	0.008679156
89	0x3c4421f6	0.011970988
90	0xbc70928c	-0.014683377
91	0x3c2758a6	0.0102140065
92	0xbc805cfe	-0.015669342
93	0xba82fc04	-0.0009993319
94	0x3c50eaf1	0.012751327
95	0xbb82abeb	-0.0039877794
96	0x3c38f55a	0.011288965
97	0xbca3d5cc	-0.019999407
98	0x3bc18cca	0.005906676
99	0x3b73040f	0.0037081277
100	0x3cb740cb	0.022369763
101	0xbc03de1d	-0.008048561
102	0x3c7dbd0b	0.015486966
103	0x3a93f5d4	0.0011288472
104	0xbbe1763d	-0.00688055
105	0xbbf66f59	-0.007520598
106	0xbaeb5024	-0.0017952961
107	0xbc0d9d8e	-0.008643521
108	0x3c3a1631	0.01135783
109	0xb98c7a50	-0.0002679401
110	0x3c8e0bdf	0.017339645
111	0xba31b130	-0.0006778417
112	0xbcbf2990	-0.023335248
113	0xbccdc44c	-0.025118016
114	0x3c9a7f85	0.018859634
115	0xbc82f276	-0.015984755
116	0xbcab2f7e	-0.02089667
117	0x3c177062	0.009243103
118	0x3c80fd88	0.015745893
119	0xbc278765	-0.010225152
120	0xbbe9f003	-0.0071392073
121	0xbd0b3015	-0.0339814
122	0xbc2c97ba	-0.010534221
123	0xbbc828b6	-0.0061083687
124	0xbca24dcd	-0.019812489
125	0xbc282bdb	-0.010264362
126	0x3bb41717	0.0054959166
127	0xbd0103ac	-0.031497642
128	0x3bba1e64	0.0056798924
129	0xbc0b9e24	-0.00852159
130	0x3baa0aa3	0.0051892563
131	0xbd26f2b8	-0.04075882
132	0x3bf0aa72	0.0073445374
133	0xbb9c2d96	-0.0047661765
134	0xbba4d0d0	-0.005029775
135	0x3d1fd5dc	0.03902231
136	0xbcb737d2	-0.022365484
137	0xbc249b4c	-0.010046791
138	0x3cabde91	0.020980151
139	0x3be0ddc2	0.006862373
140	0xbd32ef7e	-0.04368543
141	0xba4c85f0	-0.00078019407
142	0x3c9388e6	0.018009614
143	0xbc940be5	-0.018072078
144	0xbc95af90	-0.018272191
145	0x3b6886c4	0.0035480717
146	0xbc8d243e	-0.017229196
147	0x3c5039d0	0.012709096
148	0x3cf76df0	0.03020379
149	0x3d18d0b6	0.037308417
150	0xbbdebf78	-0.006797727
151	0xbba5f1ec	-0.0050642397
152	0x3c796b5e	0.015223352
153	0xbb817f20	-0.003951922
154	0xbc0ee324	-0.008721147
155	0xbae93248	-0.0017791474
156	0xbc58ea5d	-0.01323947
157	0x384be2fa	4.861036e-05
158	0xbbee9f86	-0.0072822003
159	0xbc294918	-0.010332368
160	0xbc9d0807	-0.019168867
161	0x3c26696d	0.010156971
162	0xbaaaa610	-0.0013019461
163	0x3c06ef32	0.00823574
164	0xbc9177ff	-0.017757414
165	0x3cdf4944	0.027256615
166	0x3c8cc5de	0.017184194
167	0xbc39d0c0	-0.011341274
168	0x3c6ddcfc	0.014518019
169	0xbc6d7004	-0.014492039
170	0xbb587d72	-0.0033033756
171	0xbce34e52	-0.027747307
172	0x3c9e81ac	0.019348942
173	0xbcc4ce75	-0.024024228
174	0x3c4480a1	0.011993558
175	0x3c9b99bb	0.018994203
176	0x3c45a674	0.012063611
177	0x3c9a460f	0.018832235
178	0xbb770c5d	-0.0037696578
179	0xbb7f4e6a	-0.003895665
180	0xb91c5658	-0.00014909485
181	0x3ca7091f	0.020390091
182	0xbc50ad31	-0.012736605
183	0x3c6af67b	0.014340992
184	0xbd2618bd	-0.040550936
185	0xb6e3fc00	-6.794464e-06
186	0x3c3da7ec	0.01157568
187	0x3c0993fb	0.008397098
188	0xbc457108	-0.0120508745
189	0xbb3a80a0	-0.0028458014
190	0x3c6deb1e	0.014521388
191	0x3c732401	0.014840127
192	0xbcaf94d9	-0.02143328
193	0x3bacb97a	0.005271134
194	0xbbd9f924	-0.0066520143
195	0x3cb9be66	0.022673797
196	0x3cb0f2ae	0.021600094
197	0x3b70f0f3	0.003676471
198	0x3b77497c	0.003773301
199	0x3c77c68d	0.015123022
200	0x3cc19694	0.023631372
201	0x3be527e8	0.0069932826
202	0xbba9d8a6	-0.005183297
203	0x3c5fd7b8	0.013662271
204	0xbc4d58c1	-0.012533368
205	0x3c117b40	0.008879483
206	0x3c510703	0.012758019
207	0x3addca9c	0.0016921344
208	0x3d1139d9	0.03545556
209	0x3beb1d48	0.0071751215
210	0x3ced8190	0.028992444
211	0x3b40f3f4	0.0029442282
212	0x3c3f61f6	0.011681071
213	0xbb6280de	-0.0034561674
214	0xbb2286f4	-0.0024799677
215	0xbc550f82	-0.013004186
216	0xbc23f626	-0.010007417
217	0x3b99e7d0	0.0046968237
218	0xbbe02268	-0.006840039
219	0xbc5fc1e0	-0.013657063
220	0x3b33952f	0.0027402153
221	0xbc056a7f	-0.008143066
222	0x3c999d5c	0.018751793
223	0x3cfbb815	0.030727426
224	0xbcacb4c8	-0.021082297
225	0x3d0238bc	0.031792387
226	0xbc9c5684	-0.019084223
227	0xbc7a8ee9	-0.0152928615
228	0x3bb073a6	0.00538488
229	0x3cbdcce5	0.02316899
230	0x3ba91a5c	0.005160613
231	0xbc33747e	-0.010953067
232	0x3c40f322	0.011776717
233	0xbc86826f	-0.016419617
234	0x3c6f3031	0.014598892
235	0xbc2dfd0e	-0.010619415
236	0xbb3be5d0	-0.0028670914
237	0x3aaebc24	0.0013331217
238	0x3ba3263e	0.004978924
239	0x3cb93d32	0.022612188
240	0xbc124ab1	-0.008928941
241	0x3a7c53d8	0.0009625531
242	0xbc4a5d6d	-0.012351376
243	0x3c2d2a3e	0.010569153
244	0x3c484c71	0.012225256
245	0x3ca5367a	0.020167578
246	0xbc866604	-0.016406067
247	0xbc56ef94	-0.013118643
248	0xbbe61e99	-0.0070226905
249	0xbd02f965	-0.031976122
250	0xbbdca588	-0.0067336
251	0xba13b6a8	-0.0005634823
252	0x3a729690	0.0009254003
253	0xbc063688	-0.008191712
254	0x3c66015a	0.014038408
255	0x3afb60e4	0.0019178656

bn1.running_var f4 [256]
0	0x3ddebc20	0.10875726
1	0x3df1b975	0.11802951
2	0x3dc112bf	0.09427404
3	0x3df4aa5b	0.11946555
4	0x3db26ed2	0.087125435
5	0x3dafd90a	0.08586319
6	0x3db2a234	0.08722344
7	0x3dce93f8	0.100868165
8	0x3de4b85d	0.11167977
9	0x3dbbe0a2	0.09173705
10	0x3db2c559	0.08729047
11	0x3de0183e	0.10942124
12	0x3dee35d6	0.11631362
13	0x3e6ca5c3	0.23110108
14	0x3dcb22a4	0.099187165
15	0x3dddc2ec	0.10828194
16	0x3d9b9c25	0.075981416
17	0x3e0d4914	0.13797408
18	0x3dbe33a5	0.09287194
19	0x3dda0148	0.10644776
20	0x3e09316d	0.1339776
21	0x3e00f366	0.12592849
22	0x3da8d26f	0.08243262
23	0x3e2c5b3e	0.16831681
24	0x3dcf3c44	0.10118917
25	0x3d97853f	0.073984616
26	0x3d9eca15	0.07753388
27	0x3d956403	0.07294466
28	0x3e1e168a	0.15438285
29	0x3dd7f7d2	0.10545315
30	0x3e067fd0	0.13134694
31	0x3d945388	0.07242495
32	0x3daa5168	0.08316308
33	0x3d5ac7b0	0.053413093
34	0x3e5a315c	0.21307892
35	0x3de7026d	0.112797596
36	0x3dd5776e	0.1042317
37	0x3da887af	0.082290046
38	0x3dd4671f	0.10371231
39	0x3e5b4df8	0.21416461
40	0x3deedd5d	0.116633154
41	0x3dc1e263	0.09467008
42	0x3df856fc	0.12125966
43	0x3d6e54b6	0.058186255
44	0x3e096cd8	0.13420427
45	0x3dd8d993	0.10588374
46	0x3dbc4913	0.09193625
47	0x3dfea13a	0.12433095
48	0x3dd614aa	0.1045316
49	0x3e385b03	0.18003468
50	0x3df4d859	0.119553275
51	0x3ddd6950	0.108111024
52	0x3da27c1a	0.07933827
53	0x3dea16f8	0.11430162
54	0x3da83838	0.08213848
55	0x3dd0f17d	0.1020231
56	0x3e1e84e7	0.15480386
57	0x3e39e65c	0.18154281
58	0x3e0ec5a7	0.13942586
59	0x3d86263e	0.06550263
60	0x3df19621	0.11796213
61	0x3d50c817	0.05097207
62	0x3e0b59eb	0.1360852
63	0x3e0e513b	0.13898174
64	0x3d7726c4	0.060339704
65	0x3dce2653	0.100659035
66	0x3d9e9414	0.077430874
67	0x3de0ee5c	0.109829634
68	0x3db8ddd5	0.09026686
69	0x3da278c0	0.079331875
70	0x3e0fcf1c	0.1404385
71	0x3d662be9	0.05619422
72	0x3de3ea2a	0.111286476
73	0x3db29d26	0.0872138
74	0x3df443f7	0.11927026
75	0x3e7a34ef	0.24434255
76	0x3e06588b	0.13119714
77	0x3de07bbe	0.10961102
78	0x3dbd6d48	0.09249359
79	0x3e0e8d80	0.13921165
80	0x3e0f5ddf	0.14000653
81	0x3dda153d	0.10648582
82	0x3dded45a	0.108803466
83	0x3d94e67f	0.07270526
84	0x3dc15f49	0.09442002
85	0x3e20ee3a	0.15715876
86	0x3e348fb4	0.17632943
87	0x3d943f64	0.07238653
88	0x3da8be52	0.08239426
89	0x3d9c90c1	0.07644797
90	0x3d89ca02	0.06727983
91	0x3dd2db35	0.10295717
92	0x3e1c913b	0.15289776
93	0x3dc83bd5	0.09777037
94	0x3e2c5f98	0.16833341
95	0x3de468ef	0.11152827
96	0x3dca03bd	0.09863994
97	0x3e369a6a	0.17832342
98	0x3df26506	0.11835675
99	0x3e0ed2b9	0.13947572
100	0x3de84912	0.11342062
101	0x3e19532c	0.14973134
102	0x3e09c0e5	0.1345249
103	0x3e02b156	0.12762961
104	0x3dc16cbb	0.09444567
105	0x3d7139d2	0.058893032
106	0x3d90c974	0.07069674
107	0x3e576ec0	0.21038342
108	0x3de90211	0.11377347
109	0x3d8a5bf7	0.06755822
110	0x3e0b2968	0.13590014
111	0x3df95296	0.12173955
112	0x3e23f1fe	0.16010281
113	0x3dd7639e	0.10517047
114	0x3dcb152a	0.09916146
115	0x3dc06296	0.09393804
116	0x3dd7e8f2	0.10542478
117	0x3d9afae3	0.07567384
118	0x3e3b5285	0.18293197
119	0x3e111e75	0.14171775
120	0x3dc7671a	0.09736462
121	0x3da78128	0.081789315
122	0x3d91e73f	0.07124185
123	0x3da65e9b	0.08123513
124	0x3d8e9d8c	0.069636434
125	0x3d8f05a9	0.069835015
126	0x3db61851	0.08891357
127	0x3db97913	0.09056296
128	0x3d6e0456	0.058109604
129	0x3e0ed92b	0.1395003
130	0x3d7c6b4f	0.061625775
131	0x3e2bdb95	0.16782983
132	0x3de05aa1	0.10954786
133	0x3e038e7b	0.1284732
134	0x3db73ae9	0.08946783
135	0x3def85f1	0.11695469
136	0x3dd11a87	0.10210138
137	0x3d8ccaf6	0.06874649
138	0x3e0d4c75	0.13798697
139	0x3e1dcbb8	0.15409744
140	0x3e06ccb2	0.13164023
141	0x3d92ca81	0.07167531
142	0x3e325c13	0.17417936
143	0x3e0458b0	0.12924457
144	0x3e17153a	0.14754191
145	0x3dc57287	0.09640985
146	0x3d91656b	0.07099422
147	0x3e26b735	0.16280825
148	0x3e4b076d	0.19827051
149	0x3dec0079	0.11523528
150	0x3e2412c8	0.1602279
151	0x3dc757b8	0.09733528
152	0x3d9645e2	0.07337548
153	0x3e4ff61d	0.20308729
154	0x3df91790	0.12162697
155	0x3da48265	0.08032683
156	0x3dd5a1e9	0.104312725
157	0x3d85db93	0.06536021
158	0x3df04d21	0.11733461
159	0x3e2f6a8a	0.17130485
160	0x3e14321e	0.14472243
161	0x3e1129f0	0.14176154
162	0x3d610d7c	0.0549445
163	0x3d854107	0.065065436
164	0x3d845aba	0.06462617
165	0x3e1d8551	0.15382887
166	0x3df5512a	0.119783714
167	0x3e2c1d04	0.16807944
168	0x3dfe24e9	0.12409384
169	0x3e19998b	0.14999978
170	0x3e1b998b	0.1519529
171	0x3e3ee269	0.18641056
172	0x3e1f2189	0.15540136
173	0x3e22c75b	0.1589636
174	0x3db644fe	0.08899878
175	0x3dc01a51	0.093800195
176	0x3dac6009	0.08416755
177	0x3dc96ec6	0.098355815
178	0x3d7855b6	0.060628615
179	0x3de846c6	0.11341624
180	0x3dc74b7e	0.09731196
181	0x3deb9f14	0.11504951
182	0x3dbccb8b	0.0921851
183	0x3dd1cdb2	0.102443114
184	0x3dfa2a32	0.12215079
185	0x3e17f600	0.14839935
186	0x3e0b5f1c	0.136105
187	0x3d92bc1b	0.071647845
188	0x3dd66727	0.104688935
189	0x3da9c513	0.08289542
190	0x3ddebddb	0.10876056
191	0x3daacc00	0.08339691
192	0x3ddf5842	0.10905506
193	0x3e3eaffe	0.18621823
194	0x3d9ef168	0.07760888
195	0x3e2d5d96	0.16930231
196	0x3e34eab1	0.17667653
197	0x3dd005a4	0.10157326
198	0x3e0d9867	0.13827668
199	0x3d5113c4	0.05104424
200	0x3db7e323	0.0897887
201	0x3e133b2c	0.14378041
202	0x3df4fcc3	0.11962273
203	0x3d8b6550	0.06806433
204	0x3ea59378	0.32339072
205	0x3e0e125e	0.13874194
206	0x3daa5033	0.08316078
207	0x3da0f521	0.07859255
208	0x3e59307b	0.212099
209	0x3db03dfd	0.08605573
210	0x3e126954	0.14297992
211	0x3db55aca	0.08855207
212	0x3d959e67	0.073056035
213	0x3de9ffec	0.11425766
214	0x3e15acb1	0.14616658
215	0x3e0bd2e3	0.13654666
216	0x3de18ac3	0.11012795
217	0x3df07551	0.11741126
218	0x3db422cf	0.08795702
219	0x3de7aaec	0.11311898
220	0x3dcbc940	0.09950495
221	0x3d3fb873	0.046806764
222	0x3e0b0452	0.13575867
223	0x3e17d12e	0.1482589
224	0x3e1c9954	0.15292865
225	0x3dfd2bfa	0.123619035
226	0x3dadf4c9	0.08493955
227	0x3dd02d51	0.101648934
228	0x3da7522e	0.081699714
229	0x3dcef69a	0.10105629
230	0x3dda53fc	0.1066055
231	0x3e1506b8	0.14553344
232	0x3de5a958	0.112139404
233	0x3dde9a17	0.10869234
234	0x3e02f99d	0.12790532
235	0x3dddfa86	0.10838799
236	0x3df365fa	0.11884685
237	0x3dd0cb37	0.1019501
238	0x3daaca17	0.08339327
239	0x3dc5496d	0.096331455
240	0x3dd711cb	0.105014406
241	0x3e861daf	0.26194522
242	0x3de5d3aa	0.11222012
243	0x3da7a528	0.08185798
244	0x3e0d8cc9	0.13823237
245	0x3dd6857c	0.10474679
246	0x3e1a2018	0.15051305
247	0x3e1ea367	0.1549202
248	0x3dcbdbb3	0.09954014
249	0x3daa651a	0.08320065
250	0x3dfb2209	0.12262351
251	0x3e3a06dc	0.18166679
252	0x3e21a616	0.15786013
253	0x3deb2c19	0.1148302
254	0x3e2368ac	0.15957898
255	0x3d9a721f	0.07541298

fc2.weight f4 [128, 256]
0	0xbd17f5c7	-0.037099626
1	0x3ddabb5f	0.106802694
2	0x3bbfc304	0.005852105
3	0x3d7b691d	0.06137954
4	0xbc86d320	-0.016458094
5	0xbc894f99	-0.016761588
6	0xbc505d8b	-0.012717615
7	0xbcdc7a52	-0.026913796
8	0xbc2f2672	-0.010690318
9	0xbd233752	-0.03984768
10	0xbd8ec746	-0.06971602
11	0xbd3028a3	-0.043007504
12	0x3d321c50	0.043484032
13	0x3d212a4f	0.03934699
14	0x3c289ccd	0.0102912905
15	0xbc5fdd78	-0.013663642
16	0x3c90c0a8	0.01766999
17	0x3d4a9222	0.04945577
18	0xbd990f30	-0.074736
19	0x3d119778	0.035544842
20	0x3d5896eb	0.0528783
21	0xbd882644	-0.066479236
22	0x3cfcdfea	0.03086849
23	0x3cca518c	0.024697088
24	0x3d49fcdc	0.04931341
25	0x3cb854f2	0.022501443
26	0x3c98947a	0.018625487
27	0x3d6d683b	0.05796073
28	0x3cbd26fe	0.023089882
29	0xbd5de74c	-0.05417566
30	0x3c853bf8	0.016263947
31	0xbc839d20	-0.016066134
32	0xbd5e96ca	-0.054343022
33	0xbd8fb987	-0.070178084
34	0xbcf0e9e4	-0.029408403
35	0xbd1f4b38	-0.038890094
36	0xbd9bb05e	-0.07601999
37	0x3d79c712	0.060980864
38	0x3cac1a9c	0.021008782
39	0x3d51efaa	0.051253952
40	0x3c5e76dd	0.013578144
41	0x3d21b3cc	0.03947811
42	0xbd3ba7d3	-0.045814347
43	0xbd7b979a	-0.061423875
44	0x3c843b86	0.016141664
45	0xbcfb743d	-0.030695075
46	0x3cdb60f0	0.026779622
47	0xbcb409c0	-0.021977305
48	0xbd8c5b2a	-0.06853326
49	0xbd30ec96	-0.043194376
50	0x3d4bbc5c	0.04974018
51	0x3d15b098	0.036545366
52	0x3b223058	0.0024748053
53	0x3d0f4e22	0.034986623
54	0x3c99cf18	0.018775508
55	0x3cb1b196	0.021691125
56	0x3bfac81f	0.007653251
57	0xbd0f7c5b	-0.035030704
58	0x3c5142dd	0.012772289
59	0xbce8f8fa	-0.028439034
60	0x3d65e3fa	0.05612562
61	0xbce348f2	-0.027744744
62	0x3b545fa5	0.0032405641
63	0x3bcaf937	0.0061942595
64	0xbd5e4bc6	-0.054271482
65	0x3bcab6ae	0.006186328
66	0xbce8d178	-0.028420195
67	0xbcc40587	-0.023928417
68	0xba63fd46	-0.00086971035
69	0x3ce94f47	0.028480185
70	0x3d6d12bc	0.057879195
71	0x3c20a560	0.0098050535
72	0x3b3d1f2c	0.0028857691
73	0x3d382838	0.04496023
74	0xbc9819a1	-0.018566908
75	0x3d48de8c	0.049040362
76	0xbdba0b40	-0.09084177
77	0x3d1aabe9	0.037761603
78	0xbc8f7b85	-0.017514953
79	0xbc08c374	-0.008347381
80	0xbd048e39	-0.032362197
81	0xbd0d3f89	-0.03448442
82	0x3d38676f	0.045020517
83	0xbd560de2	-0.052259333
84	0xbb318c76	-0.0027091778
85	0xbbb1cc46	-0.0054259626
86	0x3d1f4077	0.038879838
87	0xbb97afce	-0.004629112
88	0xbb146cf5	-0.0022647951
89	0x3d319004	0.043350235
90	0xbb1fb02c	-0.0024366481
91	0x3cfc9176	0.03083108
92	0xbb437534	-0.0029824497
93	0x3bd37930	0.0064536557
94	0x3d5afb21	0.05346215
95	0xbc780372	-0.01513754
96	0xbb9bb83a	-0.004752186
97	0xbcf502b2	-0.029908512
98	0xbb222ed2	-0.0024747145
99	0xbcd3e024	-0.025863715
100	0x3d3903c4	0.045169607
101	0xbd50f9bc	-0.051019415
102	0xba168282	-0.0005741493
103	0xbb6049ba	-0.0034223632
104	0xbd636c8c	-0.05552344
105	0xbc142244	-0.009041373
106	0x3b980724	0.004639523
107	0xbcc6450b	-0.024202844
108	0xbce05af2	-0.027387116
109	0xbcb32a08	-0.021870628
110	0xbc55f10f	-0.013057961
111	0xbc43fc72	-0.011962043
112	0xbbafc4e7	-0.0053640488
113	0x3d242295	0.040072042
114	0xbc880e1c	-0.01660829
115	0xbd741034	-0.059585765
116	0xbcf55ec3	-0.029952412
117	0xbd6908c7	-0.056893136
118	0x3da27017	0.07931536
119	0xbccea001	-0.02522278
120	0xbbf32f32	-0.0074213976
121	0x3c2ade6e	0.010429008
122	0xbc2f0f89	-0.010684856
123	0x3c0326be	0.008004842
124	0x3d9640f2	0.07336606
125	0xbc838f1e	-0.016059455
126	0xbac2410a	-0.0014820409
127	0xbd2ff58a	-0.042958774
128	0xbd23a6ad	-0.039953876
129	0xbd5eb996	-0.054376207
130	0x3c7b87f4	0.015352238
131	0xbd03b882	-0.032158382
132	0x3c781e94	0.015144009
133	0xbc97a1b7	-0.018509729
134	0x3b14d6dd	0.0022711076
135	0x3d2930b7	0.041306224
136	0xbd7f0eea	-0.062270083
137	0xbd0c5165	-0.03425731
138	0x3d0a916f	0.033830103
139	0xbd632612	-0.05545623
140	0x3b6cac1d	0.003611333
141	0xbbbef738	-0.0058278106
142	0xbd265ebc	-0.04061769
143	0xbd18b6d6	-0.03728374
144	0xbd075de8	-0.03304854
145	0xbc7e67ba	-0.01552766
146	0x3d595c18	0.053066343
147	0x3d696c3e	0.056987993
148	0x3ab3b216	0.001370969
149	0x3c45457e	0.012040494
150	0xbd614985	-0.055001754
151	0xbd499398	-0.049213022
152	0x3c9fca4a	0.019505639
153	0x3d26752f	0.0406391
154	0x3d76ad8c	0.0602241
155	0xbd785b5c	-0.060634002
156	0x3cec6033	0.028854465
157	0xbd6420f3	-0.055695485
158	0xbca459a5	-0.020062277
159	0x3c66d2f0	0.014088377
160	0xb8324390	-4.250143e-05
161	0x3ca59fc1	0.020217778
162	0x3d5c6dc4	0.05381562
163	0xbc5ac7da	-0.013353312
164	0x3c6ce62a	0.014459172
165	0x3ce385d4	0.027773775
166	0xbd51f2fc	-0.05125712
167	0xbd262b26	-0.040568493
168	0x3d770f0d	0.060317088
169	0x3d7a3d7b	0.06109379
170	0xbdfb79ac	-0.122790664
171	0x3d3d3a1a	0.046197988
172	0x3ca0051d	0.019533688
173	0xbca35c09	-0.019941347
174	0x3d24167a	0.040060498
175	0xbd8816bc	-0.06644961
176	0x3d47eba9	0.048808727
177	0x3c4515d6	0.012029132
178	0xbcd4cbb3	-0.025976038
179	0x3d73ab94	0.0594898
180	0x3b948657	0.004532616
181	0xbd0f46f5	-0.03497978
182	0xbc4f0b90	-0.012637034
183	0xbcc1bc6a	-0.023649413
184	0xbda3cd42	-0.07998134
185	0x3a6f929c	0.0009138973
186	0xbd226857	-0.039650287
187	0xbd9721bb	-0.073794805
188	0xbb008515	-0.0019610573
189	0xbd9e4e1f	-0.07729744
190	0xbb09fd38	-0.002105547
191	0xbc4e0ed4	-0.0125767775
192	0x3cbaa5c0	0.022784114
193	0xbcc2f958	-0.023800537
194	0x3c904cbe	0.017614719
195	0xbc1d0437	-0.009583524
196	0x3d839709	0.06425292
197	0xbb5f4982	-0.0034070914
198	0xbd23651a	-0.03989134
199	0x3d2da682	0.042395122
200	0x3b3ef8c1	0.0029139968
201	0x3ceef40c	0.029169105
202	0xbd82a42f	-0.06378972
203	0xbd022be8	-0.031780154
204	0xbc7455a2	-0.014912995
205	0x3d50fac1	0.051020388
206	0xbd9d2ef6	-0.07674973
207	0x3d0b38d5	0.033989746
208	0xbbaa13e1	-0.005190358
209	0xbc9d189c	-0.019176774
210	0xbd30f57d	-0.043202866
211	0x3dd1f30e	0.10251437
212	0xbc1e600d	-0.009666455
213	0xbda7e988	-0.081988394
214	0xbd1551d4	-0.03645499
215	0xbb7c05c8	-0.0038455594
216	0xbd59b013	-0.053146433
217	0x3cb1b07b	0.021690598
218	0xbca0ee17	-0.01964478
219	0xbd3aaae0	-0.045573115
220	0x3d623690	0.055227816
221	0xbd180fa9	-0.03712431
222	0xbcbc5499	-0.022989558
223	0xbba3f49e	-0.005003526
224	0xbcebe483	-0.028795486
225	0xbd4358b8	-0.04769203
226	0xbcd5c862	-0.026096527
227	0xbd38b9c7	-0.045099046
228	0xbb97d577	-0.0046336013
229	0x3d7fd504	0.062459007
230	0xbd587760	-0.05284822
231	0x3cf021c0	0.029312968
232	0xbd0ff0ef	-0.03514188
233	0x3bb42a92	0.005498239
234	0xbd70fb07	-0.05883315
235	0x3d0d87c9	0.034553323
236	0xbda0ea7d	-0.07857225
237	0xbb681e14	-0.0035418319
238	0x3a4f5568	0.000790915
239	0xbd1c5e3c	-0.038175806
240	0xbd40759c	-0.04698716
241	0x3d2c1bdb	0.042018753
242	0xbd0d9666	-0.03456726
243	0xbca9e8a3	-0.020740813
244	0xbbfe1cff	-0.0077549214
245	0x3c0eadee	0.00870846
246	0xbdc18245	-0.09448675
247	0xbd835ac4	-0.064137965
248	0xbcb90099	-0.022583293
249	0xbc7f7e57	-0.015594087
250	0xbd229fcf	-0.039703187
251	0x3c4dc286	0.012558585
252	0xba9b510a	-0.0011849713
253	0xbb38902d	-0.0028162107
254	0xbd25f2ff	-0.040514942
255	0xbd5810fe	-0.05275058
