tryst/model_round_7.pth (torch, 193715 bytes, 19 tensors)

fc1.weight f4 [256, 13]
000000 46 a7 c4 bd a3 8e 57 be 9e 17 30 be 12 fc 16 3d
       -0.096022174 -0.21050505 -0.17196509 0.036861487
000010 80 bf 00 bc dc 93 9b bc 17 81 8e bc 25 ba 18 3e
       -0.007858157 -0.018991403 -0.01739554 0.14914759
000020 96 64 c6 bd a9 f9 82 be 36 f8 38 be de 67 2b be
       -0.09687154 -0.255811 -0.18063435 -0.16738841
000030 b2 ad f7 bc 55 13 e4 bd d2 9d f6 bd 80 1e fc bd
       -0.030234192 -0.111365 -0.120418206 -0.12310505
000040 1d 7d 20 bd da 9f 30 bd 33 23 31 be 83 f7 d6 bd
       -0.039181817 -0.043121196 -0.17298584 -0.10496428
000050 41 08 08 be a0 92 f2 bd 2e fc 7c 3d c6 cd cf bc
       -0.13284399 -0.11844373 0.061763935 -0.025366675
000060 78 95 81 3e 7e bd a8 3d 5a f4 24 be 0f e1 1d 3e
       0.25309348 0.08239268 -0.16108838 0.15417884
000070 88 0e 36 3e f9 91 86 be 95 14 8d 3b d4 d9 29 be
       0.1777898 -0.26283243 0.004305432 -0.16587001
000080 4e 48 7f 3c 0a b3 20 3e 03 e7 52 bd 5d 8f 64 3e
       0.015581204 0.15693298 -0.05148984 0.22320314
000090 c2 db 2c be ea c4 98 bd 64 ca 53 3d 38 8a 62 be
       -0.16880706 -0.074594334 0.051706687 -0.22123039
0000a0 e4 2e fa bc 74 0e 8d 3e f5 67 e8 bd c2 ea 72 3d
       -0.030539937 0.2755009 -0.11347953 0.059305914
0000b0 a7 e3 56 3e 85 04 2d 3e d7 d4 cb bd ec d5 8c 3e
       0.2098528 0.16896255 -0.09952705 0.2750696
0000c0 9f 74 fc 3d 66 9d 6a 3e 2b fd 64 3e e0 ed 59 be
       0.12326931 0.22911605 0.22362201 -0.21282148
0000d0 70 bd 0d 3e 66 df 5d 3d 44 68 c9 bd 62 83 aa 3c
       0.13841796 0.054168127 -0.0983434 0.020814601
0000e0 bb ba 62 3e 1e 65 b0 bb 69 df 3b 3e 6d 4a 1a 3e
       0.22141545 -0.005383148 0.18346943 0.15067454
0000f0 25 b5 05 3e fa 91 f0 bd ad 97 86 bd a4 73 5b be
       0.13057382 -0.11746593 -0.065718986 -0.21430832
000100 3c 58 9a bd ad 10 9d bc 4f 37 84 be a6 40 1c be
       -0.075363606 -0.01917299 -0.25823447 -0.15259036
000110 da 4b 3a be ad 94 20 be 05 58 81 3e ba f3 79 be
       -0.18192998 -0.15681715 0.25262466 -0.2440938
000120 f4 58 4d be c6 2a 90 3d 40 c3 7a be 3b 21 e4 3d
       -0.20053464 0.070394084 -0.24488544 0.11139151
000130 9f 8c 24 3e d2 ab b6 bc c0 2e 16 3e dc 1e e9 bd
       0.16069268 -0.022298727 0.14666271 -0.11382839
000140 5e 76 1f 3e 50 de 2e 3e d8 f0 8b be 16 04 fb bc
       0.15572497 0.17076993 -0.27332187 -0.030641597
000150 97 3a 52 3d 94 67 da bd 0c 47 8c bd 16 18 53 bd
       0.051325407 -0.10664287 -0.068494886 -0.051536642
000160 d5 73 77 3e 23 09 30 be b4 55 8b 3e 4a 19 76 bc
       0.2416528 -0.17190985 0.27213824 -0.015020678
000170 d6 9c 4e bc e7 23 f1 bd d0 1a e3 3d 8d f1 2c bd
       -0.012610635 -0.11774426 0.110890985 -0.04222255
000180 bf aa 3b 3d b4 4d 2f be ba 61 be bd 72 13 cf 3c
       0.045817133 -0.17119485 -0.092959836 0.025277827
000190 2a 2f 04 3d 84 35 3f 3e c7 81 08 3b 6d 4f ca bd
       0.03227154 0.18672758 0.0020829306 -0.098784305
0001a0 98 05 ea 3d c4 78 97 3b 5c 80 3e bd 1b d1 81 3e
       0.11426848 0.0046225507 -0.04650913 0.25354847
0001b0 66 8c 17 3e f5 69 81 be 3d fb 89 be 21 45 45 3d
       0.14799652 -0.2527615 -0.26949492 0.04816163
0001c0 24 76 1c be 74 ee 70 be 60 33 e6 3d 2a 30 69 be
       -0.15279442 -0.23528463 0.11240268 -0.2277228
0001d0 9d a7 17 be 8c 71 f4 bd 00 3d 94 3d e2 f8 8b 3b
       -0.14810033 -0.1193572 0.07238197 0.0042716125
0001e0 ed 16 89 3e 28 05 26 be d4 ef 25 be de 41 d9 bd
       0.26775303 -0.16212904 -0.16204768 -0.10608266
0001f0 b0 03 31 3d 0d 22 cf bc 36 1d 69 3e 90 86 56 3d
       0.043216407 -0.025284791 0.2276505 0.052374423
000200 66 39 75 3e 57 af 02 bc 8d 8d 1f be 66 ef c1 bc
       0.23947677 -0.007976375 -0.15581341 -0.023673724
000210 20 e8 3d 3d f4 45 75 3e f2 16 c3 3d a3 30 bf 3d
       0.04636395 0.23952466 0.09525861 0.093354486
000220 b0 87 90 bc 8d 26 93 3d 4f 58 e2 bd f8 e7 de 3b
       -0.017642826 0.07185087 -0.11052 0.006802555
000230 d0 59 0c 3d 83 7b b1 bd 50 28 ff bd ee 28 ea 3d
       0.03426534 -0.08666136 -0.12458861 0.11433588
000240 9e 83 33 bc e1 3a 60 3e 41 fe 02 be bf da 58 3e
       -0.010956673 0.2189746 -0.12792303 0.21177195
000250 74 5b 12 3e b4 7f 69 bc 50 9b 74 be 83 38 88 bd
       0.14292699 -0.014251638 -0.23887372 -0.06651404
000260 42 09 15 3e 6e 75 6c 3e 08 e3 20 be 0c 6a 62 bc
       0.14554313 0.23091671 -0.15711606 -0.013819229
000270 4a c7 4d be 6e 01 20 3d 99 71 84 bb a6 97 03 3e
       -0.20095554 0.039063863 -0.004041862 0.12850818
000280 12 3c 14 be a2 b9 52 be a2 83 82 3d 72 5a 8c be
       -0.1447604 -0.20578626 0.06372763 -0.27412754
000290 08 a9 2a 3e 6e fc 08 3a 54 17 87 3e 39 03 16 3e
       0.16666043 0.0005225603 0.26384985 0.14649667
0002a0 72 d5 6c 3e 44 7a 83 3e 3d 26 8b bd 46 a4 62 3e
       0.23128298 0.2567922 -0.06794403 0.22132978
0002b0 4b 05 09 be 64 99 d2 3c c6 d7 a5 3d 46 cb ed bd
       -0.13380925 0.025707908 0.08097796 -0.11611037
0002c0 c2 ff 46 be 60 f1 4c 3e 2a 7a 4c 3e 85 d8 05 3b
       -0.19433501 0.20013952 0.19968477 0.0020423245
0002d0 d0 78 fb b9 2b 18 1b bc d0 88 5b 3c e3 d4 70 3e
       -0.00047964463 -0.009466211 0.013399318 0.2351871
0002e0 92 2d 88 bb ad bf 66 be 9c 2b 80 be 7a 07 66 be
       -0.004155823 -0.22534056 -0.2503327 -0.2246379
0002f0 d8 94 82 3e 2b 14 bc bd 8a e5 04 be a8 15 46 3c
       0.25504184 -0.09183534 -0.12978187 0.012090124
000300 da 47 5b 3e b5 a1 bf 3c 7a d8 8b 3e 04 29 7a be
       0.21414128 0.023392538 0.27313596 -0.24429709
000310 a2 62 4c 3e f9 d1 1b 3e 98 fd ef bd 24 19 37 be
       0.199595 0.15216817 -0.11718291 -0.17880684
000320 34 14 74 be a0 cd 39 3e 40 cf 6d 3e 5c 1f fb bd
       -0.23835832 0.18144846 0.23223591 -0.12261841
000330 3f 56 f7 bb 32 0b 46 3e 44 30 25 3c 46 7d ba 3d
       -0.007548123 0.19340208 0.010082308 0.09105925
000340 b4 0f 5f be 9e 36 74 be 52 15 b0 3d 7f 68 7e 3e
       -0.21783334 -0.2384896 0.085978165 0.2484455
000350 67 cc 52 3e 88 4e e7 3d 38 60 88 be c0 ec 2e be
       0.20585786 0.112942755 -0.2663591 -0.170825
000360 21 13 ab bc 13 70 87 be 2c 64 fa 3d d1 08 95 bc
       -0.020883145 -0.26452693 0.122261375 -0.01819268
000370 80 23 73 be ec bf 89 be 50 9f e3 3c 6d ce 82 3e
       -0.23744011 -0.26904237 0.027785927 0.25548115
000380 02 b2 c7 bc c0 ce 6e 3e 6d 9f 8a 3e d7 d0 44 3e
       -0.024376873 0.23321056 0.27074757 0.19220291
000390 12 b3 a8 3d ce d5 90 3c 12 76 21 3e f7 21 3d be
       0.0823728 0.017680075 0.15767696 -0.18469988
0003a0 97 00 a4 bb ee 55 66 be 85 a4 85 3e e6 7f 84 3e
       -0.005004953 -0.22493717 0.2610208 0.2587883
0003b0 7f cc f8 bd 14 9c 46 3e 24 21 79 bd 12 ff 93 3d
       -0.121483795 0.19395477 -0.06082262 0.07226385
0003c0 3e 89 41 be 6c 8c 6e be 40 64 ec 3d a0 12 43 bd
       -0.1890001 -0.23295754 0.11542559 -0.047625184
0003d0 30 64 12 be 9a 43 7a be 1a c3 06 3d 14 3a 77 3d
       -0.14296031 -0.2443985 0.032900907 0.060358122
0003e0 22 86 0d 3e 85 a9 f8 3d 86 15 e2 bd 6f 5f fa 3d
       0.13820699 0.12141708 -0.110392615 0.12225234
0003f0 cf bb 05 3e 32 c0 40 3d 44 bb 7d 3e 87 c1 a8 bb
       0.13059925 0.04705829 0.24778467 -0.0051500234

fc1.bias f4 [256]
000000 f6 be 31 be fb 7a f5 bd a5 c7 07 be de ae 94 38
       -0.17358002 -0.11986347 -0.13259752 7.0897615e-05
000010 8d 47 ec bd 40 0d ec 3d cb dd 13 3e b2 6c 34 3e
       -0.11537085 0.11525965 0.14440076 0.17619589
000020 c7 63 30 be 04 d1 db 3d 81 6e 10 be 4f 4a 5b be
       -0.17225562 0.10733226 -0.14104654 -0.21415065
000030 79 dc b0 bd d4 23 27 3e 58 79 3d bd d8 eb 39 be
       -0.08635802 0.16322261 -0.0462583 -0.18156374
000040 1e f3 05 bd ce bb c6 3d 6a 9f 1a be 27 13 5d 3d
       -0.032702558 0.0970379 -0.15099874 0.053973343
000050 56 1c 4c 3e 41 c0 74 be 8e 22 f1 bd 60 f3 53 39
       0.19932684 -0.23901464 -0.11774169 0.00020213192
000060 4f b3 99 bd 4c 89 64 3e 68 e8 11 3e 1a 78 76 be
       -0.075049035 0.22318 0.14248812 -0.24069253
000070 12 b4 07 3e 5b 8c 29 be 26 fe f6 3d 97 7f 40 bd
       0.13252285 -0.16557448 0.12060194 -0.04699668
000080 74 a7 43 3e f0 a7 41 be 4a c4 5e 3d 88 97 dc 3d
       0.19106847 -0.1891172 0.054386415 0.1077109
000090 cf 04 e5 3d d3 5b 12 be 8a 0b 2f be e6 4d e3 bc
       0.11182558 -0.1429284 -0.17094246 -0.027747106
0000a0 2f 60 16 bd 02 45 98 bd 0c a6 19 3e e7 ca 55 3d
       -0.03671282 -0.07435037 0.15004748 0.052195456
0000b0 30 8f 35 38 6a b8 d3 3d e5 fa 93 3d 0a b9 bd 3d
       4.3287117e-05 0.103379086 0.07225589 0.09263809
0000c0 5a 4f 04 3d 1b a0 00 be 4d 87 0c 3e 9b 7c 7b be
       0.032302238 -0.12561075 0.13723488 -0.24559252
0000d0 43 27 62 3e 32 0f 70 3e ec a0 6c be a5 29 b5 3d
       0.2208529 0.23443297 -0.23108262 0.08845834
0000e0 46 e9 95 bd 7b e4 76 3e ba bf 7f 3d c9 51 a3 bc
       -0.07319884 0.24110596 0.062438704 -0.01993646
0000f0 f9 6b a1 3d 53 b6 14 3e 96 7c d2 bb d4 ae 2a 3e
       0.07881922 0.14522676 -0.006423543 0.16668254
000100 23 aa 74 3e be ca b1 3d 4a 86 79 3b d7 60 d3 b6
       0.23893027 0.08681248 0.0038074427 -6.2995637e-06
000110 ac 4b b3 bd b4 13 64 3e 72 60 58 3c bf cc 74 3d
       -0.08754668 0.22273141 0.013206588 0.059765574
000120 71 1d be bd 47 c6 58 bd 0d 43 99 bd d9 35 65 3e
       -0.09282959 -0.052923467 -0.07483492 0.22383823
000130 4b 76 5a 3e 0c d5 45 bb 45 18 5b bd 5a bc 7f 3d
       0.21334188 -0.00301868 -0.053489942 0.062435485
000140 26 17 22 3e 80 0e ec bb e2 81 27 be 24 87 08 3e
       0.15829143 -0.007203877 -0.1635814 0.13332802
000150 10 09 33 be 84 c7 6c 3e 63 70 80 be 28 69 4e 3e
       -0.17483926 0.23122984 -0.25085744 0.20157301
000160 8e e4 c7 3d 56 77 76 be 46 8a 36 3d 0c ea 38 be
       0.0976039 -0.2406896 0.04456546 -0.18058032
000170 d4 88 26 be 0a 34 26 be 68 99 1d b8 06 26 60 3e
       -0.16263133 -0.16230789 -3.7574588e-05 0.21889505
000180 c0 aa 0a 3e 80 4d 95 3c 26 18 12 3e 02 7f 9b 3c
       0.13541698 0.018225431 0.14267024 0.01898146
000190 42 4a 8b bd af b0 80 be ac 31 b7 bd fb 85 42 3e
       -0.06801273 -0.251348 -0.08945021 0.18996422
0001a0 ca 2c 76 3e 98 a1 49 3e fc 5d 83 b7 20 29 51 bd
       0.24040523 0.1969055 -1.5660182e-05 -0.05106461
0001b0 54 2e 3f be d6 de 6c be a3 4b 96 bd 5e da 6b be
       -0.18670017 -0.2313188 -0.07338645 -0.23032519
0001c0 c2 b1 81 be 33 3b 78 3e 8c 5f 78 3c ef 40 83 3d
       -0.2533093 0.24241333 0.015159499 0.064088695
0001d0 49 f2 5d be 60 81 ba bc a6 8e 36 be 32 b4 02 3e
       -0.21674456 -0.022766769 -0.17827854 0.12764052
0001e0 be f1 0c bb 3f 0b e7 bb b6 50 fd 3d 96 12 52 3c
       -0.0021506394 -0.007050901 0.1236891 0.012821814
0001f0 ed 9d d3 3d d6 3a 94 3b c0 d5 bc 3c 33 31 89 3d
       0.10332856 0.0045236154 0.023051143 0.06698837
000200 a5 41 fa bd 3d 8d a4 3d cb 17 d1 bb 56 5d b0 38
       -0.12219552 0.080347516 -0.00638101 8.409719e-05
000210 8d ff 05 be 37 18 32 3e 8f 19 42 be 78 a4 6d be
       -0.13085766 0.1739205 -0.18955062 -0.23207271
000220 ef 2f b0 3d bc 65 e0 3d 9a b1 da bd fd 03 2b be
       0.086028926 0.10956904 -0.10678406 -0.1670074
000230 8d 1a 5b be c4 74 f0 3d ce 46 fb 3d ff 5b 34 be
       -0.21396847 0.11741021 0.12269364 -0.17613219
000240 14 71 d3 bd e5 e1 ff bc c5 ba 0c 3e 42 e4 46 be
       -0.10324302 -0.031235645 0.13743122 -0.19423011
000250 c3 39 28 3e e4 b0 a4 3d d9 62 44 be d6 41 7c be
       0.16428284 0.08041552 -0.19178332 -0.2463449
000260 70 dd cd bd e6 e8 80 be 8a 38 15 3e 9f 16 d3 3d
       -0.100520015 -0.25177687 0.14572349 0.10307049
000270 01 22 57 3e 0e c5 61 3e 04 8a 01 be 31 bf 99 bd
       0.21009065 0.22047827 -0.12650305 -0.0750717
000280 04 4c 6a bd f9 4c 1b 3e a6 d8 7a 3e e6 39 d4 3d
       -0.0572014 0.15166081 0.24496707 0.10362606
000290 8a 8d 1d 3e a5 4f 03 be 89 a7 6d be 88 1a 7b 3c
       0.15386024 -0.1282335 -0.23208441 0.01532615
0002a0 89 8b 91 bd 26 45 54 3e 73 70 34 be 74 79 67 3e
       -0.07106692 0.20729503 -0.17621021 0.22604924
0002b0 9e 9a 61 3e bd 73 eb bc 58 4f 01 be 62 e3 45 bb
       0.22031638 -0.028741712 -0.12627923 -0.0030195345
0002c0 8e 7c c6 3c 35 77 87 bd 15 26 0f be e9 f7 aa 3d
       0.024229314 -0.06614534 -0.13979371 0.08348066
0002d0 2d 6d 0f 3e f8 30 e8 b7 ba 56 54 3e 70 a4 4f be
       0.14006491 -2.7679358e-05 0.20736209 -0.20277572
0002e0 4c c2 6e 39 cd c0 79 be 50 ec 4a be f4 18 4c 3d
       0.0002276983 -0.24389954 -0.19816709 0.049828485
0002f0 0b e0 4f be c3 5b 1b 3e c2 40 bb bd 1d 16 22 3e
       -0.2030031 0.15171723 -0.09143211 0.15828748
000300 d1 9f 2d be 1f b0 a2 bc f6 41 91 3c cc f5 3b be
       -0.16955496 -0.019859372 0.017731648 -0.18355483
000310 52 2f 92 3d de 31 5f 3e c1 47 9c bd 93 f7 0f 3e
       0.07137932 0.21796367 -0.076308735 0.14059286
000320 34 fc d2 3d 58 ec e9 3c a2 3b 39 be 89 3d 0a 3e
       0.1030201 0.02855508 -0.18089154 0.13500036
000330 3a f2 c5 bd 38 bc c7 3d 6d ea 19 be 56 36 79 3d
       -0.09665342 0.09752697 -0.15030833 0.060842834
000340 50 64 f3 bd 5a f7 b9 bd 3e cf 70 3e 46 ad d4 3c
       -0.118843675 -0.09080382 0.23516557 0.02596153
000350 08 49 97 bc 48 00 f3 3c ef 90 2e 3e 08 b1 4a be
       -0.018467441 0.02966322 0.17047475 -0.19794095
000360 12 22 37 3e e8 08 cd bd 02 2a 8f bd 0a e6 0c be
       0.1788409 -0.10011464 -0.06990434 -0.13759628
000370 80 26 84 3d 51 08 25 be 1c 48 6a 39 08 6b da 3d
       0.06452656 -0.16116454 0.00022342842 0.10664946
000380 53 45 93 3c 0c de ae bd 77 95 78 3e 66 8d 08 be
       0.017977392 -0.08538446 0.24275766 -0.13335189
000390 56 d4 33 bd a4 49 38 3e 96 04 81 be 40 4f 90 37
       -0.04390367 0.17996842 -0.2519881 1.7203041e-05
0003a0 b0 91 6b be ab 80 06 3e d4 6c 43 be 99 aa 15 b8
       -0.23004794 0.1313502 -0.19084483 -3.568325e-05
0003b0 96 70 4a be b7 47 41 be d3 b7 7f be e7 bc 5e be
       -0.1976951 -0.18875013 -0.24972467 -0.21751748
0003c0 fe b9 a7 3c 60 45 2a 3e 01 3b d3 ba c4 dc 6f be
       0.02047443 0.16628027 -0.0016115607 -0.23424059
0003d0 db 42 5c be 79 a2 70 bd 88 48 c3 3d 6d 15 69 b7
       -0.21509878 -0.058748696 0.095353186 -1.3892871e-05
0003e0 2b 61 67 36 50 2c 0d 3e fc 8b 39 3e 75 14 14 3e
       3.4478242e-06 0.13786435 0.18119806 0.14460929
0003f0 d9 23 dd bd 20 fd d9 3d d0 29 ad 3b 82 cb 6e bd
       -0.10797853 0.10643983 0.0052845255 -0.05829955

bn1.weight f4 [256]
000000 df d6 7f 3f 94 51 7f 3f 5d b7 7e 3f 5e 3d 7f 3f
       0.9993724 0.99733853 0.9949854 0.99703014
000010 8b 37 80 3f 93 b1 7f 3f 9b 26 80 3f 7f 95 80 3f
       1.001695 0.9988033 1.0011781 1.0045623
000020 e8 22 7f 3f c8 6e 80 3f 10 0e 80 3f 5e 52 80 3f
       0.9966264 1.0033808 1.0004292 1.0025136
000030 98 56 80 3f fe 27 7f 3f 2a 2c 80 3f dd 17 80 3f
       1.0026426 0.996704 1.0013478 1.0007282
000040 a9 77 80 3f 50 1f 80 3f cb c5 7f 3f 5a 3e 7f 3f
       1.0036517 1.0009556 0.99911183 0.99704516
000050 b4 78 7f 3f 63 e4 7f 3f 87 3c 80 3f 76 84 7f 3f
       0.99793553 0.99957865 1.0018471 0.99811494
000060 d5 c8 7f 3f 46 e3 7f 3f fc c3 7f 3f 66 9f 7e 3f
       0.9991582 0.99956167 0.99908423 0.9946197
000070 b0 0f 80 3f b5 52 80 3f 17 8c 7f 3f ab bf 7f 3f
       1.0004787 1.002524 0.99823135 0.9990184
000080 58 3d 7f 3f 32 3b 80 3f 42 44 80 3f 4f 0b 80 3f
       0.9970298 1.0018065 1.0020831 1.0003451
000090 64 7c 7f 3f 4a eb 7f 3f 1e a7 7f 3f 17 69 80 3f
       0.9979918 0.999684 0.99864376 1.0032071
0000a0 40 8d 80 3f 22 32 80 3f 32 48 7f 3f ce 81 7f 3f
       1.0043106 1.0015299 0.99719536 0.9980744
0000b0 bb 3a 7f 3f df a8 7f 3f d2 6c 7e 3f 09 26 80 3f
       0.9969899 0.9986705 0.99384797 1.0011607
0000c0 ce d7 7f 3f 09 22 80 3f 85 7a 7f 3f 25 37 80 3f
       0.99938667 1.0010387 0.99796325 1.0016829
0000d0 27 32 80 3f f2 17 80 3f ab 34 80 3f 14 25 80 3f
       1.0015305 1.0007308 1.0016073 1.0011315
0000e0 a6 c8 7f 3f 60 a1 7f 3f d8 b4 7f 3f c6 66 7f 3f
       0.9991554 0.99855614 0.9988532 0.99766195
0000f0 99 56 7f 3f 5a f0 7f 3f ce 7a 7f 3f e9 45 80 3f
       0.9974151 0.9997612 0.9979676 1.0021335
000100 87 15 80 3f f4 09 80 3f 7c 44 7e 3f 47 2a 80 3f
       1.000657 1.0003037 0.9932325 1.0012902
000110 0b cb 80 3f 72 f5 7f 3f 14 53 80 3f 14 bb 7f 3f
       1.0061964 0.99983895 1.0025353 0.99894834
000120 f3 1c 80 3f 5d 50 7f 3f 13 17 80 3f ae 29 7f 3f
       1.0008835 0.99732 1.0007042 0.99672973
000130 8a 9c 7f 3f 2f 0c 80 3f 18 9c 80 3f 95 38 80 3f
       0.99848235 1.0003718 1.0047636 1.0017267
000140 48 62 7f 3f 41 f7 7f 3f 20 bc 7f 3f 64 40 80 3f
       0.9975934 0.99986655 0.9989643 1.001965
000150 b8 e0 7f 3f 4a 76 7f 3f 49 c8 7f 3f 03 2a 80 3f
       0.9995227 0.9978987 0.99914986 1.0012821
000160 ca 1e 80 3f 21 13 80 3f c1 84 7f 3f 9a 0b 80 3f
       1.0009396 1.0005838 0.9981194 1.000354
000170 74 8d 80 3f 72 ba 7f 3f 84 34 80 3f 3e 0b 80 3f
       1.0043168 0.9989387 1.0016026 1.0003431
000180 40 22 7f 3f f4 34 7f 3f 6d 69 80 3f 4e 4e 80 3f
       0.99661636 0.99690175 1.0032173 1.0023897
000190 4e cb 7f 3f 6f 3d 80 3f 9f 59 80 3f f9 64 80 3f
       0.99919593 1.0018748 1.002735 1.0030814
0001a0 55 11 80 3f ac 44 80 3f 5c ac 7f 3f 4d bb 7f 3f
       1.0005289 1.0020957 0.99872375 0.99895173
0001b0 45 c3 7f 3f cd 37 80 3f e5 22 80 3f 4a 18 80 3f
       0.9990733 1.0017029 1.0010649 1.0007412
0001c0 d2 1a 80 3f 2a 73 80 3f 20 cd 7f 3f c2 ba 7f 3f
       1.0008185 1.0035145 0.9992237 0.99894345
0001d0 21 59 7f 3f c8 ab 7f 3f 92 81 80 3f 35 14 7f 3f
       0.99745375 0.9987149 1.0039542 0.9964021
0001e0 76 5f 7f 3f 28 f6 7f 3f 1a 5f 7f 3f fa 7e 7f 3f
       0.99755037 0.9998498 0.9975449 0.99803126
0001f0 cc 0a 80 3f b8 34 80 3f 5d 39 80 3f ce 36 80 3f
       1.0003295 1.0016088 1.0017506 1.0016725
000200 5b 30 80 3f bb 73 7f 3f 7e 47 7f 3f 55 8c 7f 3f
       1.0014757 0.99785966 0.99718463 0.99823505
000210 34 39 80 3f 63 0f 80 3f 8e e3 7f 3f 46 3a 80 3f
       1.0017457 1.0004696 0.99956596 1.0017784
000220 5d 54 7f 3f f3 3d 80 3f 5c 20 7f 3f 90 cf 7f 3f
       0.99738103 1.0018905 0.9965875 0.9992609
000230 38 5c 80 3f be 6e 80 3f fa c5 7f 3f 20 a5 7e 3f
       1.0028143 1.0033796 0.99911463 0.9947071
000240 78 e7 7e 3f ed 73 7f 3f 18 38 80 3f de ba 80 3f
       0.99571943 0.99786264 1.0017118 1.0057027
000250 75 c9 7f 3f 4b 2d 80 3f 87 be 7f 3f 42 5b 7f 3f
       0.99916774 1.0013822 0.99900097 0.99748623
000260 6f 9b 7f 3f 0f 0c 80 3f e5 60 80 3f d8 4a 80 3f
       0.9984655 1.000368 1.002957 1.002284
000270 fa 51 7f 3f a1 18 80 3f ca f7 7f 3f ef e0 7f 3f
       0.9973446 1.0007516 0.9998747 0.99952596
000280 d6 e6 7e 3f fc 34 80 3f 90 ed 7f 3f 2b 3e 80 3f
       0.9957098 1.001617 0.99971867 1.0018972
000290 bc a8 80 3f 78 d4 7f 3f 09 23 80 3f 74 65 7f 3f
       1.0051494 0.99933577 1.0010692 0.9976418
0002a0 d0 26 80 3f 80 c0 7f 3f 6d 5d 7f 3f 26 7d 80 3f
       1.0011845 0.99903107 0.9975193 1.0038192
0002b0 97 9a 7e 3f 4c 7b 7f 3f bc 0f 7f 3f 68 de 7f 3f
       0.99454635 0.9979751 0.99633384 0.9994874
0002c0 6b 08 80 3f 24 60 7f 3f 4d e5 7f 3f ed 60 80 3f
       1.0002569 0.99756074 0.9995926 1.0029579
0002d0 a4 9d 7f 3f d3 3b 80 3f a1 21 7f 3f 91 f2 7e 3f
       0.99849916 1.0018257 0.9966069 0.99588877
0002e0 fa 70 7f 3f b4 7e 7f 3f b4 ed 7e 3f 3c 24 7f 3f
       0.99781764 0.9980271 0.99581456 0.99664664
0002f0 9c a0 7f 3f 44 af 7e 3f a2 7e 80 3f 24 0e 80 3f
       0.99854445 0.99486184 1.0038645 1.0004315
000300 a0 72 80 3f 5e 16 80 3f e7 09 80 3f 75 bf 7f 3f
       1.0034981 1.0006826 1.0003022 0.99901515
000310 14 b3 7f 3f 1e 34 7f 3f b8 b0 7f 3f 7e 3f 80 3f
       0.99882627 0.996889 0.99879026 1.0019376
000320 9a 0e 80 3f b6 b8 7f 3f 6d 5f 80 3f 12 8c 7f 3f
       1.0004456 0.9989122 1.0029122 0.99823105
000330 3a 2a 80 3f 06 14 80 3f 58 16 80 3f 1c 05 7f 3f
       1.0012887 1.0006111 1.0006819 0.9961717
000340 0b 6a 7e 3f f8 34 80 3f af 10 80 3f 0d 43 80 3f
       0.9938056 1.0016165 1.0005091 1.0020462
000350 42 0c 80 3f 3e da 7e 3f 62 27 80 3f 96 2e 80 3f
       1.0003741 0.9955176 1.0012019 1.0014217
000360 27 58 80 3f b7 c1 7f 3f 47 7d 7f 3f 48 49 80 3f
       1.0026902 0.9990496 0.99800533 1.0022364
000370 e1 42 80 3f 7b 38 7f 3f 1f 7a 80 3f f1 b0 80 3f
       1.002041 0.9969556 1.0037268 1.0053998
000380 2b d1 7f 3f 5a 49 80 3f d6 d0 7f 3f 10 16 80 3f
       0.9992854 1.0022385 0.99928033 1.0006733
000390 53 d9 80 3f fc 59 7e 3f 68 fb 7e 3f 4a e7 7f 3f
       1.0066322 0.99356055 0.99602365 0.99962294
0003a0 d4 c9 7f 3f 05 68 80 3f c0 16 80 3f a2 95 7f 3f
       0.9991734 1.0031744 1.0006943 0.99837697
0003b0 9c 13 80 3f dc 29 80 3f 11 8e 7f 3f 90 8b 7f 3f
       1.0005984 1.0012774 0.9982615 0.9982233
0003c0 24 01 80 3f 24 3a 7f 3f c2 d2 7f 3f 98 55 7f 3f
       1.0000348 0.9969809 0.99930966 0.9973998
0003d0 d1 46 80 3f 14 33 80 3f 93 3b 80 3f 69 4c 80 3f
       1.0021611 1.0015588 1.0018181 1.0023319
0003e0 d6 3a 80 3f c4 1c 7f 3f de cb 7f 3f c6 68 7f 3f
       1.0017955 0.9965327 0.9992045 0.99769247
0003f0 3f 0d 80 3f 8c 78 80 3f 02 94 80 3f 9c d7 7e 3f
       1.0004042 1.0036788 1.0045168 0.99547744

bn1.bias f4 [256]
000000 cd 24 08 3b bb 1c a7 ba 3a bc 1b bb a1 78 b0 bb
       0.0020773888 -0.0012749651 -0.0023763315 -0.005385474
000010 6c 27 3f 3b 83 49 e2 ba a9 bc 83 b9 17 81 9f 3b
       0.0029167784 -0.001726434 -0.0002512683 0.0048676836
000020 54 54 f7 ba 8c 9e 23 3b a6 97 11 b9 d0 5c 06 3b
       -0.0018869736 0.0024966327 -0.00013884771 0.0020502098
000030 fe 15 fd b9 82 3e 6b bb 64 98 74 3b 9d 9d 5b 3b
       -0.00048272306 -0.0035895412 0.0037322277 0.0033510693
000040 a8 1a dc 38 d5 1b 41 3a 2c 10 6f bb 8c e7 99 ba
       0.000104953826 0.0007366513 -0.0036478145 -0.001174198
000050 00 8c 52 bb 8b 99 34 bb f2 22 61 3b 4c 55 97 3a
       -0.0032126904 -0.002755734 0.0034353104 0.0011545806
000060 e1 97 84 3b 28 be 1d bb 29 23 36 ba be 28 d4 b9
       0.0040464257 -0.002406964 -0.00069479883 -0.00040466146
000070 82 9a 7e ba f8 e2 2a 3b 98 98 63 38 e8 5c 0f ba
       -0.00097123545 0.0026075225 5.426313e-05 -0.0005468861
000080 84 2f b9 ba 94 a9 91 3a b1 79 99 3b 76 24 56 bb
       -0.0014128541 0.001111316 0.004683696 -0.003267554
000090 9a f3 be ba 64 7d 65 38 15 39 ce ba 38 70 2b 3b
       -0.0014568449 5.4714634e-05 -0.0015733565 0.0026159417
0000a0 d2 d1 6c 3b 45 3e 27 ba 3f fa 5b ba df 55 cf ba
       0.0036135805 -0.00063798233 -0.00083914766 -0.0015818438
0000b0 47 d2 1d bb cc 95 d3 ba 7c c8 2b bb 16 c4 1e ba
       -0.0024081634 -0.0016142665 -0.0026212027 -0.0006056441
0000c0 1c 2b 3e ba ce 57 f3 b9 d6 19 48 3a ce b5 d0 ba
       -0.00072543486 -0.0004641399 0.00076332444 -0.0015923323
0000d0 12 68 1a bb 46 16 94 3a 40 ff c4 36 bb 78 b2 3a
       -0.0023560566 0.0011298142 5.87097e-06 0.0013616303
0000e0 8c 12 83 ba 49 14 06 bb 64 ef 2f bb 74 fe 1a 3a
       -0.0010000034 -0.0020458868 -0.0026845569 0.000591255
0000f0 5a ff 5b ba 8e a2 c1 3a 69 36 80 bb 19 78 42 bb
       -0.00083922374 0.0014773177 -0.003912736 -0.0029673635
000100 a4 ca 8c ba d1 ff 37 3a ca 91 39 bb 54 69 89 3b
       -0.0010741544 0.00070190156 -0.0028315657 0.0041934643
000110 58 b4 50 3b e4 1c 32 bb bd 1d 30 3b 01 82 3f 39
       0.0031845775 -0.0027177865 0.0026873194 0.0001826361
000120 54 81 b0 b8 e2 47 0d bb f2 b3 ef ba b2 17 14 3a
       -8.416423e-05 -0.0021557738 -0.0018287881 0.0005649283
000130 ce 7a 95 ba 21 5b 57 3b 84 ef 6c 3b 4e 57 45 3b
       -0.0011404397 0.0032860714 0.0036153505 0.0030111852
000140 a6 e9 1a bb e0 3b fd 38 fd c1 4d bb 5a 6f ab 3a
       -0.00236378 0.00012075133 -0.0031396144 0.001307945
000150 63 6f 30 bb 9e 4a f7 ba f8 52 85 ba 87 11 2e 3b
       -0.002692186 -0.0018866842 -0.0010171821 0.002656074
000160 c3 c3 42 ba 8f 3c 58 ba 87 27 6c ba cc 96 5c 38
       -0.00074296835 -0.000824877 -0.00090085756 5.2592528e-05
000170 c8 ce ab 3b ed 1f ae ba 02 19 d0 3a 06 93 b2 ba
       0.005243156 -0.0013284661 0.0015876594 -0.0013624139
000180 58 bc 2d bb 91 c9 95 ba 68 a9 83 3b fd ef 3a 3b
       -0.0026509967 -0.0011427869 0.0040179975 0.0028524392
000190 d5 a6 dc b9 53 cc 9c 3b c8 0e 6b 3b d9 93 69 3b
       -0.0004208597 0.0047850995 0.0035866965 0.0035641103
0001a0 2b c7 a8 ba 7d a3 0c 3b 38 33 a1 b7 04 86 28 3b
       -0.001287674 0.0021459751 -1.9216546e-05 0.0025714645
0001b0 ed d7 19 3b e8 62 e7 3b 38 8b 83 ba de 3a 67 3b
       0.002347465 0.007061351 -0.0010035997 0.003528289
0001c0 1e ef 33 3a 3d 64 53 3b 0e 54 aa ba e2 f7 69 3a
       0.00068639393 0.0032255792 -0.0012995021 0.0008925182
0001d0 63 70 72 bb ae 9a ce ba 70 91 f6 39 b2 f9 b2 ba
       -0.0036993257 -0.0015762651 0.00047029136 -0.0013654737
0001e0 c6 3c 07 bb f9 22 0b 3b 34 6a 6e ba a2 ca 38 3b
       -0.002063559 0.0021230562 -0.0009094805 0.002819695
0001f0 18 18 52 ba 21 3e 95 ba 4b 66 2c bb 16 35 85 3a
       -0.00080144545 -0.0011386314 -0.0026306089 0.0010162916
000200 09 74 98 39 3b 81 37 ba 9d e0 87 b8 5a e6 6f ba
       0.00029078152 -0.0007000153 -6.479139e-05 -0.00091514515
000210 65 24 0e 3b 2c ee ea b8 e4 9d 96 ba 24 f5 3d 3b
       0.0021689173 -0.000112023525 -0.0011491147 0.0028985227
000220 97 88 84 3a 13 dc a5 3a 88 f3 06 bb a5 78 23 bb
       0.0010111508 0.0012654088 -0.0020591933 -0.0024943736
000230 fa e5 e3 b9 09 f0 46 3b 1e 69 d7 39 7b 73 6a bb
       -0.0004346816 0.0030355474 0.00041086314 -0.0035774398
000240 1e cc f0 ba 4c 5f ad 39 18 7d 29 ba 8f 94 3d 3a
       -0.0018371379 0.00033068133 -0.0006465479 0.0007231915
000250 1e e2 19 bb f6 95 ac b9 51 62 1a 3a 00 01 b3 b5
       -0.0023480724 -0.00032918126 0.0005889284 -1.333683e-06
000260 a2 db 2f bb 2e 6f c8 3a 30 4f c7 3b 09 12 2a 3b
       -0.0026833792 0.0015291923 0.006082438 0.0025950691
000270 58 75 59 b9 24 f8 8f ba c2 c7 0f 3b 62 cb 6d b9
       -0.00020738447 -0.0010983986 0.0021939133 -0.00022677847
000280 2a 5a 75 bb af 5a 04 ba 6e 5e d6 ba 68 e2 47 3b
       -0.0037437775 -0.00050489133 -0.0016355047 0.003049994
000290 26 ec 3b 3a ac b2 82 bb e6 f5 2d 3a 0f 19 e9 39
       0.0007168673 -0.0039885845 0.0006636068 0.00044459893
0002a0 9c 39 af b9 60 ad 24 ba 22 df cf ba af 31 77 3b
       -0.00033421523 -0.00062819384 -0.0015859345 0.0037718823
0002b0 31 a8 6d ba 13 7e b0 ba 3a b0 a3 39 64 94 07 bb
       -0.0009065895 -0.0013465307 0.00031221082 -0.0020687813
0002c0 58 aa 84 3a c7 f8 69 39 f8 39 c9 38 15 8e 75 3b
       0.0010121567 0.00022313288 9.5952244e-05 0.003746872
0002d0 7c 45 82 ba 41 96 13 bb 4b 4d 8f bb ce 2f 70 bb
       -0.0009938921 -0.0022519978 -0.0043732277 -0.0036649588
0002e0 57 67 85 bb 87 b6 18 3b 80 f7 a1 bb 29 ad ba bb
       -0.004071157 0.0023302154 -0.0049428344 -0.005696912
0002f0 06 54 03 3b bc fc 84 bb ee 64 5d 3a a6 83 e3 3a
       0.0020039096 -0.0040584486 0.00084455207 0.001735796
000300 3c 1c 2a 3b a6 4c ec ba c6 93 11 3b 1d cf 89 bb
       0.002595677 -0.0018028214 0.0022213324 -0.004205598
000310 80 aa bd 3a 39 7b 88 bb 0f 79 db 39 38 27 36 3b
       0.0014470369 -0.00416508 0.0004186113 0.0027794372
000320 40 0e 7c ba 34 87 15 3a 58 a8 24 3b 20 ec 25 bb
       -0.00096151605 0.0005704046 0.0025124755 -0.0025317743
000330 52 fb b7 ba 7f c6 b2 ba ea f9 e0 b9 1a 39 05 bb
       -0.0014036691 -0.0013639479 -0.0004291081 -0.0020328225
000340 91 1f b1 bb c0 54 13 3b c8 14 92 3b 71 74 9e 3a
       -0.0054053743 0.0022480935 0.0044580437 0.0012089146
000350 2f cb 5e ba 06 a1 70 bb 83 b8 c6 3a 84 fd 2a 3a
       -0.00084989046 -0.0036717071 0.001516119 0.0006522762
000360 a1 be 1c 3b 46 c6 8c bb 1d a0 b9 ba 2c c5 be 3a
       0.0023917335 -0.004296097 -0.0014162097 0.0014554611
000370 61 58 22 3a 04 59 ae 3a 24 ae 19 3b 80 0d 3b 3b
       0.0006192979 0.0013301675 0.0023449743 0.0028541982
000380 9e b2 f7 3a 4f 32 cd ba f8 2c 00 bb 22 32 c7 3a
       0.0018897837 -0.0015655252 -0.0019558053 0.0015197436
000390 14 bf 6d 3b a7 1e fe ba be 6a 86 39 e8 7c 10 bb
       0.0036277222 -0.0019387797 0.00025638 -0.0022047106
0003a0 f4 bc ac b9 93 24 b2 3a cb b7 a0 ba 08 ba 2f bb
       -0.00032947178 0.0013591222 -0.0012261806 -0.0026813764
0003b0 4e 00 fa b8 e2 15 d6 b9 20 96 08 bb 3e a1 af ba
       -0.00011920986 -0.00040833565 -0.0020841435 -0.0013399494
0003c0 86 80 22 bb 44 0f 63 bb c2 5a 30 bb 3b ae 3a ba
       -0.0024795844 -0.003464655 -0.0026909565 -0.0007121299
0003d0 ae f6 8e 3a 98 8a aa 3b 08 69 69 bb 98 ae 45 b8
       0.0010907257 0.00520451 -0.0035615582 -4.7131063e-05
0003e0 30 d7 94 3b 3c 11 06 b8 09 63 a5 3a b8 79 60 ba
       0.004542254 -3.196414e-05 0.0012618016 -0.00085630594
0003f0 ea f4 67 3a 1e c1 94 39 71 2f 7c 3b 71 b0 d7 bb
       0.0008848446 0.00028372643 0.0038480426 -0.0065823128

bn1.running_mean f4 [256]
000000 b2 4d ed bd 74 47 14 be 5a ce f1 bd 38 35 3b 3c
       -0.11587085 -0.14480382 -0.118069366 0.011426263
000010 54 0e d0 bd 00 a2 fa 3d 17 22 34 3e d3 3f 1c 3e
       -0.10158983 0.1223793 0.17591129 0.15258722
000020 fa f5 06 be fc 6b 5e 3d 22 bf e1 bd 75 24 34 be
       -0.1317977 0.0543022 -0.11022784 -0.17592032
000030 d4 26 fe bd 11 d2 ec 3d bc 77 82 bc 9b 01 ce bd
       -0.124097496 0.115635045 -0.015926234 -0.100589
000040 e3 95 30 bc 53 2a e0 3d 0f b4 57 be 00 46 e1 3d
       -0.010777923 0.10945573 -0.2106478 0.109996796
000050 2c 7d 35 3e 3b b5 9b be 6e 9b 88 bd de 8c dd bb
       0.1772353 -0.30411705 -0.06670271 -0.0067611774
000060 4e 9a ad bd d6 8d 11 3e 78 60 03 3e 7e a2 4c be
       -0.08476697 0.14214262 0.12829769 -0.19983861
000070 cc af 77 3d c8 d4 08 be 2f 5b d5 3d 03 b3 4b bd
       0.060470387 -0.1336242 0.104177825 -0.049731266
000080 57 24 30 3e d3 87 ba bd 9b ea 5e 3d e4 ec 0b 3e
       0.17201363 -0.09107938 0.054422956 0.13664585
000090 e7 8e c5 3d 00 fd 34 be 3d 2a 11 be e8 43 ec bc
       0.09646397 -0.17674637 -0.14176269 -0.028840974
0000a0 f8 58 67 bd b2 10 21 bc 41 df b7 3d 0f f2 b4 3d
       -0.05648133 -0.009830641 0.08978129 0.088352315
0000b0 d6 75 12 3c ec 0b 91 3d 9e 6d c7 3d c9 2d a9 3d
       0.008939227 0.07082352 0.09737705 0.08260686
0000c0 31 2d 8a 3d c8 2d 24 be 4b 19 1b 3e 10 aa 82 be
       0.06746901 -0.16033089 0.15146367 -0.25520372
0000d0 1b 39 42 3e 6c a0 82 3e 3a c0 45 be 6f 1a df 3d
       0.18967097 0.25513017 -0.1931161 0.10893714
0000e0 c1 e5 9b bd 3e 9a 5d 3e c8 ed b3 3d d2 c7 47 bc
       -0.076121815 0.2164087 0.087855875 -0.012193637
0000f0 ea a1 ff 3d 3e d9 eb 3d fb b6 84 bc 41 81 1e 3e
       0.124820545 0.11516045 -0.016200533 0.15478994
000100 32 37 74 3e 0d 33 00 3d ba 4e 38 3d 5b 0c 68 bd
       0.2384918 0.031298686 0.044996955 -0.056652408
000110 bc cf 00 bd 94 e4 47 3e c8 e9 21 bd e7 9a 1d 3d
       -0.03144811 0.1952079 -0.03952959 0.038477805
000120 53 0c d2 bd a9 55 40 bd 94 eb 89 bd 95 92 0a 3e
       -0.10256257 -0.046956692 -0.06734386 0.13532479
000130 e5 2f 3d 3e 2a dd 18 3c ac 85 3e bc 8c 9f bd 3c
       0.18475302 0.009330073 -0.01162855 0.023147367
000140 01 70 33 3e 64 3f a4 3d 4d 4b 2c be 7a 6f 92 3d
       0.17523195 0.08019903 -0.168256 0.07150169
000150 33 ac 5e be f4 eb 68 3e 6d aa ef bd 10 8e 91 3e
       -0.21745376 0.22746259 -0.11702428 0.28428698
000160 20 ed 1a 3d 52 d2 63 be f1 e5 d4 3d d1 25 23 be
       0.037823796 -0.222482 0.1039542 -0.15932395
000170 de 39 24 be c9 7a c6 bd 64 e8 b8 3d be 29 79 3e
       -0.160377 -0.09691388 0.090287 0.2433233
000180 f8 da c9 3d f8 a4 27 bd f4 01 53 3e 58 4d 5c 3a
       0.09856218 -0.04092881 0.20606214 0.0008403859
000190 94 23 35 bb 4a f0 75 be f2 9f 25 bd dd 92 44 3e
       -0.0027639614 -0.24017444 -0.04043574 0.19196649
0001a0 74 f8 39 3e 35 0c 23 3e f0 4e 0c bb ee 6f 12 bd
       0.18161184 0.15922625 -0.0021409355 -0.035751276
0001b0 33 44 26 be 3e 93 47 be 21 a9 d1 bd fc 5c 94 be
       -0.16236953 -0.19489762 -0.10237337 -0.2897719
0001c0 9d a2 49 be 7e 14 7c 3e 88 db 48 3c 64 c3 2a 3a
       -0.19690938 0.24617192 0.012259372 0.0006514101
0001d0 b8 54 3f be 8b 68 85 3c 5a 64 49 be 6d e2 9e 3d
       -0.18684661 0.016285202 -0.19667187 0.07758031
0001e0 da cd 77 bc 40 c5 72 ba 10 09 f2 3d b0 14 34 bb
       -0.015124762 -0.000926096 0.11818135 -0.002747815
0001f0 65 b7 ea 3c a2 78 63 3d 18 c8 f9 3c d7 f2 b0 3d
       0.028651902 0.055534966 0.03049092 0.08640068
000200 8d c9 54 bd 12 17 62 3d a4 ea 3a bd ae 7d 9b bd
       -0.051950026 0.055197783 -0.045633927 -0.07592331
000210 0e 0d 14 be f1 ec 19 3e a6 a2 53 be e7 2a 53 be
       -0.14458105 0.15031792 -0.20667514 -0.20621835
000220 58 ec e3 3d c3 b4 08 3e 92 00 f3 bd ec a0 16 be
       0.11129063 0.13350205 -0.11865343 -0.14709824
000230 d3 e4 65 be 9e d1 f4 3d cf 50 ee 3d 5b 40 39 be
       -0.22450571 0.11954044 0.11636507 -0.18090956
000240 32 4f a4 bd 40 e8 2c bd 83 2e 08 3e a6 40 1a be
       -0.08022918 -0.04221368 0.13298993 -0.15063724
000250 33 4b 11 3e 18 3a 93 3d c7 82 6c be 31 1e 45 be
       0.14188842 0.07188815 -0.23096763 -0.19249798
000260 37 80 99 bd dc a1 90 be 9d 90 01 3e 3b 6d 1b 3e
       -0.07495158 -0.2824849 0.12652822 0.15178387
000270 46 38 5f 3e 97 6d 67 3e a4 1d f1 bd 59 f1 af bd
       0.2179881 0.22600399 -0.117732316 -0.08590955
000280 3a 16 00 be b4 c6 ca 3d 9c c8 41 3e 4f 3a 61 3d
       -0.12508479 0.09901181 0.18924183 0.054987248
000290 c2 40 1f 3d 76 db b8 bd 8b 99 32 be 7e 48 92 3d
       0.038880117 -0.09026234 -0.17441384 0.07142733
0002a0 cb fc 86 bd 58 68 08 3e e4 d8 13 be d7 51 61 3e
       -0.06591185 0.13321054 -0.14438206 0.22003876
0002b0 4a ad 64 3e ec 47 a9 bd 97 a4 f8 bd ea 3a 96 3a
       0.2233173 -0.08265671 -0.12140768 0.001146165
0002c0 35 36 6a 3d d0 71 bf bd bb 17 10 be e1 e8 e1 3d
       0.057180602 -0.0934788 -0.14071552 0.11030746
0002d0 b4 a5 0a 3e 34 60 6e bb 25 ae 65 3e a6 32 1c be
       0.13539773 -0.003637326 0.22429712 -0.15253696
0002e0 1e cc 6f 3c 25 02 a2 be 7c e0 2f be 06 48 16 3c
       0.014636068 -0.3164226 -0.17175478 0.009172445
0002f0 7d ac 57 be 36 e8 55 3e 20 c5 f1 bd a4 11 4e 3e
       -0.21061893 0.20889363 -0.11805177 0.20123917
000300 b2 bc 53 be 04 eb 7c bc 5e 43 c5 bd 1e a8 57 be
       -0.2067745 -0.0154368915 -0.0963199 -0.21060225
000310 e6 bc 7c 3d c6 28 47 3e 1d 8f fb bd e2 b3 46 3e
       0.061703585 0.19449148 -0.12283156 0.19404557
000320 19 4d 03 3e 5b 92 12 3c fc 6f 54 be e3 2c 44 3e
       0.12822379 0.008946027 -0.20745844 0.19157748
000330 ee a8 17 be 6d 66 73 3d b7 af 08 be 11 38 81 3d
       -0.14810535 0.059423853 -0.1334828 0.06309522
000340 1d 25 2d be cb a9 c0 bd fc 8f 7f 3e 68 84 58 3c
       -0.16908689 -0.094073854 0.2495727 0.013215162
000350 eb 4b 24 3d c8 93 06 3d 3a f7 13 3e 30 88 95 be
       0.040111464 0.03285578 0.14449778 -0.29205465
000360 a1 0e 51 3e 7a ac c0 bd 5b 02 8a bc 2f e2 00 be
       0.20415737 -0.09407897 -0.016846826 -0.12586282
000370 aa 40 b8 3d d0 a9 22 be d2 03 c4 ba e8 63 eb 3c
       0.08996709 -0.15885091 -0.0014954752 0.028734162
000380 44 cf 20 bc 5b 1e 8b bd 64 2a 45 3e 93 b7 c2 bd
       -0.009815041 -0.06792899 0.19254452 -0.0950767
000390 80 cb 19 bd f2 0b 3b 3e 41 05 57 be 0f c6 26 3c
       -0.03754759 0.18266276 -0.20998098 0.010179057
0003a0 2f bf 2b be 1e 7f dd 3d df e0 0c be 43 b9 2a bc
       -0.1677215 0.10815261 -0.13757657 -0.010420146
0003b0 21 a9 2a be 7e e5 75 be 4f ff 7d be 86 87 5a be
       -0.1666608 -0.24013326 -0.24804424 -0.2134076
0003c0 01 28 84 3d 09 77 32 3e 32 65 23 3d bf 69 8c be
       0.06452943 0.17428221 0.03989143 -0.27424428
0003d0 0e eb 23 be 6a e0 da bd aa a9 af 3d 08 33 5c 3d
       -0.16007635 -0.10687335 0.08577283 0.053759605
0003e0 0e 5c 3d 3d f9 04 4b 3e 39 79 29 3e 5c ed c5 3d
       0.04623037 0.19826116 0.16550149 0.09664413
0003f0 ce 3f a0 bd ca 02 ea 3c 31 09 36 3d e0 86 90 bd
       -0.0782467 0.028565783 0.04444236 -0.07056975

bn1.running_var f4 [256]
000000 0c 05 8c 3e 2e 97 6c 3e 2a e2 c4 3e 70 a7 b5 3e
       0.273476 0.23104545 0.384538 0.35479307
000010 62 39 77 3e b5 4f d0 3e 26 5a b6 3e b9 30 44 3e
       0.24142984 0.40685812 0.35615653 0.19159211
000020 60 05 e2 3e 01 99 8d 3e 95 e5 6e 3e c4 dc 8f 3e
       0.44144726 0.27655795 0.23329766 0.28098118
000030 1e 84 b5 3e 28 3e bf 3e 72 c4 0d 3f b6 ad 1c 3f
       0.3545236 0.3735211 0.55377877 0.6120256
000040 e2 f7 ed 3e b7 56 d9 3e 13 ca f3 3e 48 3b e5 3e
       0.46478182 0.4244897 0.47615108 0.4477179
000050 ed 86 91 3e 0e 96 d4 3e ea bb b6 3e f0 40 b8 3e
       0.28423253 0.41520733 0.35690242 0.35987043
000060 93 ad e6 3e 39 0f 84 3e 58 4b 93 3e 92 a3 cd 3e
       0.45054302 0.25792864 0.2876842 0.40163857
000070 89 2b c0 3e 15 22 bf 3e dc a5 93 3e 65 e9 b6 3e
       0.37533215 0.3733069 0.28837478 0.3572494
000080 b7 95 7f 3e 99 df 03 3f cb 55 b7 3e 52 2d a6 3e
       0.24959455 0.5151306 0.35807642 0.32456452
000090 e8 68 bc 3e 3d 7f a1 3e 3e d5 4b 3e 4d de d3 3e
       0.36798787 0.31542388 0.19905564 0.4138054
0000a0 28 2a c1 3e bc 60 f3 3e 3e 89 b7 3e ec 47 c8 3e
       0.37727475 0.4753474 0.35846895 0.39117372
0000b0 b8 73 83 3e 0c 70 b9 3e a6 d5 9f 3e 00 a7 a8 3e
       0.25674224 0.36218297 0.31217688 0.3293991
0000c0 10 66 87 3e 8e 58 af 3e 6a 1f 86 3e c8 f8 95 3e
       0.26445055 0.3424725 0.26195842 0.29291368
0000d0 90 b5 cc 3e b9 4e d7 3e f0 c0 ea 3e a7 8e e5 3e
       0.3998227 0.42052248 0.45850325 0.44835398
0000e0 c1 2e da 3e 7e 11 c3 3e 34 a3 d1 3e 86 9c 9f 3e
       0.42613795 0.38099283 0.40944827 0.31174105
0000f0 27 12 ae 3e b7 4e 8b 3e b3 79 f7 3e be 3c b6 3e
       0.33998224 0.27208492 0.48335037 0.35593218
000100 ad 24 d6 3e ac 33 c1 3e fa c4 aa 3e d4 5d b6 3e
       0.41824856 0.37734735 0.33353406 0.3561846
000110 40 2a a0 3e c2 55 a9 3e 8d 0d 0c 3f ac 55 83 3e
       0.31282234 0.3307324 0.54708177 0.256513
000120 df 59 d1 3e 96 cc c8 3e c2 a8 bd 3e 74 87 a6 3e
       0.4088888 0.39218587 0.37042814 0.32525218
000130 cd ed df 3e 2a 79 ea 3e 98 b0 e8 3e 62 c7 a4 3e
       0.43736115 0.45795566 0.4544723 0.32183367
000140 62 03 c8 3e 4e 82 f3 3e a1 7b e2 3e f4 1c bf 3e
       0.3906508 0.47560352 0.44234946 0.37326777
000150 f3 34 a8 3e 59 21 d8 3e 33 55 cc 3e c3 ea 01 3f
       0.32852897 0.42212942 0.39908752 0.5074884
000160 ba c1 ba 3e 74 36 b5 3e ce d8 e4 3e 22 65 d4 3e
       0.36475927 0.35393107 0.4469666 0.41483408
000170 5b a0 95 3e 48 c8 b6 3e 80 0e c4 3e 25 d5 db 3e
       0.29223904 0.35699677 0.38292313 0.42936054
000180 4e 40 cf 3e 1a d3 ca 3e 5f 1e 97 3e ae 9c d1 3e
       0.40478748 0.39614183 0.2951536 0.4093985
000190 5c 32 03 3f 22 44 cd 3e e0 15 e8 3e ad ef d0 3e
       0.5124872 0.40091044 0.4532919 0.40807858
0001a0 83 a5 f6 3e 92 97 b4 3e 7a 62 de 3e 6c f1 92 3e
       0.4817315 0.3527189 0.43434507 0.28699815
0001b0 4b c7 cc 3e a4 29 c9 3e 6e b7 a2 3e 64 73 ca 3e
       0.39995798 0.39289582 0.3178057 0.3954116
0001c0 02 f4 c2 3e af 1f d2 3e 44 30 a9 3e 91 af d9 3e
       0.38076788 0.41039798 0.33044636 0.4251676
0001d0 0a 31 b4 3e a0 67 9d 3e e7 81 91 3e e0 1b d1 3e
       0.35193664 0.30743122 0.2841942 0.4084158
0001e0 18 61 bc 3e 59 44 9c 3e c7 12 ae 3e 34 38 f3 3e
       0.36792827 0.30520895 0.339987 0.47503817
0001f0 29 b7 d3 3e 63 92 88 3e 81 a7 c0 3e 88 88 97 3e
       0.41350678 0.26674184 0.37627795 0.29596353
000200 e2 00 a4 3e dd e4 92 3e 52 b8 f0 3e 0d 60 d3 3e
       0.32031924 0.28690234 0.47015625 0.41284218
000210 90 69 c2 3e 6d a3 d7 3e c0 43 ce 3e 9f 3a ac 3e
       0.37971163 0.4211687 0.40286064 0.33638474
000220 8e 9a aa 3e 6f 56 aa 3e ef 64 80 3e f8 ad 99 3e
       0.3332104 0.3326907 0.25077006 0.3001554
000230 ed 5e af 3e 76 ea bd 3e 66 e1 b2 3e 3e 2b 85 3e
       0.3425211 0.37092942 0.3493759 0.26009554
000240 b6 7e c6 3e 1d 45 97 3e e8 8f d5 3e 0b 87 f6 3e
       0.38768548 0.29544917 0.41711354 0.48149905
000250 a6 11 d1 3e 56 3b 9c 3e 0d ab 79 3e 80 1b 8d 3e
       0.40833777 0.3051402 0.24381657 0.27560043
000260 24 ea 00 3f 68 e7 88 3e 6b 15 90 3e 76 01 a8 3e
       0.5035727 0.2673905 0.2814134 0.32813615
000270 dd 24 8e 3e 48 d6 98 3e 66 2a b7 3e b8 4e b0 3e
       0.277625 0.29850984 0.35774535 0.34435058
000280 10 6c 9d 3e 3a 45 e4 3e 63 a5 ca 3e 43 ba a3 3e
       0.30746508 0.44584066 0.39579305 0.31978044
000290 4f e2 fd 3e 7d 96 a6 3e 6a 6b b6 3e 24 56 c1 3e
       0.49586722 0.32536688 0.35628825 0.37761033
0002a0 fb 62 9d 3e 85 e2 d1 3e 31 ce 00 3f 14 00 b5 3e
       0.3073958 0.40993133 0.50314623 0.35351622
0002b0 b7 8a ce 3e c9 98 b4 3e c3 c1 9b 3e d9 f4 9d 3e
       0.40340206 0.35272816 0.30421266 0.30850866
0002c0 7d 81 a4 3e f8 77 d8 3e 72 09 a9 3e a2 f9 60 3e
       0.32130042 0.4227903 0.3301502 0.21970227
0002d0 e5 25 c6 3e d5 ab a3 3e 63 0b a3 3e 87 15 b0 3e
       0.38700786 0.31967035 0.31844625 0.34391424
0002e0 0c c6 d0 3e d1 6b cf 3e fa 45 dc 3e 68 1d e5 3e
       0.40776098 0.40511945 0.43022138 0.44748998
0002f0 0a 0e df 3e ef 8d de 3e d7 8f da 3e a2 cb d5 3e
       0.43565398 0.43467662 0.42687866 0.41756922
000300 90 19 d3 3e dd f4 81 3e 2c fe d1 3e 38 6a cd 3e
       0.4123044 0.25382128 0.4101423 0.401201
000310 1e c8 94 3e ce 11 8e 3e c0 d9 ba 3e c1 24 99 3e
       0.29058927 0.2774796 0.36494255 0.29910854
000320 b4 8c b2 3e ad 89 b8 3e 5a 3b ba 3e 61 e8 e9 3e
       0.34872973 0.36042538 0.36373407 0.45685104
000330 57 7f 85 3e 64 0d b8 3e dc 07 9f 3e e0 89 0b 3f
       0.26073715 0.35947716 0.31060684 0.54507256
000340 43 56 c5 3e e4 a2 93 3e 6c 45 aa 3e f4 b1 a3 3e
       0.38542375 0.28835213 0.3325609 0.31971705
000350 69 40 17 3f a3 3b 90 3e f8 1c aa 3e e8 b9 cc 3e
       0.5908266 0.281705 0.33225226 0.39985585
000360 d3 c3 c3 3e c8 67 15 3f 63 78 89 3e 93 c6 95 3e
       0.3823534 0.5836148 0.2684966 0.29253063
000370 32 cb d5 3e ec 0b 00 3f 15 81 cb 3e ac 8f bb 3e
       0.41756588 0.5001819 0.3974692 0.3663305
000380 94 3b ba 3e 51 03 9b 3e 2e 1f b1 3e d0 11 89 3e
       0.3637358 0.30275968 0.345941 0.26771402
000390 22 d4 eb 3e 1a 7a 6d 3e 64 c8 a8 3e c0 08 6d 3e
       0.46060282 0.2319111 0.32965386 0.23147869
0003a0 8a 81 0f 3f ba 43 bf 3e d6 5e c2 3e 64 bc 31 3e
       0.56057036 0.3735636 0.3796298 0.17357022
0003b0 bc 41 99 3e 77 80 ca 3e 93 d6 a9 3e f7 fe a4 3e
       0.29932964 0.39551136 0.3317152 0.32225773
0003c0 63 47 a9 3e fc f3 94 3e 0b 14 bb 3e 1b 26 8d 3e
       0.33062276 0.29092395 0.3653873 0.27568135
0003d0 96 3c 05 3f b1 e8 a0 3e 5c 03 de 3e 14 e4 f2 3e
       0.5204557 0.3142753 0.43361938 0.47439635
0003e0 74 51 85 3e 68 10 18 3f 08 16 5a 3e a6 4f 8a 3e
       0.26038706 0.59400034 0.21297467 0.27013892
0003f0 40 57 da 3e a4 54 d0 3e f6 df bf 3e 14 fe 95 3e
       0.4264469 0.40689576 0.37475556 0.2929541

fc2.weight f4 [128, 256]
000000 69 68 20 3c bb 52 5a bd b9 88 39 ba 32 24 fd 3c
       0.009790518 -0.053301554 -0.0007077563 0.030901048
000010 dc 94 44 bc bc 5d 52 3c 1c 36 c9 3c ec 87 2a 3d
       -0.0119983815 0.012839731 0.024561934 0.04163353
000020 34 de 07 3d 85 dd 38 bc e2 37 17 bd 3b 19 4b bd
       0.033170894 -0.011283283 -0.03691853 -0.04958461
000030 68 98 17 3d d1 d2 3f bd 3a 1e 72 bd 16 7e a3 bc
       0.03701058 -0.04683191 -0.059110858 -0.019957583
000040 ed 20 8a 3c e1 82 73 3d 89 8e 57 3d 2a a2 a0 3c
       0.016861403 0.059450988 0.052626166 0.019608576
000050 3a 1f 2e 3d 0c 02 d2 3c 9a ef 4a 3c 43 75 35 3c
       0.04251025 0.025635742 0.012386227 0.011075321
000060 5a 9e 48 3c c8 95 d2 bc 62 f6 3a bd a8 6f cf bc
       0.012244785 -0.025706187 -0.045645125 -0.025321797
000070 0a b7 59 3a 31 16 9d 3c cd 4f 89 3b 98 83 69 3d
       0.0008305168 0.01917562 0.004190421 0.057010263
000080 a3 d3 7b bb f6 ec f6 bc e4 d7 bb 3c a4 f2 f0 bc
       -0.0038425706 -0.030142289 0.022930093 -0.029412575
000090 79 90 ac 3b f5 f2 19 3d 5c 3e 5f 3d 13 a6 e8 bc
       0.005266246 0.037585218 0.05450283 -0.028399503
0000a0 74 8c 39 bd dd 07 bb 3c 74 c3 39 3d be 62 00 bd
       -0.045299962 0.022830898 0.045352414 -0.031344168
0000b0 a7 1d 59 3d f0 fb 91 bc 61 fe f5 3c d5 23 35 3d
       0.053006794 -0.017820328 0.030028524 0.044223625
0000c0 0b eb 08 3d 41 15 79 bd 79 cf dd bc 7a 43 e1 bc
       0.03342728 -0.060811285 -0.02707647 -0.027497996
0000d0 36 14 4c ba 78 75 d3 3b 4f a2 65 bd 47 a1 68 bd
       -0.0007784994 0.0064532124 -0.056062993 -0.05679443
0000e0 bf 47 82 3d fd d1 2d bd 1a f7 d2 3b 4c 3c c4 3c
       0.06361341 -0.04243659 0.006438148 0.023954533
0000f0 28 33 0d 3d 6f 5b 21 bd f2 31 55 3d d4 4f 52 bd
       0.034472615 -0.03939384 0.052049585 -0.05134566
000100 36 1b e9 bc b9 04 4a 3c fe 1b 44 3d af b1 70 bd
       -0.028455358 0.0123302275 0.047878258 -0.058763202
000110 4c 85 6e 3d 39 65 89 bc f9 6d 85 3c 8e 2e 6d bd
       0.05823259 -0.0167719 0.01628779 -0.057905726
000120 cd 78 ab bc ae 81 2b 3d 2a 29 32 bd 1c 20 34 bd
       -0.020931626 0.04187172 -0.04349629 -0.043975934
000130 d2 9e e6 bc d0 0b 49 3d 81 ef ac bc a6 19 42 3d
       -0.028151903 0.04908353 -0.021110298 0.04738774
000140 dc f5 9e 3c 12 cf 21 bc e9 48 6d bd 60 48 ec bc
       0.019404344 -0.00987603 -0.05793086 -0.028843105
000150 0f 59 15 bd df fc 27 3d c0 06 e5 bc f6 4b 33 bc
       -0.036461886 0.04101264 -0.02795732 -0.0109434035
000160 05 53 02 3d 56 d1 9f bc 82 35 75 bd b0 2a 97 3c
       0.031817455 -0.019508999 -0.059865482 0.018452972
000170 56 45 56 3d 35 a0 4e 3d 72 e1 1e bd 3a ac 52 bd
       0.052312218 0.050445754 -0.03878922 -0.05143378
000180 22 04 d5 b9 c8 14 25 bc c2 2a 7e bc 9c d4 24 bd
       -0.00040629605 -0.010075755 -0.015513124 -0.040241823
000190 48 dc 5e bd 17 fc 60 3c 81 48 0c bc 2b 32 4b 3d
       -0.054409295 0.013731978 -0.008562208 0.04960839
0001a0 28 b6 6a bd 6d eb 41 bd f3 1f 28 bc 31 c8 d7 3c
       -0.057302624 -0.04734366 -0.010261524 0.026340576
0001b0 3d 59 f6 ba f9 fa eb bc c6 45 38 3d 68 81 b5 3b
       -0.0018794906 -0.028806197 0.044988416 0.005539108
0001c0 74 3b 65 3b 6e 57 04 3d bd e0 c9 3c 1a f7 e7 bc
       0.0034978064 0.032309942 0.024643296 -0.02831607
0001d0 72 dc 27 3b 96 c0 13 3b b6 dc 39 3d 00 59 6f 3d
       0.0025613573 0.002254521 0.045376502 0.058434486
0001e0 4d fb 01 bc d1 a6 40 bd 60 2b 07 3d 28 50 40 bd
       -0.00793345 -0.04703409 0.03300035 -0.046951443
0001f0 43 27 71 3d 62 56 5e 3d 4d a1 42 3d f2 e5 9c bb
       0.058875334 0.0542816 0.04751711 -0.004788154
000200 8f ce 1d 3d 39 80 92 3c 27 77 31 bd 70 65 75 bc
       0.038527068 0.017883407 -0.043326523 -0.014977798
000210 49 20 29 3d c6 d6 6c bd 7a 1c fc 3c de 62 57 3c
       0.041290555 -0.05782201 0.030775297 0.01314613
000220 bb ee eb bc a6 46 b7 3c 37 11 e2 bc f6 1a 16 3d
       -0.028800359 0.022372555 -0.0275961 0.036646806
000230 36 53 9e 3c 30 bf 61 3d 5a e6 49 3d 4d 9a 69 bd
       0.019326787 0.05511397 0.049291946 -0.05703192
000240 27 f5 c3 3c d3 b2 39 3d af 92 11 bd fb b7 2d 3b
       0.023920609 0.045336556 -0.03554028 0.0026507366
000250 b9 f6 36 3d 99 aa 0a 3d 01 72 81 3d 52 f3 4c bc
       0.044668887 0.0338541 0.06320573 -0.012509184
000260 0e 06 c7 3b c8 4c 20 bd 43 d4 ad bc 54 1a bd 3b
       0.00607372 -0.039135724 -0.021219378 0.005770961
000270 8d 50 7a bd 07 32 0b 3d 6f 38 08 3b 2b ba 11 bd
       -0.061111975 0.033983257 0.002078559 -0.035577934
000280 6a 74 6a 3d 70 8a 0f 3d f1 d9 49 bd 0a 1a 5b ba
       0.057239927 0.035044134 -0.04928011 -0.0008358067
000290 24 37 e3 bb 86 1b 42 3d a1 94 22 bd 40 60 92 3c
       -0.0069340635 0.04738953 -0.039692525 0.017868161
0002a0 34 77 74 bd b5 60 82 3d 77 52 f4 3c 43 6f ce 39
       -0.059683993 0.06366102 0.029824479 0.00039374278
0002b0 a0 47 75 3b 83 53 a8 3c f2 ea b5 3c 1f c5 b7 bb
       0.0037426725 0.020547634 0.022206757 -0.0056082155
0002c0 3e 94 17 bd 6b ef 56 3c e4 3f 24 bd 2d e7 aa 3c
       -0.03700661 0.013118605 -0.040099993 0.020862186
0002d0 0f c9 90 3c 38 3c 80 3d 41 89 95 3b 7e e0 0c bd
       0.017673997 0.06261486 0.004563481 -0.03439378
0002e0 3a f6 84 bd 6e 08 f3 bc 3f 7b 01 bd 01 3b 51 3d
       -0.064922765 -0.029667106 -0.031611677 0.05108166
0002f0 e2 37 49 3d b8 60 e6 3c c6 fc 9f bb 00 db 7f 3d
       0.04912556 0.028122291 -0.004882428 0.062464714
000300 ee c3 78 bd 09 22 50 bd 07 00 55 bd ca 8b f5 3c
       -0.060733728 -0.05081371 -0.05200198 0.029973883
000310 19 37 c6 3b 52 d9 18 3d 06 ae 64 3d 48 cb f0 bb
       0.0060490486 0.037316628 0.055830024 -0.0073484518
000320 9c b6 82 bc a6 92 38 bd f8 a4 35 3c 70 28 28 bd
       -0.015956216 -0.04506173 0.011086695 -0.04105419
000330 cf 51 5c bd 89 72 6f bd 9c 99 48 b9 f7 ef 46 3d
       -0.053788956 -0.05845884 -0.0001913071 0.048568692
000340 0b d2 52 bc bc 5e 51 3d b8 e8 0b bd 19 e6 63 bd
       -0.012867461 0.051115736 -0.034157485 -0.05563936
000350 d2 94 5a 3d d2 ff be bb 3f 12 57 bb 71 cc 22 3c
       0.053364582 -0.005828836 -0.0032817272 0.009936438
000360 4c 9b 8c 3c 2e 63 3b bc a9 58 8c 3c 27 48 3d bd
       0.017163895 -0.0114372205 0.01713212 -0.046211388
000370 da 4f 45 bc 28 c7 14 bd 98 a9 42 bd fe 7d 80 3d
       -0.012042964 -0.036322743 -0.04752502 0.06274031
000380 6c 9e f8 3b c8 fc 03 3d b2 51 24 3c f6 a4 7f bc
       0.0075872447 0.032223493 0.010029243 -0.015603295
000390 40 d9 b8 bb e1 c8 07 3d aa 07 4b bd d4 b9 f8 3b
       -0.0056411326 0.033150557 -0.049567856 0.007590512
0003a0 1e 61 4c bd 62 92 b8 3c 80 19 0a bc b4 5b 45 3c
       -0.049897306 0.022530738 -0.008428931 0.0120457895
0003b0 4d 27 45 bd bc 25 0e bd d9 6a 89 3c 36 5d 32 3d
       -0.048133183 -0.034703955 0.016774582 0.043545924
0003c0 a6 8e e7 3c 8a 7e 46 bd fc d1 7f bd 6f 30 3b bc
       0.028266262 -0.04846052 -0.062456116 -0.011425122
0003d0 24 0b f7 bc 0e 1d f3 3c 9a f3 54 3d 3e 20 48 bd
       -0.03015668 0.02967694 0.05199013 -0.048858874
0003e0 2a cd 94 bb 20 76 31 3d b2 12 ae bb 2d 9f b4 bc
       -0.004541059 0.043325543 -0.0053122872 -0.022048557
0003f0 47 2c 5f bd 9a 30 cb 3b da 72 0a bd 89 bc 26 3c
       -0.054485586 0.006200862 -0.033800937 0.010176786
