tryst/model_round_10.pth (torch, 193742 bytes, 19 tensors)

fc1.weight f4 [256, 13]
00000000: ead0 c7bd cb4f 58be ec66 2ebe 0684 183d
00000010: 74c3 0cbc 7769 9abc 1666 91bc a89d 1a3e
00000020: eeb0 c4bd 0c70 82be 18ca 38be 632d 2abe
00000030: cb5e 03bd e02e debd a7a0 f3bd 594f fcbd
00000040: d6f6 29bd ae2f 38bd b735 33be c707 d7bd
00000050: bd62 09be 20d9 edbd 3439 7f3d 5c0f bfbc
00000060: a8e6 813e c5db a63d ea75 24be 8422 1e3e
00000070: 0009 363e 5a12 86be fe18 443b e116 28be
00000080: 3338 5a3c 7e83 213e 8c67 52bd ed15 663e
00000090: 0472 2ebe 767a 99bd edc8 503d 1b96 62be
000000a0: 78ba 05bd 3fc2 8d3e f89c e1bd 9044 7a3d
000000b0: 58ac 563e b097 2f3e a6e6 cbbd 16cb 8d3e
000000c0: a4f3 fb3d 33a2 673e d9d1 663e 7c0e 57be
000000d0: 6933 0e3e fa4a 683d 2f1c ccbd 1690 a53c
000000e0: 6ebb 5f3e 4d2f babb 0987 3f3e f032 193e
000000f0: a781 053e 9d0d f0bd 1872 8bbd ccc4 5bbe
00000100: c422 97bd 4e18 9bbc fb88 84be 0ec3 1dbe
00000110: 6fe4 38be 476e 21be 73c9 813e 2e25 7bbe
00000120: ab67 4ebe 6a77 8d3d d98c 7bbe 5169 e83d
00000130: 4cac 233e 0d13 bbbc 2320 133e c01c e8bd
00000140: 963e 223e 2325 2f3e a892 8cbe 1491 04bd
00000150: d651 563d 293b d8bd 53da 8dbd 7c9c 4bbd
00000160: 0ace 773e 0ccd 30be 97e7 8a3e 7eb2 70bc
00000170: a6b8 38bc a7c5 efbd 17f1 e13d 7b6c 2dbd
00000180: caae 373d 70c3 2dbe b4c9 bebd be7b e83c
00000190: a797 013d e4df 403e 2c4b 1e3b 147d ccbd
000001a0: 30dc ed3d 7970 733b 9337 3ebd 317b 813e
000001b0: ff35 193e e634 82be bbfb 8abe 41b8 413d
000001c0: 02bc 1bbe c176 6fbe de54 e13d d4e1 69be
000001d0: 4bc6 19be c2fd f6bd 46f8 903d 2dbb 8a3b
000001e0: c474 893e 0e16 24be a8af 25be eb2b dbbd
000001f0: 528f 383d 7196 cdbc 362b 693e 18f2 593d
00000200: 329f 743e dc9f 14bc 4da7 1fbe d36a bfbc
00000210: c138 3c3d 9704 763e 038b c43d 5ec4 bd3d
00000220: 14f9 91bc 2207 913d bad1 e1bd dcc0 f53b
00000230: 0eea 033d c12b b0bd 3a0f fdbd f008 f23d
00000240: c681 3fbc 7363 5d3e 93ce 03be da44 5a3e
00000250: 34da 103e 8aec 6dbc bdc7 7abe 1d61 82bd
00000260: 425f 143e 9728 6a3e f6c1 1ebe b15b 6dbc
00000270: 7aaf 4ebe 72be 213d 69e0 86bb a0b0 043e
00000280: f23c 16be 6a80 52be 1343 803d 52af 8bbe
00000290: a66f 2a3e f98a 0d3b 4e69 863e 1f60 153e
000002a0: a213 6c3e bca8 833e 9f0e 8cbd f7d1 633e
000002b0: 256e 08be 7534 d73c c24b a73d de43 eabd
000002c0: ea87 44be 4a8a 4d3e 3d46 4e3e b314 133b
000002d0: 3032 81b9 8740 e5bb 2d4b 573c f035 713e
000002e0: 964c a5bb dbb0 64be ace6 7fbe 457f 67be
000002f0: 84ae 823e 425f bfbd a113 05be 107b 3c3c
00000300: 2ede 583e 1712 a93c 170a 8d3e f2bb 78be
00000310: 80e6 4d3e 4940 1a3e ee46 e7bd e43f 35be
00000320: 83fa 72be 4a5b 393e a6c0 6f3e 76b4 fbbd
00000330: c818 2cbc d651 4a3e f0fe 0c3c c61a b83d
00000340: 7b62 5cbe 7049 75be 1a4f ae3d 5845 803e
00000350: 836d 543e 200b e63d 2736 87be 42ed 2fbe
00000360: b3a6 b0bc 6a3e 87be def8 fa3d aacc 9dbc
00000370: b135 70be 24b4 89be 8be9 e73c 2ef7 823e
00000380: aca3 babc 1d35 6d3e ba8d 8a3e 8add 453e
00000390: 7ada a73d cea3 8f3c 689b 213e 8291 3dbe
000003a0: ea09 8ebb 2daf 65be 58bd 853e d5d1 843e
000003b0: 780a fcbd e4a7 433e 10d7 7abd c2f6 973d
000003c0: 14a2 43be bd6d 6ebe 1a51 ec3d ac48 3ebd
000003d0: 8076 13be eb92 79be 4971 fa3c 8a0f 793d
000003e0: 7c6b 0f3e 5a7e f73d 9b2a dcbd 7d10 f33d
000003f0: a90a 083e 3901 3c3d 4805 7f3e a2eb 66bb
-0.09756644 -0.21124189 -0.17031449 0.037235282 -0.0085915215 -0.018849118 -0.017748874 0.15099204
-0.09604059 -0.2547611 -0.18045843 -0.16618876 -0.032072823 -0.108487844 -0.118958764 -0.12319822
-0.041495167 -0.044967346 -0.1750096 -0.1049953 -0.13416572 -0.11613679 0.062310413 -0.023322754
0.2537129 0.081473865 -0.16060606 0.15442854 0.1777687 -0.26185876 0.0029922123 -0.16414978
0.013319063 0.15772817 -0.05136828 0.22469302 -0.17035681 -0.07494061 0.050972868 -0.22127573
-0.032648534 0.2768726 -0.110162675 0.061100543 0.20964181 0.17147708 -0.09956102 0.27694005
0.1230233 0.22620468 0.22540988 -0.21001619 0.13886799 0.05671213 -0.09966313 0.020210307
0.21848843 -0.005681908 0.18703856 0.14960837 0.1303774 -0.117213465 -0.06808871 -0.21461791
-0.07379678 -0.018932488 -0.25885758 -0.15406439 -0.1805589 -0.15764724 0.25349006 -0.24525902
-0.20156734 0.06907542 -0.24565448 0.113482125 0.15983695 -0.022836233 0.14367728 -0.113336086
0.15844187 0.1710401 -0.2745564 -0.03236492 0.05232414 -0.10558159 -0.06926408 -0.049709782
0.24199691 -0.17265719 0.27129814 -0.014690993 -0.011274492 -0.11707621 0.11032312 -0.042339783
0.044844426 -0.16969085 -0.093158156 0.028379317 0.031638768 0.18835407 0.0024153693 -0.09984794
0.11614263 0.0037145896 -0.04643972 0.252893 0.14962004 -0.25430983 -0.2714518 0.04729486
-0.15208438 -0.23385145 0.11002515 -0.22840053 -0.15017049 -0.12060119 0.070786044 0.004233739
0.26846898 -0.16024038 -0.16180289 -0.10701736 0.045058556 -0.02509615 0.2277039 0.053209394
0.23888853 -0.009071317 -0.15591164 -0.023366367 0.045952562 0.24025188 0.09596827 0.0926597
-0.017818965 0.070814386 -0.1102633 0.0074997973 0.032205634 -0.086020954 -0.1235642 0.11818111
-0.011688655 0.21619968 -0.1287177 0.21315327 0.14145738 -0.014521727 -0.24490257 -0.06366179
0.14489463 0.22867046 -0.15503678 -0.014487193 -0.20184126 0.039488263 -0.0041161072 0.12958002
-0.14671686 -0.20556799 0.062627934 -0.27282196 0.16644153 0.0021597727 0.26252216 0.14587449
0.23054364 0.25714672 -0.06838726 0.22248064 -0.13323267 0.02627013 0.081687465 -0.11438726
-0.19192472 0.20072284 0.20143981 0.0022442758 -0.0002464219 -0.0069962176 0.013140482 0.23555732
-0.00504453 -0.2233309 -0.24990338 -0.22607143 0.2552377 -0.09344341 -0.12995769 0.01150395
0.21178505 0.020638509 0.2754676 -0.24290445 0.2010746 0.15063585 -0.11292826 -0.17700154
-0.23728375 0.1810123 0.23413333 -0.122902796 -0.010503955 0.1975778 0.008605704 0.08989482
-0.21521942 -0.23953795 0.08511181 0.25052905 0.207449 0.11232591 -0.26408502 -0.1718035
-0.021563863 -0.26414806 0.12254499 -0.01926263 -0.23457982 -0.2689525 0.028309604 0.25579208
-0.022783123 0.23164792 0.27061254 0.19322792 0.08195968 0.017534163 0.15781939 -0.18512538
-0.004334678 -0.22430106 0.2612102 0.2594134 -0.12306684 0.19107014 -0.061240256 0.07420112
-0.19104797 -0.2328405 0.115389064 -0.046456024 -0.14400673 -0.24372451 0.030571597 0.060805835
0.14005846 0.120846465 -0.10750314 0.11868379 0.13285317 0.045899604 0.24904358 -0.0035235663

fc1.bias f4 [256]
00000000: e895 28be ec35 e3bd 2d46 fdbd 76b7 65b7
00000010: 2e04 dabd e6c9 d93d abb7 0a3e 6d43 2b3e
00000020: d63a 27be ee90 c93d cc48 07be 871e 52be
00000030: 0ba8 9ebd b3fb 1d3e 927b 19bd 29c2 30be
00000040: 0eb5 c4bc ce80 b43d 8978 11be ccf3 383d
00000050: 6cf1 423e 4293 6bbe 47de debd 2aa2 28b8
00000060: fa87 87bd 0c5d 5b3e 85c2 083e 0a4b 6dbe
00000070: 091f fd3d 0064 20be dab8 e43d 227e 1cbd
00000080: 167d 3a3e b47d 38be 65a3 3a3d 4857 ca3d
00000090: d0c2 d23d e135 09be b5e2 25be 519d 9cbc
000000a0: 8042 e5bc 561a 86bd 447f 103e 5fb2 313d
000000b0: 49cf c9b7 2c7a c13d 3ed2 813d 9080 ab3d
000000c0: 4e76 c13c 37f9 eebd 1662 033e 584f 72be
000000d0: 20fb 583e 68e2 663e 4874 63be ccf3 a23d
000000e0: b6bf 83bd 64b7 6d3e 7985 5b3d db07 3cbc
000000f0: 563d 8f3d 1b90 0b3e bdeb fa37 5e86 213e
00000100: 267d 6b3e 0296 9f3d bf70 2738 9f46 f9b6
00000110: 6d16 a1bd 78e7 5a3e c210 a73b 0e9a 503d
00000120: d8e4 abbd dbaa 34bd f017 87bd 9009 5c3e
00000130: 8d4a 513e d1d1 0db9 bdfa 36bd 1582 5b3d
00000140: 7eef 183e c03f a8b9 b859 1ebe f3c4 fe3d
00000150: e9df 29be e09a 633e 4ab3 77be 193e 453e
00000160: 40a9 b53d 454a 6dbe 8b95 123d 70c0 2fbe
00000170: bf60 1dbe ff0b 1dbe 9e8a 5f37 fef9 563e
00000180: ca85 013e b5fb 203c 3df2 083e a8e8 2c3c
00000190: 574c 72bd dd33 78be 2dfb a4bd b05b 393e
000001a0: bfff 6c3e d376 403e fc23 2fb7 2c15 2dbd
000001b0: 4204 36be 32b2 63be e621 84bd c2ad 62be
000001c0: ee35 7abe 110e 6f3e bc66 e23b 2d43 623d
000001d0: 5bc6 54be 9a25 69bc 3765 2dbe c120 f33d
000001e0: 804f b5b8 e6ea 79b9 590a eb3d e192 9b3b
000001f0: b45f c13d 60d8 13b9 deb3 6d3c 9e1c 6e3d
00000200: cbfb e7bd 515d 923d ab43 2938 1358 05b7
00000210: 7eb6 f9bd 23ef 283e 4cef 38be cb77 64be
00000220: bdfb 9d3d b024 ce3d c771 c8bd 82db 21be
00000230: c8ee 51be 9e30 de3d c600 e93d bd32 2bbe
00000240: e332 c1bd 3cd2 b8bc 8b95 033e acb9 3dbe
00000250: 8711 1f3e ee80 923d 6c38 3bbe 8614 73be
00000260: 99a0 bbbd 46a4 78be 4312 0c3e 87d8 c03d
00000270: 71f6 4d3e f098 583e c1cc f0bd d493 87bd
00000280: 6e21 46bd 0326 123e 67ab 713e 85fb c13d
00000290: 5866 143e 7857 f4bd dc7a 64be 0687 e73b
000002a0: 3bc8 7ebd c219 4b3e 3047 2bbe 104d 5e3e
000002b0: 846e 583e 6ca5 a4bc 7e57 f0bd fb04 ffb8
000002c0: 7d4b 803c a1aa 6abd 8c00 06be 8ec5 983d
000002d0: 9a47 063e 3426 cc37 542b 4b3e 4e79 46be
000002e0: df7b 54b8 9993 70be 7ac1 41be 490a 283d
000002f0: e6b4 46be cb34 123e 0109 a9bd 74ee 183e
00000300: 1e77 24be 48ce 3abc 8a37 193c f4cb 32be
00000310: 9307 803d e105 563e 451b 8abd edd1 063e
00000320: 23be c03d 7e23 a33c ff11 30be a218 013e
00000330: 70b7 b3bd f780 b53d 9dc3 10be 8200 553d
00000340: a21f e1bd fdbf a7bd 6ba2 673e a838 8e3c
00000350: feca 24bc 7418 ac3c 2768 253e 3486 41be
00000360: 99f8 2d3e 47cc babd a407 7abd c9c0 03be
00000370: 350d 643d 62e0 1bbe 8405 0eb8 432b c83d
00000380: 0514 1d3c 4faa 9cbd 5068 6f3e 76d1 febd
00000390: 64e3 0fbd 1220 2f3e a3db 78be d545 06b7
000003a0: 1b65 62be 93b8 fa3d 7842 3abe 183a ee37
000003b0: c545 41be 801d 38be 648a 76be f290 55be
000003c0: d892 443c f61c 213e 332f 95b7 fcaf 66be
000003d0: 0617 53be ea72 4cbd 770e b13d 30f2 a3b5
000003e0: e85e 89b6 0507 043e 5462 303e 50ee 0a3e
000003f0: 7be3 cabd 72bd c73d 3175 69b9 629d 4abd
-0.16463435 -0.11094269 -0.123669006 -1.3692179e-05 -0.106453285 0.10634212 0.13546626 0.1672494
-0.16331038 0.09842096 -0.13211364 -0.20519458 -0.077468954 0.15428047 -0.03747136 -0.17261566
-0.024012115 0.0881363 -0.14206137 0.045154378 0.19037408 -0.23005393 -0.1088224 -4.020535e-05
-0.06617732 0.21422213 0.13355453 -0.23173156 0.12359435 -0.15663147 0.1116807 -0.038206227
0.18211779 -0.18016702 0.04556598 0.09879929 0.10291064 -0.1339946 -0.16199763 -0.019117983
-0.027985811 -0.06547992 0.14111048 0.043383 -2.4057592e-05 0.094471306 0.06338929 0.08374131
0.023615982 -0.11668628 0.12830386 -0.2366308 0.21189547 0.22547305 -0.22212327 0.07956657
-0.0643305 0.23214489 0.053594086 -0.011476482 0.06994121 0.1362919 2.9912097e-05 0.15773913
0.22996959 0.077922836 3.9920906e-05 -7.4289997e-06 -0.078656055 0.21377361 0.0050984332 0.050928168
-0.08393258 -0.044108253 -0.065963626 0.21488023 0.20438595 -0.0001352497 -0.044672716 0.053590853
0.14935109 -0.00032090954 -0.15463912 0.12439909 -0.16589321 0.22227049 -0.24189487 0.1926197
0.088701725 -0.23172863 0.035787147 -0.17163253 -0.15368937 -0.15336607 1.332411e-05 0.20993802
0.12648693 0.009825637 0.13373657 0.010553516 -0.059154835 -0.24238534 -0.080557205 0.18101382
0.23144434 0.18795328 -1.0439191e-05 -0.04225652 -0.17775062 -0.22235945 -0.06451778 -0.22136596
-0.24434635 0.2334521 0.0069092195 0.055239845 -0.20778792 -0.014230156 -0.16933142 0.11871482
-8.6455606e-05 -0.00023833997 0.11476583 0.004747734 0.09442082 -0.00014099618 0.014508216 0.05813276
-0.113273226 0.07146705 4.035576e-05 -7.947924e-06 -0.12193011 0.16497473 -0.18060035 -0.22311322
0.07714031 0.10065591 -0.09787326 -0.15806392 -0.20501244 0.10849117 0.11377101 -0.16718574
-0.09433534 -0.022561185 0.12850015 -0.1852786 0.1553403 0.07153498 -0.18283242 -0.23738298
-0.09161491 -0.24281415 0.13678841 0.09416299 0.20113541 0.21152091 -0.11757804 -0.06619993
-0.048371725 0.14272313 0.23600541 0.09471802 0.14492166 -0.11930746 -0.22312492 0.0070656566
-0.062202673 0.19834045 -0.16726375 0.21709085 0.21135908 -0.02009841 -0.11735438 -0.00012160275
0.015660996 -0.05729163 -0.13086146 0.074595556 0.13113251 2.4336485e-05 0.19840747 -0.19382212
-5.0660103e-05 -0.23493804 -0.18921462 0.041025434 -0.19404945 0.14277951 -0.082536705 0.14934713
-0.16061065 -0.01140172 0.00935162 -0.17460614 0.06251445 0.2090068 -0.067434825 0.13166018
0.09411266 0.019914385 -0.17194365 0.12607053 -0.08775222 0.08862489 -0.1413712 0.052002437
-0.109923616 -0.08190916 0.22620551 0.017361 -0.010058163 0.021007754 0.16153012 -0.1889885
0.16989364 -0.09120994 -0.061042443 -0.1286651 0.055676658 -0.15222314 -3.3860575e-05 0.097738765
0.009587293 -0.07649671 0.23379636 -0.12442295 -0.035128966 0.17102078 -0.24302535 -8.003281e-06
-0.22108881 0.12242236 -0.18189418 2.8398863e-05 -0.18874271 -0.17980003 -0.2407623 -0.20856073
0.011997901 0.15733704 -1.7784163e-05 -0.2252807 -0.20614251 -0.049914278 0.08645337 -1.2214932e-06
-4.0939667e-06 0.12893303 0.17225009 0.13567472 -0.0990667 0.09752931 -0.00022264269 -0.0494665

bn1.weight f4 [256]
00000000: 1230 803f 201b 7f3f a210 7f3f de8e 7e3f
00000010: 1d0f 803f 64fd 7f3f 2f57 803f 8a0e 803f
00000020: 2cd1 7e3f 3231 803f b049 7f3f ab5b 803f
00000030: 1232 803f c752 7f3f e85c 803f 461c 803f
00000040: 4258 803f 8a5a 803f 2c07 803f 01ec 7e3f
00000050: 5d5e 7f3f 83c4 7f3f bf15 803f a1ac 7f3f
00000060: bb3c 7f3f f874 803f b752 7f3f 2a2f 7e3f
00000070: 9941 803f 1f38 803f 88c2 7f3f ab85 7f3f
00000080: ee3c 7f3f 8960 803f 8115 803f c26d 7f3f
00000090: aa53 7f3f 4cd0 7f3f 8deb 7e3f d73a 803f
000000a0: 4c61 803f 6d24 803f 241e 7f3f 5efa 7e3f
000000b0: fd37 7f3f 5e45 7f3f 4656 7e3f 3be6 7f3f
000000c0: d435 7f3f 263a 803f 229e 7f3f bb60 803f
000000d0: ee1f 803f 081f 803f 13e5 7f3f c72d 803f
000000e0: 77b4 7f3f da49 7f3f bac3 7f3f 8e3a 7f3f
000000f0: 9756 7f3f d126 803f dce5 7f3f 3e26 803f
00000100: 7fd3 7f3f 2e14 803f fdbf 7e3f 8e30 803f
00000110: 8904 813f 1c0b 803f 4d46 803f 905c 7f3f
00000120: 4c19 803f 6b4d 7f3f e6e1 7f3f ea95 7f3f
00000130: 9e82 7f3f 1a27 803f 1a98 803f 715f 803f
00000140: a93f 7f3f 8242 803f adb5 7f3f 454d 803f
00000150: 952d 803f dcdd 7e3f cf65 7f3f ab40 803f
00000160: 0513 803f ff04 803f d26b 7f3f 3acc 7f3f
00000170: 898a 803f 8a69 7f3f 1e5b 803f 4724 803f
00000180: 72cf 7e3f c6a4 7f3f 9264 803f da05 803f
00000190: 3ee4 7f3f 9341 803f 5245 803f 8272 803f
000001a0: 992e 803f 2859 803f 7121 803f 1dc8 7f3f
000001b0: b1fa 7f3f 3723 803f 148a 7f3f acf0 7f3f
000001c0: 1d40 803f e25e 803f 20a6 7f3f b7fa 7f3f
000001d0: 3e3f 7f3f ae53 7f3f 7a8e 803f 6a0d 7f3f
000001e0: 5d4a 7f3f 61ee 7f3f c81f 7f3f 44ff 7e3f
000001f0: 91f0 7f3f 8a2c 803f 4f88 803f 48ad 803f
00000200: 0267 803f 24ef 7e3f e059 7f3f e76a 7f3f
00000210: 701a 803f 7f52 803f b6cc 7f3f d3e5 7f3f
00000220: ef12 7f3f 0836 803f bd78 7e3f 1516 7f3f
00000230: 5462 803f 355a 803f ba71 7f3f 75d6 7e3f
00000240: 17ef 7e3f 73cd 7f3f 479d 803f 6899 803f
00000250: 8011 803f a82e 803f 80a2 7f3f 2e3d 7f3f
00000260: c8ad 7f3f 675a 7f3f 14a0 803f 276a 803f
00000270: 30c7 7e3f 2823 803f 2636 803f 5495 7f3f
00000280: 7de6 7e3f 5a2c 803f 0209 803f 6465 803f
00000290: c398 803f a83c 7f3f 903c 803f 3d8c 7f3f
000002a0: d4e4 7f3f 959b 7f3f 34f3 7e3f b56e 803f
000002b0: 69a7 7e3f dc68 7f3f baeb 7e3f 2a38 803f
000002c0: 77ef 7f3f 092d 7f3f 6fa9 7f3f 2d61 803f
000002d0: f22f 803f 2a24 803f 5395 7e3f f9ba 7e3f
000002e0: a488 7f3f acd7 7f3f b4bd 7e3f 31d1 7e3f
000002f0: a51b 7f3f 0cbd 7e3f 88bc 803f 4534 803f
00000300: 1c20 803f ee38 803f 4f15 803f 82d0 7f3f
00000310: 0eb4 7f3f 1391 7e3f a124 803f 524e 803f
00000320: 40b5 7f3f 5115 7f3f affa 7f3f 32b9 7f3f
00000330: 16f1 7f3f 7b05 803f 3513 803f 3546 7e3f
00000340: 581b 7e3f 774f 803f 4cb7 7f3f 8b5f 803f
00000350: 2c28 803f 05a2 7f3f 2a96 7f3f c8aa 7f3f
00000360: a772 803f 350a 803f 8aa3 7f3f 6b34 803f
00000370: 71ea 7f3f 0d07 7f3f 1952 803f 128d 803f
00000380: 94df 7f3f 7a21 803f 3bc9 7f3f 6a45 803f
00000390: 67f9 803f 041c 7e3f be41 7f3f 671e 803f
000003a0: 0a26 803f dd1e 803f c2a0 7f3f 42aa 7f3f
000003b0: ceef 7f3f 6a14 803f a133 7f3f f5b5 7f3f
000003c0: 4683 7f3f 6861 7f3f 90f8 7f3f d1fb 7e3f
000003d0: 9d4a 803f 422e 803f 7144 803f e06e 803f
000003e0: 2217 803f 0770 7f3f 4fd6 7f3f 8e6d 7f3f
000003f0: da81 7f3f a5a0 803f 508f 803f 7e9b 7e3f
1.001467 0.99650764 0.99634755 0.9943675 1.0004612 0.9999602 1.0026606 1.0004437
0.9953792 1.0015013 0.99721813 1.0027975 1.001528 0.99735683 1.0028353 1.0008628
1.0026934 1.002763 1.0002189 0.99578863 0.9975336 0.9990923 1.0006636 0.99872786
0.9970204 1.0035696 0.9973559 0.99290717 1.0020019 1.0017127 0.99906206 0.99813336
0.99702346 1.002946 1.0006562 0.9977685 0.99737036 0.9992721 0.9957817 1.0017956
1.0029693 1.0011116 0.99655366 0.9960078 0.99694806 0.9971522 0.9935039 0.9996068
0.9969151 1.0017745 0.99850667 1.002952 1.0009744 1.000947 0.99958915 1.001397
0.9988474 0.99722064 0.9990803 0.9969872 0.997415 1.0011846 0.9996011 1.001167
0.9993209 1.0006158 0.995117 1.0014818 1.0079509 1.000339 1.0021454 0.99750614
1.000772 0.99727505 0.9995407 0.99838126 0.9980868 1.0011933 1.0046418 1.0029126
0.9970651 1.0020297 0.9988659 1.0023581 1.001391 0.9955728 0.9976472 1.0019735
1.0005804 1.0001525 0.99773896 0.99921 1.0042278 0.99770415 1.0027807 1.0011071
0.99535286 0.998608 1.0030692 1.0001786 0.99957645 1.0020012 1.0021155 1.0034945
1.001422 1.0027208 1.0010206 0.99914724 0.999919 1.0010747 0.99820065 0.9997661
1.0019566 1.0028956 0.9986286 0.99991935 0.99705875 0.9973706 1.004348 0.99629843
0.99722844 0.9997311 0.9965787 0.99608254 0.9997645 1.0013592 1.0041598 1.0052881
1.0031435 0.9958365 0.99746513 0.99772495 1.0008068 1.0025176 0.9992174 0.9996006
0.99638265 1.0016489 0.9940298 0.9964307 1.0030007 1.0027529 0.9978291 0.99545985
0.9958357 0.99922866 1.0047997 1.0046816 1.000534 1.0014238 0.9985733 0.9970273
0.99874544 0.9974732 1.0048852 1.0032395 0.99522686 1.0010729 1.0016525 0.9983723
0.9957045 1.0013535 1.0002749 1.0030942 1.0046619 0.9970193 1.0018482 0.9982336
0.9995854 0.99846774 0.9958985 1.0033785 0.994742 0.9976938 0.9957844 1.001714
0.9997477 0.99678093 0.9986791 1.0029656 1.0014632 1.0011036 0.994466 0.9950405
0.9981787 0.99938464 0.99508214 0.9953795 0.9965156 0.9950721 1.0057535 1.0015951
1.0009799 1.0017374 1.0006503 0.9992753 0.99884117 0.99440116 1.0011178 1.0023901
0.9988594 0.996419 0.9999189 0.9989196 0.9997724 1.0001673 1.0005862 0.9932588
0.99260473 1.0024251 0.99889064 1.0029157 1.001226 0.998566 0.9983851 0.99869967
1.0034989 1.0003115 0.99858916 1.0015997 0.99967104 0.99620134 1.0025054 1.0043051
0.9995053 1.0010216 0.9991643 1.0021183 1.0076112 0.992615 0.9970969 1.0009278
1.0011609 1.0009419 0.9985467 0.9986917 0.9997529 1.000623 0.99688154 0.9988702
0.9980968 0.99758005 0.9998865 0.9960299 1.002277 1.0014117 1.0020887 1.0033836
1.000706 0.99780315 0.99936384 0.9977654 0.9980751 1.0049025 1.0043736 0.9945601

bn1.bias f4 [256]
00000000: d9f3 823b abee 02bb f2ef 4abb ccb4 edbb
00000010: 4890 3c3b e0a2 563a 4291 5c3b aa6c 833b
00000020: 5bbd a3ba 6e37 f4b9 a7b4 42bb b4bf 563a
00000030: 37b4 43bb b07c 02bb a0d9 873b f28d 493b
00000040: 644b c4ba b5f2 743a 3a2c 25bb f4aa d3ba
00000050: 117c 9abb 0eec 4dbb 3368 a73a ea0a ec3a
00000060: 6604 463a 1d9d 35ba f516 9aba a6b5 1abb
00000070: 101e 29bb 0c2c 6f3b 51e2 3bba 3a87 e4ba
00000080: ec18 d6ba f6f1 413b b42b ae3b 4897 acbb
00000090: ad30 c5ba 8265 593a c61d 7cbb 04e3 453b
000000a0: 104a 153b 4b46 fbb9 f083 7638 87a9 12bb
000000b0: 4464 8ebb f82d 8dbb 333d 37bb a0db 82ba
000000c0: 08c7 5dbb 71d9 3bba ad1c e23a 8674 0bba
000000d0: c642 36bb c092 e93a 9eec c3ba 2898 de3a
000000e0: 6333 caba 5527 39bb 38d6 00bb 82b6 5f3a
000000f0: ac12 e6ba 7870 303b 02dd 30bb 7b08 0bbb
00000100: e47d dfba 86f2 1e3b a680 40bb 6caf 853b
00000110: 5a1b 863b b66a 28bb 7d94 443b 6ecf 9f3a
00000120: 73d2 4939 5810 52bb 26ce 3cbb 6a62 66b9
00000130: eab6 0bbb d9d0 b43b fbc2 9f3b 9029 e73a
00000140: 396b 35bb 601a 33b9 8b63 85bb b206 f73a
00000150: 336a b2ba dc22 39bb 9851 08bb e898 2e3b
00000160: acf6 dbba 4a79 34ba 09ec 82bb 9c30 5639
00000170: 7500 d33b 41f7 80bb 355f 4c3b 0af8 1039
00000180: 4a1f 6bbb 40a6 cf37 0681 b63b f2d4 553a
00000190: bb1c beba af94 b23b 082a 903b 3609 9c3b
000001a0: 59ff 02bb df42 9f3a fcd2 143b 746c 243b
000001b0: 5c62 633b de70 d43b c9c4 07bb d5f3 603b
000001c0: bfa0 2a3b b16b 9b3b 7596 6abb 109b 123b
000001d0: 5087 76bb 0792 953a 8641 e5b9 7679 02bb
000001e0: 8a72 14bb a751 b53a 57da 28bb 8b67 1c3b
000001f0: 704c edb6 88e2 e6ba e9a7 52bb d692 5f3b
00000200: 84e5 34ba 547d 41b9 aaba fc3a 44c4 ccba
00000210: ea89 5a3a 2929 893a 6488 eeba 5eb0 ba3a
00000220: dfe6 cd39 a121 38ba 2600 49bb 5bbc 7fbb
00000230: 349b bf3a 9da7 a33b b380 84b9 874a 95bb
00000240: 3cee 0cbb 3744 31bb dfa9 903a a4fc cbba
00000250: b171 7fbb f49d 3e39 7840 3ab8 72e5 7b39
00000260: 48c7 eeb9 ef87 d13a 2f6b 093c 3484 8a3a
00000270: 1089 2dba 2332 4fbb 3928 0d3b 7131 23bb
00000280: da87 4dbb cc9b 9cba e28e 96b9 e732 3d3b
00000290: 3c3d c6ba fc0b bebb c942 04ba d6a1 91b9
000002a0: babe baba 4810 07ba 6061 65bb ac64 543b
000002b0: a0b6 0ab8 7859 14bb f494 233b 3835 763a
000002c0: 8ec0 e33a a464 4dba f1e7 d2b9 91a1 713b
000002d0: 640d 3ab9 d862 00ba 46d4 aebb d643 b4bb
000002e0: 6241 48bb 58ae 4d3b 8d7c c6bb 3532 04bc
000002f0: d018 be3a 8f02 9fbb 824f 0b3b 6c45 0f3a
00000300: 3e3a 2a3b 10eb 9cb8 e001 6a3b a615 2abb
00000310: 3177 8f3a 4d1f bfbb a52a eb3a 1555 3e3b
00000320: c022 caba a27b d2ba 8317 b43a a097 8fba
00000330: 9064 04bb 82d4 dbba 803d efba 29a8 93bb
00000340: 2895 e4bb bc33 873b 20a4 593b 783a 583a
00000350: dec4 0d39 2522 02bb 6e95 363a fad8 a8b9
00000360: f5c2 0a3b 7493 8abb b0f2 18bb e4fd b039
00000370: b288 53bb 0231 0c3b 7c33 4b3a 01d8 463b
00000380: ae41 9a3b 13f4 7bbb f6ea 7cb9 2250 0a3b
00000390: 1454 bf3b c5ed 28bb d2b1 de39 dc61 1439
000003a0: a0b2 15b7 1efa 7bb9 a664 29bb 3c08 62bb
000003b0: ba37 f13a 14f9 a4ba 6b32 0ebb 3107 edba
000003c0: 1191 d7bb a335 6dbb 79cc 3dbb 4080 01b8
000003d0: 1b19 1c3b cf92 933b cb29 63bb 3e58 1c3b
000003e0: 68c1 4e3b 9a81 653a c919 423a e802 2638
000003f0: 14ee a33a 5c43 883a 429b 703b 4546 03bc
0.003996354 -0.0019978683 -0.0030965772 -0.0072542187 0.0028772522 0.00081877224 0.0033655916 0.0040107565
-0.0012492345 -0.00046580605 -0.0029709728 0.0008192018 -0.0029862055 -0.0019910745 0.004145816 0.0030754772
-0.0014976081 0.00093440275 -0.0025203363 -0.001614897 -0.004714497 -0.0031421217 0.0012772143 0.0018008624
0.0007553756 -0.0006928014 -0.0011756109 -0.0023606806 -0.0025805272 0.003649476 -0.00071672077 -0.001743532
-0.0016334332 0.0029593683 0.0053152684 -0.0052670576 -0.0015044414 0.0008293019 -0.0038469895 0.0030195126
0.002277974 -0.00047926823 5.8773847e-05 -0.0022378878 -0.0043454487 -0.0043084584 -0.0027960062 -0.0009983666
-0.0033840556 -0.0007165885 0.0017250978 -0.00053197925 -0.0027810796 0.0017820224 -0.0014947837 0.0016982602
-0.0015426691 -0.0028252203 -0.0019658934 0.00085339707 -0.0017553172 0.0026922505 -0.00269872 -0.0021214772
-0.0017051068 0.0024253442 -0.0029373555 0.00407975 0.004092616 -0.002569837 0.0029995732 0.0012192556
0.00019247252 -0.0032053199 -0.0028809397 -0.00021971171 -0.0021318742 0.0055180606 0.0048755384 0.0017636288
-0.0027682318 -0.00017080596 -0.0040707043 0.00188466 -0.0013611972 -0.0028249538 -0.0020800587 0.0026641432
-0.0016781888 -0.00068845286 -0.0039954227 0.00020426739 0.0064392635 -0.003935725 0.0031184678 0.00013825312
-0.0035876804 2.475374e-05 0.00556958 0.00081570365 -0.0014504412 0.0054498534 0.0043995418 0.00476184
-0.0019988625 0.0012150666 0.0022708764 0.0025089057 0.0034696078 0.0064831814 -0.0020716658 0.0034325023
0.0026035754 0.0047430624 -0.0035795246 0.0022370256 -0.0037617274 0.0011411317 -0.00043727102 -0.0019908822
-0.0022651278 0.0013833538 -0.0025764906 0.0023865427 -7.072049e-06 -0.0017615119 -0.003214354 0.003411462
-0.00069006556 -0.00018452603 0.0019281704 -0.0015622457 0.0008336591 0.0010464537 -0.0018198607 0.0014243235
0.0003927266 -0.0007024054 -0.0030670254 -0.003902218 0.0014618398 0.0049943463 -0.0002527289 -0.0045560035
-0.0021504303 -0.0027048716 0.0011036954 -0.0015562964 -0.0038977677 0.00018178654 -4.4405897e-05 0.000240227
-0.00045543374 0.0015985946 0.008387371 0.0010567964 -0.000661985 -0.0031615577 0.0021538867 -0.0024901296
-0.0031361491 -0.0011948287 -0.00028716685 0.0028869451 -0.001512445 -0.0057997685 -0.0005045352 -0.00027777132
-0.0014247515 -0.00051522674 -0.0035000667 0.0032408638 -3.3071847e-05 -0.0022636335 0.002496061 0.00093920855
0.0017376111 -0.0007835126 -0.0004022713 0.0036869983 -0.0001774333 -0.00048975414 -0.0053353636 -0.0055012507
-0.003055655 0.0031384435 -0.006057328 -0.008068611 0.0014503244 -0.0048526 0.0021257107 0.0005465362
0.0025974656 -7.4824435e-05 0.0035706684 -0.0025952845 0.0010945556 -0.0058325888 0.0017941786 0.0029042412
-0.0015421733 -0.0016058574 0.0013739917 -0.0010955222 -0.0020201541 -0.0016771706 -0.0018252581 -0.0045061302
-0.0069757886 0.0041260403 0.0033209398 0.00082484586 0.00013520147 -0.0019856778 0.0006965016 -0.00032205117
0.0021173332 -0.0042290036 -0.0023338012 0.000337585 -0.0032277522 0.0021391516 0.0007751507 0.003034115
0.0047075367 -0.003844504 -0.00024120123 0.0021104892 0.0058388803 -0.0025776487 0.00042475626 0.00014150835
-8.922681e-06 -0.00024030401 -0.0025847345 -0.0034489771 0.0018403449 -0.0012586438 -0.0021697532 -0.0018083808
-0.0065785726 -0.00361953 -0.0028960987 -3.087544e-05 0.0023818675 0.004503585 -0.0034662362 0.0023856307
0.0031548385 0.0008754969 0.0007404355 3.958019e-05 0.0012506866 0.0010396051 0.0036713635 -0.008012359

bn1.running_mean f4 [256]
00000000: bcc1 24be 5354 02be 4922 02be 00b7 ca37
00000010: 8dc3 c0bd 6b5a 013e 2780 f13d cc55 233e
00000020: db5b 34be f354 8d3d 0384 0fbe ca06 44be
00000030: 68f7 d2bd ca42 303e cb28 92bd 46bc 53be
00000040: ed05 b0bc 225b e23d a949 02be 36f4 983d
00000050: c2a6 3b3e 650b 59be fb7a f5bd d866 34bc
00000060: 4426 4cbd 3439 6c3e c8be 173e 832f 82be
00000070: 5cc5 173e 713b 17be fec5 113e 6fd7 5cbd
00000080: 66a7 333e 02b4 4cbe 310a 113d bdbe 063e
00000090: 8ae7 ea3d 5aaa 20be 4b6b 24be f9c3 29bd
000000a0: f250 adbc 26f7 cdbd 6e28 173e d85d 7d3d
000000b0: eb15 5bbb 4e6f c73d 531d 933d 9539 b93d
000000c0: 9db1 c6bb 3c66 01be 33ce 023e 3680 7bbe
000000d0: c07b 323e b7b5 5c3e f030 68be 0b04 673d
000000e0: 4de5 93bd caf4 4b3e 8c28 9b3d 4df7 7ebc
000000f0: 8cee 763d 0979 1f3e ab48 53bc 802e 2f3e
00000100: 46eb 513e 0a57 ec3d d898 443b 3853 843c
00000110: bca8 c1bd df1a 373e 8568 ae3c 03d6 353d
00000120: e6d0 97bd 1217 88bd 5cc8 39bd a45d 7e3e
00000130: 5344 683e 4a95 e7bb f696 1dbd 07ab 8f3d
00000140: 73f7 0c3e 6fd9 a2bc 4831 17be 911f 013e
00000150: a622 25be 653a 7c3e 8cdb 77be 789a 433e
00000160: 8206 ed3d 9ed4 7cbe 715d bd3c 1fe2 1abe
00000170: 2ce6 32be 7e50 2fbe b002 883a da32 5b3e
00000180: 52f1 2f3e 3dee 043d 88fc ea3d 6e97 323d
00000190: 06ff 6fbd b7c9 67be d488 f2bd 5bb7 193e
000001a0: ba27 603e 1238 4e3e 06bc f7bc 0234 a7bc
000001b0: 39a9 4bbe 9ee2 82be 7d4c 95bd 9734 57be
000001c0: ba55 61be 37fa 5c3e c55a a53c ccee 693d
000001d0: 8dfe 52be 5817 8ebc ce75 30be 45dd fe3d
000001e0: d3dd c13b 3912 813c 8c0e fb3d 30bc b33b
000001f0: c39d fa3d ca7e e5bb 040b 233d 2743 e53c
00000200: 507e 0dbe ecc4 c43d 40b1 a3bb f8ab 003c
00000210: ecdf f4bd dfbf 103e a059 16be 594f 69be
00000220: 9190 b13d d54e aa3d 2f60 e3bd 70ac 29be
00000230: 3c18 67be 90da ba3d 4603 133e e3f6 10be
00000240: a567 c4bd 5364 0bbd 1de4 e33d d90b 3fbe
00000250: 06d8 413e 8bfa c33d 0553 45be ec7d 71be
00000260: 4d53 cebd 4cf0 7abe a241 243e d50d ca3d
00000270: b6e9 483e eaa7 573e 88f9 e0bd 8c09 26bd
00000280: a095 2bbd 1cc8 153e a2c2 5f3e 824e be3d
00000290: da49 0d3e 2140 cdbd fb2e 83be e2e6 193d
000002a0: dbcb 23bd f12f 503e c01f 35be 4207 613e
000002b0: c525 433e 9a01 3abc 96db fabd 0cd2 10bb
000002c0: 3cd6 133c 9373 48bd 12be 1ebe 0e35 ad3d
000002d0: 2781 053e b82f 10bd 39f3 3b3e 6453 4cbe
000002e0: e2ad c53c 3bdf 4bbe 7bb9 43be a66b a93d
000002f0: fd83 4cbe e15e f63d df68 a1bd 523f 103e
00000300: d843 2abe de4d 043c a242 c23c ce42 19be
00000310: 7a89 a53d 94cf 4b3e b9c7 85bd ac50 f63d
00000320: 0b6e 023e 30eb 6b3c 2be2 1ebe b9de 003e
00000330: be74 b3bd ccab a43d 7cb0 3bbe f4ef 7e3d
00000340: 5670 c7bd 2f23 b8bd 17c6 493e a2eb 063d
00000350: 9fe9 01bd b3e5 4a3d 1f51 2f3e 9aaa 1bbe
00000360: 78d8 273e 8f1e a0bd 886a afbd 626b fcbd
00000370: cfc2 993d f094 3bbe f3e2 3ebb 4e6b bb3d
00000380: 6466 db3b f2d9 8ebd 8e31 593e 76ed 0cbe
00000390: f8dd 4ebd c76a 333e 28a8 6abe ee96 0bbc
000003a0: fccb 6dbe 6cf6 063e e6b8 50be b03f 8a3c
000003b0: b1eb 40be 3ec1 16be f807 70be b561 5bbe
000003c0: 6ae0 c2bb add9 1c3e a1bd 63bc 314c 6dbe
000003d0: 3c5e 75be 0ad8 61bd 20d7 f23d 1035 a8bb
000003e0: 37b6 d5bc f755 013e ffaa 333e 354a 073e
000003f0: 9f55 f8bd c914 033e 00c7 c538 01af 01bd
-0.16089529 -0.1272748 -0.12708391 2.4165493e-05 -0.09412298 0.12632148 0.11792021 0.15950698
-0.17613165 0.069009684 -0.14015202 -0.19143215 -0.10301095 0.17212978 -0.07136687 -0.2067729
-0.0214872 0.110525385 -0.12723412 0.074684545 0.18325332 -0.21195753 -0.11986347 -0.011010848
-0.04984118 0.23068696 0.14818871 -0.25426874 0.1482138 -0.14768769 0.14235684 -0.05391639
0.17544326 -0.19990543 0.03541011 0.13158698 0.11469944 -0.15689984 -0.16056554 -0.04144666
-0.021156762 -0.100569054 0.14761516 0.061857074 -0.0033429812 0.097380266 0.071833275 0.09044186
-0.0060636536 -0.12636656 0.12773971 -0.24560627 0.1743002 0.21553694 -0.22674918 0.05640034
-0.0722147 0.19917598 0.07576093 -0.015561891 0.06028609 0.15573515 -0.012895743 0.17107582
0.20499906 0.11540039 0.0029998329 0.016152963 -0.09456012 0.17881344 0.021290073 0.04439355
-0.07412891 -0.06645025 -0.045357093 0.24840409 0.22682314 -0.007067357 -0.038474046 0.07015043
0.1376627 -0.019879071 -0.14764893 0.12609698 -0.16126499 0.24631651 -0.24204844 0.19101894
0.11573507 -0.24690482 0.023115845 -0.15125321 -0.17470616 -0.17120549 0.0010376777 0.21406117
0.171819 0.032453764 0.11473948 0.043601446 -0.05859282 -0.22635542 -0.11842504 0.15011351
0.21890154 0.20138577 -0.030241024 -0.020410541 -0.19888772 -0.2556352 -0.072899796 -0.21016155
-0.22005358 0.21579824 0.020184884 0.0571125 -0.20604916 -0.017345116 -0.17232439 0.124445476
0.005916336 0.01575576 0.12258634 0.00548508 0.12237122 -0.00700364 0.039805427 0.027986122
-0.13817716 0.09607872 -0.004995495 0.007853501 -0.11956772 0.14135693 -0.14682627 -0.22784175
0.08670152 0.08315817 -0.1110233 -0.16569686 -0.22567838 0.09123719 0.14356717 -0.1415668
-0.09590081 -0.034031224 0.111274935 -0.18656863 0.18930063 0.09569272 -0.1926995 -0.23583192
-0.10074482 -0.24505728 0.16040662 0.098659195 0.19620404 0.21060148 -0.10985094 -0.04053645
-0.04189074 0.14627117 0.2185159 0.09292318 0.13797703 -0.10021997 -0.2562178 0.037573703
-0.039989334 0.20330788 -0.17687893 0.21975425 0.19057377 -0.011352921 -0.12248914 -0.0022097854
0.009023245 -0.048938345 -0.15502194 0.08457385 0.13037549 -0.03520176 0.18354501 -0.19953686
0.024130765 -0.19909374 -0.19113724 0.082724854 -0.19972225 0.120298155 -0.07881331 0.14086655
-0.16627443 0.008075206 0.023713414 -0.1496689 0.08082862 0.19903404 -0.06532235 0.12027106
0.1273729 0.014399335 -0.15515964 0.12584962 -0.08762501 0.0804058 -0.18329042 0.062240556
-0.09738223 -0.08991086 0.19704472 0.03293956 -0.03171694 0.049535464 0.17120789 -0.15201798
0.1639117 -0.078183286 -0.08565241 -0.12325169 0.0750786 -0.18318534 -0.0029126971 0.09151326
0.0066955555 -0.069751635 0.2121031 -0.13762459 -0.050504655 0.17521201 -0.22915709 -0.008519871
-0.23222345 0.1317994 -0.20383033 0.016876072 -0.18839909 -0.14722154 -0.2344054 -0.21423991
-0.0059471624 0.15317412 -0.0139001915 -0.23173596 -0.23961729 -0.05513767 0.11857438 -0.0051332787
-0.026087863 0.12630449 0.17545699 0.13211901 -0.12125706 0.12800898 9.430759e-05 -0.031661037

bn1.running_var f4 [256]
00000000: d6f8 633e 7089 3a3e e44e ac3e 6329 a23e
00000010: b828 433e 20e1 c23e c98b 8f3e 0f9a fb3d
00000020: 48ea de3e 5353 6b3e 0cb4 3a3e 70fb 763e
00000030: 86c5 9d3e 7a6e a83e b94e 093f 98a1 1e3f
00000040: 848c d63e 1326 b53e 5597 dc3e ebcb db3e
00000050: 35d0 603e bcea d63e 114f a63e e91a 9a3e
00000060: 8ec2 f33e 50ed 6d3e 9025 8c3e 2ab3 d53e
00000070: 8617 ab3e 1ebc b13e aa88 833e 3bcd a23e
00000080: ab80 4f3e b351 0a3f aaa9 b93e 6518 8c3e
00000090: 35a8 ba3e 94fa 8e3e 6a0c 083e fbc5 bb3e
000000a0: 17de a73e ba4d e73e 6fc0 9e3e 48f1 be3e
000000b0: e289 4d3e b0fb a73e 4914 903e b7d8 9c3e
000000c0: 54db 713e 2b81 993e 5fd0 733e c8f5 7d3e
000000d0: e1fc b43e 60a3 cf3e 5141 c73e 158c df3e
000000e0: 1c11 ca3e 3e59 bb3e 0639 c23e 7c47 973e
000000f0: 0cea a13e 8693 563e f2c9 eb3e 0d67 a93e
00000100: bac9 b33e e2e1 b83e 5cbe 973e 0e29 a73e
00000110: b29d 8b3e 589e 9d3e ee7d 0d3f e46e 513e
00000120: 350c c13e 5a99 af3e 4c25 bc3e 667c 973e
00000130: 9a5c c23e 951b cc3e ff77 d83e 1fd7 8c3e
00000140: 6a26 b43e d416 f33e 7266 c83e c72c b03e
00000150: 4418 8e3e 5c25 b83e 8d27 bc3e 5af3 033f
00000160: e290 af3e 73ae a03e 8106 f93e a4f3 b83e
00000170: 869d 883e ea06 a43e d458 b23e 049f d93e
00000180: 1464 b93e 3764 b33e 043d 8e3e 2b7b c73e
00000190: d26b 063f f48d b83e f84b d93e bac5 d43e
000001a0: f0dd e93e 0538 a73e 7a89 c73e aac4 773e
000001b0: bd73 da3e 8992 c33e eed9 823e 16dd b53e
000001c0: 0819 ad3e 1169 cb3e b0f2 903e f678 bf3e
000001d0: 5e10 a13e 273d 853e bcd6 793e cd27 c93e
000001e0: f6d0 a93e b23d 7d3e 59b9 9e3e 9ba7 ed3e
000001f0: 2075 cb3e 6881 5c3e 018e c53e 8c9b 7d3e
00000200: 9653 a63e 61e6 873e 1876 e83e 2e3a d63e
00000210: 428b ad3e b150 b73e 26d9 b73e 326b 913e
00000220: 31c9 933e fa6e 893e 8925 3a3e 0308 863e
00000230: 6c17 9f3e 5a5f 9f3e c971 953e eb56 5b3e
00000240: 8a51 c43e 3cf4 863e 7e14 c63e f6c1 ed3e
00000250: 209c c03e cc9f 8b3e 1672 373e 6442 733e
00000260: 2c0c 053f aca3 553e cf41 5c3e 1086 913e
00000270: 1fba 6c3e 6036 913e 8758 af3e c5a4 923e
00000280: 9271 8b3e 57c7 dc3e 9aec b43e 772f 8d3e
00000290: b6dd f13e 614d a23e 777d b93e 83f1 9f3e
000002a0: 280d 923e 6539 b53e d4a8 f93e b488 943e
000002b0: e22f c83e 3d22 ae3e 6e70 8a3e ade7 843e
000002c0: e8c1 953e c400 ca3e 3e3c 913e 1ab4 1f3e
000002d0: eb0f b53e 3e27 8d3e c192 8a3e 3b5f 993e
000002e0: ced5 c63e 9289 d33e b000 ef3e 9e59 d43e
000002f0: a3e7 ae3e 4efd e53e 80eb e43e 833d cb3e
00000300: abbc bf3e 70f9 563e 9639 c73e 0ea3 b63e
00000310: 2252 663e a469 673e 5aeb aa3e 720c 883e
00000320: 1bd8 a83e 3908 9d3e c79c ac3e bd73 cd3e
00000330: 792a 4f3e 1c6f 983e 5e22 823e c5cb fc3e
00000340: eb40 d33e 41d8 893e 079a 9c3e 048b 803e
00000350: 4505 1b3f 0bf2 7b3e 80d7 b43e 667c cb3e
00000360: 12e8 c23e db38 083f d081 853e ac6c 683e
00000370: 049e c13e 26f8 e33e 1e5e bd3e 5657 a63e
00000380: 01b4 b23e 95df 743e 3091 963e e062 683e
00000390: 6f21 cb3e aa2f 303e d17f 8d3e 6c64 523e
000003a0: 46b9 053f 9b71 ab3e 81e7 a63e 785d f53d
000003b0: 7f3e 743e 9a23 c53e 1f7a 923e 64ec 8c3e
000003c0: d8bb 9e3e f616 8b3e bd58 9d3e bd0c 6f3e
000003d0: 45ed 0e3f 519f 763e c61b d73e 6c55 e63e
000003e0: db5e 6f3e 6bd3 153f c49d 243e 2c57 863e
000003f0: a599 d93e 5d36 cc3e 8f29 c23e b7ef 813e
0.22262892 0.18216491 0.3365394 0.316722 0.19058502 0.38062382 0.28036335 0.12285244
0.43538117 0.22981004 0.18232745 0.24119353 0.3081476 0.32896787 0.53635746 0.6196532
0.4190408 0.3538061 0.43084207 0.42929015 0.21954425 0.41975963 0.32482198 0.30098656
0.4760937 0.23235059 0.27372408 0.41738254 0.33416384 0.34713835 0.25690204 0.31797203
0.20263927 0.54030913 0.36262256 0.27362362 0.36456457 0.2792555 0.13285986 0.36674485
0.3278663 0.45176488 0.3100619 0.37293458 0.2007213 0.3280921 0.28140476 0.3063409
0.23618823 0.2998136 0.23809956 0.2480079 0.3534918 0.40554333 0.3891702 0.43661562
0.39466178 0.36591524 0.3793413 0.29546726 0.31623876 0.20954713 0.4605251 0.33086434
0.35114843 0.36109835 0.2963742 0.3264851 0.2726875 0.3078487 0.5527028 0.20452458
0.37704626 0.34296685 0.36747205 0.29587096 0.37961274 0.39864793 0.4227905 0.27507874
0.35185558 0.47478354 0.3914066 0.34409162 0.27752888 0.35966003 0.36748925 0.515432
0.34290224 0.31383094 0.48637775 0.36123383 0.2668268 0.32036525 0.34833395 0.42504132
0.36209166 0.35037395 0.27780926 0.38961157 0.5250827 0.36045802 0.42440772 0.41557103
0.45677137 0.32659927 0.38972074 0.24196115 0.42666426 0.38197735 0.25556892 0.35520238
0.3380816 0.39728597 0.28310156 0.37396973 0.314578 0.26023218 0.24398321 0.39288178
0.33167237 0.24730566 0.31000784 0.46416935 0.39737797 0.2153374 0.38584903 0.24766368
0.32485646 0.26542953 0.45402598 0.41841263 0.33895308 0.3580375 0.3590786 0.28402096
0.28864434 0.2684248 0.18178381 0.26177987 0.31072557 0.31127435 0.29188374 0.21419875
0.3834346 0.2635821 0.3868751 0.46437043 0.37619114 0.27270353 0.17914614 0.23755795
0.519717 0.20863217 0.21509479 0.28422594 0.23117875 0.28361797 0.34247229 0.28641334
0.27235085 0.43120834 0.35336763 0.27575275 0.47239465 0.3169966 0.36228535 0.31238946
0.28525662 0.3539535 0.48761618 0.29010546 0.39099032 0.34010497 0.27038902 0.25958005
0.292495 0.3945371 0.28366274 0.15596047 0.35363707 0.27569002 0.2706509 0.29955468
0.38834995 0.41315895 0.46680212 0.41474622 0.341611 0.4491982 0.44710922 0.39695367
0.3744863 0.2099359 0.38911122 0.35671276 0.22492269 0.22598892 0.33382684 0.26571995
0.32977375 0.30670336 0.33713362 0.40127364 0.20231046 0.2977227 0.25416845 0.49374214
0.41260466 0.269228 0.30586264 0.2510606 0.60554916 0.24604051 0.35320663 0.39743346
0.3806768 0.53211755 0.26075602 0.22697705 0.3781587 0.4452526 0.36985868 0.32488507
0.34902957 0.23913415 0.29407644 0.22693968 0.39673945 0.17205682 0.2763658 0.2054612
0.5223583 0.33485112 0.32598498 0.119807184 0.23851965 0.38503724 0.28608796 0.27524102
0.31002688 0.27165955 0.30731764 0.23344703 0.55830795 0.24084212 0.42013377 0.44987047
0.23376028 0.58525723 0.16075808 0.26238382 0.42500034 0.39885226 0.37922332 0.253782

fc2.weight f4 [128, 256]
00000000: 6a1e 2b3c 0814 5abd b3b7 beb9 886e e43c
00000010: af6a 4dbc d229 3e3c 657a d53c 49ac 273d
00000020: 17a1 0a3d 9a31 51bc 0fdc 18bd e987 4ebd
00000030: b385 163d ecc8 45bd 7219 72bd ca1e babc
00000040: c170 733c 2757 693d f36a 593d a5b0 a33c
00000050: 169d 303d 4de6 d93c f95f 3f3c 917e 443c
00000060: 9c75 423c 164b dfbc 11d2 35bd ddfa cbbc
00000070: 28e5 683a 74c6 9c3c 0cd9 293b 2f64 6c3d
00000080: fc9a bbbb c4e1 02bd 7a23 be3c 9863 ffbc
00000090: 8c72 b33b 4f63 1c3d 3de2 5a3d dfb0 eebc
000000a0: d265 32bd 6108 bc3c f0a3 383d f072 06bd
000000b0: 8431 543d 9306 8abc 12fb 003d 5793 393d
000000c0: 1c99 0f3d 7ae6 70bd b776 e2bc 6da4 dabc
000000d0: 3eee baba 345c dc3b dc68 65bd e982 63bd
000000e0: 9671 813d 609b 29bd 6f05 703b cd35 c03c
000000f0: ff49 153d 848f 27bd 0443 5d3d 26d0 55bd
00000100: 64e6 e1bc b421 1f3c a62e 403d 6532 73bd
00000110: 2566 733d 7f71 64bc 0399 8e3c 091a 67bd
00000120: a2fe b6bc 8744 2a3d 00dd 33bd 6fbf 38bd
00000130: 368f f7bc efe4 4f3d 591a bfbc 705c 433d
00000140: c1de 963c 4fe5 39bc e0de 68bd a2f1 edbc
00000150: e6cc 13bd 83cd 233d 2911 e5bc c197 3bbc
00000160: fabb fa3c 66f1 9ebc 7df7 73bd de88 a73c
00000170: 5d73 5f3d d35f 4f3d 1d97 25bd 952a 59bd
00000180: 1054 c33a c189 23bc 49b7 81bc 6849 23bd
00000190: 5433 6bbd 1ef7 4f3c 7d27 21bc bcce 513d
000001a0: 94f8 68bd 6d70 4cbd caa3 03bc 439b cb3c
000001b0: c793 66bb 8b72 e4bc e133 3a3d 2a2f 963b
000001c0: 28d6 263b ee42 053d a232 bf3c 8239 e2bc
000001d0: 49b9 b93a 8d6b cd3a 5041 3d3d fafa 6f3d
000001e0: 4669 0cbc 885f 46bd 03d6 f83c e0ba 3dbd
000001f0: 472a 6c3d 9789 5a3d 70e0 403d 64f6 87bb
00000200: f052 213d 9ce3 963c f2e2 33bd e6d0 5cbc
00000210: 660c 1f3d 6d5f 69bd 0415 f43c b716 553c
00000220: 1ee4 f0bc 5e1c c13c ff2d f5bc 3e11 183d
00000230: 3e9b 983c deb0 5d3d d6a7 4c3d 0d4e 6ebd
00000240: a8b3 c23c 6fa9 3a3d f774 0fbd f8fb 263b
00000250: d227 353d aeae 063d 403a 853d 4c7b 46bc
00000260: 156a da3b def9 20bd 5339 c7bc 80b5 c93b
00000270: e6c1 7ebd 655b 0a3d dc50 383b 2dcf 0ebd
00000280: da24 673d 7af6 123d f83d 40bd 4c06 8b3a
00000290: 2403 e2bb efe9 3c3d 850e 23bd d380 a43c
000002a0: 3257 7bbd e6e3 803d 2de2 f43c 11d3 8b3a
000002b0: 555c b83b 5048 ab3c ebe7 bd3c 7127 b3bb
000002c0: 2f70 10bd 39cd 1c3c 3e8a 1cbd 2dea a93c
000002d0: d9f9 903c 5188 823d c70c 403b ecde 09bd
000002e0: bc5f 83bd 561c fcbc 4e56 04bd 3da7 4d3d
000002f0: c67e 473d 5cd5 d73c ab9f 8bbb 8237 813d
00000300: 92e6 71bd 8916 51bd 6a3a 5ebd 785d f53c
00000310: 7b39 b13b 48ef 1a3d a314 6a3d cd3e 98bb
00000320: 6b66 8cbc 91af 34bd 8154 2d3c f6a3 1fbd
00000330: 5db9 63bd 0f39 68bd 8f59 e43a d300 453d
00000340: a428 3abc e59a 4c3d 62b4 06bd fd39 61bd
00000350: a9ff 5a3d 8e1d c7bb 425d 3fbb fefc 153c
00000360: decf 903c 4bf0 27bc 96f8 8c3c a51a 35bd
00000370: c252 5bbc 398e 0fbd 9aa9 3ebd 2826 823d
00000380: c9fb 173c c18d f63c 68f2 163c 446b 88bc
00000390: 08ad bbbb 63af 043d a68f 55bd bef5 013c
000003a0: d646 50bd efc8 b03c e9cd babb 85ed 3d3c
000003b0: 70a5 4fbd 9743 16bd 8b8e 803c 1df5 323d
000003c0: 0e7e e73c 46a3 46bd 6b80 7ebd a078 14bc
000003d0: 682b f7bc 5150 003d 94a6 4b3d fe74 49bd
000003e0: 38a8 0fbb 417a 323d e8a0 a4bb 2147 b4bc
000003f0: a5d2 5bbd b5cc e03b 7176 03bd 5465 203c
0.010444263 -0.05324176 -0.0003637649 0.027884737 -0.012537642 0.01160665 0.026059339 0.04093579
0.033845033 -0.012768174 -0.03731924 -0.050422583 0.0367486 -0.048287317 -0.059106298 -0.02271976
0.014858426 0.05696788 0.05308051 0.019981692 0.04311856 0.026599074 0.0116805965 0.011993066
0.011868861 -0.027257483 -0.044389788 -0.024899894 0.00088842446 0.019137599 0.0025916724 0.05771273
-0.0057252627 -0.031953588 0.023210276 -0.03117542 0.0054763015 0.038180646 0.053438414 -0.029137073
-0.043554135 0.022953214 0.045078218 -0.032824457 0.051805034 -0.016848838 0.03148944 0.04530653
0.035058126 -0.05881355 -0.027644498 -0.026689732 -0.0014261676 0.0067248587 -0.056008205 -0.055544768
0.06320493 -0.041407943 0.0036624332 0.023463154 0.03644752 -0.04090835 0.05401899 -0.05220046
-0.02757568 0.009712625 0.046919487 -0.05937423 0.059423584 -0.013943075 0.017406946 -0.056421313
-0.022338215 0.04156926 -0.043911934 -0.04510444 -0.030219655 0.050755437 -0.023327993 0.047695577
0.018416764 -0.011346175 -0.056853175 -0.029045884 -0.03608408 0.039990913 -0.027962284 -0.011449755
0.030607212 -0.019402217 -0.059562195 0.020451006 0.05455338 0.050628494 -0.040427316 -0.053019125
0.0014902372 -0.009981574 -0.015834467 -0.039864928 -0.057421997 0.012693195 -0.009836075 0.051222548
-0.056877688 -0.049911905 -0.008034656 0.024854308 -0.0035183297 -0.02788665 0.04545963 0.004583259
0.0025457237 0.032534532 0.023339573 -0.027615312 0.0014169599 0.0015672311 0.046204865 0.05858896
-0.008570021 -0.04843095 0.030375486 -0.046320796 0.057657506 0.053353872 0.04708904 -0.004149245
0.039385736 0.01841908 -0.043917604 -0.01347754 0.038830183 -0.05697577 0.029795177 0.013005904
-0.02940565 0.023573097 -0.02992916 0.03712582 0.018628713 0.05412375 0.04996475 -0.058179904
0.023767307 0.04557174 -0.035023656 0.0025479775 0.04422743 0.03288143 0.06505251 -0.012114357
0.006665478 -0.039300792 -0.024319327 0.0061556697 -0.062196635 0.033778567 0.0028124368 -0.034865547
0.05643163 0.03587959 -0.046934098 0.0010606735 -0.006897347 0.046121534 -0.03980877 0.02008096
-0.061362453 0.06293468 0.029893005 0.0010667761 0.005626241 0.020908505 0.023181876 -0.0054673483
-0.035263237 0.009570413 -0.038217776 0.020741547 0.017697262 0.063736565 0.002930449 -0.03365986
-0.06414744 -0.03077523 -0.03230887 0.05020832 0.048704885 0.026346855 -0.0042609773 0.063094154
-0.05905778 -0.05104688 -0.054254927 0.029951796 0.0054084635 0.037825853 0.057148587 -0.0046461583
-0.01713868 -0.044112746 0.010579229 -0.038974725 -0.055596698 -0.05669504 0.001742171 0.04809649
-0.011362229 0.049952406 -0.03288687 -0.054986943 0.053466473 -0.0060765212 -0.0029199873 0.009154556
0.017677244 -0.010250161 0.017208379 -0.044214863 -0.01338643 -0.035047743 -0.046548463 0.06354934
0.009276339 0.03009689 0.009213068 -0.01665271 -0.005727414 0.032393824 -0.052138947 0.007932125
-0.050848804 0.021580188 -0.005700816 0.011592274 -0.050694883 -0.036685552 0.01569297 0.04369079
0.02825835 -0.048495553 -0.062134188 -0.009061962 -0.030172065 0.031326596 0.04971941 -0.049183838
-0.0021920335 0.04357362 -0.0050240643 -0.022006573 -0.053667683 0.0068603405 -0.032095376 0.0097897835

fc2.bias f4 [128]
00000000: cc76 0738 a51a 0c3c 66a4 e0bc 1758 de3b
00000010: 2a1e d23a aa18 a03a 2740 6a39 beae 073d
00000020: 2f60 03bd 5957 d53b a2cc 85b7 a6b0 3d38
00000030: f012 a73c 5298 8138 50a1 0738 469d 1038
00000040: 277c 43b7 d57c e0b9 edf6 86bc ea0a 153c
00000050: 3bb6 003d cef4 4bb7 62e6 6739 174f edbb
00000060: d1da efba 5f43 043c 0828 fb37 0653 6e3c
00000070: 781b d33b 51c8 1438 0510 043d eee1 8a38
00000080: e6e1 e5bc f0e5 b4b8 7689 49b8 703e e2bc
00000090: f305 12b7 d676 90ba 83cf d83c 2d05 a4bc
000000a0: 4f2b 023d 8b06 f23b c0e7 3c33 033d 67b8
000000b0: 6584 26b8 85b2 5737 725a 23ba 8e0b 543b
000000c0: 0286 20b9 59c8 06bd c8e7 b03b ee46 de3b
000000d0: ecaa ec3c b615 77b9 ca86 113a 5095 e335
000000e0: 710f 9ebc 27e3 963c 299c 0bba b8ca 98b7
000000f0: 0ee1 2137 d256 7d38 a018 e8b6 c037 e1bb
00000100: f045 bd3c 60b0 8537 55d9 adb7 fa16 b43c
00000110: aea8 f43c 0419 c3bc 6f2b a9b8 c763 e83a
00000120: a743 033c 7af7 2d36 1aab e736 7c73 eab6
00000130: f520 82bc 8b8c 2e3c 62ae c5b7 1527 993c
00000140: a3eb ef3c 560b ec3c e4b4 bdbb fb68 a53a
00000150: 98fd e13c ea75 99b7 37f9 8e3c b6b9 e93c
00000160: c59a d63c 4ae7 1737 f676 17b7 f534 9937
00000170: b997 3f3c 12a8 8a38 604e ddbb 89b5 16bb
00000180: dec5 153b 1172 53bc 518b f63c b7a9 85bc
00000190: 1246 55b8 9eb0 973b efb7 8cb7 736a 033d
000001a0: 86b4 0737 d248 e236 61af 113c c52b 563b
000001b0: 94b4 dfb6 5223 f738 e522 aa3c 02e4 30bb
000001c0: bc04 1237 2e84 3c37 75b3 e136 1acb 80b6
000001d0: ca8e d23c e6a3 92b9 a838 7a3c 707c 173c
000001e0: 3a27 a1bc 9e49 12b8 2906 943c 0cf7 6cba
000001f0: 2c5d eab7 874d 1a37 ea8c 4c3c c43b e7bc
3.2297146e-05 0.008551274 -0.027422141 0.0067854035 0.0016030718 0.0012214382 0.00022339878 0.03312563
-0.03207415 0.006510657 -1.5950125e-05 4.5225628e-05 0.020394772 6.179571e-05 3.2336742e-05 3.4478748e-05
-1.1651812e-05 -0.00042817616 -0.016475165 0.00909684 0.03142379 -1.2156741e-05 0.00022115701 -0.0072420943
-0.0018299465 0.008072703 2.9940173e-05 0.0145461615 0.0064424835 3.547251e-05 0.03224184 6.6224355e-05
-0.028061818 -8.625898e-05 -4.8050155e-05 -0.027617663 -8.703663e-06 -0.0011021744 0.026466137 -0.020022
0.031779584 0.007386034 4.3982936e-08 -5.5131513e-05 -3.9700786e-05 1.2856563e-05 -0.0006231434 0.003235552
-0.00015308711 -0.03290591 0.005398724 0.006783358 0.028890096 -0.00023563844 0.0005551396 1.6956274e-06
-0.019294472 0.018418862 -0.0005325699 -1.821421e-05 9.648747e-06 6.040076e-05 -6.9170055e-06 -0.006873101
0.023104638 1.5936967e-05 -2.072441e-05 0.021983612 0.029865589 -0.02381564 -8.066638e-05 0.0017729931
0.008011735 2.592306e-06 6.9042553e-06 -6.9871876e-06 -0.015884856 0.010653625 -2.3565433e-05 0.018695394
0.029287165 0.028814 -0.005789386 0.0012619788 0.027586743 -1.829393e-05 0.01745282 0.028530937
0.026196847 9.0541525e-06 -9.027999e-06 1.8263681e-05 0.011693888 6.611658e-05 -0.006753728 -0.0022996387
0.0022853534 -0.0129056135 0.030095728 -0.016316278 -5.0848415e-05 0.0046292087 -1.6774951e-05 0.03208394
8.088658e-06 6.7438023e-06 0.008891911 0.0032679897 -6.66694e-06 0.00011784457 0.020768592 -0.0026991372
8.70338e-06 1.1236449e-05 6.726414e-06 -3.8383414e-06 0.025702853 -0.00027969404 0.015272297 0.009245977
-0.019672025 -3.4877674e-05 0.018069344 -0.00090394984 -2.793836e-05 9.197166e-06 0.012484768 -0.02822674

bn2.weight f4 [128]
00000000: e8f8 7f3f 1880 803f a902 803f 12ff 7f3f
00000010: daea 803f 8824 803f 35ec 7e3f 5080 803f
00000020: bdfb 7f3f 4eb7 7f3f b44c 803f b572 7f3f
00000030: fefe 7e3f 2f05 803f bd13 803f 30eb 7f3f
00000040: 31d0 803f c66c 803f e805 803f 3ab7 7e3f
00000050: b931 7f3f 8621 7f3f 76a0 7f3f eaa5 7f3f
00000060: d103 803f ce83 803f d42c 7f3f c458 803f
00000070: ac34 803f 6f09 803f 61c3 7f3f 88dc 7f3f
00000080: a514 803f 3353 803f 360f 803f 9837 7f3f
00000090: 730f 803f 430a 803f 090e 7f3f e309 803f
000000a0: f579 803f 3d90 7f3f a367 7f3f 69e0 7f3f
000000b0: 1573 803f ea22 803f a209 7f3f 125c 803f
000000c0: e712 803f 9b60 803f 34b4 7f3f 541d 803f
000000d0: 08bb 7f3f 0b35 803f 2aeb 7e3f 9094 7f3f
000000e0: 0207 803f 5658 803f 3c30 803f 317a 7f3f
000000f0: df02 803f e73d 803f 4635 7f3f c0be 7f3f
00000100: 2e18 803f 34f1 7f3f aad5 7e3f 8a6a 803f
00000110: c203 803f 8c5e 7f3f 73f8 7e3f 156b 803f
00000120: 2235 7f3f 4dfd 7f3f 28eb 7f3f 3537 803f
00000130: 6418 803f da9c 803f 42d6 7f3f 4cb6 7d3f
00000140: 570e 803f 1b36 803f ce49 803f 614a 803f
00000150: 6ab6 7f3f 79c2 7f3f 923a 803f 2b86 7e3f
00000160: 4a6f 803f 8d14 803f ef20 7e3f a61b 803f
00000170: 1e70 803f 79b5 7f3f d9a2 7e3f 09b2 7f3f
00000180: f4c6 7f3f 1f51 803f f6cb 7f3f fc3a 803f
00000190: 0c58 803f 1726 803f deac 803f e410 803f
000001a0: d444 803f 8e64 7f3f 17f2 7f3f 030e 803f
000001b0: 119c 7e3f e84b 7f3f 3db8 7e3f 0961 7e3f
000001c0: 1ca5 7f3f 068f 7e3f 0f4c 803f fa15 803f
000001d0: ccc8 7f3f ea74 7e3f f207 803f 05e9 7f3f
000001e0: 6e07 803f 99ed 7e3f 0be4 7f3f 6297 803f
000001f0: 4b60 7f3f 278f 7f3f 1141 803f 1a41 803f
0.99989176 1.0039091 1.0000812 0.9999858 1.0071671 1.0011148 0.99579173 1.0039158
0.999935 0.99889076 1.0023408 0.99784404 0.9960784 1.0001582 1.0006024 0.9996824
1.0063535 1.0033195 1.0001802 0.9949833 0.99685246 0.9966053 0.9985422 0.9986254
1.0001165 1.0040224 0.9967778 1.0027089 1.0016074 1.0002879 0.999075 0.9994588
1.00063 1.002539 1.0004642 0.99694204 1.0004715 1.0003132 0.9963079 1.0003017
1.0037218 0.99829465 0.9976751 0.999518 1.003512 1.0010655 0.99624074 1.0028098
1.0005769 1.0029482 0.99884343 1.000895 0.9989476 1.0016187 0.9957758 0.99836063
1.0002139 1.0026958 1.001472 0.99795824 1.0000876 1.0018891 0.99690664 0.99900436
1.0007379 0.9997742 0.99544775 1.0032513 1.0001147 0.9975364 0.99597853 1.0032679
0.9969045 0.9999588 0.99968195 1.0016848 1.0007443 1.0047867 0.99936306 0.9910629
1.0004376 1.0016512 1.0022523 1.0022699 0.99887717 0.99906117 1.0017874 0.99423474
1.0033963 1.0006272 0.99269 1.0008438 1.0034215 0.9988628 0.99467236 0.99881035
0.99912953 1.0024756 0.99920595 1.0018001 1.002687 1.0011624 1.0052755 1.0005155
1.0021005 0.9976281 0.99978775 1.0004276 0.9945689 0.997252 0.99499875 0.99366814
0.9986131 0.99436986 1.0023211 1.0006707 0.99915767 0.99397147 1.0002425 0.99964935
1.0002267 0.99581295 0.9995734 1.0046198 0.99756306 0.9982781 1.0019857 1.0019867
