tryst/model_round_1.pth (torch, 193715 bytes, 19 tensors)

fc1.weight f4 [256, 13]
00000000: 6b2f c9bd fa62 57be f63c 2cbe 65f4 133d
00000010: 3623 6fbc d150 9abc 44f4 96bc f62a 1c3e
00000020: d468 cdbd 8bbe 81be ccbc 36be 3e49 2bbe
00000030: fe86 10bd d4a2 ebbd 2f64 fabd ea3a fbbd
00000040: 1d04 20bd 26b6 3abd d4e8 30be 7854 d7bd
00000050: b5e1 03be be83 f2bd ab37 813d 2e07 c9bc
00000060: 1946 813e 6ec6 a23d 9a44 23be f845 1d3e
00000070: 88b7 3a3e 752e 86be e233 ac3b 378f 27be
00000080: e71f 3a3c d016 223e 4ad1 49bd 295f 643e
00000090: 4139 30be 0533 97bd 222e 513d b6c4 5fbe
000000a0: 8c64 dbbc 7340 8d3e 386c eabd 4000 763d
000000b0: d945 5a3e a4a4 2b3e 1a6d ccbd bc75 8c3e
000000c0: 0925 fa3d 8b2e 6b3e 9609 633e 8ecf 5abe
000000d0: 33e4 0b3e f36f 5c3d 3dd4 c9bd 1ef9 a93c
000000e0: 826f 633e 763e ffbb 649f 3d3e 1957 1a3e
000000f0: b8a5 053e edce f1bd 2c1e 8bbd 64f5 59be
00000100: 42db 95bd 1af7 63bc 8231 85be 2328 1dbe
00000110: fe42 33be 94af 1fbe 8897 813e 56ed 77be
00000120: 1c8d 4fbe d0fd 913d b5bc 76be 061d e13d
00000130: a8e2 293e 09f7 a6bc 2c55 163e 91ed ebbd
00000140: 6a5f 1e3e 37b4 2e3e a779 8cbe 099f f5bc
00000150: 99e8 4b3d ba57 d3bd 8e63 93bd 4c5a 66bd
00000160: 287a 7e3e b3db 2ebe ace6 8c3e d277 8cbc
00000170: aab7 38bc 1c25 f2bd 785b ea3d e871 30bd
00000180: 2113 393d 6ce1 2dbe b8a9 b8bd 1a11 c33c
00000190: 1207 023d 8ac6 3d3e b677 053b 03be cebd
000001a0: e72c ec3d 8fba 963b 9a7b 46bd acf9 803e
000001b0: aa31 1a3e afb5 82be 9fc6 86be 0070 503d
000001c0: 9999 1cbe c70d 71be 6e9b eb3d 1cf8 66be
000001d0: ecd0 19be e7b3 f5bd 3c77 973d 47d0 9f3b
000001e0: 09bc 883e c6a1 27be ae59 2abe 2e8f d2bd
000001f0: cedb 303d 0c17 d2bc 344b 663e 74c8 513d
00000200: 8536 743e e8fc 9abb f7b5 22be e855 b6bc
00000210: c477 393d 9697 713e 321a c33d 2b5b be3d
00000220: 0c4f 8fbc 574e 953d da9d e7bd 325e 953b
00000230: 7caa 103d 82fd b7bd 5054 fdbd 5c32 ea3d
00000240: 52d0 2abc 602a 5c3e bbca 03be 24c8 5b3e
00000250: 11fc 133e e883 4bbc 80d2 74be c17e 88bd
00000260: 561a 103e 550a 703e d2c3 21be d7d7 43bc
00000270: fef6 4cbe 7423 203d d040 01bc c498 013e
00000280: 25d6 14be 4498 54be 9012 803d 5f1b 8dbe
00000290: c8d4 283e 01c7 893b 691f 883e cdfb 143e
000002a0: 023e 703e cfb7 823e 4e50 8abd b43a 633e
000002b0: d89a 0dbe 04aa e53c 33cf a33d b831 e6bd
000002c0: c14c 47be 7094 4f3e 7ef7 4b3e e9d3 853b
000002d0: 8e4b 3dbb 7406 dcbb 8c15 523c 59c5 703e
000002e0: a84b 96bb dbcb 66be 4b15 80be d0d9 62be
000002f0: f809 823e 66d7 c0bd c61d 08be 3610 1b3c
00000300: fa81 5f3e 29aa a43c 3559 8a3e 4e22 7dbe
00000310: 58c1 463e 026a 1f3e ee46 eabd 4b14 3abe
00000320: d68c 73be b501 3a3e 5896 6b3e f08a febd
00000330: dae8 e0bb a691 483e 8ef6 4d3c 6b01 af3d
00000340: 1de8 5dbe 749e 75be 06d6 aa3d fe03 7d3e
00000350: 9438 543e f9b2 e03d 1216 88be dea2 2bbe
00000360: 512b a2bc 222a 88be fb01 fe3d 25af b6bc
00000370: a137 78be e673 89be 5251 e43c fdaf 823e
00000380: b62a d6bc dcbf 713e aeda 883e baee 483e
00000390: 5ac8 ab3d d93a 873c 42fe 213e ae9d 3ebe
000003a0: cad9 e6bb 3a24 64be 1de0 853e 6a91 853e
000003b0: 3844 f0bd aed9 483e ff93 82bd b8df 9c3d
000003c0: 18f9 41be 9a86 6dbe 7fc8 ef3d 792a 4ebd
000003d0: 39eb 10be 5094 77be 3319 0e3d 0e35 743d
000003e0: d38c 113e b5ab ef3d e5f1 e6bd 322b fc3d
000003f0: 4f52 033e cc69 333d 9280 7b3e cc06 76bb
-0.098234974 -0.2103385 -0.1682013 0.036121745 -0.014595797 -0.018837364 -0.018427022 0.15250763
-0.1002976 -0.25340685 -0.17845458 -0.16727158 -0.03528499 -0.115056664 -0.1222614 -0.12267096
-0.039066423 -0.045583867 -0.17276317 -0.10514158 -0.12879069 -0.11841534 0.06309446 -0.024539556
0.25248793 0.07948004 -0.15944138 0.15358722 0.18234074 -0.2620732 0.0052552084 -0.16363226
0.011360145 0.15829015 -0.04927186 0.22301926 -0.1720934 -0.07382778 0.051069386 -0.21852383
-0.026781343 0.27588233 -0.11446422 0.060058832 0.21315707 0.16762024 -0.09981747 0.27433574
0.12214095 0.22966973 0.22171625 -0.21368238 0.1366127 0.0538177 -0.09854934 0.020748671
0.22210506 -0.0077894283 0.18517834 0.15072288 0.13051498 -0.11807046 -0.06792864 -0.21285015
-0.07317211 -0.013913894 -0.26014334 -0.15347342 -0.17506024 -0.15594321 0.25310922 -0.2421163
-0.20268673 0.07128489 -0.24095424 0.10991864 0.16590369 -0.020381467 0.14680928 -0.115199216
0.15466085 0.17060934 -0.27436563 -0.02998306 0.04978237 -0.10319467 -0.07196723 -0.056238458
0.24851286 -0.17075996 0.2751974 -0.017146979 -0.011274258 -0.11823484 0.114432275 -0.04307738
0.04518426 -0.16980523 -0.09016746 0.023811866 0.031745024 0.18532768 0.0020365543 -0.100948356
0.11532002 0.0045998762 -0.04845772 0.25190485 0.15058008 -0.2552924 -0.2632341 0.05088806
-0.15292968 -0.23540412 0.11504255 -0.22555584 -0.15021104 -0.11997204 0.07395789 0.0048771235
0.2670596 -0.16370305 -0.16635773 -0.102812156 0.043178372 -0.025645755 0.22489625 0.051216558
0.23848923 -0.004729856 -0.15889727 -0.02225776 0.045280233 0.23592982 0.09526481 0.09294733
-0.017493747 0.07290333 -0.11309405 0.004558348 0.035318837 -0.089839 -0.12369597 0.114353865
-0.010425644 0.2150054 -0.12870304 0.21463066 0.14451624 -0.012421586 -0.23908424 -0.066648014
0.14072546 0.23441441 -0.15797356 -0.011953316 -0.20016095 0.03909631 -0.007888988 0.12655932
-0.14534815 -0.2076121 0.062535405 -0.27559945 0.1648742 0.0042046313 0.26586464 0.1454918
0.23461154 0.2553086 -0.06753598 0.22190362 -0.138286 0.028035171 0.079985045 -0.11239952
-0.19462873 0.20271468 0.1991863 0.0040840995 -0.0028884145 -0.0067146365 0.01282252 0.23512782
-0.0045866556 -0.22538702 -0.25016245 -0.22153401 0.2539823 -0.09416084 -0.13292608 0.009464314
0.21826926 0.02010067 0.27021185 -0.24720117 0.19409692 0.15567783 -0.1143931 -0.18171804
-0.23784193 0.18164714 0.2300657 -0.12428844 -0.0068636956 0.1958681 0.01257099 0.08545192
-0.21670575 -0.23986226 0.08341603 0.24708554 0.20724708 0.10971636 -0.26579338 -0.16761348
-0.019796045 -0.26594645 0.124027215 -0.022300312 -0.2423997 -0.26846236 0.027870808 0.25524893
-0.026143413 0.23608345 0.2672934 0.19622317 0.083878234 0.016507553 0.15819648 -0.18614838
-0.0070450054 -0.22279444 0.26147547 0.26087505 -0.11731762 0.19614288 -0.06375884 0.076598585
-0.18942678 -0.23195878 0.117081635 -0.050333474 -0.1415223 -0.2417767 0.034692 0.05962091
0.14213876 0.117026724 -0.112766065 0.12312926 0.12824367 0.043802068 0.24560764 -0.0037540672

fc1.bias f4 [256]
00000000: 2213 44be bf06 0dbe 3c14 1abe ab40 07bc
00000010: b76b 08be 844e 083e f82c 263e 39c1 463e
00000020: c0b7 42be cc2d 003e fcbc 22be 3fa3 6dbe
00000030: 1a55 d5bd 6b76 393e 7aed 82bd 1a41 4cbe
00000040: c7e5 4dbd 753e eb3d e3ef 2cbe 4ecf 923d
00000050: bc73 5e3e ac8d 83be ecd9 0abe a22f 53bc
00000060: 9a1e bebd 12e3 763e 3237 243e a969 84be
00000070: a500 1a3e 4edf 3bbe 8ec8 0d3e d672 84bd
00000080: e7fd 553e 2afe 53be d4a8 933d 3191 003e
00000090: 39c9 043e b4aa 24be 545f 41be 625c 39bd
000000a0: 987a 5ebd 55af bcbd 56f6 2b3e c726 8f3d
000000b0: 0073 13bc 1d40 f83d 5062 b83d cf37 e23d
000000c0: 903d 4c3d f4ea 12be f9d4 1e3e 19ec 86be
000000d0: d280 743e f534 813e 5ffb 7ebe 6ea4 d93d
000000e0: 0a52 babd de9f 843e 4e37 a43d 9cd1 18bd
000000f0: 18dc c53d af05 273e 9bf1 bdbc f801 3d3e
00000100: 9f82 833e da43 d63d 8ed0 a53c 84ee 7cbb
00000110: 8cc5 d7bd 6b6d 763e 21e3 f83c adb8 9e3d
00000120: 6b9c e2bd 4fa6 90bd 0fae bdbd af8f 773e
00000130: 24cf 6c3e a022 9ebc a8d0 91bd 9635 a43d
00000140: eb68 343e a5e9 c4bc 81d4 39be e6d3 1a3e
00000150: 695d 45be fa21 7f3e 619e 89be cfc0 603e
00000160: b067 ec3d 4869 84be 0ee1 7e3d 2f3f 4bbe
00000170: 52db 38be 7886 38be 2946 bfbb 6a7f 723e
00000180: fef7 1c3e 2ea5 113d fb66 243e 59d1 143d
00000190: 42ab afbd b0de 89be 72ad dbbd 4cdc 543e
000001a0: fe43 843e bbf8 5b3e 0d17 8abb 01d3 8cbd
000001b0: 3f84 51be 5039 7fbe a5b4 babd c134 7ebe
000001c0: d5df 8abe 464b 853e 8fba 043d 5c9b a73d
000001d0: 794b 70be 88a4 24bd 78e3 48be 91ff 143e
000001e0: 4845 95bc e58c c3bc adf2 103e 2a9c f53c
000001f0: 9925 f83d b693 ac3c 24d4 253d 8990 ad3d
00000200: bf6a 0fbe 37ff c83d c090 bdbc 6a15 223c
00000210: bb4b 18be 6c6c 443e d36f 54be fffe 7fbe
00000220: 3ea8 d43d ed78 023e ce3b ffbd 2b57 3dbe
00000230: 7c73 6dbe f082 0a3e 77ed 0f3e 84b0 46be
00000240: b0f8 f7bd 0ad3 47bd 7a08 1f3e 163b 59be
00000250: 858c 3a3e eb22 c93d 62b9 56be be4e 87be
00000260: f262 f2bd e916 8abe fd87 273e 159e f73d
00000270: 8a7a 693e 971e 743e 18d5 13be 7c2a bebd
00000280: 0373 99bd 929d 2d3e 1a9a 863e ccc1 f83d
00000290: 8ade 2f3e 2d9b 15be 0a01 80be f56e 053d
000002a0: 34f1 b5bd 6a9d 663e fcc4 46be 7cd3 793e
000002b0: 20f4 733e e47c 3dbd 609a 13be 1728 9ebc
000002c0: 94bc 2a3d 28d5 abbd 4e74 21be 7e6d cf3d
000002d0: 76bb 213e 1c79 1a3b f8ae 663e 38fc 61be
000002e0: 2d62 5cbc 220e 86be 9843 5dbe a647 8a3d
000002f0: d637 62be 5cac 2d3e 6dbe dfbd e067 343e
00000300: 62f3 3fbe de7e 18bd 2e92 0f3d 514b 4ebe
00000310: 7a95 b63d 2c8b 713e b6b4 c0bd f645 223e
00000320: a983 f73d aab6 3c3d cd90 4bbe b18a 1c3e
00000330: 9474 eabd 473f ec3d c53a 2cbe 9bef a03d
00000340: 1ffb 0bbe 6d74 debd 0395 813e 98f1 313d
00000350: 57a9 12bd 294f 413d a2e4 403e 4608 5dbe
00000360: f676 493e 168e f1bd fe8d b3bd c933 1fbe
00000370: b181 a83d 915a 37be 2c9e 5cbc 22f5 fe3d
00000380: 9b9a 103d a955 d3bd 6b78 853e 2eda 1abe
00000390: c326 7cbd b19e 4a3e 9e32 8abe 3983 80b9
000003a0: 0cec 7dbe f7cc 183e 3fc3 55be 6a19 61b8
000003b0: d0c7 5cbe e39d 53be dd09 89be 2916 71be
000003c0: e111 1b3d 7298 3c3e 7775 8fbc bd1b 81be
000003d0: e29b 6ebe 7fa1 9cbd bec9 e73d 4e06 123c
000003e0: f428 6eb9 1b7a 1f3e 32e1 4b3e ae63 263e
000003f0: 70d7 00be 1487 fe3d 6a9f b33c 13b5 9bbd
-0.19147924 -0.13772105 -0.15046781 -0.008255164 -0.1332234 0.13311201 0.16228092 0.19409646
-0.19015408 0.1251747 -0.15892404 -0.23206805 -0.104166225 0.18111579 -0.06392951 -0.1994671
-0.05026796 0.11486522 -0.16888385 0.071684465 0.21723837 -0.25694025 -0.13559693 -0.0128897745
-0.092831805 0.24110058 0.1603668 -0.25861862 0.15039308 -0.18346903 0.13846037 -0.06467216
0.20897637 -0.20702425 0.07209936 0.12555386 0.12967385 -0.16080743 -0.18884021 -0.04525412
-0.054316133 -0.092131294 0.16793188 0.06989818 -0.008999586 0.12121604 0.090031266 0.11045801
0.049863398 -0.1434744 0.1551093 -0.26352003 0.23877266 0.25235716 -0.24900578 0.106270656
-0.09097679 0.2590322 0.08018361 -0.037309274 0.0966112 0.16310762 -0.023186496 0.18457782
0.25685593 0.104621604 0.020241048 -0.0038594315 -0.10535726 0.24065177 0.030381741 0.07750068
-0.110649906 -0.07062971 -0.09261715 0.24175905 0.23125893 -0.01930362 -0.07119876 0.08018033
0.17618148 -0.024037192 -0.1814747 0.15119895 -0.19273914 0.24915305 -0.26878646 0.2194855
0.11543214 -0.25861573 0.062226348 -0.19848321 -0.18052414 -0.18020046 -0.005837221 0.23681417
0.15328977 0.03555792 0.16054909 0.036332462 -0.08577587 -0.2692771 -0.107264414 0.20787162
0.25833124 0.21481602 -0.0042141736 -0.06876183 -0.20460604 -0.24924207 -0.091164865 -0.24824812
-0.27123895 0.26033992 0.03240448 0.08183929 -0.2346629 -0.04019597 -0.19618022 0.14550616
-0.018221512 -0.023870895 0.14155073 0.029981691 0.12116546 0.021066528 0.040485516 0.084748335
-0.14005564 0.09814303 -0.023140311 0.009892801 -0.14872639 0.19181985 -0.20745783 -0.24999617
0.10383652 0.12741442 -0.12462579 -0.18490283 -0.23188585 0.13526511 0.1405543 -0.19403273
-0.1210798 -0.048785247 0.15530577 -0.21213946 0.18217666 0.09821113 -0.20969155 -0.26427263
-0.118352786 -0.26970604 0.16360469 0.12090699 0.22800651 0.23839794 -0.14436758 -0.09285447
-0.0749264 0.1695464 0.26289445 0.12146339 0.17174736 -0.14609976 -0.25000793 0.03257652
-0.088838965 0.22520986 -0.19411081 0.24397081 0.23823595 -0.046261683 -0.14414358 -0.019306226
0.04168375 -0.08390266 -0.15767023 0.10128306 0.15794167 0.0023570722 0.22527683 -0.2206887
-0.013451141 -0.26182657 -0.21607816 0.06751947 -0.22091612 0.16960281 -0.10924993 0.1761775
-0.18745187 -0.037230365 0.035051517 -0.20145918 0.08915229 0.23588246 -0.09409468 0.15847
0.12085659 0.04607264 -0.19879456 0.15287282 -0.11448017 0.11535507 -0.16819294 0.07858201
-0.13670014 -0.1086205 0.25309 0.043443292 -0.035806026 0.047194634 0.18837216 -0.21585187
0.19674286 -0.11794679 -0.08767317 -0.15547098 0.08227862 -0.17905642 -0.0134654455 0.12449099
0.035303693 -0.10319073 0.26068434 -0.15122291 -0.061560404 0.19787098 -0.26991743 -0.0002451183
-0.24797076 0.14921938 -0.20875262 -5.366785e-05 -0.21560597 -0.20665698 -0.26765338 -0.2354361
0.037858848 0.18417528 -0.017512066 -0.25216475 -0.23301652 -0.076479904 0.11317776 0.008912636
-0.00022712705 0.15573923 0.19910124 0.16248962 -0.12582183 0.12428108 0.0219266 -0.076028965

bn1.weight f4 [256]
00000000: 6e0c 803f ef16 803f 9ad9 7f3f 7cdf 7f3f
00000010: ea14 803f 3cc8 7f3f 39b9 7f3f fbf0 7f3f
00000020: 7cb3 7f3f 6cf3 7f3f b117 803f 2b2e 803f
00000030: 1e15 803f 74e2 7f3f de08 803f e62a 803f
00000040: 8032 803f 3ee6 7f3f 7e07 803f 88cf 7f3f
00000050: e622 803f 7e04 803f 990b 803f 0600 803f
00000060: 88e8 7f3f 750f 803f 70e3 7f3f 9fb4 7f3f
00000070: 8bd6 7f3f 4b29 803f 8ea1 7f3f 3ddb 7f3f
00000080: 46e9 7f3f e502 803f 4210 803f 5ef8 7f3f
00000090: f004 803f 12c5 7f3f 0a18 803f b106 803f
000000a0: c00b 803f 8dd1 7f3f 28f3 7f3f e9f7 7f3f
000000b0: b484 7f3f 4602 803f 5482 7f3f 2427 803f
000000c0: 6ae9 7f3f 2804 803f c4f5 7f3f 0d1e 803f
000000d0: 1c04 803f 3920 803f 6ad4 7f3f 6418 803f
000000e0: 34f2 7f3f 589c 7f3f ead9 7f3f 79c6 7f3f
000000f0: cbd8 7f3f d012 803f 6913 803f c6ab 7f3f
00000100: f40e 803f 8709 803f 65d0 7f3f 1e05 803f
00000110: a7e2 7f3f f982 7f3f d123 803f edeb 7f3f
00000120: 6af3 7f3f 1dd5 7f3f 2519 803f fabc 7f3f
00000130: 4523 803f 65fa 7f3f 571c 803f 80ab 7f3f
00000140: dadb 7f3f 16eb 7f3f 342f 803f 2ae5 7f3f
00000150: c2fb 7f3f b7dc 7f3f 8af0 7f3f 3516 803f
00000160: acc9 7f3f d080 7f3f 84b8 7f3f f7e5 7f3f
00000170: 6236 803f 00d2 7f3f 0f17 803f edba 7f3f
00000180: 55b2 7f3f 5baf 7f3f 7d17 803f 013f 803f
00000190: df13 803f 140c 803f 8cfa 7f3f fc02 803f
000001a0: 5cf4 7f3f 68c3 7f3f d614 803f 73db 7f3f
000001b0: 0ec3 7f3f 64fb 7f3f 32f1 7f3f 1ae5 7f3f
000001c0: 6419 803f 26ef 7f3f 4af6 7f3f 28bb 7f3f
000001d0: 42c0 7f3f 7b1a 803f 7621 803f 89b8 7f3f
000001e0: 58ec 7f3f 0bd7 7f3f d8ec 7f3f ad2f 803f
000001f0: f712 803f 7218 803f b82d 803f 8e13 803f
00000200: 69f9 7f3f eebb 7f3f 90df 7f3f a2da 7f3f
00000210: 980b 803f 2acb 7f3f c0ac 7f3f be2c 803f
00000220: f5fc 7f3f 0900 803f 6d01 803f 8a08 803f
00000230: 2cf6 7f3f 1e23 803f 5f07 803f cea8 7f3f
00000240: 58b5 7f3f fb27 803f 4004 803f b736 803f
00000250: f416 803f d815 803f 64a9 7f3f f7fa 7f3f
00000260: 55e7 7f3f ff10 803f 0cf0 7f3f 83b8 7f3f
00000270: ceb8 7f3f b10b 803f d4bd 7f3f e8d3 7f3f
00000280: 52c4 7f3f 00d5 7f3f 77e9 7f3f 2cff 7f3f
00000290: f710 803f a4e0 7f3f 202f 803f 4ec7 7f3f
000002a0: c219 803f ac0a 803f 281c 803f 291c 803f
000002b0: 69fe 7f3f 640d 803f 8e6c 7f3f 3601 803f
000002c0: 85df 7f3f 3ff1 7f3f 7a16 803f 9914 803f
000002d0: 7923 803f 0736 803f 6ecb 7f3f 84f0 7f3f
000002e0: 56f2 7f3f cf0c 803f b0e9 7f3f cfe5 7f3f
000002f0: ffde 7f3f d311 803f 0ea8 7f3f d111 803f
00000300: 570c 803f 48d0 7f3f 2e16 803f 40f9 7f3f
00000310: a2bf 7f3f 9e25 803f f908 803f db13 803f
00000320: c408 803f 530b 803f 42b7 7f3f 9f9b 7f3f
00000330: 4736 803f 2d03 803f d9f7 7f3f a2ae 7f3f
00000340: 6a98 7f3f caf1 7f3f b0e1 7f3f 3c10 803f
00000350: d31b 803f 4693 7f3f d434 803f 3a3b 803f
00000360: a903 803f 3897 7f3f 6ed4 7f3f 4a0e 803f
00000370: 92e7 7f3f 140d 803f 6b1a 803f de20 803f
00000380: 370a 803f 268f 7f3f 010f 803f 16bc 7f3f
00000390: e837 803f c308 803f 4807 803f 9133 803f
000003a0: bfbf 7f3f f60b 803f 73f8 7f3f 55d1 7f3f
000003b0: 31b7 7f3f 080a 803f bf12 803f fcd2 7f3f
000003c0: 0801 803f aea9 7f3f c015 803f bb15 803f
000003d0: b1fb 7f3f 6434 803f f5f3 7f3f d02a 803f
000003e0: fd04 803f 04df 7f3f 8eb1 7f3f b828 803f
000003f0: c2cb 7f3f 3c32 803f 480a 803f 10e1 7f3f
1.0003793 1.0006999 0.9994141 0.99950385 1.0006382 0.9991491 0.99892 0.9997708
0.99883246 0.9998081 1.000723 1.0014089 1.0006444 0.99954915 1.0002706 1.0013092
1.0015411 0.99960697 1.0002286 0.9992604 1.001065 1.0001371 1.0003539 1.0000007
0.9996419 1.0004717 0.9995642 0.9988498 0.9993674 1.0012602 0.9985589 0.99943906
0.9996532 1.0000883 1.0004961 0.99988353 1.0001507 0.9991008 1.0007336 1.0002042
1.0003586 0.99929124 0.999804 0.99987656 0.99811864 1.0000694 0.9980824 1.0011945
0.99965537 1.0001268 0.99984384 1.0009171 1.0001254 1.0009834 0.99933493 1.0007443
0.9997895 0.99847937 0.99941885 0.9991222 0.99940175 1.0005741 1.0005924 0.9987148
1.0004563 1.0002908 0.9992736 1.0001562 0.9995522 0.99809223 1.001093 0.9996937
0.99980795 0.9993456 1.0007674 0.9989773 1.0010763 0.99991447 1.0008649 0.99871063
0.9994484 0.9996809 1.0014405 0.9995905 0.99993527 0.9994616 0.9997641 1.0006777
0.999171 0.9980593 0.99890924 0.99960274 1.0016596 0.9992981 1.0007037 0.998946
0.9988149 0.99876946 1.0007168 1.0019227 1.0006064 1.0003686 0.9999168 1.0000911
0.9998224 0.9990754 1.0006359 0.9994423 0.99907005 0.99992967 0.9997741 0.99958956
1.0007749 0.99974287 0.9998518 0.9989495 0.9990274 1.0008081 1.0010211 0.99890953
0.99970007 0.99937505 0.9997077 1.001455 1.0005788 1.000746 1.0013952 1.0005968
0.99989945 0.9989613 0.99950504 0.9994298 1.0003538 0.9991938 0.9987297 1.0013654
0.99995357 1.0000011 1.0000435 1.0002606 0.99985003 1.0010717 1.000225 0.9986695
0.99886084 1.0012201 1.0001297 1.0016698 1.0007005 1.0006666 0.99867845 0.99992317
0.9996236 1.0005187 0.9997566 0.9989092 0.99891365 1.0003568 0.9989903 0.9993272
0.99908936 0.9993439 0.99965614 0.99998736 1.0005177 0.9995215 1.0014381 0.9991349
1.0007861 1.0003257 1.0008593 1.0008594 0.99997574 1.0004086 0.99775016 1.000037
0.9995044 0.9997749 1.0006859 1.0006286 1.0010825 1.0016488 0.99919784 0.9997637
0.9997915 1.0003909 0.99965954 0.99960035 0.9994964 1.000544 0.99865806 1.0005437
1.0003766 0.99927187 1.0006769 0.999897 0.99901783 1.001148 1.0002738 1.000606
1.0002675 1.0003456 0.99889004 0.99846834 1.0016564 1.0000969 0.9998756 0.99875844
0.9984194 0.99978316 0.99953747 1.0004954 1.0008491 0.99834096 1.0016122 1.0018075
1.0001117 0.99840117 0.99933517 1.0004361 0.99962723 1.0003991 1.0008062 1.001003
1.0003117 0.998278 1.0004579 0.9989637 1.0017061 1.0002674 1.0002222 1.0015737
0.99901956 1.000365 0.9998848 0.9992879 0.998889 1.0003061 1.0005721 0.9993131
1.0000315 0.99868286 1.0006638 1.0006632 0.99993426 1.0015988 0.99981624 1.0013065
1.0001522 0.9994967 0.998803 1.0012426 0.99920285 1.001533 1.0003138 0.99952793

bn1.bias f4 [256]
00000000: 3483 3ab8 a3e2 c43a ebb2 063a e035 20ba
00000010: 804a bf37 a40a bdba dccf 7bba 32dc 0a3a
00000020: 3261 84ba e996 4c39 981f 7e39 8282 ad3a
00000030: 681d 8b38 c091 1d37 a8ab 6e3a 7212 eb3a
00000040: 1894 313a 4e41 c2b9 6c2b a4b8 8662 d3b9
00000050: 4852 203a a408 9bb9 6b26 1d3a 5e3f 92b8
00000060: fdf4 333a 443e e6b9 4dc7 e339 16bd a5ba
00000070: 2098 b8b9 bf85 023b 4244 8dba 2839 9738
00000080: 9fbb ca3a 7050 30b8 1c27 b139 e0f4 a7b7
00000090: 0e51 9aba 1e7d b7ba 5663 903a 740f 1839
000000a0: c211 a339 5e2d 99ba 488b 0c39 6df5 cc39
000000b0: ca22 4aba 56db 5aba d607 18ba 2082 6bb8
000000c0: eb73 edb9 2a9a 5d3a 38de 553a f0ae 85b7
000000d0: 5a7e 45ba f6be 173a ace9 d8b9 a1c1 1c3a
000000e0: aebf 84ba d0fc 6eb9 368d b2ba e740 beba
000000f0: 4497 24ba 2a99 dbb9 a86f 55ba f465 9dba
00000100: ac2f 983a 4eea 5439 a42e 7539 90c4 1ab8
00000110: bc2b 80b9 4d88 f1ba 7df1 a739 4244 b4b9
00000120: bcb0 4fba d4a7 cd39 cf50 5f39 8064 5339
00000130: bd5c 0b3a e266 6d3a 88a5 d13a 3de2 23ba
00000140: 9631 5cba 606c 6b39 7080 1d3a aa54 6bba
00000150: cad7 aa39 4313 92b9 8492 beb7 b205 fd39
00000160: 7aa3 37ba 444d 14bb 7da4 f0ba 8616 1639
00000170: 14c7 c83a 645e 7438 3575 523a a93b a8ba
00000180: 6b6d 7dba 6259 67ba 3e35 d23a ffe0 193b
00000190: fab9 49ba 06ef c339 00b7 1436 1c13 0039
000001a0: c8a6 8a3a 3868 e3b8 6d30 c23a b659 cd39
000001b0: 2167 64ba cddb ae3a 5cb9 0fba 7278 e1b9
000001c0: dacb 763a b85e 44b8 b4a7 683a 0406 74ba
000001d0: 666a 3bb9 feaa feb9 f19f ab39 38bf 593a
000001e0: 5bd4 15ba 3fbc c63a 5206 13ba c25b bf3a
000001f0: f0d9 d8b7 e731 aeb9 2d36 3aba 06b2 263a
00000200: e514 bdb9 2aee 9bba a2d5 cf39 a0c4 82ba
00000210: 3857 8f38 d702 a8b9 1231 23ba 1672 053a
00000220: ba93 9039 96e0 eb39 90f0 8d3a 9095 6b38
00000230: 4893 55b9 245b 963a ccaf 593a 2f82 8bb9
00000240: 68e7 e1ba a5e1 dc39 e81f 29b8 fe00 c13a
00000250: a00a 89b7 5aba 93b9 219f 10ba 6864 5dba
00000260: e247 7eba 254f 583a 816f 87b9 80fe e0ba
00000270: 519f 98ba 3463 0eba afc6 473a 02e5 293a
00000280: 184d 4a3a 809c 79b9 7f89 e739 6c06 b93a
00000290: 724a e3b9 4d4a cd39 0cc4 ca39 9c70 04ba
000002a0: add4 f439 702d e139 d46b 5939 01f2 883a
000002b0: 5c61 1c3a 5bac 65ba c638 c3ba 46dd 2e3a
000002c0: 5451 a6b9 b6fc 9e39 c0b1 d5b8 c414 773a
000002d0: dc95 7f3a 36e9 b53a 2f3e 15ba c7d5 d2ba
000002e0: ccf3 73ba 64d8 f5b9 0a9d 22ba 82c3 1b3a
000002f0: 1ec6 713a da30 763a 7c18 adb9 0497 b038
00000300: 8199 603a 6c61 2aba c018 243a 6e01 4bba
00000310: 7ef0 31ba 4055 9237 2f70 033a f2f6 643a
00000320: 2ad1 43ba 5357 163a 3cd2 da39 9c84 89ba
00000330: f67f c83a bdae a0b9 72d2 bdb9 f0c2 dcba
00000340: 4dfa adba 4423 5cb9 e662 c93a 2cff 8138
00000350: d857 b9b9 8061 2dba 8308 dd3a 7855 8838
00000360: 36a2 4f39 e17a 9cba ab0c c5b9 34ea b439
00000370: 837c f539 8c08 0e3b 0e55 6b3a d19b f939
00000380: 1600 ee3a 5524 cbba c0eb 5c38 e8ca 4bba
00000390: 051b a93a 36bc 71b9 4a5a 0b3b 81e9 c03a
000003a0: 64f3 2539 9e8d 66ba d7fd 18ba ae3b 68ba
000003b0: e253 07ba 80c4 eab8 68d5 6f39 497a 883a
000003c0: 9aa1 2fba e0f0 33ba 707a dbb8 d6e8 213a
000003d0: 1f75 4d3a 70f7 eb3a 4170 393a 4ba2 96b9
000003e0: 84f4 b53a 68c5 1e38 eba6 68b9 b42f 083b
000003f0: 1adf c7ba 10f1 a53a 8210 283a f215 dbba
-4.4468048e-05 0.0015021156 0.0005138355 -0.00061115436 2.2803666e-05 -0.0014422727 -0.00096058636 0.0005297094
-0.0010099767 0.00019511174 0.00024235097 0.0013237747 6.633514e-05 9.391864e-06 0.0009104558 0.0017934574
0.0006774082 -0.0003705122 -7.828217e-05 -0.00040318462 0.00061157765 -0.00029570342 0.00059947994 -6.9736256e-05
0.0006864814 -0.0004391541 0.00043445305 -0.0012644853 -0.00035208557 0.0019916145 -0.0010777789 7.210887e-05
0.0015467292 -4.2036583e-05 0.0003378921 -2.002198e-05 -0.0011773424 -0.001399908 0.0011015933 0.00014501606
0.00031103013 -0.0011686494 0.00013403327 0.0003909277 -0.00077108725 -0.00083487236 -0.00057995075 -5.6149554e-05
-0.00045290528 0.0008453453 0.00081584183 -1.5936297e-05 -0.00075337815 0.0005788648 -0.0004137283 0.00059797807
-0.0010127926 -0.00022791629 -0.0013622406 -0.0014515192 -0.0006278644 -0.0004188505 -0.0008141943 -0.0012008534
0.0011610887 0.00020305181 0.00023382396 -3.6899524e-05 -0.00024446647 -0.0018427462 0.00032032645 -0.0003438313
-0.0007922759 0.0003922569 0.00021297041 0.00020159967 0.0005316248 0.0009056163 0.0015994767 -0.00062516687
-0.0008399723 0.00022451719 0.00060082134 -0.00089771545 0.00032585702 -0.0002786164 -2.2717992e-05 0.00048260164
-0.0007005256 -0.0022629062 -0.0018359568 0.00014313505 0.0015318119 5.826204e-05 0.00080283295 -0.0012835163
-0.00096674886 -0.000882527 0.0016037596 0.0023480055 -0.0007695254 0.00037371385 2.2160239e-06 0.0001221415
0.0010578269 -0.00010843616 0.0014815457 0.00039167487 -0.0008712877 0.0013340652 -0.0005482638 -0.00043005083
0.00094145315 -4.6818255e-05 0.00088750874 -0.0009308758 -0.00017873346 -0.00048574054 0.00032734827 0.0008306387
-0.00057155424 0.0015162303 -0.0005608547 0.001459949 -2.5850692e-05 -0.00033225046 -0.000710341 0.0006358925
-0.00036064457 -0.001189654 0.00039641286 -0.0009976812 6.835017e-05 -0.00032045573 -0.00062252686 0.00050905475
0.00027575885 0.00044990022 0.001082914 5.6167657e-05 -0.0002036813 0.0011471254 0.0008304089 -0.0002660914
-0.0017235102 0.00042129788 -4.0322455e-05 0.0014725027 -1.633662e-05 -0.00028176868 -0.0005516876 -0.00084454427
-0.00097000424 0.00082515395 -0.00025832283 -0.0017165691 -0.001164416 -0.00054316525 0.0007620854 0.0006480963
0.00077171763 -0.00023804791 0.00044162196 0.0014116294 -0.0004335228 0.00039156005 0.0003867451 -0.00050521805
0.00046697762 0.00042949198 0.00020734902 0.0010448099 0.00059654354 -0.00087613397 -0.0014894239 0.00066705456
-0.00031722581 0.00030324393 -0.0001018974 0.00094253966 0.0009749809 0.0013878706 -0.0005693165 -0.0016085439
-0.0009306043 -0.00046891265 -0.000620321 0.00059419137 0.0009222942 0.0009391435 -0.00033015374 8.420463e-05
0.0008567796 -0.00064995023 0.00062597916 -0.00077440485 -0.000678785 1.7444254e-05 0.000501397 0.00087343075
-0.00074698275 0.0005735058 0.00041736837 -0.0010491791 0.0015296924 -0.00030647768 -0.00036205683 -0.0016842764
-0.0013273448 -0.00020993972 0.0015364557 6.198729e-05 -0.00035351398 -0.0006613955 0.0016863499 6.500905e-05
0.00019801487 -0.0011938476 -0.00037584206 0.0003450677 0.0004682281 0.0021672575 0.0008977213 0.00047609073
0.0018157985 -0.0015498499 5.2671647e-05 -0.0007774071 0.0012901729 -0.00023053665 0.0021263533 0.0014718027
0.00015826296 -0.00087949063 -0.0005836165 -0.00088589906 -0.0005162341 -0.000111945905 0.00022872316 0.001041242
-0.0006699801 -0.0006864201 -0.000104655395 0.0006176358 0.0007837582 0.0018002819 0.0007073917 -0.00028731147
0.0013882075 3.7853984e-05 -0.00022187426 0.0020780386 -0.0015248985 0.0012660343 0.0006411151 -0.0016714914

bn1.running_mean f4 [256]
00000000: 8dbe 72bd 5820 2dbd d5d9 a5bc c215 77bc
00000010: 6a12 22bd f22f a53c 2887 393d 7045 403d
00000020: 1412 91bd 4c19 183d 486f 50bd 185f 8abd
00000030: eead 08bd 2bc9 463d 8a75 d93b 5066 2bbd
00000040: 6e46 56bd a1e3 083d c2aa fbbc b87e 483c
00000050: 88ac 5f3d a841 adbd aed8 efbc 4ef3 0b3c
00000060: 1708 8dbc 365d 5d3d aff1 123d b4e6 6bbd
00000070: aa27 763d cea7 8bbd 62b2 003d 64fd 94ba
00000080: ad5d 273d c51f 85bd 5bde 8f3c e8e5 ba3c
00000090: b105 203d 9eeb 0cbd 8fad 80bd ebce 88bc
000000a0: 0636 9fbc 6796 90bc 3a12 1e3d 7486 703c
000000b0: f017 163a 689d 353d 69b5 9e3c b7e4 253c
000000c0: 06f8 d73c c4d2 e5bc 7c83 163d 36ee 97bd
000000d0: a3ca 793d bba7 8a3d 491d 92bd a096 6e3d
000000e0: 16d2 a8bb 25de 863d a484 fbbb 2c61 003c
000000f0: 4a81 fa3c c6eb 1f3d d7ca 0b3d 561e 003d
00000100: 553d a43d 78bc 1c3d a8da b53a ad3d 963a
00000110: 6c8b f5bc 74a8 a73d d424 cf3b e4a8 cb3c
00000120: 02a7 10bd 2c95 ee3a d051 14bd 8800 693d
00000130: 59e5 8d3d c6a1 9b3b 7968 0cbd 6263 f43c
00000140: 2cf6 663d 6bcd eebb 65cf 13bd ce19 1e3d
00000150: f71e 3dbd 167b 7d3d b47c aabd f854 863d
00000160: f029 843c 9ca9 61bd fc4f 023d d2da 2cbd
00000170: 252b 2abd e86d 85bd b8e9 75bb dcca 6e3d
00000180: 3ea6 243d eccd 29bb 26a1 5d3d 79dc 563c
00000190: 68c8 26bd 788f aabd 26ed d8bc 4672 433d
000001a0: d17f b73d 6599 5f3d 9271 0fbb 9953 b2bc
000001b0: 6da8 88bd e01e 83bd 87f0 09bd 927f b7bd
000001c0: b232 97bd d4dd a93d c180 e43b ee3a d03c
000001d0: e074 7ebd a465 88bc cab0 38bd 147e 713d
000001e0: d03c a9bc 3a60 28bc 4821 633c 3e94 493c
000001f0: 9e1e f63c 04c5 4c3c a0d4 8a3b f67e b43c
00000200: 9854 46bd 8628 143d d8b8 14bd 589e 063d
00000210: 9b47 43bd 2236 653d 0b6d 31bd 9586 5dbd
00000220: 2116 cd3c d2de 7f3d fc37 2abd 25e9 31bd
00000230: 46f1 a0bd 686e 613d e811 163d 1b3a 53bd
00000240: 7be3 9fbc 6452 98bc 32e4 743d f1d3 1abd
00000250: 3a9c 013d 5c2c 933c 6cf6 4ebd 63ee 91bd
00000260: ab08 3ebd 9510 9abd 6d95 c93c 2e52 e03c
00000270: 658d 2e3d 6ca4 853d 1dbf 16bd 2ec3 9cbc
00000280: cbcb fcbc 23a5 9a3d 12e7 873d 6a67 243d
00000290: 5c16 393d 4dab 7abd 689c 56bd 482e 923b
000002a0: c0a2 d1bc 8f3b 843d c94a 5bbd a3fd 883d
000002b0: 1ce1 933d 15c3 293c 8a32 2ebd 4bcb 333c
000002c0: 4122 4cbc aed9 11bd fd3b 8bbd 140f 073d
000002d0: 1a9e 153d c3e1 303c 3c2a 593d 62b8 74bd
000002e0: 0451 bcbc 0823 61bd 9649 57bd 0a60 e83c
000002f0: 1356 3abd 13c8 493d 1c3d 99bc 50a7 2f3d
00000300: 0dba 3dbd c501 06bc 90b2 633b 5df2 54bd
00000310: 4800 073d 38c5 9e3d 6d72 04bd 17e6 4b3d
00000320: 0191 653c e39a 12bc 5465 40bd f85a 4b3d
00000330: 465b 1fbd 14c5 3b3d 4d6e 4ebd 207d 333c
00000340: 0ddc 00bd 5771 03bd 75be d33d be27 593c
00000350: df48 7a3c e7fc a23c 6d9b 473d 51ce 90bd
00000360: 40be 733d 4801 57bd 4079 17bd 4696 4ebd
00000370: 33ce ac3c 64c9 5fbd 0f9e 023c cee7 263d
00000380: 627f e53c b8f5 c1bc b52c b73d fac2 03bd
00000390: 3c77 63bc 938e 283d 815c 95bd 427d 18bc
000003a0: 2f96 aabd 98bf 1d3d 09d5 52bd d709 00bc
000003b0: 5dac 33bd c6a2 96bd 6eba 73bd de99 85bd
000003c0: 9856 a93c 322f 793d 9e48 6a3c 8a35 9bbd
000003d0: 14df 6cbd 98fd cb3a e360 963c f4ac 663b
000003e0: 6b48 c03b ec69 ff3c 2508 6b3d 8732 1c3d
000003f0: edcc c0bc b415 1d3d 489a c23a 9ecb 17bd
-0.059263755 -0.042267174 -0.020245472 -0.015080871 -0.039568342 0.020164464 0.04529491 0.04694122
-0.07083526 0.0371335 -0.050887376 -0.06756419 -0.033368997 0.048531692 0.006636326 -0.04184562
-0.05231326 0.03342021 -0.030721072 0.012237243 0.054607898 -0.084597886 -0.029278126 0.008541895
-0.017215772 0.05404397 0.03587502 -0.057593063 0.06009642 -0.068191156 0.03142012 -0.001136702
0.04086082 -0.065002 0.017562082 0.022814706 0.039067928 -0.03440439 -0.06283104 -0.016700229
-0.01943494 -0.017649842 0.0385916 0.014680494 0.0005725613 0.044339567 0.019373612 0.010125331
0.026363384 -0.028054602 0.036746487 -0.07418482 0.060984265 0.06770273 -0.07134492 0.058249116
-0.0051519973 0.065853395 -0.007675724 0.007835668 0.030579228 0.03904321 0.03412899 0.03127893
0.08019511 0.038265675 0.0013874369 0.0011462473 -0.029973708 0.08186427 0.006321529 0.024860807
-0.03531552 0.0018202416 -0.036210835 0.056885272 0.0692851 0.0047495095 -0.03427932 0.029832546
0.05638711 -0.0072876713 -0.03608646 0.038598828 -0.04617211 0.061884962 -0.083245665 0.06559175
0.016133279 -0.055093393 0.03181456 -0.04220087 -0.041545052 -0.065151036 -0.003752334 0.05829893
0.040197603 -0.0025910093 0.05410876 0.013114088 -0.040718466 -0.08328146 -0.026480269 0.0477164
0.08959926 0.054589648 -0.0021887762 -0.021768378 -0.0667275 -0.06402373 -0.03367665 -0.08959879
-0.07382716 0.082942635 0.0069733565 0.025418725 -0.06212318 -0.016650029 -0.045090474 0.058958128
-0.02065888 -0.010276848 0.013862915 0.01230341 0.030043896 0.012498144 0.0042367727 0.022033196
-0.04842052 0.03617146 -0.036309093 0.032865852 -0.04767571 0.05595983 -0.043316882 -0.054083426
0.025034966 0.062468357 -0.041557297 -0.043435235 -0.07858519 0.055036932 0.03663817 -0.051569086
-0.01951765 -0.018593974 0.059787937 -0.03779978 0.03164313 0.017965488 -0.050527975 -0.07125547
-0.046394985 -0.07522694 0.024607385 0.027382936 0.042615313 0.065255016 -0.036803354 -0.019136038
-0.030858895 0.075510286 0.0663587 0.040137686 0.04518734 -0.06119852 -0.052395254 0.0044610836
-0.0255903 0.064566724 -0.053538118 0.06689002 0.072206706 0.010361453 -0.042528667 0.010973762
-0.012459339 -0.035607986 -0.06798551 0.032973364 0.03652773 0.010796013 0.053018793 -0.059746154
-0.02298785 -0.05496505 -0.05256041 0.028366107 -0.045492243 0.04926307 -0.018705897 0.04288417
-0.04632001 -0.008179133 0.0034743883 -0.051988948 0.032959253 0.0775246 -0.032335687 0.049779978
0.014011622 -0.008948061 -0.046971634 0.0496473 -0.038905405 0.045842245 -0.05039816 0.010955125
-0.031459857 -0.03209051 0.10339061 0.013254104 0.015276163 0.019895984 0.04873221 -0.07070602
0.05950761 -0.052491456 -0.036980867 -0.05043628 0.021094417 -0.05463542 0.007972254 0.04074841
0.028014842 -0.023676738 0.08944074 -0.032168366 -0.013883408 0.041151594 -0.07293034 -0.009307208
-0.083294265 0.038512796 -0.051472697 -0.007814846 -0.04386555 -0.07355265 -0.059503965 -0.065234885
0.020671174 0.060836025 0.01429954 -0.07578571 -0.05782993 0.0015563248 0.018356746 0.0035198303
0.005868008 0.031178437 0.057380814 0.038134124 -0.023535216 0.038350776 0.0014847005 -0.03705942

bn1.running_var f4 [256]
00000000: aa1d 483f a3f6 453f 4513 4c3f 331f 4e3f
00000010: 88c0 463f 7178 503f 6134 4d3f bec5 413f
00000020: 52e7 543f b082 4b3f 19e2 443f ab77 483f
00000030: ee99 533f 2857 513f 62c7 603f ca52 633f
00000040: 9a18 573f a1c3 543f 96b8 553f 1a18 5b3f
00000050: 6ce5 483f fc8f 503f 9c0b 4f3f 7f59 523f
00000060: e789 573f 1e68 463f 5f8e 483f 7721 4e3f
00000070: 1a9a 523f b8ea 503f e74b 493f b6a9 4f3f
00000080: 8b8d 453f 0049 613f 37a0 4e3f f2a4 4b3f
00000090: faba 4f3f 2642 4d3f d67c 403f 70a5 563f
000000a0: 1304 4f3f 95c0 593f cc8d 503f f9f3 503f
000000b0: 75f1 493f a68d 4f3f 8b50 493f e6e7 4b3f
000000c0: 2f13 453f f787 503f 4c21 483f c2b1 483f
000000d0: a161 573f 748a 503f 98b5 4e3f 378e 553f
000000e0: 5ff4 503f 24df 4f3f e6a0 533f 9404 4b3f
000000f0: 8044 4f3f 3c2e 493f f152 563f 4681 513f
00000100: bbe3 513f 5ee5 523f 55c2 4e3f 253b 4e3f
00000110: 78b0 493f 72a0 4c3f c560 5e3f 3d96 483f
00000120: fd79 503f 3730 503f 579b 4f3f 39ff 4a3f
00000130: 8aed 523f bf78 543f b2c2 543f 5e67 4b3f
00000140: 0c96 533f 5c7d 583f f0fc 5b3f fa38 523f
00000150: 4452 4b3f 303f 523f c8a7 543f 8493 5a3f
00000160: 1916 513f bd59 4b3f d656 553f 5115 533f
00000170: 3648 493f f813 503f 5271 533f 5585 573f
00000180: 5e32 533f 8090 523f d2c8 4b3f 29ce 523f
00000190: 9c4c 603f 54ea 533f 904e 5b3f daa6 543f
000001a0: 0284 5b3f bb58 4f3f b464 543f 00f2 493f
000001b0: dd3d 553f ae58 523f 3ed1 4a3f 38fc 4f3f
000001c0: 3628 513f 2281 523f c67b 4b3f 2341 503f
000001d0: a3ec 4e3f 44d3 473f 1a47 4a3f 63af 543f
000001e0: a74b 4e3f c57a 4a3f 099c 4c3f 0667 5a3f
000001f0: 4a88 523f 2eb8 473f ffb3 4f3f 5e21 4a3f
00000200: 2640 4c3f f027 4a3f b024 563f f8d1 563f
00000210: 24e3 523f 2df9 503f 482b 4f3f fefd 4b3f
00000220: 6cef 493f cc6b 4b3f 58b8 473f eac5 4b3f
00000230: 700c 4b3f d5d3 4f3f eef3 4f3f a2d2 483f
00000240: b490 503f 0c00 493f 620f 563f c842 593f
00000250: 7a85 523f 28f7 4b3f b084 443f 4ad9 473f
00000260: 732e 5c3f ab7e 483f e69a 473f 1d0b 4e3f
00000270: b68c 473f 2494 483f 6af8 4d3f d250 4d3f
00000280: 2eea 4a3f ff9e 563f 7562 543f eded 4a3f
00000290: 72a3 563f da27 4f3f 2152 513f bca2 4f3f
000002a0: f171 4a3f f956 543f 5621 5f3f eb21 4f3f
000002b0: 8056 4f3f c04b 4f3f c454 493f 8d44 4b3f
000002c0: 0fa2 4c3f 62e7 583f 2974 4e3f cb68 433f
000002d0: f2b5 513f 5183 4f3f 5a8f 4a3f 9b13 4c3f
000002e0: a1f4 563f 9a7f 553f 3893 543f 70f5 573f
000002f0: 48cc 503f ebda 523f c0a6 543f a657 513f
00000300: 270e 4f3f bcf3 463f c4e7 543f e8bb 543f
00000310: 28a9 4b3f 1f76 473f abe6 4d3f f916 493f
00000320: 832d 4e3f 09e8 503f 4a0e 4e3f d626 563f
00000330: 3ea6 443f 34a3 4b3f 84c1 4e3f c42e 5c3f
00000340: 8c9d 523f f866 4a3f 74f9 493f ec01 4d3f
00000350: cbdd 5d3f 203a 493f 8254 4c3f 596e 4f3f
00000360: 4bc6 503f 245d 5e3f 6031 493f 8eda 463f
00000370: 5caf 533f a810 583f 60a6 4e3f 0807 563f
00000380: 3dea 523f 64c8 4c3f c4ac 4d3f 9cd9 453f
00000390: b3fc 573f e1e1 433f eb6d 4c3f bda5 453f
000003a0: 9276 653f 1e89 4e3f 275f 523f bc82 3f3f
000003b0: 0674 4a3f ae2f 533f 6eb6 493f dc95 4c3f
000003c0: 1ebd 4d3f d01c 473f 6c80 4f3f 381a 4b3f
000003d0: 1547 5c3f 1e87 483f 710c 543f 207b 593f
000003e0: 3619 443f 18c6 693f e964 433f ce91 463f
000003f0: 2a54 533f c798 573f 8cec 523f 6902 4a3f
0.78170264 0.7732946 0.797169 0.80516356 0.7763753 0.8143378 0.8015805 0.75692356
0.83165467 0.7949629 0.769075 0.783076 0.82656753 0.81773615 0.87804234 0.887982
0.84021914 0.83111006 0.8348478 0.8558365 0.7847507 0.814697 0.8087709 0.8216781
0.841948 0.7750262 0.7834224 0.80519813 0.8226639 0.8160815 0.7863144 0.81118333
0.771691 0.88002014 0.8071322 0.7954856 0.8114468 0.8017906 0.75190485 0.8384619
0.8086559 0.8505948 0.81466365 0.8162227 0.7888406 0.81075513 0.78638524 0.79650724
0.76982397 0.81457466 0.78175807 0.78396237 0.84133345 0.8146126 0.8074584 0.8342013
0.8162288 0.8119986 0.82667387 0.7930386 0.809639 0.78586173 0.8372031 0.8183788
0.81988114 0.82381237 0.8076528 0.80559 0.78784895 0.7993232 0.8686641 0.78354245
0.8143614 0.8132357 0.81096405 0.7929569 0.82393706 0.82996744 0.8310958 0.794546
0.8265083 0.84566283 0.85932827 0.8211819 0.794224 0.82127666 0.83068514 0.8538134
0.81674343 0.79433805 0.83335626 0.824544 0.7862581 0.8128047 0.8259479 0.84187824
0.8249873 0.8225174 0.796033 0.82345825 0.87616897 0.8277943 0.8566675 0.83067095
0.857483 0.80994767 0.8296616 0.7888489 0.8329752 0.82166564 0.7922553 0.8124423
0.8170198 0.8222829 0.7948574 0.8134939 0.8082983 0.7805674 0.7901474 0.8308012
0.80584186 0.7909358 0.7992559 0.8531345 0.8223921 0.7801541 0.8113403 0.78957164
0.7978538 0.7896719 0.8364973 0.83914137 0.8237784 0.8163021 0.80925417 0.79684436
0.78880954 0.7946136 0.7801566 0.7959887 0.79315853 0.81182605 0.8123158 0.784464
0.814708 0.78515697 0.8361722 0.84867525 0.8223492 0.79674006 0.76764965 0.7806593
0.86008376 0.7831828 0.7797073 0.8048571 0.7794908 0.78351045 0.80457175 0.80201447
0.7926358 0.8383636 0.82962734 0.79269296 0.8384315 0.80920184 0.81765944 0.8110769
0.7908011 0.8294521 0.8716024 0.8091113 0.80991364 0.8097496 0.7864497 0.79401475
0.7993478 0.8472806 0.80645996 0.76331776 0.8191825 0.8105975 0.7912499 0.79717416
0.83967024 0.8339783 0.8303714 0.8435888 0.8156171 0.8236529 0.8306694 0.81774366
0.8088097 0.7771566 0.83166146 0.8309922 0.79554987 0.77914613 0.80430096 0.7855068
0.80538195 0.8160406 0.80490553 0.8365301 0.76816165 0.79545903 0.8076403 0.8600886
0.8227165 0.7906337 0.7889626 0.8008106 0.86666554 0.78604317 0.7981645 0.8102775
0.8155257 0.8686087 0.78590965 0.7767724 0.8268945 0.84400415 0.8072262 0.8360448
0.8238867 0.7999327 0.80341744 0.7728517 0.84369963 0.7651654 0.7985522 0.7720602
0.8963405 0.80677974 0.8217644 0.7480886 0.7908329 0.8249463 0.7879399 0.7991617
0.80366695 0.7777834 0.8105533 0.7933688 0.8604596 0.7833117 0.82831484 0.849535
0.7660097 0.9131789 0.7632585 0.7756623 0.825503 0.84217495 0.8239219 0.7890993

fc2.weight f4 [128, 256]
00000000: 450a 293c 0ce1 56bd 54d8 2dba ad52 ec3c
00000010: b244 2abc 0378 803c c2ea c43c f7ea 323d
00000020: 3f79 143d 287e 6ebc b1b0 1ebd 44e7 5ebd
00000030: 475c 1d3d e893 3ebd fa58 6bbd 430d 9bbc
00000040: 69f5 a13c f6a5 6f3d 0890 5a3d 1ea3 d13c
00000050: c95a 2d3d 8c7c e93c 8fbc 5a3c e52a cd3b
00000060: ff8f 833c 4625 b5bc cfab 38bd 818a c6bc
00000070: 6400 023b 44b8 913c f3dc 753b 072c 723d
00000080: 6027 6ebb a816 f2bc 51d4 b23c a8f5 dfbc
00000090: e030 b53b 8f7c 193d 6392 673d b18b d9bc
000000a0: 07c4 38bd 9e13 b23c 28a6 2d3d b6b7 dcbc
000000b0: 350e 5d3d b046 8cbc d271 e03c 73ca 223d
000000c0: 7194 0c3d f540 7dbd 33bc eebc 50c4 f9bc
000000d0: 9ace 73bb de56 fe3b 9d64 6abd 1c8a 62bd
000000e0: 2e8a 7c3d 8bd2 35bd 882e d73b 70cc c93c
000000f0: 1605 103d ee7d 19bd 0258 5a3d dc32 4abd
00000100: 21a7 e2bc 4615 5e3c 7cc9 3b3d 7852 6fbd
00000110: 2d19 5e3d f66e 8abc 29b3 913c 9641 66bd
00000120: 96fa c2bc 00ae 313d 83cb 30bd b6f5 19bd
00000130: ef0e d4bc fdd2 5f3d d0f8 adbc 16fb 423d
00000140: 32d4 a13c 0fbc f9bb 6e04 6fbd 74bf f1bc
00000150: abea 0dbd e6df 373d 7ec8 d9bc 0ef9 e5bb
00000160: 9af2 063d 4fa3 aabc af2d 6cbd 2a3f c43c
00000170: a456 563d 18eb 423d 790b 14bd c1e2 5ebd
00000180: 0c1a ab3b f2a9 2dbc cfb0 6cbc f264 29bd
00000190: 95c7 55bd 113e 673c 96e4 c7bb 2c91 553d
000001a0: e638 6abd 6623 42bd 5b54 7cbc 8ae5 003d
000001b0: a85c cbba 2807 d4bc 5e99 313d dc1b 003c
000001c0: 1af5 9c3b bf75 f23c 4b8d cb3c 4f4f dabc
000001d0: 16a3 df3a 45f6 5e3b 9965 443d f523 763d
000001e0: 2a64 e4bb cfa0 2abd 5713 053d 6a46 48bd
000001f0: b0c4 6e3d 6c98 693d a3b4 513d d164 b6bb
00000200: 3cee 213d 8d6c a13c c894 3ebd 97a7 50bc
00000210: e102 243d 0a7c 6abd 0bfc 023d 889a 563c
00000220: bfb5 debc 0aea bd3c 8992 dfbc cb1e 0d3d
00000230: dbad 8a3c d9b1 5e3d 6250 4f3d edf4 66bd
00000240: 2c95 eb3c ef3b 3b3d 00c4 1bbd e220 173b
00000250: 2622 493d 2a69 083d 81f8 7e3d 5847 33bc
00000260: 62db c03a 2482 23bd b139 b4bc 109a 573a
00000270: dd17 7bbd f417 0b3d 0cac 703a e368 09bd
00000280: be00 6c3d c500 123d 242f 5cbd 90d8 10ba
00000290: 2ba1 cabb 22ef 353d eec9 20bd 32a0 b93c
000002a0: 50ab 68bd 160c 7b3d 064c 083d 1801 163b
000002b0: 858f d73a 8c55 a53c 0589 b83c 267a 8fbb
000002c0: df3c 16bd 3883 3b3c 5c68 21bd 86e2 ca3c
000002d0: ec80 a23c 7adf 6a3d 68b4 cf3b 4f6a 05bd
000002e0: ec00 70bd a36a e5bc 6cbc 02bd bab0 583d
000002f0: a03f 3a3d 25d0 003d 29d7 5bbb 88b4 7b3d
00000300: 487a 6ebd 20f2 47bd 6d6b 4ebd dce6 033d
00000310: 8cbe 883b 447e 283d 8de6 643d c026 2dbc
00000320: 38d5 90bc 861c 43bd 63fb f73b 2785 24bd
00000330: 7f43 64bd b4f1 67bd 348c c9ba ee79 503d
00000340: 228d 37bc 61f2 443d b803 17bd 76ce 57bd
00000350: b7d0 603d 3677 c2bb 0d16 cabb 45c7 433c
00000360: 5631 9a3c 664c fdbb 1e47 7f3c 6c4a 36bd
00000370: b77a 73bc bdd9 22bd 85de 3fbd 93b5 743d
00000380: 2981 383c 1454 f73c 16e0 133c 2421 6cbc
00000390: 2c16 e6bb 1148 f93c 8640 55bd e16d bb3b
000003a0: 3cb0 45bd 0eab b33c 5318 11bc c734 493c
000003b0: 3b9f 47bd 0d14 05bd f422 783c 88cf 373d
000003c0: ae74 d53c 883e 4fbd 3037 78bd 16e9 67bc
000003d0: 1877 ecbc dc16 dd3c 2f7f 613d 12a4 2fbd
000003e0: be6d a7bb 18a5 383d c507 cdbb 6c4f b4bc
000003f0: 2616 67bd a497 b73b f6b1 05bd 8096 493c
0.01031739 -0.052460715 -0.00066316617 0.028848017 -0.010392355 0.015682226 0.024037722 0.04368111
0.03624844 -0.014556445 -0.038742725 -0.05441977 0.03841808 -0.046527773 -0.0574579 -0.018927222
0.019770341 0.058507882 0.053360015 0.025590476 0.042322908 0.028501771 0.01335062 0.006261217
0.016059874 -0.0221125 -0.045085724 -0.024235966 0.0019836659 0.01778806 0.003751573 0.05912402
-0.0036339387 -0.029551819 0.021829756 -0.027338818 0.005529508 0.037472304 0.05653609 -0.026555868
-0.04510882 0.02173787 0.042394787 -0.026943069 0.053968627 -0.01712355 0.027398024 0.039743852
0.034321252 -0.061829526 -0.029142475 -0.030489117 -0.0037202002 0.00776182 -0.05722486 -0.055307493
0.061655216 -0.044390243 0.0065668263 0.024633616 0.0351611 -0.03747361 0.053306587 -0.04936491
-0.027667584 0.013554877 0.045846447 -0.058428258 0.05422323 -0.016898613 0.017785626 -0.05621489
-0.02380113 0.04337883 -0.043162834 -0.037587844 -0.025886027 0.054644573 -0.021236807 0.047602735
0.019754503 -0.0076212953 -0.058353834 -0.029510237 -0.034647625 0.04489126 -0.02658486 -0.007018215
0.032946207 -0.020829825 -0.057660755 0.0239559 0.05232872 0.047587484 -0.036143754 -0.054415468
0.005221611 -0.0105996 -0.014446451 -0.041356035 -0.05219229 0.014113919 -0.0061002476 0.0521404
-0.05718317 -0.04739704 -0.015400971 0.031468906 -0.0015515285 -0.025882319 0.043359153 0.007819142
0.0047899606 0.029597161 0.024847647 -0.026649145 0.0017062153 0.00340213 0.047948454 0.060092885
-0.0069699483 -0.041657265 0.032489147 -0.048895277 0.058293045 0.057030126 0.05119766 -0.0055662175
0.03953384 0.019705081 -0.046528608 -0.012735269 0.040041808 -0.0572472 0.03197865 0.013098367
-0.027186273 0.023182888 -0.027291553 0.034453195 0.016928604 0.054368827 0.05061377 -0.056385923
0.028757654 0.045711454 -0.038028717 0.0023060371 0.049104832 0.033303417 0.06224871 -0.010942303
0.0014713819 -0.039919034 -0.022000166 0.0008224556 -0.061302055 0.03395839 0.00091809104 -0.033547293
0.057617895 0.035645265 -0.053755894 -0.00055254344 -0.0061837635 0.044417508 -0.039255075 0.022659395
-0.056804 0.061290823 0.033275627 0.0022888836 0.001644597 0.020182393 0.022526274 -0.004378575
-0.036679145 0.011444859 -0.039406165 0.024766218 0.019836865 0.05734203 0.006338645 -0.032572087
-0.05859463 -0.02800495 -0.031917974 0.052902915 0.045470834 0.031448502 -0.0033544993 0.061451465
-0.058222085 -0.048814893 -0.050395418 0.032202587 0.0041731056 0.04113604 0.055883933 -0.010568321
-0.017679796 -0.047634624 0.0075678094 -0.040166046 -0.05572843 -0.05662699 -0.0015376867 0.05089753
-0.011203082 0.048082713 -0.03686878 -0.05268713 0.054886546 -0.005934621 -0.0061671794 0.011949365
0.018822353 -0.0077300547 0.0155809205 -0.044504568 -0.0148608005 -0.039758433 -0.04684307 0.059743475
0.011261263 0.030191459 0.009025594 -0.014412198 -0.007021686 0.030429872 -0.052063487 0.0057198857
-0.048263773 0.021932151 -0.008855897 0.0122806495 -0.04873584 -0.032489825 0.015145052 0.04487565
0.026056614 -0.050596744 -0.060599506 -0.014154693 -0.028865382 0.02698844 0.055052932 -0.04288108
-0.005109518 0.04507932 -0.0062570297 -0.022010528 -0.056417607 0.005602794 -0.03264042 0.012303948

fc2.bias f4 [128]
00000000: 0a84 f63a 6f0c 0c3d 7b21 5cbd e82b 043d
00000010: b5ce d53c 4250 d13c 6cea b5bc fdd7 733d
00000020: 967a 6fbd bded 023d e867 283c 80a5 7dbc
00000030: e9bb 3e3d 8a35 a6bb de9e 703b d8b8 c7bb
00000040: 8b6d 14bc 1ea9 c6bc fc30 2ebd 0274 0e3d
00000050: f9c6 6c3d f85d 743c 8c40 b0bc 8f39 06bd
00000060: a268 d8bc 36ee 093d 9c35 7539 acfd 253d
00000070: 959e 023d 98d5 79bc be2c 703d cc08 81bc
00000080: b3cb 5ebd 3557 c0bc c893 333c e3f1 5cbd
00000090: b88c db3b 39dc cfbc 2325 583d 8c2a 3dbd
000000a0: 4a41 6e3d 7ede 063d 2eb8 e43a e331 263c
000000b0: 2aeb e7bb 24c9 8f3c 2c88 c9bc 3f05 e73c
000000c0: 26b7 b93c 7cee 72bd 6daf fb3c 3228 043d
000000d0: 543e 623d f65c b53c 88b2 c83c 8be0 7bbc
000000e0: fc1a 3abd d069 363d 0c3c c8bc afc7 6e3b
000000f0: b885 da3b 530f c03c 1858 293c 7491 04bd
00000100: a319 4a3d 5bcc 5539 3ad2 9dba 5867 453d
00000110: 504d 663d 7213 4dbd 0482 8a3c 3cbc d73c
00000120: b5a7 093d 7497 a13b e0e3 47b9 57f4 ac3b
00000130: fbaf 2bbd 9940 153d e347 a33b ee93 373d
00000140: 6ee5 633d 41ed 613d a246 ffbc 29d9 d13c
00000150: dbd0 5c3d 9da6 95ba 1a55 323d d4bf 603d
00000160: af05 573d 22ce 2dbc 96fc 3b39 0564 593a
00000170: fac1 193d f19a 84bc 2507 04bd 4971 ddbc
00000180: 414c dd3c 1cf9 1ebd 2042 673d e484 2dbd
00000190: 855c 8c3c 167c f43c ca01 4db9 1585 6f3d
000001a0: 2b6b 9c3b cd66 14bc 448d 0d3d 5058 e73c
000001b0: b23b 4e39 290b 993c c04d 403d d59c e1bc
000001c0: 0094 0d3c 2029 3539 ffab 4cbc 1236 e5bb
000001d0: def5 543d b83a c4bc 9b15 293d 3a1b 0f3d
000001e0: c0b1 3bbd f14e 10bb b5ef 343d e96e cdbc
000001f0: e752 3a3c 94ee 78b8 462a 1d3d 647b 5fbd
0.0018807661 0.034191545 -0.053742867 0.032268435 0.026099542 0.025550965 -0.022206508 0.059532154
-0.058466516 0.031965006 0.010278679 -0.015481353 0.046565924 -0.0050723003 0.0036715786 -0.006095033
-0.00905932 -0.024250563 -0.042527184 0.034778602 0.057806943 0.014914982 -0.021515153 -0.032769736
-0.02641708 0.03367444 0.00023384992 0.040525123 0.031889517 -0.015248679 0.05863642 -0.015751265
-0.05439348 -0.023479084 0.010960527 -0.05394162 0.0067001246 -0.025373565 0.05276979 -0.046183154
0.058167733 0.03292703 0.0017449909 0.01014373 -0.0070775943 0.017551966 -0.024601065 0.028200744
0.02267034 -0.059309468 0.030723298 0.032264896 0.055235222 0.022139054 0.024499193 -0.015373359
-0.04543589 0.044534504 -0.024442695 0.0036434939 0.0066687725 0.023444807 0.010335945 -0.032365277
0.049340855 0.00020389391 -0.0012040802 0.04819426 0.056226075 -0.050067373 0.0169077 0.026334874
0.033607204 0.0049313847 -0.00019063009 0.005278151 -0.041915875 0.03643856 0.004982935 0.04481881
0.055638723 0.055157904 -0.03116161 0.025616245 0.053910118 -0.0011417452 0.04353819 0.05487044
0.052495655 -0.010608228 0.00017927805 0.0008292797 0.037538506 -0.016187163 -0.032233376 -0.027031558
0.0270139 -0.038811788 0.056459546 -0.042363063 0.01713396 0.029844325 -0.0001955099 0.058476526
0.0047735176 -0.009057713 0.03455855 0.028240353 0.00019667929 0.01868208 0.04694915 -0.027540604
0.008641243 0.00017276825 -0.012492179 -0.006994971 0.05199229 -0.02395378 0.04128037 0.034938075
-0.045823812 -0.002201971 0.044173915 -0.0250773 0.0113723045 -5.935e-05 0.038370393 -0.054561034

bn2.weight f4 [128]
00000000: bce4 7f3f 803d 803f af21 803f 45fc 7f3f
00000010: 38e7 7f3f 8ec2 7f3f 7dd8 7f3f 08ee 7f3f
00000020: 5113 803f 4c0c 803f 9d1f 803f dabe 7f3f
00000030: 289f 7f3f fb11 803f c2d4 7f3f 2618 803f
00000040: d032 803f 8804 803f e6c9 7f3f 3720 803f
00000050: 2f8f 7f3f b501 803f 66ea 7f3f a7e4 7f3f
00000060: b6fd 7f3f 5607 803f b1fe 7f3f f039 803f
00000070: 570d 803f cc0f 803f e0f9 7f3f 4506 803f
00000080: f90e 803f 27e7 7f3f 64d6 7f3f 6096 7f3f
00000090: 01ef 7f3f 040e 803f 8d14 803f 840c 803f
000000a0: 46e4 7f3f 6204 803f 5af3 7f3f a0e0 7f3f
000000b0: 5717 803f 0118 803f 6dd3 7f3f 98ab 7f3f
000000c0: 242d 803f 4217 803f dc01 803f feb0 7f3f
000000d0: 4ca3 7f3f 4e04 803f 2dcf 7f3f b1ea 7f3f
000000e0: 5014 803f c70f 803f c13d 803f 7cd7 7f3f
000000f0: acf9 7f3f 7f1d 803f bcd5 7f3f 34f7 7f3f
00000100: c3bc 7f3f 1e33 803f 9798 7f3f a002 803f
00000110: cdee 7f3f 07c9 7f3f 9cdb 7f3f d6c9 7f3f
00000120: 3f09 803f c511 803f 55f4 7f3f e609 803f
00000130: 773c 803f 0dd8 7f3f dadc 7f3f 91d8 7f3f
00000140: 16f1 7f3f a384 7f3f 1cf1 7f3f 5a09 803f
00000150: c8d9 7f3f 7794 7f3f 87c5 7f3f b5a9 7f3f
00000160: 9703 803f f80a 803f 1f8e 7f3f 5dda 7f3f
00000170: a9b2 7f3f 3efe 7f3f 24d6 7f3f dd14 803f
00000180: eaf5 7f3f fd0a 803f 5ee7 7f3f f60a 803f
00000190: 6cf5 7f3f 060a 803f 8755 803f 14d4 7f3f
000001a0: 9fee 7f3f a8f6 7f3f a412 803f 7029 803f
000001b0: 2ef9 7f3f 32ef 7f3f b904 803f 4314 803f
000001c0: e5de 7f3f 581a 803f 2b27 803f cc20 803f
000001d0: a7dd 7f3f 64d4 7f3f 13cd 7f3f dc09 803f
000001e0: db12 803f e9db 7f3f 5414 803f e90c 803f
000001f0: e8a3 7f3f 94e0 7f3f 6cd2 7f3f 3f1a 803f
0.99958396 1.0018768 1.001028 0.9999431 0.99962187 0.9990624 0.9993971 0.9997258
1.0005895 1.0003753 1.0009648 0.9990059 0.9985223 1.0005487 0.9993402 1.000737
1.0015507 1.0001383 0.9991745 1.0009831 0.99827856 1.0000521 0.9996704 0.9995827
0.9999651 1.0002239 0.99998003 1.0017681 1.0004071 1.0004821 0.99990654 1.0001913
1.0004569 0.99962085 0.9993651 0.9983883 0.99974066 1.0004277 1.0006272 1.000382
0.9995769 1.0001338 0.999807 0.99952126 1.0007123 1.0007325 0.99931985 0.99871206
1.0013776 1.0007098 1.0000567 0.99879444 0.99858546 1.0001314 0.999255 0.99967486
1.0006199 1.0004815 1.0018846 0.9993818 0.99990344 1.0009001 0.9993551 0.9998658
0.998974 1.00156 0.9984221 1.0000801 0.99973756 0.9991612 0.9994447 0.9991735
1.0002822 1.0005423 0.99982196 1.0003021 1.0018452 0.9993904 0.9994637 0.9993983
0.9997724 0.9981176 0.9997728 1.0002854 0.9994168 0.99835914 0.9991078 0.9986833
1.0001096 1.0003347 0.99826235 0.9994257 0.9988199 0.9999732 0.9993613 1.0006367
0.9998461 1.0003353 0.99962413 1.0003345 0.9998386 1.0003059 1.0026101 0.9993298
0.9997348 0.9998574 1.0005689 1.0012646 0.99989593 0.9997436 1.0001441 1.0006183
0.99949485 1.000804 1.0011953 1.0010009 0.9994759 0.9993346 0.99922293 1.0003009
1.0005754 0.9994493 1.0006204 1.000394 0.99859476 0.99952054 0.99930453 1.000801
