tryst/model_round_8.pth (torch, 194739 bytes, 19 tensors)

fc1.weight f4 [256, 14]
00000000: 809a 353e 0c77 eabd e882 cc3c 2839 cd3d
00000010: 649b bb3d be1e cc3c 800e aa3d 1f7b 0b3e
00000020: 3758 0a3e 0ecc 143d c9d9 943d 76cf debb
00000030: 79ff 2bbc c131 bebd a5ee 583d 5d10 cf3d
00000040: 6420 bdbc 568f 3bbe d0fd 383d b211 da3c
00000050: b4aa c2bd b1fd e1bd 7aa4 d6bd 361c 683d
00000060: 6a63 6ebc 1126 96bd 0059 c53c 18b5 13be
00000070: 1b3a 06be fa79 57bd 196e 5a3d 5a76 a8bc
00000080: 90bd 9bbd e1cb 4cbd 421c 2b3d 832d a3bd
00000090: 414f e8bc 184e 89bd 24e1 073e 682b 92bd
000000a0: a42b 613d cc82 dbbd 30a9 1d3e 8189 24be
000000b0: 7cb3 3a3c b682 25be 002f 2dbd 597e 69bd
000000c0: 39b3 633d a62a dabd 22e7 dabd 02d1 c13d
000000d0: 867e 123e 5609 bd3b 784e f33d 274c b53d
000000e0: fbb9 b1bd 91fc c53d 90d4 a5bc 84f9 ec3d
000000f0: 4c10 febc c67e 6b3d 7e46 ce3d 0bd3 5c3d
00000100: 8c6e f6bd 4a17 683c cc6d 29be ef33 c13d
00000110: 16ce 53bc 5c03 7b3b 1c1f 073b 14f4 513c
00000120: e873 2f3c 7438 22be 8ec1 e1bd cb8b d43d
00000130: aaf4 383c 28bc 653d bacf 1c3d 6cf3 9b3d
00000140: 8e46 1bbd c9b8 573d 4534 cd3d 44ce c6bd
00000150: a783 f33d 3fa4 f2bc 5698 c13d 1e47 96bd
00000160: 7385 483d b32f ce3d 8916 e03d d8bf c73c
00000170: dafc 30bd a034 a23a 56fb 0cbe 71a2 abbd
00000180: 2df9 26bd 5959 f73d 4edb 983d 149d bc3d
00000190: 990d 80bd 26dd 0f3e 9939 7abd e235 45bc
000001a0: d0ef 9f3d 60d5 a33d 1a41 bebd 3f60 20be
000001b0: c4f8 223d a011 9ebd 46d1 b2bc b3b9 0bbe
000001c0: 020c e2bd 84c5 8bbd 3aa0 cb3d 4dfb 163d
000001d0: cf78 823d 122e ae3c 6fa8 c6bd 1c98 07be
000001e0: 4ecb b7bd 1468 573b b8ac d0bd fa71 d4bd
000001f0: a286 f3bd 12b9 363d e2cf babd 7d87 60bd
00000200: c12f c23b 8dc9 083d 40ad 11bd 622b 713d
00000210: a0d0 0fbe abe0 90bd efea d1bc 8652 033d
00000220: 8824 0bbe 7192 b3bd 6220 3e3b a4a0 313e
00000230: 2751 833d 0854 0abd f0f8 943d 68d9 e6bd
00000240: c854 893c 0327 c23a a89a 24be aac9 1b3d
00000250: 2cd6 b1bd f933 8dbc b898 88bc 9f43 d6bd
00000260: 0cd1 e7ba adf4 4f3d 4ef4 7a3d cc40 db3d
00000270: b407 c83d 1e1d e1bc 309e 86bc aeb5 3e3d
00000280: 7a3e abbc 24e9 9dbd 487a 3c3c bfcc ac3d
00000290: 2fae 00bd d3d9 b03c 60b4 9d3d 4170 743e
000002a0: c425 00be 605c debc 3f5a c2bd a4d8 3cbd
000002b0: 7b21 0bbe e819 ddbd 9e0c 783c 67da b93c
000002c0: f7c7 b2bd 0f61 b13d c16a 093e 6d09 ccbd
000002d0: da88 3ebc 4b5b 8cbc 7803 0abd 8bd2 b63c
000002e0: d826 9fbd b83a 2bbc 6085 a83d 71bb a9bd
000002f0: 638c 3c3c e4e3 15be 2f3c c13d 4480 073e
00000300: bd84 66bd 5e0a 433d 7b30 183e 066c ccbd
00000310: 4442 00be 6d53 12bd c309 11be e284 9ebd
00000320: 2093 4c3d 9293 46bd ce3a d1bd d4a4 bb3d
00000330: 3643 673b a4d9 1cbe 96be b03c 0f2c 053d
00000340: b40a 0f3a f05e cbbd 80ca b03d 3ac4 ef3c
00000350: 42d8 70bd 066c b93d 27aa f4bd c897 d33d
00000360: b9a6 a23d 5813 c13d 7905 febc 65a6 013e
00000370: 541d 223e 4d84 b0bd 5ab5 163e 7e7b 0b3e
00000380: 4ada b7bd 9fdd 4f3d 28da a3bb ebea 4cbc
00000390: 51d3 103d 8813 ecbc cf63 083e d102 91bd
000003a0: cf0d 6fbb 9e0e 3fbe 28a4 bcbd 15dd debd
000003b0: 2409 8a3d c242 4dbd 97f6 9c3d 8a6d 17be
000003c0: ba08 103e 1e87 1ebe c258 69bd 6c49 ef3d
000003d0: b1f4 09be c94d babc 66b9 afbd 5e84 a03c
000003e0: 3f33 fcbc d4a2 e4bd ceeb a0bd 78af 72bd
000003f0: b30f 0cbc 50d5 d03b 4ca8 96bd dbb1 d0bd
0.17734718 -0.11448488 0.024964765 0.10020667 0.09160498 0.024917003 0.08303547 0.13621186
0.13510214 0.036327414 0.07268102 -0.0067996336 -0.010497921 -0.092868336 0.052961964 0.10110543
-0.023086734 -0.18316397 0.04516393 0.026619766 -0.09505215 -0.11034716 -0.1048059 0.05666753
-0.014550069 -0.07331479 0.02409029 -0.1442455 -0.13108103 -0.05260656 0.053327654 -0.020564247
-0.076045156 -0.04999912 0.041774996 -0.07967665 -0.028358104 -0.06704348 0.13269478 -0.07137185
0.05497326 -0.10718307 0.15396571 -0.16068079 0.0113953315 -0.16163144 -0.04228115 -0.05700526
0.055590842 -0.10652666 -0.10688616 0.09463693 0.14306077 0.005768935 0.11880201 0.088524155
-0.08678051 0.09667314 -0.02024296 0.11571029 -0.03101363 0.057493947 0.10072039 0.053912204
-0.12032804 0.014165709 -0.1654579 0.09433734 -0.012927553 0.0038301563 0.0020617908 0.01281454
0.010708787 -0.15841848 -0.11023246 0.10378226 0.011288801 0.056087643 0.03828404 0.076147884
-0.037909083 0.05266646 0.10019735 -0.09707311 0.11890345 -0.029619334 0.09452884 -0.07337783
0.048955392 0.10067692 0.10941798 0.02438347 -0.043209888 0.0012375303 -0.13767752 -0.083805926
-0.040764976 0.120775886 0.07463704 0.09209648 -0.062525935 0.14049205 -0.061090086 -0.012036772
0.078094125 0.079996824 -0.09289761 -0.15661715 0.039788023 -0.077182055 -0.021828305 -0.13645057
-0.110374466 -0.068247825 0.0994267 0.036860753 0.06370699 0.021262202 -0.09700095 -0.13241619
-0.08974324 0.0032868432 -0.101891935 -0.10373302 -0.118909135 0.04461009 -0.09121682 -0.05481671
0.005926103 0.03339534 -0.035565615 0.058879264 -0.14044428 -0.07074102 -0.02562472 0.032061122
-0.13588154 -0.08768166 0.0029011 0.17346436 0.06411963 -0.033771545 0.072740436 -0.11271936
0.01676406 0.0014812652 -0.16074622 0.03803412 -0.08683428 -0.017236697 -0.016674384 -0.104621165
-0.0017686202 0.05077045 0.061268143 0.107057184 0.09767094 -0.027479704 -0.016432852 0.046559982
-0.020903815 -0.07710484 0.0115037635 0.0843749 -0.031416114 0.021588242 0.077004194 0.23870946
-0.12514406 -0.027143657 -0.09489869 -0.046105042 -0.1358699 -0.10795957 0.015139727 0.02268715
-0.087295465 0.086610906 0.1341963 -0.09962735 -0.011629308 -0.017133376 -0.033694714 0.022317192
-0.07771081 -0.010451011 0.08228564 -0.08287705 0.01150808 -0.14637715 0.09435307 0.13232523
-0.056278933 0.04761731 0.14862244 -0.09981541 -0.12525278 -0.035724092 -0.1416388 -0.07740189
0.049944997 -0.048480578 -0.10216294 0.09162298 0.0035287864 -0.15317398 0.021575253 0.03251272
0.0005456612 -0.09930217 0.08632374 0.029268373 -0.05879999 0.09053807 -0.119465165 0.10331684
0.07941956 0.09427518 -0.031008469 0.1266113 0.158315 -0.08618984 0.14717618 0.13621327
-0.08977182 0.050748464 -0.0050003715 -0.012507181 0.035357777 -0.028817907 0.13319324 -0.07080615
-0.0036476736 -0.1865792 -0.09210998 -0.10882012 0.06740025 -0.050112493 0.07664221 -0.1478788
0.14065829 -0.1548123 -0.05696941 0.11683926 -0.13472249 -0.022742169 -0.08580284 0.019594368
-0.030786155 -0.111638695 -0.07857476 -0.05924937 -0.008548665 0.006373085 -0.07356319 -0.10190173

fc1.bias f4 [256]
00000000: a4c2 2fb6 ea55 a336 20d2 cab6 60d4 1335
00000010: f4c3 dbb6 13e9 2c38 da44 deb5 056a 5d35
00000020: c610 b736 9261 fe35 6284 9fb5 d067 95b3
00000030: d045 01b7 cab9 7736 90d4 a2b6 b0ca 71b3
00000040: 42f2 2db6 2fa3 45b6 f167 02b7 6895 aab6
00000050: d6d6 e934 8501 0337 0d1a 8237 2ee7 4c35
00000060: 26d1 c336 c3db 9035 fc1c ac34 1012 20b6
00000070: f867 81b4 92c5 9936 7b21 73b6 3695 a937
00000080: ec25 eab6 83ac a436 86e0 adb6 9dcf 4536
00000090: 7a04 5836 0018 01b7 ce58 9bb6 a82f 3a36
000000a0: e073 d036 0f01 aa37 ad65 63b6 04ed 8536
000000b0: 40f7 c532 dc97 52b7 7de5 a8b6 96dc d6b6
000000c0: b088 4e36 d4d8 bcb6 301f bdb6 6a7d 0fb7
000000d0: e38a 92b7 5a92 f9b4 fbce 1b37 ae57 3b37
000000e0: 15e4 85b6 ad02 8336 b83a a435 1dca 8c36
000000f0: 712c 2e36 a4ac 8a37 226b 6936 7cef 6c36
00000100: 708f e6b4 0f31 e836 a057 e132 efcc 8db5
00000110: 3c67 ecb6 0834 8837 57aa c9b6 9364 e736
00000120: 80d0 da31 a099 3f36 24c4 e3b5 66fb b1b5
00000130: ca60 60b6 ba60 b634 cf16 b836 0e2b a636
00000140: 1afc c536 88b5 48b6 ca63 bcb5 5f9b b4b6
00000150: 501a 0fb7 1785 7536 6bd3 ba35 c8e7 8835
00000160: f9a9 68b6 a52b 4b36 52b1 dcb5 96d2 19b7
00000170: 5ce8 af35 fb05 3ab6 3ddf 6237 6705 31b6
00000180: 20e4 d134 fde6 b136 c09d a337 a4ae 43b5
00000190: 542e 7cb6 78d1 10b7 92c9 31b7 5045 3b36
000001a0: 7f3a 87b6 4b23 0836 869b 20b5 f77f 9336
000001b0: b951 30b7 c799 14b7 4a16 53b6 1ba9 ba36
000001c0: fb00 ea35 6f2b 37b6 d7cc 53b6 c956 0b37
000001d0: 8e69 7b35 b66d 2136 ce2d 5a37 3a87 90b5
000001e0: 5aaf 2837 8f43 4035 7c4b 62b7 a802 c935
000001f0: a8d2 9735 6c53 3a35 89e6 1d35 9c02 5f36
00000200: 145c 0fb8 4843 5e35 0dbd 9bb6 1499 2db6
00000210: f114 4db7 afa3 e136 62d6 b336 a2cb dfb6
00000220: 60b1 18b6 b12d aa36 ec2f 7936 4c36 afb6
00000230: b5ca 3236 209c 6f35 ba17 8537 a48f 7536
00000240: a54b a136 b026 15b6 e4ed 40b5 48f3 0836
00000250: 51c7 cc36 0f0e 0337 b732 1337 fced 13b7
00000260: 4e74 34b7 af21 9db6 70f9 c7b4 8c69 cf36
00000270: b0a0 5d37 b6a3 8036 8a4a 12b7 3d2e 63b6
00000280: b19b 20b7 be2f fe35 ddad 7a37 1534 40b6
00000290: b802 c234 a510 3536 0dcf e535 9b78 40b6
000002a0: 4a4e ae35 d5e8 cf35 fe6b 7436 db0e d535
000002b0: 6327 3137 ac0b 9e35 0d26 8bb5 7172 c0b6
000002c0: 823c 4db5 ec82 bd36 48ba 1bb3 9f14 9d36
000002d0: 746c 9f35 00e9 ce33 1a4b e1b6 e270 3cb6
000002e0: d257 7fb6 b65b b036 6860 b5b5 b8b0 a536
000002f0: ba1d d5b6 3860 82b4 27e6 08b7 4e88 ed36
00000300: b06e bcb6 aa74 ef36 37a8 73b7 8069 2cb3
00000310: 1313 4136 a925 bc35 de17 52b5 f007 c0b6
00000320: 8fdf 56b7 4ea5 9cb6 bce5 ecb6 16f0 1c36
00000330: a68f a736 955a 2db6 3b13 d936 e828 33b7
00000340: e0a5 1433 0e84 57b6 69f2 23b7 9290 6c36
00000350: 9efd d5b6 3c97 0636 4b04 f3b6 51f2 6935
00000360: 1366 8eb4 9bcc 83b6 82d6 34b7 92b2 57b6
00000370: 8c54 a336 a472 3fb5 688d 1134 6456 5337
00000380: e628 9336 445f ae35 beb0 3035 18d0 00b4
00000390: c72a bf36 76da 3bb6 9a43 94b7 7272 86b5
000003a0: f9a6 2b36 b8ba 5bb7 99ef 1737 2618 51b7
000003b0: acfb a1b7 b54e 18b6 687f 46b6 043b 13b7
000003c0: d3ad eeb5 e9d3 1b36 38cb 0537 8e15 bfb5
000003d0: f2fa f436 e03b fb34 aa89 5e35 6415 5e35
000003e0: 5229 8636 8262 a3b6 2824 54b5 311e a536
000003f0: c071 a5b2 e8c6 4035 4580 83b6 927e 0436
-2.6190328e-06 4.8677803e-06 -6.044531e-06 5.5070814e-07 -6.5495205e-06 4.1225063e-05 -1.6560327e-06 8.2483194e-07
5.4557777e-06 1.8952871e-06 -1.1884952e-06 -6.9572366e-08 -7.705254e-06 3.6914012e-06 -4.8527218e-06 -5.629653e-08
-2.5920021e-06 -2.9450273e-06 -7.772805e-06 -5.083788e-06 4.3555946e-07 7.808562e-06 1.5509338e-05 7.633233e-07
5.835801e-06 1.0792795e-06 3.2058585e-07 -2.3852372e-06 -2.410377e-07 4.5827555e-06 -3.622931e-06 2.0215852e-05
-6.978158e-06 4.907664e-06 -5.1819397e-06 2.9476134e-06 3.2189114e-06 -7.694587e-06 -4.629698e-06 2.77439e-06
6.2123727e-06 2.0266072e-05 -3.388482e-06 3.991301e-06 2.3046255e-08 -1.2552333e-05 -5.033506e-06 -6.4033766e-06
3.0775955e-06 -5.6280787e-06 -5.6362696e-06 -8.552664e-06 -1.746923e-05 -4.648635e-07 9.286911e-06 1.1166483e-05
-3.990261e-06 3.9044157e-06 1.2236042e-06 4.195854e-06 2.5953889e-06 1.6531274e-05 3.4782065e-06 3.5306139e-06
-4.2945203e-07 6.91985e-06 2.6233295e-08 -1.0564962e-06 -7.045366e-06 1.6236692e-05 -6.010097e-06 6.896045e-06
6.3683387e-09 2.855064e-06 -1.6969902e-06 -1.3260694e-06 -3.343494e-06 3.397052e-07 5.4862826e-06 4.9521977e-06
5.900406e-06 -2.9907987e-06 -1.4036134e-06 -5.3825056e-06 -8.529591e-06 3.6585313e-06 1.3919611e-06 1.0200247e-06
-3.466963e-06 3.0274762e-06 -1.6442884e-06 -9.1685415e-06 1.3106142e-06 -2.771964e-06 1.3522626e-05 -2.63782e-06
3.9095266e-07 5.3019016e-06 1.9504572e-05 -7.2897296e-07 -3.7577893e-06 -8.63184e-06 -1.0596954e-05 2.7905517e-06
-4.0301234e-06 2.0286122e-06 -5.983096e-07 4.3958385e-06 -1.0509445e-05 -8.8572915e-06 -3.1454424e-06 5.5629184e-06
1.7434644e-06 -2.7294407e-06 -3.1560683e-06 8.305252e-06 9.365839e-07 2.405473e-06 1.3004477e-05 -1.0768192e-06
1.00544075e-05 7.1623884e-07 -1.3488225e-05 1.497644e-06 1.1311686e-06 6.9411794e-07 5.882253e-07 3.3231108e-06
-3.417961e-05 8.279935e-07 -4.6413684e-06 -2.5868112e-06 -1.2223828e-05 6.724578e-06 5.359573e-06 -6.669624e-06
-2.275301e-06 5.071714e-06 3.7131786e-06 -5.2217274e-06 2.6642058e-06 8.926163e-07 1.5865884e-05 3.6591455e-06
4.80698e-06 -2.222525e-06 -7.187175e-07 2.0407188e-06 6.1028773e-06 7.811482e-06 8.773691e-06 -8.817293e-06
-1.0755915e-05 -4.682886e-06 -3.7248128e-07 6.181368e-06 1.32100395e-05 3.8337557e-06 -8.719633e-06 -3.385255e-06
-9.572993e-06 1.893837e-06 1.4941642e-05 -2.8640545e-06 3.6137294e-07 2.698079e-06 1.7122089e-06 -2.868043e-06
1.2986795e-06 1.5490465e-06 3.6421693e-06 1.587406e-06 1.0559193e-05 1.1775314e-06 -1.0367381e-06 -5.7353686e-06
-7.64565e-07 5.6478802e-06 -3.625817e-08 4.681365e-06 1.1877987e-06 9.635005e-08 -6.7142655e-06 -2.807989e-06
-3.804908e-06 5.2558853e-06 -1.3513609e-06 4.937956e-06 -6.3513553e-06 -2.4284395e-07 -8.159818e-06 7.0790184e-06
-5.6157223e-06 7.1363365e-06 -1.4523094e-05 -4.0142822e-08 2.8770344e-06 1.4018052e-06 -7.826583e-07 -5.72297e-06
-1.2807445e-05 -4.6684063e-06 -7.0600927e-06 2.338556e-06 4.9937107e-06 -2.5831735e-06 6.4693427e-06 -1.0678756e-05
3.4609798e-08 -3.2114363e-06 -9.771998e-06 3.5250891e-06 -6.3774196e-06 2.0055586e-06 -7.242464e-06 8.715188e-07
-2.652383e-07 -3.9279234e-06 -1.077878e-05 -3.2141438e-06 4.867621e-06 -7.131987e-07 1.355562e-07 1.2596694e-05
4.3857026e-06 1.2991736e-06 6.5822303e-07 -1.1996633e-07 5.6972235e-06 -2.7992332e-06 -1.7674454e-05 -1.0017086e-06
2.5578177e-06 -1.3096891e-05 9.056087e-06 -1.2462993e-05 -1.930989e-05 -2.2695579e-06 -2.957846e-06 -8.775623e-06
-1.7782971e-06 2.3220148e-06 7.974733e-06 -1.4236882e-06 7.3009805e-06 4.6795958e-07 8.290177e-07 8.273257e-07
3.9983215e-06 -4.8692464e-06 -7.902877e-07 4.920898e-06 -1.9260256e-08 7.181502e-07 -3.9190368e-06 1.9743206e-06

bn1.weight f4 [256]
00000000: ee01 793f ef73 783f 1ae6 743f 2ca6 833f
00000010: 1091 6a3f 5e5b 773f 40b4 6a3f bf65 793f
00000020: 081d 793f 3a80 723f 1a24 693f 438f 713f
00000030: 2873 7c3f ba06 773f 0eac 773f e6cc 753f
00000040: 913e 693f 4d74 6b3f df73 723f 08c0 6d3f
00000050: d0b3 693f eeb9 773f 00d1 643f a115 6d3f
00000060: 14bb 6e3f e8fb 773f 5a82 733f 3afc 763f
00000070: 4645 6e3f 3f46 6e3f c402 773f bcc1 853f
00000080: 105e 7b3f 2d3c 713f 2bc2 753f d814 723f
00000090: 34df 6d3f 5093 6e3f 3256 7d3f 0f9b 6b3f
000000a0: c7ee 723f 5790 813f c219 5f3f 6d49 703f
000000b0: 0a42 6e3f 0450 823f 778a 713f a625 853f
000000c0: f368 703f 4f41 7f3f 2a4c 6e3f 4339 743f
000000d0: 2fee 7e3f 0907 7a3f 0211 7d3f dd7b 7a3f
000000e0: b83c 6d3f 42b5 743f 5934 6f3f f041 773f
000000f0: fc59 663f 0775 733f fe5c 6d3f 3aa0 663f
00000100: 267d 683f 6720 733f 08f4 663f 5d78 6f3f
00000110: 4689 663f 6e84 673f 86dd 7b3f 65cd 733f
00000120: 0916 743f 7161 823f 45f0 7c3f 1acc 7c3f
00000130: be15 773f 322e 683f 4303 623f a285 743f
00000140: 083d 703f ba73 703f 81e0 773f 6855 6a3f
00000150: e363 7b3f 44ac 703f 74f1 6e3f ec23 6a3f
00000160: 32b1 723f a19c 783f dd07 7e3f c496 7b3f
00000170: de9c 753f 1bd1 6e3f 6685 7b3f 9c07 6d3f
00000180: bb50 813f 7e93 713f 4c79 773f 6ad5 783f
00000190: ad82 713f 80a3 7c3f 398d 833f 5bc3 793f
000001a0: c625 7e3f acaa 6f3f 0490 7d3f a8c2 7c3f
000001b0: 36c1 5c3f dc19 613f 8f75 6f3f 0a78 773f
000001c0: fa0a 783f d7b7 733f 3862 7a3f 3e5d 6f3f
000001d0: 94a3 753f 7061 703f ad4f 753f 4693 703f
000001e0: d89b 683f ef12 6f3f f84f 743f b5aa 6e3f
000001f0: c42f 733f 922f 743f 26f6 673f a789 713f
00000200: 96bd 823f 372c 683f 3642 693f eca1 7e3f
00000210: 4f6d 6c3f 83bc 803f e9b4 713f 4ded 723f
00000220: c2fe 703f 4955 783f 1395 793f faac 763f
00000230: 509b 693f a8cc 773f 8f84 823f 3e8e 733f
00000240: 26b3 6a3f 55b0 7b3f de39 693f aa3e 733f
00000250: 86a9 723f c659 683f d93c 683f dce5 6d3f
00000260: 8ee7 6b3f 85f5 763f a746 773f e5f6 743f
00000270: dca2 833f 109f 813f 6329 7e3f 6fc1 783f
00000280: 8624 883f 467f 6a3f 7084 743f 8c05 763f
00000290: 6966 733f 9661 7d3f d4ff 5a3f 4f3f 803f
000002a0: f4cc 6d3f 8b6f 733f 7aa5 743f 7910 743f
000002b0: a116 793f b237 7b3f 56f3 623f 7301 833f
000002c0: 5919 843f ff40 703f 2fc1 843f e237 643f
000002d0: dae0 7c3f efbb 633f 0b10 733f e130 653f
000002e0: 30c5 7c3f 6c64 673f 72af 793f 3666 7d3f
000002f0: 2872 703f 51b4 6d3f e29f 803f efc2 713f
00000300: e632 743f 998d 753f 56ac 813f a2d5 6c3f
00000310: bde7 843f 533a 723f 1f21 813f c43a 743f
00000320: 2857 833f 1491 743f 5a33 653f 7822 773f
00000330: 83d2 693f f4c4 6f3f dbee 773f a87e 823f
00000340: ce6c 773f 80fe 6c3f c0d3 7d3f 35f4 6b3f
00000350: 61c0 6a3f e720 7c3f 948a 6f3f bb83 673f
00000360: 5c20 673f 4d2e 783f 9fa3 7e3f ea9b 633f
00000370: 4f28 7a3f 34ab 723f e257 683f 01bb 613f
00000380: b6d9 783f 30e7 673f e2b4 6b3f 41a3 653f
00000390: 87e7 783f 0800 7e3f 2831 6c3f ddab 703f
000003a0: 8e0b 643f 59a4 7a3f c2f9 6f3f 4e6a 7d3f
000003b0: 7ac0 7b3f 6a57 6c3f a8c7 783f 2b2e 733f
000003c0: 0aa4 7c3f 1c5b 7f3f e1b8 6f3f 4511 783f
000003d0: c0b3 743f 330c 763f c96f 7d3f 86ff 683f
000003e0: a28a 7e3f 0ed8 793f cec6 663f f043 763f
000003f0: 1417 753f 0241 733f d434 683f 32f4 733f
0.9726857 0.970519 0.9566361 1.0285087 0.916276 0.9662379 0.9168129 0.9742088
0.97309923 0.9472691 0.9107071 0.94359225 0.98613214 0.9649464 0.9674691 0.96015775
0.91111094 0.91974336 0.94708055 0.9287114 0.9129 0.9676808 0.8938141 0.9261113
0.9325421 0.96868753 0.95120776 0.9647862 0.9307445 0.9307594 0.96488595 1.0449748
0.98190403 0.94232446 0.959994 0.94563055 0.92918706 0.9319353 0.9895965 0.92033476
0.94895595 1.0122174 0.8714868 0.9386204 0.9306952 1.0180669 0.94351906 1.0402114
0.9391014 0.9970903 0.9308497 0.95399874 0.9958219 0.97666985 0.98854077 0.9784525
0.92670774 0.9558908 0.9343925 0.9658499 0.89981055 0.95100445 0.9272002 0.90088236
0.9081596 0.9497132 0.9021611 0.93543035 0.9005321 0.90436447 0.9838489 0.9523528
0.9534612 1.0185987 0.9880412 0.98748934 0.9651755 0.9069549 0.88286227 0.9551641
0.93843126 0.93926585 0.9682694 0.9153657 0.9819929 0.94012856 0.9333718 0.9146106
0.9480163 0.97113997 0.9923075 0.98276925 0.95942485 0.9328782 0.98250425 0.92589736
1.0102762 0.9436568 0.9666946 0.97200644 0.9434002 0.9868698 1.0277473 0.97563714
0.9927639 0.936198 0.99047875 0.9873452 0.86232316 0.87930083 0.93538755 0.9666754
0.9689175 0.9520239 0.9780612 0.9350165 0.95952725 0.9389868 0.958247 0.9397472
0.908628 0.93388265 0.9543452 0.9322923 0.9499476 0.95385087 0.9060997 0.94350666
1.0214107 0.90692466 0.91116655 0.99465823 0.9235429 1.0057529 0.9441667 0.9489334
0.9413873 0.97005135 0.97493094 0.9635769 0.91252613 0.96796656 1.0196704 0.9513892
0.9167961 0.98315936 0.91103923 0.9501749 0.9478992 0.90761983 0.90717846 0.9292886
0.921502 0.96468383 0.9659218 0.9568923 1.0284076 1.0126667 0.992819 0.97170156
1.0636146 0.91600454 0.95514584 0.96102214 0.9507814 0.9897703 0.8554661 1.001932
0.9289086 0.95092076 0.95565 0.95337635 0.97300154 0.9813186 0.8865255 1.0234817
1.0320235 0.93849176 1.0371455 0.8914777 0.98780596 0.8895864 0.94946355 0.8952771
0.98738384 0.90387607 0.97533333 0.98984087 0.9392419 0.92853266 1.0048792 0.9443807
0.95390165 0.95919186 1.0130718 0.9251348 1.0383221 0.94620246 1.0088233 0.9540217
1.0260973 0.9553387 0.8953148 0.9653697 0.9133684 0.936599 0.9684884 1.0194902
0.966504 0.92575836 0.9915123 0.92169505 0.91699797 0.98487705 0.9357083 0.9043538
0.9028375 0.9694565 0.99468416 0.8890978 0.97717756 0.94792485 0.907591 0.8817597
0.972072 0.9058714 0.9207288 0.8970223 0.9722828 0.992188 0.92262506 0.9401224
0.8908013 0.97907025 0.93740475 0.98990333 0.9834057 0.92320883 0.9717965 0.9499232
0.98687804 0.99748397 0.9364148 0.9690135 0.95586777 0.96112365 0.98998696 0.910149
0.99430287 0.975953 0.901471 0.96197414 0.9573834 0.9502107 0.9070561 0.9529449

bn1.bias f4 [256]
00000000: 6519 debc 2019 f3bd defd a23c 2fa0 32bd
00000010: 6d0f 00be 220e 71bd fece c5bd 1c59 0ebd
00000020: ecc0 f3bd 3091 09be 7aa1 35be e0a5 0cbe
00000030: f4e1 be3c 8966 0fbd 398d bbbd 8aa2 bcbd
00000040: c0e4 f3bd 75f3 e8bd 2bb0 d8bd 1764 abbd
00000050: acc9 c0bd c158 81bd bf33 eabd ba07 34bd
00000060: e73a 75bd aa20 61bd 2ef9 19be 1880 cfbd
00000070: bd92 a5bd 0ac4 09be 9e9b 26bb 3edc 90bd
00000080: 6d9f 0ebe 232c b3bd a74f 12bc edd9 7abd
00000090: 286b ecbd 1e24 1ebd b433 4bbe 9d6f 07be
000000a0: ac98 e0bd a874 85bd d8fe 54bd 794a 8cbd
000000b0: ac9f 30bd bfb2 7dbe 3e06 d7bd 37c3 f0bc
000000c0: e443 acbd b2fe 5bbd fee2 9abd 4af6 0dbe
000000d0: cb08 c8bd 5899 23bd 1982 4dbe c59c 9ebc
000000e0: 7e5b aabd 6b3c c3bd af0c d3bd 75ca dcbb
000000f0: ebbf 0abe 9ae2 21be 777e dcbd 3d8c 0fbe
00000100: f598 9abd fc52 a7bd de85 28be e5b8 f2bd
00000110: 2a14 c4bd ba0d 82bd 4616 16bd 31a4 f9bd
00000120: 201a f7bd 39ad 86bd 671e 05be 2a85 a3bd
00000130: b2bd 03bd 3991 90bd f258 bfbd 8336 a1bd
00000140: 1207 a1bd 1b99 9fbd d405 82bd 1cf3 c5bd
00000150: 06b3 e8bd 485e 16be 724a 99bd 6ca8 74bd
00000160: 373d babd 2319 153b 205e d3bd 5571 bdbd
00000170: 55fb 83bd b2b1 93bd 66fa 9cbd c3c5 c9bd
00000180: fecc 4dbd 8560 00be 65e1 e5bc 69c4 3cbd
00000190: 75a0 d5bd 7c89 bfbd c125 4cbd 266e ddbd
000001a0: 9c1f 26be 7bd4 e8bc a9c4 d73a c8fb 40bd
000001b0: 5957 febd 0461 afbd ff2f b2bd b9d0 84bd
000001c0: 45d9 8cbd 760e b4bd 6c04 82bd ae31 85bd
000001d0: cf44 dabd 175b cdbd 479a 55bd c90f 9abd
000001e0: 10b2 18be e221 efbd cd26 1bbe bc6e b3bd
000001f0: 6710 06be cf0c 86bd 704d 04be 1078 b2bc
00000200: e405 03bd c712 f8bd 5fec bcbd 8c6f 09be
00000210: 2b94 9cbd e4a4 16bd d539 07be dbe3 a6bd
00000220: d8e9 d8bd fe33 dbbd 2605 58bd a79e 18bd
00000230: 4e2d 83bd 035f 3dbe bda9 b1bd 3d0f f6bd
00000240: 798f edbd c8b0 bbbd 84b8 e2bd 47ee 25be
00000250: 9a17 febd ec34 efbd 6aa2 12be aaa5 50be
00000260: 75a7 9fbd 5039 4cbd 1511 0fbd 048b 1bbd
00000270: e06d 99bd 5239 2cbd e8f2 b3bd 3430 d9bd
00000280: 429e ecbd 9e04 94bd a419 b3bc da4a 8ebe
00000290: faf9 09be 94ae 1abd c9d7 83bd 4c22 b6bd
000002a0: edc6 96bd 7891 8cbd 505a 5ebc db57 a7bd
000002b0: 848b 99bd 52c6 39bd fda7 c0bd bc04 1dbd
000002c0: fb9d 8ebd f2fc 303a a8fc 16be c93a 7dbd
000002d0: ed7e acbd a428 acbd 64b2 15be b249 33be
000002e0: f340 8cbd feda 08be 2a0e e6bc c9fd b3bd
000002f0: e4d8 55bd 73cc c8bd 3b6d 77bd bc1c b1bd
00000300: c2f6 66bd 9e53 16be 8cff 8cbd f7bf 85bd
00000310: 07b7 aebc 7ae5 00bd c857 f4bc 9f72 d5bc
00000320: e26a 2cbe 2490 5e3b 7abf 42bd 4e7e 1abe
00000330: d08f ddbd a6f0 84bd 8706 bfbd 47c8 26be
00000340: 64df c7bd a28c b5bd 55b8 dbbd 1c6c 31bd
00000350: 3104 5cbd 5677 2cbe a567 8dbd 5a50 8fbd
00000360: f722 5abd 34c1 1ebd c689 11be acc3 fbbd
00000370: 8109 b5bc f17e 50bd a046 cfbd 530d f9bd
00000380: 8eac 27be b6f2 4bbd 98bf 81bd 7c25 fdbd
00000390: 506d 0abe 1fd3 2cbd 5843 b1bd 331e b4bd
000003a0: 0305 b1bd 6298 0bbc a48a 8ebd 040d 0cbd
000003b0: c079 bfbd 99d7 35bd 01ec bebd 116f 99bd
000003c0: d64c b1bd 3871 4ebd b64b f5bc c294 f9bd
000003d0: ee3a aebd 24b7 0ebe 8064 c9bd 71e4 e0bd
000003e0: 0c49 bebd a2fb b6bc 7877 86bd 7423 b0bd
000003f0: 824f eebd 42c6 b1bd 702f bcbb ca66 e2bd
-0.027111718 -0.118700266 0.019896444 -0.043609794 -0.12505884 -0.05885137 -0.09658621 -0.03475295
-0.11902031 -0.13434291 -0.1773738 -0.13735151 0.023301102 -0.035009895 -0.091577955 -0.09210689
-0.11908865 -0.11374561 -0.105804764 -0.083687 -0.09413466 -0.063157566 -0.11435651 -0.04395268
-0.059870627 -0.05496279 -0.15036461 -0.10131854 -0.08084629 -0.13453689 -0.0025422345 -0.07073258
-0.13928004 -0.08748653 -0.008930123 -0.061242986 -0.11543876 -0.038608663 -0.19843942 -0.13226171
-0.1096662 -0.06516391 -0.05200085 -0.06850142 -0.043121025 -0.24775217 -0.104992375 -0.02938996
-0.084113866 -0.053709693 -0.075628266 -0.13863483 -0.09767302 -0.039941162 -0.2006916 -0.019361863
-0.08318232 -0.09533008 -0.103051536 -0.006738002 -0.13549773 -0.15809098 -0.10766309 -0.1401834
-0.075487055 -0.08170125 -0.16457316 -0.11851672 -0.095741585 -0.063502744 -0.036642335 -0.1218952
-0.1206553 -0.06576008 -0.12999879 -0.079843834 -0.03216333 -0.07058949 -0.09343137 -0.078717254
-0.07862677 -0.077928744 -0.06348768 -0.0966551 -0.11362271 -0.14684403 -0.074849024 -0.059730932
-0.09093707 0.0022750578 -0.10320687 -0.09250132 -0.06444422 -0.07211627 -0.07664947 -0.09852173
-0.050244324 -0.1253682 -0.028061578 -0.04608575 -0.104309954 -0.09352395 -0.049840692 -0.10812025
-0.16222996 -0.028421631 0.0016461808 -0.047115117 -0.12419004 -0.08563426 -0.08700561 -0.06485123
-0.068773784 -0.08791821 -0.063485 -0.06503616 -0.106576554 -0.1002714 -0.052149083 -0.07522542
-0.14911675 -0.116763845 -0.1515152 -0.08761355 -0.13092194 -0.06545412 -0.12920165 -0.021785766
-0.03198804 -0.121129565 -0.09224772 -0.13421458 -0.07645448 -0.036778346 -0.13205655 -0.08148929
-0.10591477 -0.10703276 -0.052739285 -0.037260678 -0.064051256 -0.18493275 -0.08674953 -0.12014625
-0.11599631 -0.09164578 -0.1107035 -0.16204177 -0.124068454 -0.11680016 -0.14319769 -0.20375696
-0.07795612 -0.049859345 -0.0349284 -0.037974373 -0.0749166 -0.042046852 -0.08786565 -0.10604897
-0.11553623 -0.07227443 -0.021862812 -0.27791482 -0.13474265 -0.037764147 -0.06437642 -0.0889326
-0.07362161 -0.068636835 -0.013571337 -0.08171054 -0.074973136 -0.04535515 -0.09407041 -0.038334593
-0.06963726 0.0006751559 -0.14744818 -0.06182364 -0.08422647 -0.08406189 -0.14618832 -0.17508581
-0.068483256 -0.13364789 -0.028082926 -0.0878864 -0.052208796 -0.098046206 -0.060406905 -0.08648059
-0.05638767 -0.14680335 -0.06884679 -0.06530755 -0.021327509 -0.031468846 -0.029827014 -0.026055632
-0.16837648 0.0033960426 -0.047545888 -0.15087244 -0.10818446 -0.064912125 -0.09327417 -0.16287337
-0.09759405 -0.08864714 -0.10728518 -0.04331599 -0.053714935 -0.16842398 -0.06904534 -0.06997748
-0.053256 -0.03875847 -0.14212713 -0.12293181 -0.022099258 -0.05090231 -0.101208925 -0.121607445
-0.16374418 -0.049792014 -0.06335372 -0.12360665 -0.13518262 -0.04219353 -0.08655423 -0.087948225
-0.08643534 -0.008520218 -0.06960037 -0.0341921 -0.09349394 -0.044395063 -0.09322358 -0.07491887
-0.086572334 -0.050400943 -0.029943328 -0.121865764 -0.08507334 -0.1393705 -0.09833622 -0.10981072
-0.09291276 -0.022336785 -0.065657556 -0.08600512 -0.11636259 -0.08680393 -0.0057429597 -0.11054762

bn1.running_mean f4 [256]
00000000: 398c 12bd 97d9 583c fb60 533c d292 3abc
00000010: 56ab cd3a c870 59ba e82a 503c 96eb dd3b
00000020: fa8e 8b3c 3b4f 013d 1da2 aeba cc63 1c3d
00000030: b784 6c3c 70ed 3c3c af3d 2fbd 8c41 c93c
00000040: 7687 fe3c 909c 94bb 9d1b 863c c4d3 e6bb
00000050: 22a7 98bc 62d7 103c d2aa 9d3c 65cd 873c
00000060: d4cc 713c 8001 96bc 60a7 c3bb 6f84 8dbc
00000070: 0d3e 83bc fa54 3abd 36eb 52bc 6038 b8bc
00000080: e224 e3ba 8768 ecbc 58c0 30bc 3028 99bc
00000090: ad37 323c 5b7e 333d 2554 3bbc 9e15 6fbc
000000a0: 08c0 3b3a beff a4bc ae6d b63c 766d 0a3b
000000b0: 805e 3739 3c65 1b3c 9470 013c a20c 303c
000000c0: 2669 c9bc efa0 083d 6cb9 033d a3c9 a33c
000000d0: 43c5 b7bc d5d7 b8bc b1e4 c5bc b06d 583a
000000e0: 407c 09bc c2e4 93bb 14ec 77bb 5e78 15bd
000000f0: 20f3 88ba 442f da3b 9e6d 95bc 4493 83bb
00000100: ce35 343b 34b8 89ba 8297 c5bc ae79 8c3c
00000110: 9085 a139 6835 1e3d 943a 09bd b016 8dba
00000120: c853 0ebc 2698 2bbd 73ce 013d 3e5b 5cbd
00000130: c7b4 1f3c 4d05 023d ff17 e03c b45d 6a3d
00000140: 6092 e1b9 6416 203c 6527 383d 539d 4b3c
00000150: f4d3 c03b 78e3 aa3c 646b 5ebd 2ae4 1f3b
00000160: b8d5 a53c 295d b73c 3306 a23c cc6a e43a
00000170: 4cd4 fa3b 8019 a0ba 04a7 c23c 4495 393d
00000180: 423c 53bd 268c ed3a 9cce 40bb 8aa0 9ebc
00000190: 3de1 4a3d c045 7439 5375 9dbb d2c0 82bb
000001a0: 00dd 7f3b 82aa 773c 78cb 683c e37c 82bc
000001b0: 1340 673c f016 cd3c 3611 4d3c 9438 66bc
000001c0: 739d 033d e698 8f3c 4d82 39bc 445b 5fbd
000001d0: 184a 49bd 4d9b 36bd feff 9fbc f628 e93c
000001e0: ce5c 8ebc ea6e 3cbb 10fb b1b9 66ab 783c
000001f0: 1444 c6bc 271e debc bc4a 8d3b 60b5 f9b9
00000200: e6b9 343d 3bf0 633c c4cc 9b3c b434 d83c
00000210: 54f4 96bc e89a 0e3a 6aa3 86bc 9803 92bb
00000220: 28f1 f53c 9317 2f3b 3c8b 0abd 1d30 343c
00000230: ecc5 87bc 9eef eb3c 3e44 cabc 49a6 463d
00000240: e86f a03b f0f0 0cbc b043 e33c 8748 5fbd
00000250: 23a7 d43b 46a1 dabc f6c2 3b3c 92d2 583d
00000260: 4fa5 eebc 980d 2bbc e57a 663d 3372 a1bc
00000270: 70ce 693c 1686 f33c 4fc1 d03c 4a91 4e3c
00000280: 3863 833c 3485 2f3d 03cf 02bd 4069 acb9
00000290: a51f 31bc b2e0 27bc 48d2 c9bc 1d0c 853c
000002a0: 4ce3 92bb 7ac5 e23c e633 ca3b a27b 01bd
000002b0: e730 f33c 66f2 06bc 9e5c d9ba 6866 4abd
000002c0: ae4f 433c 7106 e33c 56ce 51bc 3c66 503d
000002d0: eb78 64bb 8cee 9dbc bb37 af3c d4ec 3e3c
000002e0: c0a3 32ba ca1b 9b3b c66a 1fbd 6e16 073d
000002f0: 87d3 48bd 8881 d03c 1e11 9c3c ec80 39bc
00000300: 70dd a33b d893 1bbd 4034 f2bc 041b fabc
00000310: 27c9 65bd e1c6 573c b615 d9bc 658e 833c
00000320: 5b8d ddbc 6404 dbbc 8765 c73c 70bd 303c
00000330: 6bf5 3dbc 6b47 2a3d 1a34 20bc c764 35bd
00000340: 6e9e b6bc e5aa 603c 5eb5 c13c 4c3d 6f3c
00000350: dcd6 113d 6c1b 03bc 9e62 c23c 90f4 a23c
00000360: 78c4 b93b b88e b73a 7440 8abc 7870 ba3b
00000370: 6a73 ec3c 9132 16bd 5516 35bb 52d3 3e3b
00000380: 38e7 9fbd fc48 b1bc bcce ffbc baf6 42bd
00000390: 80aa 03b8 6eee a63c 3326 043d 201a 5fba
000003a0: 9e71 463d 1806 cfbc e0f5 3a3a 7070 5b3c
000003b0: f099 523c 55a6 88bb 7a1d 023d 81ed dabc
000003c0: 8a78 3a3d f6a1 a4bb f372 fdbc c1b9 cebc
000003d0: 44f8 fcbb cafc e3bc 5a8c 8cbc 88ad 613b
000003e0: ebd5 043d a2f8 133c 25f9 a1bc 321f 5fbc
000003f0: 82cb 6a3d 26d4 1f3c 0fb6 b5bc 6c04 cdbb
-0.035778258 0.013235471 0.01290154 -0.011387544 0.0015691321 -0.0008294699 0.012705542 0.006772469
0.01703595 0.0315697 -0.001332346 0.03818111 0.014435939 0.011531219 -0.042783435 0.024567388
0.031070452 -0.0045352653 0.016370589 -0.0070442874 -0.018634383 0.008840414 0.019246493 0.016577432
0.0147583075 -0.018311262 -0.0059708804 -0.017275063 -0.016020799 -0.045491196 -0.0128734615 -0.02248782
-0.0017329718 -0.028858436 -0.010788046 -0.01869592 0.010877532 0.043821674 -0.011433636 -0.014592556
0.0007162099 -0.020141479 0.022269096 0.0021122373 0.00017487444 0.009484585 0.007900376 0.010745199
-0.024586271 0.033356603 0.032159254 0.019993609 -0.022432929 -0.022563854 -0.0241569 0.0008256091
-0.00839144 -0.004513354 -0.0037829923 -0.036491744 -0.0010448433 0.0066584665 -0.018240746 -0.004015358
0.002749789 -0.0010507167 -0.024120096 0.017147865 0.00030807825 0.03862515 -0.03350313 -0.0010764208
-0.008686967 -0.041893147 0.031691026 -0.053797953 0.0097476905 0.031743336 0.027355192 0.05721827
-0.00043024402 0.009770963 0.044959445 0.012427646 0.005884642 0.020860419 -0.054301634 0.002439747
0.02024351 0.02238329 0.019778347 0.0017426847 0.0076547023 -0.0012214631 0.02376128 0.045308366
-0.05157114 0.0018123433 -0.0029420024 -0.01936366 0.04953121 0.00023295637 -0.004805246 -0.003990271
0.0039041638 0.015116336 0.014208667 -0.015928691 0.014114398 0.025035352 0.01251631 -0.014051575
0.032132577 0.017528962 -0.01132257 -0.054530397 -0.049142927 -0.0445817 -0.019531246 0.028461915
-0.017378237 -0.0028752633 -0.00033947127 0.015177583 -0.024202384 -0.027113987 0.0043118875 -0.00047628116
0.0441226 0.013912256 0.019018538 0.026392318 -0.018427052 0.0005439953 -0.016435344 -0.004455995
0.030022219 0.0026716932 -0.03382419 0.010997799 -0.016573869 0.028800782 -0.024690744 0.048498426
0.0048961528 -0.008602366 0.027742237 -0.054512527 0.006489651 -0.02668823 0.0114600565 0.05293519
-0.02913156 -0.010440253 0.056269545 -0.019707775 0.01427041 0.029727023 0.025482802 0.012607882
0.016038522 0.04285164 -0.031935703 -0.00032884814 -0.010810767 -0.010246443 -0.024636403 0.016241128
-0.0044826623 0.027682055 0.0061707376 -0.031612046 0.029686404 -0.008236503 -0.0016583388 -0.04941407
0.011920853 0.027713032 -0.012805542 0.05087875 -0.0034862112 -0.019278787 0.021388879 0.011653144
-0.0006814562 0.0047335373 -0.038920186 0.032980375 -0.049029853 0.02545239 0.01905113 -0.011322241
0.0050007626 -0.03798279 -0.02956593 -0.03053046 -0.056100037 0.013169975 -0.02649961 0.01605911
-0.027044943 -0.026735492 0.024340404 0.010787353 -0.011594157 0.041572016 -0.009778047 -0.044285562
-0.022292342 0.013712619 0.023646053 0.014602017 0.035605296 -0.008002143 0.023728665 0.019892007
0.005669173 0.0014004325 -0.016876437 0.005689677 0.028863627 -0.036669318 -0.002763172 0.0029117656
-0.07807773 -0.021641247 -0.031226508 -0.047598578 -3.1391624e-05 0.020377364 0.032262992 -0.0008510668
0.048448198 -0.02527146 0.0007131975 0.013393506 0.012854084 -0.004170219 0.031766392 -0.026724579
0.04552511 -0.00502419 -0.030938601 -0.025235059 -0.0077200253 -0.0278305 -0.017156769 0.0034435708
0.03243057 0.009031447 -0.019772122 -0.013618277 0.057322986 0.00975517 -0.022181539 -0.0062566306

bn1.running_var f4 [256]
00000000: e934 d63d 1d1e bb3d b1e9 953d cf4d 033e
00000010: 3fec 9a3d 0168 bd3d c047 d53d 161c c73d
00000020: 24b5 e83d 7b61 d53d 0a99 9d3d c3ee c93d
00000030: fe08 d53d a81d 7f3e a7ca dd3d e017 043e
00000040: 991f 913d 9c71 013e 9517 a73d dc36 ac3d
00000050: b11c 0d3e 81cf e53d c091 ba3d dd19 0f3e
00000060: d72b c23d 07bf 993d aba2 953d b4f7 ac3d
00000070: 003d 0b3e 6e69 ee3d 9c6c f23d a768 803d
00000080: 447c a23d 63cb 8a3d 52f3 433e 6657 c63d
00000090: e2bf c93d fe8f d13d bd79 9e3d ef12 3f3e
000000a0: 7d78 063e 2401 ab3d e4c5 013e 4178 683d
000000b0: 7ca5 dc3d 8eb6 e93d 62bf a23d 63ba e43d
000000c0: 4486 b23d a639 553e bf56 f93d 932c dc3d
000000d0: 99a0 a83d e512 f23d 406b b73d 477c ad3d
000000e0: e128 153e 8180 2a3e a132 f93d fcc2 803d
000000f0: 7fa7 033e 80e7 553d c289 ed3d 971e 0e3e
00000100: 40d5 633d d219 cd3d 9549 a53d 4adb be3d
00000110: 88ad b43d 6638 b53d 7d62 e63d f6c8 4c3d
00000120: 9c4e 053e 30e3 9c3d 6254 e53d 23cc 5e3e
00000130: e9e5 143e 131b e93d 444a be3d 8b8d 1e3e
00000140: 0a70 103e ea45 ff3d 22b5 f73d 2e57 873d
00000150: a6b6 9e3d 27ed ef3d 5e71 103e 0e0f 973d
00000160: 674f c83d ac02 a53d 3400 b83d 6a1c a33d
00000170: 9c7f 303e b290 aa3d 3682 223e d61f c93d
00000180: 9e67 a13d 440c 0b3e e451 ef3d 8407 033e
00000190: e074 ef3d b9a2 0d3e 1d09 c73d e449 bb3d
000001a0: e014 9b3d f620 353d be66 923d ac5a 5d3e
000001b0: 009f ef3d 5bcc 853d b9c5 023e 9c6c 043e
000001c0: 3590 083e 59ef cd3d aa04 a33d e470 d73d
000001d0: e00e d93d 8268 963d 1d5b 203e afad 023e
000001e0: c312 a53d d649 ce3d c21d a43d 1611 9b3d
000001f0: 0d71 ad3d 76dc 883d bf9a a63d 7dd5 b63d
00000200: ae42 513d 1808 f33d 63d2 593d c5a6 1a3e
00000210: d70a d73d 2e33 f43d e19c a13d 16c5 043e
00000220: c5b1 c43d 0497 643d 864a fe3d 0e0d 0a3e
00000230: 50e5 e43d 23ab 8f3d 0759 253e db72 023e
00000240: 0677 073e acf7 bd3d 0fba 883d dc75 253e
00000250: a389 473e 275e df3d 307b ed3d 6734 b43d
00000260: 8886 803d 9470 5a3e c068 e43d a91e 943d
00000270: 5a4a 973d d553 543d 7b5e c13d 506d 343e
00000280: 0879 f03d d746 0f3e dd9a 7a3d a820 9c3d
00000290: 2001 6c3d 9cb1 f13d 9e2d ed3d a169 2d3e
000002a0: e64f 023e 476a 003e c050 363e 3499 583e
000002b0: 610c 0d3e 6f52 f03d aa39 b23d aa03 c03d
000002c0: 160d c53d cebd b93d 25d5 6f3d b6ef bd3d
000002d0: d831 cb3d 45e2 033e 5fb9 b63d b11b bf3d
000002e0: c8d8 163e 0747 f83d 5593 053e 05b7 803d
000002f0: 60ab bb3d 489d cb3d 4124 bb3d 815d c93d
00000300: 74b7 9d3d 52e8 483e bad2 b03d 7431 233e
00000310: 06ef 0d3e 65f9 d33d 5f1e 063e d826 3b3d
00000320: ce4f a33d ea08 d53d 2af3 1c3e fde1 813d
00000330: 4aa4 a43e 9adb 0d3e dc23 8f3d cff0 973d
00000340: 1b84 633e fa3b ba3d 984a 2f3e db35 b43d
00000350: 99a9 813d 6afb 0d3e 5898 043e ac1d 033e
00000360: dd77 bb3d 0022 de3d e58a c73d 2424 d73d
00000370: 2202 c33d f1a7 743d 9697 fd3d 75ca fc3d
00000380: 7786 383e ec75 cc3d c90c b43d 666c c63d
00000390: 26b6 a03d 26d8 b03d dd3e b73d e7a5 e73d
000003a0: 6493 173e d570 e03d fca2 023e fda5 a33d
000003b0: 4031 bf3d 95ca e33d f0bf ab3d 7caa ee3d
000003c0: 0cec 9f3d 06d3 663e 614d 113e fce6 a63d
000003d0: ac68 093e a076 d43d 5cc8 0a3e 3a57 303e
000003e0: 32a2 9e3d 0271 943d 459f db3d 4a72 403e
000003f0: 7ef1 133e d754 f73d cabc 3b3e 7deb 763d
0.104593106 0.09136603 0.07319964 0.1282265 0.075645916 0.09248353 0.10414076 0.09722154
0.11362675 0.104189835 0.076952055 0.09859993 0.10402106 0.24913657 0.108296685 0.12899733
0.07086105 0.12640995 0.08158795 0.08408901 0.13780476 0.11221219 0.09109831 0.1397471
0.09481018 0.07507139 0.07306417 0.08445683 0.13597488 0.11641203 0.11837122 0.06269961
0.07933858 0.06777074 0.19135788 0.09684639 0.09851052 0.102325425 0.077380635 0.18659566
0.131319 0.08349827 0.12673146 0.056755308 0.10773751 0.11411773 0.079466596 0.11168363
0.087170154 0.20822772 0.12174749 0.10750689 0.082337566 0.1182001 0.08956003 0.0847097
0.14566375 0.16650583 0.1216786 0.0628719 0.12856863 0.05222273 0.11598541 0.13878857
0.055623293 0.100146905 0.08070675 0.0931917 0.08822161 0.08848648 0.11249254 0.04999634
0.13018268 0.0766052 0.11197735 0.2175756 0.14540829 0.11382117 0.09291509 0.15483682
0.1410524 0.12464507 0.12095095 0.06608425 0.07749681 0.11715155 0.14105746 0.07375918
0.0978077 0.0805715 0.08984414 0.07964404 0.17236179 0.0832838 0.15869984 0.09820525
0.078810915 0.13578898 0.11685541 0.12795836 0.11692214 0.13831605 0.09718535 0.09144953
0.07572341 0.044220887 0.07148503 0.2161662 0.11700249 0.06533118 0.12770738 0.12932056
0.1333626 0.100554176 0.07959874 0.10519579 0.1059854 0.07344152 0.15659757 0.12761568
0.08060219 0.10072677 0.08013488 0.07571618 0.08468828 0.066826746 0.08134984 0.089274384
0.05108898 0.11866778 0.053179156 0.1510268 0.105001144 0.11923824 0.078912504 0.12965807
0.09604219 0.055808082 0.12416558 0.13481542 0.111765504 0.070150636 0.16147242 0.12739126
0.13228998 0.09275755 0.06676113 0.16158241 0.19486098 0.1090663 0.11595762 0.087990575
0.0627566 0.21332008 0.11152792 0.072324105 0.07387228 0.05183776 0.09441849 0.17619824
0.11741835 0.13991867 0.061182845 0.07623416 0.05761826 0.118014544 0.115809664 0.16934825
0.12725791 0.12540542 0.17804241 0.21152192 0.13774253 0.11734473 0.08702405 0.09375699
0.096216366 0.090694055 0.05855288 0.09274237 0.09921616 0.12879284 0.089220755 0.093314536
0.14731133 0.121229224 0.13044484 0.06284908 0.091635466 0.099421084 0.09137774 0.098322876
0.077010065 0.19619873 0.08633943 0.15936834 0.13860711 0.103503026 0.13097523 0.04569134
0.07974206 0.10402091 0.15327135 0.06341932 0.32156593 0.13853303 0.069892615 0.074189775
0.22218363 0.09093471 0.17118299 0.087993346 0.06331176 0.13865438 0.1294874 0.12804288
0.091537215 0.10846329 0.09743289 0.1050494 0.09521891 0.059730474 0.12382428 0.12343303
0.18020044 0.09983429 0.08791501 0.09688644 0.07847242 0.08634977 0.08947537 0.1131094
0.14802319 0.10959021 0.12757486 0.07990644 0.093355656 0.11122624 0.083862185 0.11653611
0.07808694 0.22541437 0.14189674 0.081495255 0.13418835 0.103741884 0.13552994 0.17220774
0.0774578 0.07248117 0.107237376 0.18793598 0.1444759 0.12076729 0.18333736 0.060283173

fc2.weight f4 [128, 256]
00000000: 7e18 11bd 08ee d83d 8c7f a33b 8650 7c3d
00000010: 20ba 78bc bc9b 89bc 576f 34bc f798 f8bc
00000020: 2709 03bc 972e 15bd adbb 8bbd 5299 22bd
00000030: 1776 353d 22a9 293d bb33 143c 1439 60bc
00000040: e459 903c 69b1 473d fee7 91bd 7474 0e3d
00000050: 93bd 5b3d 6115 85bd 212c f73c 22ca d43c
00000060: 3850 543d 745b c03c 3fd2 913c 3306 7a3d
00000070: aaf8 e13c ad78 59bd a03b 883c 24ac 53bc
00000080: fc87 6ebd a65b 90bd 428a f9bc 4a95 1abd
00000090: 37b5 97bd 2d3d 853d a8a4 ba3c cead 593d
000000a0: ff54 6e3c d2c9 213d 1344 32bd db40 7abd
000000b0: ea96 963c 250f dbbc 28de dc3c 7f8b b5bc
000000c0: 77c8 89bd 0c67 26bd 3d6c 503d f97a 1a3d
000000d0: 0ab3 4c3b a58e 193d 2dee bb3c 0e05 a63c
000000e0: 8859 263c 9139 0bbd 25c2 713c 45a4 cdbc
000000f0: 5487 693d d722 cbbc cbe7 ba3b c2ca e13b
00000100: c278 66bd 6c2b 903b 4a8d d9bc 1bbb b9bc
00000110: 18da da39 139c f93c 4038 773d 2264 f53b
00000120: 7944 983b 8a1c 3f3d 8ea8 74bc 265c 503d
00000130: c37e b5bd 21e5 123d ea1d 88bc 844c cebb
00000140: e497 fabc 381d 0fbd 100a 303d 7ccb 4ebd
00000150: 1ef1 b7ba 48a9 6bbb 6f63 273d 490a aeba
00000160: dc8f 3eb9 9c59 383d 701e 053b 372c 0d3d
00000170: 5635 18bb 1d11 c23b f907 5d3d ee6c 7fbc
00000180: 7c64 88bb b64b edbc 97e1 f23a fa53 c2bc
00000190: f231 483d 04fb 48bd b20b da3a 9eee 78bb
000001a0: 40a7 5dbd a386 08bc ec80 d83b 6d4d b1bc
000001b0: 3be4 debc c0ba 93bc 7abb 42bc 3bce 59bc
000001c0: ced2 9dbb e365 2b3d 4079 84bc 393f 74bd
000001d0: 62fa ebbc 5115 5ebd d92d a53d a861 c0bc
000001e0: cc6b a9bb f201 1d3c c0dc d9bb 4d99 ff3b
000001f0: 0e7b 923d 11bf 62bc 28da 37b9 19ad 2abd
00000200: 63be 1fbd 8e03 55bd dfa0 613c decb ffbc
00000210: 56f9 7d3c 5897 a2bc 126e a23a 2929 2e3d
00000220: 0133 80bd ce71 f4bc 3cf7 113d eee3 61bd
00000230: 4fdc a93b 84a8 c9bb 7875 23bd 3a6c 28bd
00000240: dc67 f6bc 2d77 8bbc 33bd 633d 10d9 6b3d
00000250: 8aec cb3b 6d17 783c c267 6abd 02b6 38bd
00000260: e2e2 a03c fa10 1a3d 6219 7f3d a286 6fbd
00000270: 8494 013d 6d54 69bd 7eb7 b4bc 4d1c 833c
00000280: 525a 403b e2bd ae3c 1e72 5c3d a227 4dbc
00000290: cea8 873c bcb2 e93c d270 4cbd 7c35 1cbd
000002a0: 9421 7b3d e870 813d cc56 f2bd d563 443d
000002b0: 97b7 af3c 3d4b a7bc 312b 293d 74d3 85bd
000002c0: 3544 563d bd65 653c 1b25 d8bc 0c1d 703d
000002d0: e1d7 b33b 484d 0bbd e761 24bc 80ca abbc
000002e0: 33b7 9fbd 2476 913a 5114 2dbd 561c 95bd
000002f0: 9d12 d739 83cd 9fbd 0f81 91ba 6fdf 79bc
00000300: 524a bf3c 2a0d bcbc 0841 a13c 97e4 10bc
00000310: 603b 853d 99c4 aeba 8235 23bd 1beb 333d
00000320: 6884 bc3b d25b 003d 4246 83bd d3de e7bc
00000330: 9843 6abc 2dec 5c3d 6376 9fbd 74fe 103d
00000340: 5b88 44bb 5677 a3bc bcc9 27bd d7fb d43d
00000350: 6aaa 01bc ca2e a6bd 6f2c 13bd e6e8 64ba
00000360: b4dd 50bd 6a87 cd3c 2455 95bc 2dd3 2dbd
00000370: 684d 5e3d 5c4f 13bd 5295 afbc 8dc1 2cbb
00000380: b492 e9bc 3ed2 43bd b9e4 c7bc 8a30 32bd
00000390: 07cf 99bb 2c2f 853d 282e 4abd 70cc e93c
000003a0: 5e6f 00bd 54d7 8d3b 949c 67bd 48fe 173d
000003b0: fa6d a1bd a4ab c8ba f289 ed3a 13ca 18bd
000003c0: 3860 46bd 615d 273d c716 06bd d41e a6bc
000003d0: e01c d6bb 0d08 ef3b c8ad bcbd 0e91 7dbd
000003e0: 1600 bfbc 0068 7ebc b07f 1abd 9eac 663c
000003f0: 78bd 2c3b 88d7 25b9 89fd 1dbd 361a 4cbd
-0.03542375 0.10592276 0.00498957 0.06160023 -0.015181094 -0.016797893 -0.011012874 -0.030346377
-0.007997788 -0.036421385 -0.06822906 -0.039697 0.044302072 0.041421063 0.009045537 -0.0136854835
0.017620988 0.048753176 -0.07124327 0.034779027 0.05364759 -0.06498218 0.03017241 0.02597529
0.051834315 0.023481108 0.017800448 0.06104107 0.027584393 -0.0530936 0.016629994 -0.0129194595
-0.058235154 -0.070487306 -0.030461434 -0.03774003 -0.07407611 0.06505809 0.022783592 0.05314427
0.014546632 0.03949911 -0.043521952 -0.061097007 0.018382508 -0.02674062 0.026961401 -0.022161243
-0.06727689 -0.040625617 0.050884474 0.037714932 0.0031234645 0.037489552 0.02294072 0.020266082
0.010153182 -0.033990446 0.01475576 -0.025102744 0.057013825 -0.024796886 0.0057039014 0.0068906257
-0.056267507 0.0043997075 -0.02655663 -0.022672227 0.00041742693 0.03046993 0.06035638 0.0074887434
0.0046468345 0.046658076 -0.014932765 0.05086913 -0.088620685 0.035863046 -0.016615827 -0.0062957425
-0.030590005 -0.034939975 0.042978346 -0.050487027 -0.001403365 -0.0035959054 0.04086631 -0.0013278212
-0.00018173404 0.045007333 0.0020312332 0.034465995 -0.002322515 0.00592245 0.05396268 -0.015589936
-0.0041623693 -0.028966766 0.0018530366 -0.023721684 0.048875757 -0.049067512 0.0016635566 -0.0037984024
-0.05411458 -0.008332881 0.0066071656 -0.021643365 -0.027208438 -0.018033385 -0.011885518 -0.013293798
-0.0048163896 0.041845214 -0.016171098 -0.059630606 -0.028805915 -0.054219548 0.08065385 -0.023484066
-0.005170321 0.009582983 -0.00664863 0.0078002573 0.07152377 -0.013839499 -0.0001753351 -0.041668985
-0.038999926 -0.052005343 0.013771265 -0.031225141 0.015501341 -0.019847557 0.0012392423 0.042519722
-0.06259728 -0.029839423 0.03563617 -0.05514901 0.0051837335 -0.006154122 -0.03990695 -0.041118838
-0.03007882 -0.0170246 0.055600356 0.057580054 0.006223266 0.015142304 -0.057227857 -0.04509545
0.019639436 0.037613846 0.062280066 -0.058478005 0.031635776 -0.05696528 -0.022060152 0.016004706
0.002935071 0.021330778 0.053819768 -0.012521656 0.016559985 0.02852761 -0.04991228 -0.038136944
0.06131132 0.06320363 -0.118329614 0.04794677 0.021449847 -0.020421619 0.041300956 -0.06534472
0.05231114 0.014001307 -0.02638488 0.05862145 0.0054883813 -0.034009248 -0.010033107 -0.020970583
-0.07798614 0.0011097831 -0.042255703 -0.07280795 0.00041021864 -0.0780287 -0.0011101085 -0.015251025
0.023350868 -0.022955496 0.01968433 -0.008843563 0.065054655 -0.0013333737 -0.03984595 0.043925386
0.0057530887 0.031337567 -0.06409885 -0.028304493 -0.014298342 0.053936172 -0.07786252 0.035398915
-0.00299885 -0.019954365 -0.040963873 0.10399597 -0.007914165 -0.08114393 -0.035931047 -0.00087322143
-0.050992683 0.025088985 -0.018229075 -0.04243772 0.05427304 -0.035964355 -0.021433506 -0.0026360482
-0.028512336 -0.047807924 -0.024401056 -0.04350332 -0.004693869 0.06503138 -0.049360424 0.028539866
-0.031356208 0.0043286476 -0.05654581 0.037107736 -0.078823045 -0.0015309942 0.0018122776 -0.037302088
-0.048431605 0.040860537 -0.032736566 -0.020278372 -0.006534204 0.007294661 -0.09212834 -0.061905913
-0.02331547 -0.015527725 -0.03771943 0.014079241 0.002635805 -0.00015815918 -0.038571868 -0.049829684

fc2.bias f4 [128]
00000000: 74ce 27b7 988d 8636 94c4 8db6 8404 ccb6
00000010: d25b 9a35 63b1 4cb7 d801 7936 f472 5c35
00000020: e5c7 2637 2d4c 2d35 bccb 65b6 f2ff 2b36
00000030: 375c 40b6 c86e 02b5 4249 00b7 1b89 bfb5
00000040: 27a6 b334 a453 8e36 48e5 5836 e563 1b37
00000050: 5ef6 25b6 6965 02b6 9939 47b6 ea87 2eb7
00000060: 27df 1e37 40c6 43b5 ec53 34b5 449c b736
00000070: 4b9d ef35 7fc2 4135 903f 40b5 a1eb a4b6
00000080: 6049 13b5 c1d0 4736 0499 a8b6 4ab7 05b7
00000090: 9a9c 3e35 c5bb 55b5 1a37 69b6 1032 98b4
000000a0: 7aa5 6934 f242 1db6 c164 9f36 2865 7336
000000b0: 7c8e d5b6 00ad ba35 c0eb 36b5 4bd1 5a35
000000c0: afe2 e3b6 a4a1 c2b4 fe85 b1b5 72d6 2236
000000d0: f447 ad35 4e7a 95b6 8654 3836 35b0 94b5
000000e0: 26cc e236 f426 5736 8076 afb4 55ea ce35
000000f0: bb53 0836 f683 75b6 6abd 3b36 3569 83b6
00000100: c341 c435 56c5 11b4 7721 1937 9728 79b6
00000110: a69c adb5 2ba7 2fb5 2022 c735 aa41 22b5
00000120: d985 f136 65cf a035 14e6 6fb5 f25a 6235
00000130: 0467 2c36 6a46 f134 76a0 d636 9cc1 6ab5
00000140: 9df9 bb35 2f95 a535 a7c6 b436 00fa ea36
00000150: d30f 2437 da4c 04b6 55fc 96b5 ea15 0435
00000160: 0e9e 5536 ccf3 a5b6 ae24 1db5 14db 4b36
00000170: 519e 26b6 6a14 5635 ebc0 ad35 733e 2037
00000180: 86b5 85b4 6c6e 4bb4 d483 b1b6 2c96 cc35
00000190: d6e0 9a36 cbf4 9134 9b20 da34 b5a9 09b6
000001a0: ef09 9936 4c04 27b7 5a1c 1bb6 2186 a036
000001b0: 50c9 9535 8887 93b5 9410 6eb5 4281 1db6
000001c0: 84db ba36 2ad4 c735 288d 2136 36e6 5236
000001d0: becc 73b6 c885 0237 dced 9136 af04 a7b6
000001e0: ecfe c136 4626 68b6 cd73 32b5 9a38 beb5
000001f0: c21e 4ab5 f3a8 a635 af08 e535 2f48 0234
-1.0002044e-05 4.009995e-06 -4.225012e-06 -6.0801995e-06 1.1500617e-06 -1.2200649e-05 3.7104965e-06 8.2123665e-07
9.940913e-06 6.455837e-07 -3.4242248e-06 2.5629965e-06 -2.8663906e-06 -4.858998e-07 -7.646451e-06 -1.4270512e-06
3.346224e-07 4.241667e-06 3.2319967e-06 9.261978e-06 -2.473032e-06 -1.9430538e-06 -2.9686837e-06 -1.0402853e-05
9.469491e-06 -7.293165e-07 -6.717735e-07 5.4720167e-06 1.7852666e-06 7.218113e-07 -7.161807e-07 -4.9150117e-06
-5.486854e-07 2.9774822e-06 -5.0246035e-06 -7.970093e-06 7.10084e-07 -7.9621924e-07 -3.475178e-06 -2.8348632e-07
2.1760016e-07 -2.343379e-06 4.7502986e-06 3.6268702e-06 -6.364482e-06 1.390843e-06 -6.8143345e-07 8.151589e-07
-6.7915166e-06 -3.6252925e-07 -1.3226525e-06 2.4264705e-06 1.2910446e-06 -4.454784e-06 2.7467336e-06 -1.1078142e-06
6.759091e-06 3.206017e-06 -3.268251e-07 1.5416396e-06 2.0314317e-06 -3.6584656e-06 2.7975425e-06 -3.916352e-06
1.4622277e-06 -1.3575968e-07 9.127302e-06 -3.7127518e-06 -1.2935095e-06 -6.543584e-07 1.4836587e-06 -6.0445257e-07
7.1979416e-06 1.1981289e-06 -8.9369246e-07 8.4323904e-07 2.568996e-06 4.494098e-07 6.396377e-06 -8.745353e-07
1.4005233e-06 1.2336876e-06 5.387544e-06 7.0028473e-06 9.778846e-06 -1.9714266e-06 -1.1249309e-06 4.920572e-07
3.1831473e-06 -4.945765e-06 -5.8540434e-07 3.0376877e-06 -2.482808e-06 7.975092e-07 1.2945651e-06 9.551283e-06
-2.4905256e-07 -1.894602e-07 -5.290358e-06 1.524289e-06 4.615732e-06 2.7186465e-07 4.0629388e-07 -2.0513373e-06
4.5609117e-06 -9.954976e-06 -2.3113303e-06 4.7839862e-06 1.1159955e-06 -1.0991798e-06 -8.8686033e-07 -2.347006e-06
5.568787e-06 1.4888403e-06 2.4073033e-06 3.142644e-06 -3.6328997e-06 7.779752e-06 4.349027e-06 -4.977533e-06
5.781525e-06 -3.4592972e-06 -6.647868e-07 -1.4172576e-06 -7.529562e-07 1.2417134e-06 1.7064357e-06 1.2133454e-07
