tryst/model_round_9.pth (torch, 193715 bytes, 19 tensors)

fc1.weight f4 [256, 13]
00000000: b99a c7bd a6c9 57be 098d 2ebe aa1c 143d
00000010: 313f 18bc 349e 93bc 8513 91bc e7d1 183e
00000020: 7e00 c6bd b825 83be c648 39be a790 2bbe
00000030: 9c9d 00bd eeb4 dfbd 3435 f5bd f5bd fdbd
00000040: 6f16 26bd c31d 32bd e232 32be ee65 d6bd
00000050: 7472 08be fb5b f1bd 34fa 7e3d 6842 c5bc
00000060: b3b4 813e 17e4 a53d 067e 23be bddc 1e3e
00000070: 120d 373e 2f4b 86be 4b94 3d3b e69d 28be
00000080: 64a1 673c 8be4 1f3e 2447 56bd 52e6 643e
00000090: 14ff 2ebe 03c2 99bd c250 513d 2eee 62be
000000a0: 6e4c 02bd 72ea 8c3e d27d e4bd 7c3c 7a3d
000000b0: 529a 563e ca5a 2f3e fdc8 c8bd f553 8d3e
000000c0: f458 fc3d 7e10 693e ee7b 653e 9460 58be
000000d0: d749 0d3e 154b 673d 59c1 cbbd 6c0f 9e3c
000000e0: 7893 603e 884c afbb 79f0 3e3e 9145 183e
000000f0: 78dc 053e b513 efbd dc82 8abd 0b68 5bbe
00000100: 269e 98bd f38c 99bc 9002 84be 7928 1dbe
00000110: 4f49 39be 8485 21be 132f 813e 5544 7abe
00000120: 662b 4fbe d5ef 8d3d a8b8 7bbe d5bd e63d
00000130: e508 243e d1dc b2bc 1af7 133e 0cd8 e6bd
00000140: 354b 223e 2256 2e3e cc17 8dbe 63b8 00bd
00000150: 008a 4f3d 5d48 d7bd ca47 8dbd 7d5e 49bd
00000160: bf33 773e 97ae 30be 3ce7 8a3e 457e 7dbc
00000170: 44f5 41bc 0f2b efbd 6f8e e53d d3b6 2ebd
00000180: edfd 3f3d 0d27 2ebe 11d6 bebd 7109 e93c
00000190: 4ad3 013d a05e 3f3e 6dc6 ee3a a053 ccbd
000001a0: d29e ea3d a89f 703b e0dd 3dbd 1307 823e
000001b0: a00d 193e 7699 81be 4960 8abe 9026 4c3d
000001c0: 8658 1cbe 59a4 6ebe aab4 e23d bd2f 69be
000001d0: d27e 18be ed6e f6bd 1b93 8d3d d780 7b3b
000001e0: 9c73 893e 55d6 23be 5980 26be 146e dabd
000001f0: ef27 3a3d d335 d1bc 8ad1 673e 0c53 593d
00000200: fe17 753e 2d67 19bc 8fa5 20be 341b babc
00000210: e3ad 3e3d 2e84 753e d2ef c23d 4f76 bc3d
00000220: e521 8fbc 5460 943d 3741 e2bd 8252 bf3b
00000230: 2a02 0a3d b944 b0bd 04c0 febd 18f4 ed3d
00000240: 85ea 42bc 4940 5e3e 742e 03be 21ab 593e
00000250: 174f 113e c1bd 64bc c276 78be 2c41 84bd
00000260: ccca 153e e488 6a3e bc4b 20be 18ae 58bc
00000270: b21c 4fbe fa18 243d c8be 9cbb 0f60 043e
00000280: 74fb 15be b96f 52be 04ac 7e3d 10d8 8bbe
00000290: 257e 2b3e f451 2e3b 58c3 853e 84a2 143e
000002a0: 8263 6b3e 8c73 833e 4fa1 8dbd 683c 633e
000002b0: 4f70 09be a5ba d33c 04c7 a63d 9c38 ebbd
000002c0: c48f 44be 7be5 4c3e f3fd 4e3e 5628 bf3a
000002d0: 71ca 673a 7709 e4bb be4d 483c 9eb2 713e
000002e0: 794d c0bb da97 64be 342d 80be 54d7 66be
000002f0: 0fd9 823e 7f61 bfbd 9bcd 03be 2b0b 593c
00000300: 3c43 593e 8c2d b23c 445e 8c3e dab2 78be
00000310: bc71 4b3e 4d0b 1b3e 4f36 ebbd e787 35be
00000320: 37b7 72be d1df 393e 1fea 6e3e 682b fcbd
00000330: 717f 2abc 4e9d 493e df1c 103c 4732 b73d
00000340: e5be 5cbe 0c26 75be 64f0 ac3d c34a 7f3e
00000350: 0b45 543e dbef e93d 3448 87be 13fb 2fbe
00000360: db99 a3bc b859 87be 8dab f93d 47d1 94bc
00000370: 44ef 70be 0efd 89be 21e4 d33c 4452 823e
00000380: 88da c7bc e128 6d3e 20ac 8a3e 5d15 463e
00000390: b396 a73d 81c8 873c c351 213e 6416 3ebe
000003a0: f9a9 8dbb 0ef6 65be 3b01 863e b49b 843e
000003b0: 2cd7 fbbd ff9b 453e 2bc7 7bbd 0ad4 963d
000003c0: a0df 41be eaad 6dbe 1657 ea3d 4601 41bd
000003d0: ca4a 13be 82c0 7abe ccf3 003d ac06 7c3d
000003e0: ba9b 0e3e 08c2 f73d d0b2 dbbd d515 f63d
000003f0: cef2 073e bd34 3b3d 271a 7f3e 9497 96bb
-0.09746308 -0.21073017 -0.17045988 0.03616015 -0.00929241 -0.018019773 -0.017709503 0.14923821
-0.096680626 -0.25614715 -0.18094167 -0.16754399 -0.031400308 -0.109231815 -0.11973038 -0.12389747
-0.040548738 -0.043485414 -0.17402223 -0.1046866 -0.1332491 -0.11785122 0.06225033 -0.024079517
0.25333175 0.08100145 -0.15966043 0.15513892 0.1787608 -0.26229236 0.00289275 -0.16466483
0.0141376 0.15614526 -0.05231394 0.22353485 -0.17089492 -0.07507708 0.051102407 -0.22161171
-0.03181117 0.27522618 -0.11156811 0.06109284 0.20957306 0.17124477 -0.098039605 0.27603117
0.12321654 0.22760198 0.22410557 -0.21130592 0.13797699 0.05646809 -0.099489875 0.019294463
0.21931255 -0.0053496994 0.1864642 0.14870287 0.13072383 -0.11673681 -0.06763241 -0.21426408
-0.074520394 -0.018743968 -0.25783205 -0.1534747 -0.18094371 -0.15773588 0.25231227 -0.24440129
-0.20231399 0.0693051 -0.2458216 0.11266676 0.16019018 -0.02183381 0.1444973 -0.112716764
0.15849002 0.17025045 -0.27557218 -0.031425845 0.050668716 -0.10511849 -0.06898458 -0.049162377
0.24140833 -0.172541 0.27129543 -0.0154719995 -0.011838261 -0.11678135 0.11208808 -0.042654824
0.046873022 -0.17007084 -0.09318174 0.028446885 0.03169564 0.1868844 0.0018217094 -0.09976888
0.11456074 0.0036716256 -0.046354175 0.25396022 0.14946604 -0.25312394 -0.27026585 0.049841464
-0.15268144 -0.23304881 0.11069615 -0.22772117 -0.14892128 -0.12032876 0.06912824 0.0038376355
0.26846015 -0.1599973 -0.16259898 -0.10665527 0.04544824 -0.02553836 0.22638527 0.053057715
0.23934934 -0.009362978 -0.15688156 -0.02271805 0.04655255 0.23976204 0.09518398 0.09202253
-0.017472217 0.07244936 -0.11047595 0.005838693 0.03369347 -0.08606858 -0.12438968 0.11618823
-0.011896734 0.2170421 -0.12810689 0.21256687 0.14190327 -0.0139612565 -0.24264053 -0.06457743
0.14628142 0.22903782 -0.1565389 -0.013225101 -0.2022579 0.040062882 -0.004783485 0.12927268
-0.14646703 -0.20550431 0.062175766 -0.2731328 0.16747339 0.002659914 0.26125598 0.1451512
0.22987178 0.25674093 -0.06915533 0.22191012 -0.13421749 0.025845835 0.08143428 -0.11485407
-0.19195467 0.20009415 0.20214061 0.0014584165 0.0008842117 -0.006959136 0.012225566 0.23603293
-0.0058686105 -0.22323552 -0.25034487 -0.22543079 0.25556228 -0.09344768 -0.12871401 0.013247292
0.21217054 0.021750234 0.2741567 -0.24286976 0.19867605 0.1514103 -0.11484968 -0.17727624
-0.23702703 0.18151785 0.23331498 -0.123129666 -0.010406361 0.19688913 0.008795946 0.089451365
-0.21557195 -0.23940295 0.084442884 0.24930863 0.20729463 0.11422702 -0.26422274 -0.17185621
-0.019970825 -0.26435637 0.12190924 -0.018166197 -0.23528773 -0.26950878 0.025865616 0.2545339
-0.024396196 0.23160125 0.27084446 0.19344087 0.081830405 0.0165751 0.15753846 -0.18563229
-0.004323241 -0.22457144 0.26172814 0.25900042 -0.122969 0.19297789 -0.06146924 0.07364662
-0.18932962 -0.23210874 0.114423916 -0.047120355 -0.14383999 -0.24487498 0.031482503 0.0615298
0.13926592 0.120975554 -0.10727465 0.12015883 0.13276216 0.045704592 0.2491232 -0.0045957062

fc1.bias f4 [256]
00000000: 82a3 2bbe 954c e9bd 21af 01be 8894 6a37
00000010: 401a e0bd f6df df3d 41c4 0d3e 1a51 2e3e
00000020: 6648 2abe d8a5 cf3d 3e55 0abe 112d 55be
00000030: d3b8 a4bd fb08 213e b975 25bd fccf 33be
00000040: 895a dcbc ee93 ba3d 6385 14be 91fa 443d
00000050: a9ff 453e 36a2 6ebe adf4 e4bd 67ec 8f38
00000060: 7c95 8dbd bf6b 5e3e 07cf 0b3e 055a 70be
00000070: 8f9b 013e 5c71 23be 9acf ea3d b079 28bd
00000080: 248b 3d3e b68b 3bbe b9aa 463d 436c d03d
00000090: 66d8 d83d 6842 0cbe 3bf0 28be c20e b4bc
000000a0: 5c06 fdbc 9d27 8cbd 148c 133e 95b6 3d3d
000000b0: 1735 0a38 728e c73d cade 873d c992 b13d
000000c0: 7518 d93c 9010 f5bd 5c6e 063e 645e 75be
000000d0: c909 5c3e 4bf1 693e 1e83 66be 1505 a93d
000000e0: 96cc 89bd 61c6 703e 2c96 673d 61ba 69bc
000000f0: 0a4c 953d ba9c 0e3e 3c3b cfba c493 243e
00000100: 1a8c 6e3e e7a6 a53d 2a4c 72b8 71f8 6e37
00000110: 8027 a7bd 2af6 5d3e 06f0 fc3b fda7 5c3d
00000120: 1ef7 b1bd 24b0 40bd 6125 8dbd 4618 5f3e
00000130: 1359 543e 8930 6f39 d800 43bd c692 673d
00000140: 9cfc 1b3e 5d42 11bb 0467 21be 8e6e 023e
00000150: 8ced 2cbe b5a9 663e 6ac2 7abe 634c 483e
00000160: 7cbc bb3d 4059 70be 418c 1e3d 3bce 32be
00000170: 026e 20be 4019 20be ff99 90b7 9e08 5a3e
00000180: f891 043e 253c 4e3c c0fe 0b3e 655e 5a3c
00000190: 1f62 7ebd fe42 7bbe b20c abbd b869 3c3e
000001a0: b80e 703e 0485 433e 727f 55b7 b017 39bd
000001b0: 3512 39be 08c1 66be d82e 8abd 94bc 65be
000001c0: 1645 7dbe 121d 723e 024c 1d3c 8455 6e3d
000001d0: f2d4 57be 91b2 8bbc f372 30be 5138 f93d
000001e0: f4c3 1d39 19e4 08bb 7a21 f13d d7df f03b
000001f0: f673 c73d 419e 8d39 1eff 8d3c 8231 7a3d
00000200: bc12 eebd 7c6c 983d 31d4 caba fd03 0138
00000210: 67ce ffbd bffc 2b3e 50fd 3bbe a486 67be
00000220: 6e0c a43d f339 d43d 9a86 cebd eae8 24be
00000230: 52fd 54be f746 e43d c817 ef3d 6a40 2ebe
00000240: 2247 c7bd 606a d0bc d1a1 063e cdc7 40be
00000250: d91e 223e 1d90 983d 7f46 3ebe 9623 76be
00000260: 5eb4 c1bd 69b3 7bbe e71e 0f3e c0ec c63d
00000270: e804 513e 96a7 5b3e 32e4 f6bd 59a1 8dbd
00000280: 602c 52bd e432 153e 72ba 743e d70f c83d
00000290: 4d73 173e 1a6f fabd b489 67be d0f0 1f3c
000002a0: 3770 85bd 2a28 4e3e dd54 2ebe cf5b 613e
000002b0: 2a7d 5b3e fa22 bcbc e76e f6bd ce98 6939
000002c0: 8e87 973c cfbe 76bd ee0c 09be 96d5 9e3d
000002d0: ff53 093e 1b09 81b6 bc39 4e3e 9f87 49be
000002e0: c31c 8d38 a0a2 73be b1cf 44be d30a 343d
000002f0: 38c3 49be ad41 153e f81a afbd 92fb 1b3e
00000300: 9984 27be 317c 68bc 2152 463c d4d9 35be
00000310: cb13 863d 7e14 593e 3329 90bd 59de 093e
00000320: 56d2 c63d d69e ba3c cc1f 33be cc24 043e
00000330: 7dca b9bd 2c94 bb3d 70d0 13be 970f 613d
00000340: 2b36 e7bd d2d1 adbd 50b1 6a3e e290 a53c
00000350: 5e1d 52bc 52a0 c33c a975 283e 6a94 44be
00000360: 5806 313e fadf c0bd 7b0f 83bd 11cd 06be
00000370: ed1f 703d 99ed 1ebe 98fb 7138 1240 ce3d
00000380: d041 4a3c d8ba a2bd 5377 723e cf74 02be
00000390: a5d8 1bbd d92d 323e c7ea 7bbe 0fc4 6137
000003a0: eb73 65be 4468 003e 8650 3dbe be39 b8b7
000003b0: fa53 44be 812b 3bbe 7f99 79be 8a9f 58be
000003c0: f863 723c 582a 243e 5743 53b7 debe 69be
000003d0: 9525 56be af7f 58bd 4121 b73d 1cdc c036
000003e0: fb2a 04b7 5113 073e 2370 333e e8fa 0d3e
000003f0: 7ff8 d0bd 38d2 cd3d bb01 423a a1a9 56bd
-0.16761592 -0.1139156 -0.12664463 1.39820695e-05 -0.10942507 0.10931389 0.13844396 0.17023125
-0.1662918 0.10139054 -0.1350908 -0.20817973 -0.08043065 0.15726082 -0.040395472 -0.17559808
-0.02689864 0.091102466 -0.14504008 0.04809052 0.19335808 -0.23304066 -0.11179481 6.862805e-05
-0.069132775 0.2172079 0.13653193 -0.2347184 0.12656997 -0.15961212 0.11465378 -0.041131675
0.18510109 -0.18315014 0.048502658 0.10176899 0.1058815 -0.13697207 -0.1649789 -0.021979693
-0.030886821 -0.06843493 0.14408904 0.046316702 3.2951208e-05 0.09743966 0.066342905 0.08670575
0.02650092 -0.1196605 0.13128036 -0.23961788 0.21488108 0.22845952 -0.22510955 0.082529224
-0.06728475 0.23513176 0.0565397 -0.014265628 0.07289894 0.13926974 -0.00158105 0.16071993
0.23295632 0.08088475 -5.776823e-05 1.424375e-05 -0.08161831 0.21675935 0.0077190427 0.053871144
-0.08689712 -0.04704298 -0.06891895 0.21786603 0.20737104 0.00022810897 -0.047608227 0.05653646
0.15233082 -0.00221648 -0.15761954 0.12737486 -0.16887492 0.22525676 -0.24488226 0.19560389
0.0916681 -0.23471546 0.038707975 -0.17461483 -0.15666965 -0.15634632 -1.7237848e-05 0.2129235
0.12946308 0.012587582 0.13671398 0.0133281695 -0.062105294 -0.24537274 -0.08352031 0.18399704
0.23443115 0.1909371 -1.27254625e-05 -0.045188606 -0.18073352 -0.22534573 -0.06747216 -0.22435218
-0.24733385 0.23643902 0.009600641 0.058187023 -0.21077326 -0.01705292 -0.1723135 0.121689446
0.00015045685 -0.002088791 0.11773963 0.0073509025 0.09738915 0.00027011524 0.017333563 0.06108237
-0.11624667 0.07442567 -0.0015474615 3.075971e-05 -0.1249054 0.16795634 -0.1835835 -0.22609955
0.08010183 0.103626154 -0.10084267 -0.16104475 -0.20799759 0.11146348 0.11674458 -0.1701676
-0.097303644 -0.025441349 0.13147666 -0.18826218 0.1583208 0.074493624 -0.1858158 -0.24037012
-0.094582304 -0.24580158 0.13976632 0.09713125 0.20412028 0.21450648 -0.120552436 -0.0691554
-0.05131185 0.14570194 0.23899248 0.09768646 0.14790078 -0.12228222 -0.22611123 0.009762004
-0.06515544 0.20132509 -0.1702456 0.22007678 0.21434465 -0.022965897 -0.12032872 0.00022277536
0.018497255 -0.060240563 -0.13383839 0.07755582 0.13410948 -3.8455596e-06 0.20139211 -0.19680642
6.728761e-05 -0.23792505 -0.19219853 0.043955635 -0.19703376 0.14575835 -0.08550066 0.15232685
-0.16359176 -0.014189766 0.012104542 -0.17758876 0.06546744 0.21199223 -0.07039108 0.13463725
0.09708087 0.022780817 -0.17492598 0.12904662 -0.09071825 0.09159121 -0.14434981 0.05494651
-0.112896286 -0.08487286 0.22919202 0.020210687 -0.0128243845 0.023880158 0.16451134 -0.1919724
0.17287576 -0.0941772 -0.06399437 -0.13164164 0.058624197 -0.15520324 5.7693193e-05 0.10070814
0.0123447925 -0.07945794 0.23678331 -0.12739871 -0.038048405 0.17400302 -0.24601279 1.34566935e-05
-0.224075 0.12539774 -0.18487749 -2.1961398e-05 -0.1917266 -0.18278314 -0.2437496 -0.2115461
0.014794342 0.16031778 -1.2592259e-05 -0.22826716 -0.20912774 -0.052856144 0.089418896 5.74767e-06
-7.87782e-06 0.13190962 0.17523246 0.13865244 -0.10203647 0.10049862 0.00074007706 -0.052407864

bn1.weight f4 [256]
00000000: 5f39 803f 8771 7f3f cdda 7e3f 9ad2 7e3f
00000010: a71a 803f 8c12 803f 388b 803f 0440 803f
00000020: dde2 7e3f 467d 803f 9c98 7f3f 8850 803f
00000030: 3c27 803f c624 7f3f 3c6b 803f 8512 803f
00000040: f54e 803f d146 803f dcf8 7f3f e8f5 7e3f
00000050: cc26 7f3f 5fe2 7f3f b223 803f 0b27 7f3f
00000060: 8a30 7f3f ca50 803f 9ebf 7f3f c31c 7e3f
00000070: ac40 803f 5e2c 803f 5891 7f3f b991 7f3f
00000080: 8073 7f3f 3b76 803f cf09 803f c3bf 7f3f
00000090: c061 7f3f 3d1e 803f fd53 7f3f a82c 803f
000000a0: e479 803f a0fc 7f3f 6946 7f3f b221 7f3f
000000b0: 0167 7f3f a783 7f3f 34a4 7e3f 0410 803f
000000c0: 35c0 7f3f 1852 803f 8e6d 7f3f b867 803f
000000d0: 0828 803f 5c01 803f 2cd4 7f3f 8630 803f
000000e0: 78de 7f3f b127 7f3f 34ce 7f3f 452b 7f3f
000000f0: 9356 7f3f 6af3 7f3f 16d3 7f3f 7a43 803f
00000100: d0f5 7f3f 0535 803f 5684 7e3f 671a 803f
00000110: 6be3 803f 6015 803f e65a 803f 20b9 7f3f
00000120: 0317 803f 293d 7f3f 86ff 7f3f 0090 7f3f
00000130: e66d 7f3f 2c0f 803f 4aa5 803f e55f 803f
00000140: dd2f 7f3f 961d 803f 50c2 7f3f b75c 803f
00000150: 5b28 803f af52 7f3f 169f 7f3f 1952 803f
00000160: 770a 803f 5c0d 803f f0be 7f3f 0bb8 7f3f
00000170: 7d69 803f ab9e 7f3f 914c 803f 3cf7 7f3f
00000180: f51c 7f3f ab41 7f3f f66b 803f 9722 803f
00000190: e79b 7f3f 4b1e 803f 3e5c 803f fc89 803f
000001a0: f943 803f 3a55 803f 7627 803f 21cf 7f3f
000001b0: e3c3 7f3f be2d 803f 2cd7 7f3f 311a 803f
000001c0: 3641 803f fe73 803f 0a97 7f3f 36ae 7f3f
000001d0: 7595 7f3f 4340 7f3f f57a 803f 17fa 7e3f
000001e0: 0b20 7f3f 08b7 7f3f e43b 7f3f ac41 7f3f
000001f0: 6ccc 7f3f ce30 803f c353 803f 0181 803f
00000200: a657 803f fcf6 7e3f 1c51 7f3f ddf8 7e3f
00000210: 3b41 803f 9e2d 803f 84c4 7f3f 4b09 803f
00000220: ca3c 7f3f a63b 803f efbc 7e3f 7446 7f3f
00000230: 1360 803f da32 803f db73 7f3f 34f7 7e3f
00000240: 61aa 7e3f a954 7f3f b071 803f 5fb6 803f
00000250: 1f17 803f 2212 803f eb69 7f3f 0680 7f3f
00000260: d2c6 7f3f f469 7f3f ca87 803f a935 803f
00000270: 0abe 7e3f f546 803f 1b1c 803f 42aa 7f3f
00000280: d0dd 7e3f a446 803f 2d00 803f 2446 803f
00000290: c4a0 803f 2e77 7f3f be2d 803f 9c68 7f3f
000002a0: c128 803f 7ccd 7f3f 8794 7f3f d958 803f
000002b0: 1271 7e3f b484 7f3f 29e2 7e3f 8141 803f
000002c0: a409 803f 995a 7f3f 6893 7f3f c066 803f
000002d0: 0ef7 7f3f ef12 803f 528e 7e3f 72d8 7e3f
000002e0: d942 7f3f 65f3 7f3f 3597 7e3f 7ac3 7e3f
000002f0: f17f 7f3f ea95 7e3f dc93 803f b227 803f
00000300: ac25 803f 9a0d 803f e441 803f e6b2 7f3f
00000310: 83ae 7f3f 7186 7e3f b818 803f 6468 803f
00000320: ade7 7f3f 8849 7f3f b3eb 7f3f 458c 7f3f
00000330: effe 7f3f c913 803f 5330 803f f52c 7e3f
00000340: 70eb 7d3f 4b2d 803f c4ba 7f3f 6f4e 803f
00000350: e352 803f d21e 7f3f cd79 7f3f 450c 803f
00000360: 1969 803f 0f08 803f 40e0 7f3f fe17 803f
00000370: 5b0b 803f 0e21 7f3f cf61 803f 1ab6 803f
00000380: 4c9b 7f3f a734 803f 78d2 7f3f 1029 803f
00000390: a32e 813f b3f7 7d3f f200 7f3f bb19 803f
000003a0: 5414 803f f86c 803f 68ca 7f3f 1568 7f3f
000003b0: 100c 803f 8c09 803f 0671 7f3f 4ac3 7f3f
000003c0: ddaa 7f3f 869b 7f3f 8ada 7f3f 54bf 7e3f
000003d0: 5969 803f 8b17 803f d654 803f d65b 803f
000003e0: 9d3b 803f 6786 7f3f da93 7f3f 0a60 7f3f
000003f0: ac83 7f3f 9278 803f e295 803f 23be 7e3f
1.0017508 0.99782604 0.99552613 0.995401 1.0008134 1.000566 1.0042486 1.0019536
0.99564916 1.003823 0.9984224 1.0024576 1.0011973 0.99665487 1.0032725 1.0005652
1.0024096 1.0021611 0.99989104 0.99593973 0.99668574 0.9995479 1.0010893 0.9966895
0.9968344 1.0024655 0.9990176 0.99262637 1.0019736 1.001354 0.9983115 0.9983173
0.99785614 1.0036081 1.0002993 0.9990198 0.9975853 1.0009228 0.9973753 1.0013628
1.0037198 0.9999485 0.9971681 0.9966079 0.99766546 0.9981026 0.99469304 1.0004888
0.9990266 1.0025053 0.9977654 1.0031652 1.0012217 1.0000415 0.99933124 1.0014808
0.99948835 0.9966994 0.99924016 0.996754 0.99741477 0.99980795 0.99931467 1.0020592
0.99984455 1.001618 0.9942068 1.0008057 1.0069402 1.0006523 1.002774 0.99891853
1.0007023 0.997027 0.9999927 0.998291 0.99777067 1.000463 1.0050442 1.0029265
0.9968241 1.0009029 0.9990587 1.0028294 1.0012316 0.9973554 0.9985212 1.0025054
1.0003194 1.0004077 0.9990072 0.998902 1.0032192 0.99851483 1.0023366 0.99986625
0.9965356 0.99709576 1.0032947 1.0010556 0.99847263 1.0009245 1.002815 1.004211
1.0020744 1.0026009 1.0012043 0.9992543 0.99908274 1.001396 0.999377 1.0007993
1.0019901 1.0035398 0.9983984 0.998752 0.9983743 0.9970743 1.0037524 0.99600357
0.9965827 0.9988866 0.9970076 0.9970958 0.999213 1.0014894 1.0025562 1.0039369
1.0026748 0.9959562 0.9973314 0.99598485 1.0019907 1.0013921 0.99909234 1.0002836
0.9970213 1.0018203 0.9950704 0.9971688 1.002932 1.0015519 0.99786156 0.9959595
0.9947873 0.99738556 1.0034695 1.0055655 1.0007056 1.0005534 0.99770993 0.99804723
0.9991275 0.99771047 1.004144 1.0016376 0.99508727 1.0021654 1.0008577 0.9986917
0.9955721 1.0021558 1.0000054 1.0021405 1.0049062 0.9979123 1.001396 0.99768996
1.0012437 0.9992292 0.9983601 1.0027114 0.9939128 0.99811864 0.99563843 1.001999
1.0002942 0.99747616 0.998343 1.0031357 0.9998635 1.0005778 0.99435914 0.9954902
0.99711376 0.99980766 0.99449474 0.99517024 0.998046 0.994475 1.0045123 1.0012114
1.0011497 1.0004151 1.0020108 0.9988235 0.9987566 0.9942389 1.0007544 1.0031857
0.99962884 0.99721575 0.99969023 0.9982341 0.9999837 1.0006038 1.0014747 0.9928735
0.99187374 1.0013822 0.99894357 1.0023936 1.0025295 0.99656403 0.9979523 1.0003744
1.0032073 1.0002459 0.99951553 1.0007322 1.0003465 0.9965981 1.0029849 1.0055573
0.9984634 1.0016068 0.99930525 1.0012531 1.0092357 0.99206084 0.9961082 1.0007852
1.0006204 1.0033255 0.9991822 0.9976819 1.0003681 1.0002913 0.99781835 0.9990736
0.9987009 0.99846685 0.9994284 0.99510694 1.003215 1.0007185 1.002589 1.0028026
1.0018193 0.99814457 0.9983498 0.9975592 0.9981029 1.0036795 1.0045741 0.99508876

bn1.bias f4 [256]
00000000: 7bbf 9e3b 55b3 67ba aa3a 0bbb 1348 d6bb
00000010: 1339 133b e8c3 f038 ce59 873b 9e4f 893b
00000020: f751 99ba 6b5d aa3a 68e9 eaba bdd8 b13a
00000030: 42e0 31bb c4e0 75bb c293 aa3b 705d 203b
00000040: f3c1 ecba eee6 2c3a 7208 25bb 51d0 0abb
00000050: 4629 b2bb da27 56bb e8ab e43a 097f 1239
00000060: 0e43 ad3a 8935 00bb c034 cc39 82f0 35bb
00000070: 56f8 f6ba d520 273b 4480 58ba a414 89ba
00000080: fbc0 50ba 6fe1 743b 3bd3 893b 7869 80bb
00000090: ca22 ffba 10f4 fa3a 0c86 09bb 494f e33a
000000a0: 7b87 293b 6ee5 87b9 e07c 57b8 e47d 2dbb
000000b0: 5f6b 70bb 75fc 58bb 5cef c5ba 7b2c 64ba
000000c0: 5d73 12bb e3f5 1e3a 213d 923a 006e b5b6
000000d0: 45de 08bb 69c3 543a 60e2 e8ba ff51 bd3a
000000e0: 3624 d6ba d77d 4bbb 446f 31bb ac03 3d3a
000000f0: 1bb2 ebba 8de6 023b 51b3 57bb 34ba 21bb
00000100: e168 04ba 4c3d 663b 8d66 70bb e10c 5e3b
00000110: f568 903b ef6a e2ba b7a4 1e3b feb4 9a3a
00000120: 082e cfb8 f9e6 53bb 3aa7 0dbb 0b53 863a
00000130: 7098 4ebb 75cd 9c3b 31f6 693b 923f 1e3b
00000140: 747c 45bb 34ad 9fba 8195 72bb 9bbc 013b
00000150: 2a10 35bb 48af 47ba ccba 8aba 76a5 833b
00000160: d917 7bba 25c3 31ba b21b 2abb a8be 96ba
00000170: 778a af3b acdd 63bb 2027 f13a 055e c4ba
00000180: 651d 13bb 382c 9937 5e64 d23b 1bbf 083b
00000190: f597 11bb a128 723b 19b8 893b 4d39 a63b
000001a0: 73f6 c8ba f28f e93a 5c95 d83a 621f 393b
000001b0: e560 de3a 2ab2 de3b aa84 08bb f617 853b
000001c0: 14c2 593b f3fe 9b3b 0268 7abb 40b2 753a
000001d0: 065c 29bb 8e48 bfba 2975 47ba f6b5 c8ba
000001e0: 53bc 45bb f1ee 533a 2e8e 38bb 80eb 2e3b
000001f0: 90cc 9eba 217a d6ba d2b1 81bb 24f9 283b
00000200: 0aa0 a6ba 0469 bfb8 2654 5b3a c5bd 31bb
00000210: 800e 113b de8c 05ba 42c5 33bb 4f6a fb3a
00000220: d972 5d3a e02f aa39 ae21 f6ba 80e3 57bb
00000230: aa34 f63a ea1b 6e3b e84c 45b8 5fd9 63bb
00000240: 6bad 3abb 74c3 0dbb 0020 2a35 dc8f 18ba
00000250: 8110 7bbb ce65 16ba 1478 bcb8 170b 413a
00000260: e23f 55ba 0ad2 bc3a 0ae9 f13b bafb e2b8
00000270: 3d92 bbba 6743 d7ba da27 063b aedd e6ba
00000280: c2bf 53bb c01e 5a38 8b02 6bba 067d 0c3b
00000290: f256 ddb9 45ad b6bb 3232 70b9 9cd8 8039
000002a0: a934 97b9 c00f d9b9 88a9 09bb e9af 373b
000002b0: bc51 1d39 0497 d8ba 8d44 1c3b 62d7 763a
000002c0: 1cdb c63a a815 b237 5ef1 a0ba c2cb 453b
000002d0: b73f 8aba 76b5 eeba 8629 b3bb 0aa2 a0bb
000002e0: 7281 78bb ae7a 513b 4a23 dfbb 394f d6bb
000002f0: 6163 6f3b dfde b3bb b577 993a 61ce d63a
00000300: 1cfd 153b 807c 16ba 290a 823b d151 70bb
00000310: a884 ca3a fbf4 95bb a5a3 ca3a 738f 823b
00000320: 66a3 20bb 52e6 4eba 27a8 8a3a 4966 0ebb
00000330: 691a f8ba cffc 06bb 0de3 f7b9 c072 b2bb
00000340: 3899 00bc 8233 263b 107a 563b 3b92 3c3a
00000350: a330 7b3a 3410 3abb 3e7f 6f39 3166 8639
00000360: 5a1f 193b da5c 6bbb 0bcd 33ba 754c 2739
00000370: 1f98 dcba 023a 323b b0f8 853a 525d 233b
00000380: 2f07 363b 530b 48bb 5043 b238 bf3a 053b
00000390: 3146 c43b 71ee 22bb 64e1 d239 9f5b de38
000003a0: 6e34 8eb9 2b91 61b9 738e 05bb 7b15 60bb
000003b0: 431f d13a 248e 5aba f616 f9ba c6ac 29bb
000003c0: ccd1 97bb db63 40bb 4a42 3dbb b0a4 21ba
000003d0: 52c0 043b cdd3 873b fcee 58bb abbc a33a
000003e0: c449 853b c96c 1e3a 3cb7 b639 4de0 93b9
000003f0: e3ef 963a 2869 bb39 92ec 563b 6bad f5bb
0.0048446036 -0.0008838673 -0.0021244683 -0.0065393536 0.0022464439 0.00011480582 0.0041305786 0.0041903993
-0.0011697401 0.0012997811 -0.0017922344 0.0013568621 -0.0027141725 -0.0037518004 0.0052056024 0.0024469756
-0.0018063172 0.00065956905 -0.0025182036 -0.0021181295 -0.005437049 -0.0032677562 0.0017446252 0.0001397097
0.0013218836 -0.001956316 0.00038949214 -0.0027761762 -0.001884232 0.0025501747 -0.0008258859 -0.0010458422
-0.00079633266 0.0037365814 0.004206089 -0.003918823 -0.0019465324 0.0019146223 -0.002098444 0.0017342354
0.0025868106 -0.00025920145 -5.1376293e-05 -0.0026472742 -0.0036685092 -0.003310946 -0.0015101242 -0.0008704138
-0.0022346594 0.00060638617 0.0011157134 -5.407026e-06 -0.0020884436 0.00081162766 -0.001776766 0.0014443992
-0.0016337696 -0.0031050348 -0.0027074376 0.0007210325 -0.0017982157 0.0019973845 -0.0032913277 -0.0024677636
-0.00050510286 0.003513175 -0.0036682219 0.0033882188 0.004407043 -0.00172743 0.0024207064 0.0011803207
-9.879103e-05 -0.0032333715 -0.0021614567 0.0010248137 -0.0031523965 0.0047852346 0.003569972 0.0024146778
-0.0030133994 -0.0012182356 -0.003701538 0.0019796256 -0.0027628043 -0.00076173665 -0.0010584234 0.004017527
-0.0009578444 -0.0006781093 -0.002595645 -0.0011500912 0.0053570825 -0.0034769578 0.0018398501 -0.0014981633
-0.002244794 1.8259612e-05 0.006420656 0.002086586 -0.0022215818 0.0036950486 0.0042028544 0.0050727488
-0.0015332237 0.0017819388 0.0016524005 0.0028247465 0.0016966133 0.006796141 -0.0020831027 0.0040616943
0.0033227252 0.004760617 -0.0038208966 0.00093725696 -0.0025842204 -0.0014593767 -0.0007608706 -0.0015313018
-0.0030172064 0.0008084616 -0.0028160918 0.0026690662 -0.0012115408 -0.0016363302 -0.0039579654 0.0025783265
-0.001271249 -9.1271504e-05 0.0008366726 -0.0027121168 0.0022133887 -0.0005094538 -0.0027430807 0.0019181463
0.00084475946 0.00032460596 -0.0018778348 -0.0032941997 0.0018784006 0.0036332556 -4.7040085e-05 -0.0034767014
-0.0028484713 -0.0021631392 6.33765e-07 -0.00058197766 -0.0038309398 -0.0005737216 -8.986905e-05 0.0007364018
-0.00081348245 0.0014405858 0.0073825167 -0.000108234075 -0.001431055 -0.0016423286 0.002047053 -0.0017613673
-0.0032310341 5.200389e-05 -0.00089649175 0.0021436824 -0.00042217184 -0.0055748546 -0.00022906883 0.0002457545
-0.000288402 -0.000414012 -0.002100559 0.0028028435 0.00015003135 -0.0016524498 0.002384457 0.000941625
0.0015171501 2.1229338e-05 -0.0012278964 0.0030181264 -0.0010547553 -0.0018212039 -0.0054675965 -0.004902129
-0.0037918952 0.0031963992 -0.0068096267 -0.006540206 0.003652774 -0.005489215 0.0011708649 0.001638841
0.002288646 -0.0005740598 0.0039684963 -0.003666986 0.0015450912 -0.004576323 0.0015460147 0.0039843856
-0.0024511456 -0.0007892597 0.0010578678 -0.0021728447 -0.0018928769 -0.0020597463 -0.00047280677 -0.005445808
-0.00784903 0.002536029 0.0032726564 0.0007193421 0.00095821376 -0.0028391005 0.00022840218 0.0002563461
0.0023364634 -0.0035913498 -0.0006858862 0.00015954844 -0.0016830004 0.002719522 0.0010221209 0.002492745
0.0027775278 -0.0030524328 8.500239e-05 0.0020329205 0.005989813 -0.002486136 0.0004022225 0.00010602851
-0.00027123414 -0.00021511751 -0.0020379096 -0.003419249 0.0015954751 -0.00083372206 -0.0019004035 -0.0025890335
-0.004633164 -0.0029356393 -0.0028878623 -0.0006166203 0.0020256233 0.0041451217 -0.003310143 0.001249214
0.0040676314 0.0006043432 0.00034850265 -0.00028205142 0.0011515584 0.00035745767 0.0032794815 -0.0074974797

bn1.running_mean f4 [256]
00000000: bedc 1bbe 92d9 07be 5a5a 05be b44b ae3a
00000010: 4de4 c5bd f87a 073e 04ff 043e 5c18 2a3e
00000020: 9515 22be a12f 873d 3df4 04be 8df5 3abe
00000030: beb8 ddbd 9c2e 223e 517d 87bd 1599 3fbe
00000040: 94bc 14bc 4aaa dd3d 0ca6 14be 80a4 c23d
00000050: 6786 383e ccd9 68be 3774 e5bd d6d5 d7bc
00000060: a1db 79bd 0c2c 613e 5ace 163e 59f7 7cbe
00000070: e502 013e eb84 0fbe b8de 0a3e ff7f 57bd
00000080: 9a74 3a3e 2e8a 32be 5c59 1a3d e99b 0b3e
00000090: d7a8 ed3d 87cf 26be c88a 25be a0c2 4bbd
000000a0: 03c6 0cbd 8fcc a8bd e4bb 0c3e 03f2 a43d
000000b0: bed5 8bbb 7bc4 cd3d 0b5d ae3d bff8 c23d
000000c0: 36a0 31bb 9804 0fbe c118 0a3e bdc8 72be
000000d0: 9b66 313e 9291 5f3e 33be 6ebe f88c 6f3d
000000e0: c4b4 9fbd c33b 513e 928b 9c3d 8420 9abc
000000f0: a508 8d3d 3ce0 1a3e d281 bebc 9a89 313e
00000100: 6c9b 5c3e c95b c63d bc60 0e3c c0ee d23b
00000110: 3534 b6bd cd9f 373e 0239 f03b 41c2 0f3d
00000120: 8045 9bbd 5663 83bd 053d 46bd a611 713e
00000130: 4c68 693e b0c3 d43b 7005 14bd 7f8a 553d
00000140: 0585 183e 900b 0abb dfe6 20be cbf3 ed3d
00000150: e836 35be 660e 7b3e 7213 59be 27a3 543e
00000160: 4a15 c33d ecdd 81be d712 273d 72dc 14be
00000170: 73b0 33be 60ed 29be 70d7 d23c 08dc 673e
00000180: a52d 273e cfcf 963c 308b 073e 557f 0d3d
00000190: 0e55 13bd 84fb 69be 1370 d3bd 1aa3 243e
000001a0: 95ca 483e 1095 3f3e 0efe dfbc e1ef 8bbc
000001b0: 0d28 46be ad0b 79be 8751 bcbd 1452 62be
000001c0: a4f7 69be ba68 553e 94ac 8c3c 79fa 643d
000001d0: 8ee4 49be 4a8a 88bc f23b 34be 1e51 f33d
000001e0: 3cc7 943b afc5 9e3c 04a4 0d3e a936 953b
000001f0: 3051 ce3d 7793 7f3c 82fc 133d 3847 0c3d
00000200: e218 00be 6e89 b43d 2426 1cbc 1442 40bc
00000210: 15df fbbd 5c5d 093e eb4d 21be 7390 69be
00000220: fc04 bb3d a201 c13d 1e94 e4bd 1363 29be
00000230: 6d2e 6dbe 5ae8 b43d 2cb4 0b3e 997a 1bbe
00000240: 783f b1bd 70d1 eebc 70f3 e63d 204f 43be
00000250: 0e76 463e 20fb b13d 704c 55be b9f3 69be
00000260: 6e39 c7bd effb 81be 4400 203e 01ed d93d
00000270: 12a9 4f3e 7067 5d3e 049c e5bd 9ac5 29bd
00000280: f250 81bd 6e07 073e eb96 653e 4e77 c03d
00000290: 4cd8 fe3d ff98 bdbd 09f2 75be d2ce 753d
000002a0: e593 37bd d5ba 433e 92fd 2bbe 7e3f 683e
000002b0: 6a8e 383e 8be5 bebc 5ef2 fcbd 0289 5bbc
000002c0: 0fde 833c 8767 68bd 1489 16be 365e c73d
000002d0: d124 083e 0984 10bd 2a4b 3e3e 0065 47be
000002e0: 4aa5 0b3d bd6b 5dbe 3366 43be 21b5 853d
000002f0: 44e8 57be 5fa2 0e3e 723d bbbd b1a1 1d3e
00000300: b914 34be 6183 043c acf6 ba3b 6aa9 24be
00000310: 2930 9e3d 0e7c 4c3e 8643 a5bd 36f6 0a3e
00000320: 9e08 0e3e e499 c23c 5352 2cbe b17f 0c3e
00000330: 7261 c4bd 2ba0 943d 8e6e 2dbe 636d 9f3d
00000340: 606d e8bd c38b c6bd f465 483e 1aa2 213d
00000350: 8a56 9abc 922a 2b3d ceee 2b3e 4a6e 37be
00000360: 65a9 223e 47f2 92bd 6a71 8fbd 8921 efbd
00000370: a26c 933d a6cc 46be af31 27bc 75a4 983d
00000380: 8c58 433b 561e a0bd f674 493e f745 08be
00000390: 66f5 80bd c3cc 343e 0ad9 68be b58d 09bc
000003a0: 89a7 5dbe 9807 f53d 9746 3cbe fcda 7a3c
000003b0: e5d2 48be e89f 29be cc39 6ebe 74ab 4fbe
000003c0: 422d ab3b 279f 1c3e 9ce1 353b a576 73be
000003d0: 2ba4 68be 3805 91bd beb9 f23d 217e 7e3c
000003e0: 9365 87bc ff34 133e d12e 2b3e 1bec 003e
000003f0: 330f 02be 8ecf d83d 0025 cd38 b510 11bd
-0.15220925 -0.1326659 -0.13022748 0.0013297708 -0.096626855 0.13230503 0.12987906 0.16610855
-0.15828545 0.06600881 -0.12983795 -0.18257733 -0.108262524 0.15838093 -0.06615699 -0.1871074
-0.009078164 0.10823496 -0.14516467 0.09504032 0.1802002 -0.22739333 -0.11203807 -0.026347082
-0.06100047 0.21989459 0.14727154 -0.2470373 0.1259876 -0.14015548 0.13561523 -0.0526123
0.18208542 -0.17435524 0.037682876 0.13633694 0.11604469 -0.16290103 -0.16166222 -0.049746156
-0.034368526 -0.082421415 0.1374355 0.080539726 -0.0042674234 0.10047241 0.0851384 0.09520101
-0.002710355 -0.13966596 0.13486005 -0.23709388 0.17324297 0.21832874 -0.23314743 0.058484048
-0.0779815 0.20432954 0.076438084 -0.018814333 0.068864144 0.15124601 -0.023255263 0.17337647
0.21543664 0.096854754 0.008690055 0.0064371526 -0.088966765 0.17932053 0.0073310146 0.035097364
-0.075816154 -0.06415431 -0.048398037 0.23541889 0.22793692 0.0064930543 -0.036137998 0.052134033
0.14894493 -0.002106402 -0.1571307 0.116187654 -0.17696726 0.24517211 -0.21198824 0.20765363
0.09525545 -0.25364625 0.04078945 -0.14537218 -0.17547779 -0.16594458 0.025737494 0.22642529
0.16326006 0.018409638 0.1323669 0.03454526 -0.035969786 -0.22849852 -0.10324111 0.16077843
0.19608529 0.18709207 -0.027342822 -0.017082157 -0.19351216 -0.2432086 -0.091952376 -0.22101623
-0.22848374 0.20840731 0.017172135 0.05590293 -0.19716093 -0.016667504 -0.17600992 0.11880706
0.004540352 0.019381372 0.13832098 0.004553635 0.10074079 0.015599123 0.036129482 0.034247607
-0.12509492 0.08815275 -0.009530578 -0.011734504 -0.12298409 0.1341452 -0.1575238 -0.22809009
0.0913181 0.094241396 -0.111610636 -0.165417 -0.23162241 0.0883338 0.13642949 -0.15183486
-0.08654684 -0.029152602 0.11276901 -0.19073153 0.19380972 0.086904764 -0.2082994 -0.22846879
-0.09727751 -0.25387523 0.15625101 0.10640908 0.20279339 0.2162149 -0.11211398 -0.041448213
-0.06314267 0.13186428 0.22420852 0.093977556 0.12443599 -0.09257697 -0.2401811 0.060011692
-0.044818778 0.1911424 -0.16795948 0.2268047 0.18023077 -0.023302814 -0.12350915 -0.013399364
0.016097097 -0.056739356 -0.14700729 0.09734766 0.13295294 -0.03528217 0.1858336 -0.19472122
0.03409318 -0.2162313 -0.19081955 0.06528688 -0.21084696 0.13929127 -0.09142579 0.15393712
-0.1758603 0.008087964 0.005705675 -0.16080251 0.077240296 0.19969198 -0.0806952 0.13570485
0.13870475 0.023755021 -0.16828279 0.13720585 -0.09588899 0.07257112 -0.16936705 0.07784536
-0.113489866 -0.09694626 0.19570142 0.039461233 -0.018840093 0.041788645 0.16790316 -0.17913166
0.15884931 -0.07175117 -0.07004054 -0.11676318 0.071984544 -0.19414005 -0.010204717 0.07453243
0.0029807417 -0.07818286 0.19673523 -0.1330794 -0.06296806 0.17656235 -0.22739044 -0.008395602
-0.21645941 0.11964339 -0.18386303 0.015310999 -0.196117 -0.16564906 -0.23264235 -0.20280248
0.005223901 0.15295087 0.0027752882 -0.23775728 -0.22718875 -0.070810735 0.11851834 0.015533001
-0.016527927 0.14375685 0.16717078 0.12590067 -0.1270111 0.10586463 9.7820535e-05 -0.035416324

bn1.running_var f4 [256]
00000000: b13e 6a3e adee 423e 5b17 b03e a16e a03e
00000010: aa80 503e 601d c53e 2ef8 953e 24d6 0b3e
00000020: e6f1 d73e d091 793e dcb7 443e 8cc0 7f3e
00000030: ea20 a13e eef4 ac3e e4b0 0a3f 7ed4 193f
00000040: 721f d93e 2837 b83e 4873 d63e 28e1 dc3e
00000050: 83d5 6c3e 137e c93e d793 a13e 0ed9 a23e
00000060: afd7 eb3e d889 703e b15d 933e be24 dd3e
00000070: 12d2 a93e 1bac b63e a607 873e 64c0 a33e
00000080: 235b 573e 70fc 043f d456 b33e 0f73 913e
00000090: 4f95 af3e 686d 8f3e 0ce6 183e 5883 bf3e
000000a0: ccee b03e 3a52 e73e 36d6 a63e a580 c33e
000000b0: 36cc 5d3e f6e6 a43e d996 913e f0f4 9f3e
000000c0: 7cb1 763e 115a a23e 32b4 793e 7276 833e
000000d0: e73a bb3e caae ce3e 5c34 d43e faa3 e53e
000000e0: 629d cd3e 8283 b43e 24ce c53e bb76 953e
000000f0: 3e7e a13e 07d8 6a3e 0264 ef3e f93f a83e
00000100: eaa7 c23e 5dd6 b33e ac7f 973e 4ba9 a33e
00000110: d91b 923e ba2c a03e 54d6 0a3f cfeb 613e
00000120: dc78 c93e e26c b23e 0036 bf3e 3318 9c3e
00000130: e303 cc3e 16b0 db3e 18d2 db3e 6b64 913e
00000140: 8cf7 b93e d8aa f73e 256a d03e 7edf ae3e
00000150: d307 943e 62bb c83e 6e0c ba3e dbec fb3e
00000160: 1cbe b23e 5a0a a73e f275 fd3e c4c8 c33e
00000170: f78d 8d3e ec7a a63e e3f0 b33e 9b0a d63e
00000180: 2aa8 bc3e a735 ba3e 8537 893e b0e6 cc3e
00000190: a6f2 013f 9081 bc3e c1e1 d83e 0f9e cb3e
000001a0: 2a9f e93e 961b ab3e 8aa6 ce3e a117 853e
000001b0: 4643 d23e 4020 c73e 1ec3 8a3e 9ac5 b93e
000001c0: 0534 b33e ff1c d43e cdd0 923e 34d4 c83e
000001d0: 54ee a03e 00dc 8b3e db1d 7c3e 4f2e c83e
000001e0: e466 a93e be93 8c3e 70bc a63e 185c e13e
000001f0: 2bf5 d13e 8063 633e 5c31 ca3e 27ac 853e
00000200: 775e a33e 076f 863e ccae ec3e 7a39 d23e
00000210: e015 b03e 5fce bd3e 3eac bc3e b9c0 953e
00000220: 06c3 963e 9e7c 8f3e b1d7 473e 99e2 873e
00000230: 49c2 9d3e cc11 a53e 7b89 9d3e efb3 673e
00000240: e422 bf3e 5a7a 883e e7a8 cf3e 92e1 f43e
00000250: 5a49 ca3e 401c 8c3e 6b6f 4c3e 4b57 753e
00000260: 223c fd3e c0c9 613e 8323 703e 5f34 983e
00000270: edfd 713e 4007 923e f113 ab3e 321d 933e
00000280: db55 8c3e 5e3b e13e e3f5 bc3e a3b9 8e3e
00000290: 229b e73e 15a2 a43e 37c1 b63e f389 a73e
000002a0: df54 903e 8023 bf3e 1db8 fb3e bdd0 9d3e
000002b0: 889c c73e 0b1c a93e c33d 933e 58a0 8c3e
000002c0: d5d7 943e 5501 cf3e d651 953e 725d 2e3e
000002d0: 0b40 bc3e c140 953e dbef 893e 3d25 9b3e
000002e0: 7b98 cd3e 8a22 cb3e 4f4f eb3e 3b31 d93e
000002f0: 8a43 bb3e 620f e33e 81cb da3e 352d d03e
00000300: 5e76 c23e f0da 633e 28d6 c43e a01d bd3e
00000310: c6f5 6e3e 924e 6f3e c063 af3e 68bd 8c3e
00000320: 2873 af3e 105a a53e eae2 af3e ea25 cc3e
00000330: d227 603e 2160 983e 2c8a 8a3e fe59 023f
00000340: 7a56 c93e 72c7 8c3e fba6 9f3e c902 813e
00000350: 1a38 1d3f 8165 7c3e 3989 b33e b425 c13e
00000360: 6af0 be3e 22f5 0a3f 8c4a 843e 6ae3 7c3e
00000370: 8e3e c33e c6d9 e83e c40e bb3e 6c0f a63e
00000380: 71b3 af3e a385 833e 5db3 a03e 9471 6b3e
00000390: f7aa dd3e 36b1 403e 7a53 923e 8c3b 513e
000003a0: 530b 093f c6b0 ac3e 085c ae3e 8f1d 0c3e
000003b0: 209f 833e 4d93 c13e bbe2 983e 3f54 943e
000003c0: 2b0e 9a3e 23e3 883e 1021 a43e 1ace 7c3e
000003d0: cc2b 0d3f aa9c 853e 6e86 de3e 282f e73e
000003e0: 6056 6f3e 8e35 1a3f bbeb 303e 05fe 803e
000003f0: 70b8 da3e a9b6 c53e b219 b83e 0ad1 843e
0.22875477 0.1903636 0.3439282 0.31334403 0.20361581 0.38498974 0.2929091 0.13655907
0.4217674 0.2437203 0.19210762 0.24975795 0.31470424 0.33780617 0.54176164 0.6008986
0.42406803 0.3597958 0.41884828 0.4314053 0.23128323 0.39354 0.31558105 0.31806225
0.4606299 0.23490083 0.28782418 0.43192095 0.33168083 0.3567818 0.26373023 0.3198272
0.2103086 0.5194769 0.35027182 0.28408095 0.342936 0.28013158 0.14931506 0.37404895
0.34557188 0.4517992 0.32585305 0.38184085 0.21659932 0.3220746 0.284354 0.3124156
0.24091142 0.3170934 0.24385145 0.25676304 0.36568376 0.40367728 0.41446197 0.44851667
0.40159136 0.35256582 0.38633835 0.29192147 0.31541628 0.2293397 0.46755987 0.32861307
0.38018733 0.35124484 0.29589593 0.31965098 0.2853687 0.31284124 0.5423329 0.2206261
0.3935002 0.34848696 0.37345886 0.30487213 0.39846715 0.4290778 0.42933726 0.28396925
0.36321676 0.4837253 0.40705982 0.34154886 0.2891222 0.39205462 0.36337608 0.49204144
0.34910667 0.32625085 0.49504048 0.3823911 0.27647373 0.32515657 0.3514472 0.41804966
0.3684705 0.36369058 0.2680017 0.4001975 0.5076088 0.36817598 0.42359737 0.39769027
0.45629245 0.33419484 0.40361434 0.2599459 0.4106695 0.38891792 0.27101988 0.3628357
0.35000625 0.41428372 0.28674927 0.39224398 0.3143183 0.27316284 0.24620764 0.3909783
0.33086312 0.27456468 0.3256564 0.44015574 0.4100736 0.22205925 0.39490783 0.26107904
0.31908008 0.26256582 0.4622711 0.41059476 0.3439169 0.3707151 0.3685016 0.29248598
0.29445666 0.28024763 0.19515873 0.26540068 0.3081229 0.3224014 0.30768952 0.22627233
0.37331307 0.26655847 0.4055855 0.47828346 0.39509088 0.27365303 0.19964378 0.23959081
0.4945994 0.22049618 0.23451047 0.29727456 0.23632021 0.28521156 0.33413652 0.28733212
0.27409253 0.43990606 0.36906347 0.27876005 0.45235544 0.3215491 0.35694286 0.32722434
0.28189752 0.37331772 0.49163905 0.30823317 0.3898661 0.33029208 0.28758058 0.27466083
0.29070917 0.40430704 0.29163998 0.17027834 0.3676761 0.29150966 0.26940808 0.30301848
0.40155396 0.3967479 0.45958945 0.42420372 0.36574966 0.44347674 0.42733386 0.4065949
0.37980932 0.22251487 0.38444638 0.36936665 0.23335943 0.23369816 0.3425579 0.27488256
0.34267545 0.32295275 0.3435281 0.39872676 0.2189019 0.2976084 0.27058542 0.5091857
0.3932379 0.27495915 0.31182083 0.25197437 0.6141373 0.24648096 0.3506563 0.37724078
0.37292796 0.54280293 0.25838125 0.24696127 0.38133663 0.45478648 0.36534703 0.3243364
0.3431659 0.25687894 0.31386843 0.22992545 0.43294498 0.188176 0.28579313 0.20432872
0.53532904 0.33728617 0.3405459 0.1368315 0.2570734 0.37807694 0.29860482 0.28970525
0.30088934 0.26735792 0.32056475 0.24687997 0.55144954 0.26096088 0.43461937 0.45153165
0.23372793 0.6023797 0.17277424 0.25193802 0.4271884 0.3861592 0.35957104 0.25940734

fc2.weight f4 [128, 256]
00000000: 1670 213c 4c7b 59bd 50fc adba 1a0c ec3c
00000010: 2397 41bc 6772 4a3c 9921 d73c cc7e 273d
00000020: 6a45 093d a4b0 45bc cfa2 15bd 8c05 4ebd
00000030: dc7b 193d e6ca 45bd 00e3 72bd 0de4 babc
00000040: da6e 793c 9832 6f3d 64a0 5d3d 57a8 a33c
00000050: 8579 2d3d f26d cf3c 7317 3d3c 5f80 423c
00000060: b87c 503c 70cf d9bc 7e58 35bd 59c9 d7bc
00000070: b43a d738 a6ab 9f3c 221f 843b 705e 6b3d
00000080: 7815 a4bb 57c6 03bd 0432 bb3c f3f8 f3bc
00000090: 04df a33b 7fde 1e3d 3b2f 5e3d e379 efbc
000000a0: cb3c 2fbd a120 b53c 7161 373d 445b 06bd
000000b0: 8c71 5a3d b91c 85bc 91e1 ff3c 1cb7 373d
000000c0: fba7 0d3d 93e1 6fbd 1432 d6bc d4b0 d7bc
000000d0: 4467 2539 7eab af3b d047 67bd 56f3 65bd
000000e0: f6cb 833d 23e5 27bd b23f 9c3b f7d4 c43c
000000f0: d209 133d 4502 22bd 5066 5d3d 3027 52bd
00000100: 8b64 e3bc cf03 223c e2cd 3c3d e7b1 6fbd
00000110: 4a78 6c3d 0b31 6ebc 0551 873c 85d2 65bd
00000120: e8e7 aabc fa35 2d3d f522 32bd 19f4 33bd
00000130: 88b4 f1bc a652 4a3d 51f8 b6bc 7a36 3f3d
00000140: dc80 a03c a6bc 40bc 0815 6dbd f69e e2bc
00000150: 19e9 15bd f043 263d 1ab0 e9bc 16a0 43bc
00000160: 5b48 023d 9163 9bbc c0d1 71bd f820 a03c
00000170: 39be 5b3d f05b 4a3d 732f 21bd 90f6 51bd
00000180: 0b9f fa39 6517 0fbc 9ed8 83bc d1ee 1fbd
00000190: f0c8 69bd 56e8 503c 4851 15bc b968 523d
000001a0: 73c6 69bd 7aa7 43bd 1b12 1cbc 937b c93c
000001b0: 2fc1 64bb 49ba e1bc 0606 3a3d 1fcb aa3b
000001c0: f211 423b 82f6 083d 90b7 c93c f28b e0bc
000001d0: 0dc7 203b 7119 bf39 c2df 3c3d 29da 723d
000001e0: 54c5 ffbb 8bad 45bd 6ec1 003d dcfe 3bbd
000001f0: 5be5 6d3d b4f4 5c3d 3584 433d bef8 9dbb
00000200: 44b3 1e3d 4159 8e3c 7132 33bd 2f26 54bc
00000210: 246f 263d 110a 69bd 451d f63c ae13 533c
00000220: 7cfd f4bc aa93 c73c 9859 f0bc b2d3 1a3d
00000230: 2ac8 9e3c 4612 5f3d f129 463d 7ee1 6cbd
00000240: 1446 c53c 52d7 3d3d eb05 10bd c70b 413b
00000250: 897b 343d 9b66 073d c052 883d 761f 4dbc
00000260: 5b56 e93b 2944 1bbd 3003 c6bc 61e4 a83b
00000270: 1a67 7fbd e729 103d c467 7a3b ea93 11bd
00000280: 4b0b 693d 9d6f 113d 9862 47bd 9b52 293a
00000290: ae3d e6bb 5789 3e3d e5bb 23bd 7c5a 9b3c
000002a0: 85d4 77bd 5aee 803d 7a96 ee3c bf7b 043a
000002b0: 2262 af3b 48f6 a43c db5d bb3c b4ce 93bb
000002c0: 5e61 14bd 5abf 343c 47b9 1ebd 4a53 af3c
000002d0: dacb 933c f6ff 833d 8e0b 303b 26a0 0abd
000002e0: d7a7 83bd 4e00 f2bc df0c 04bd 96a4 523d
000002f0: 2c26 4a3d 7a69 db3c 7587 79bb 3dd4 7e3d
00000300: 6c8b 74bd 3d1b 51bd 22cc 59bd 2eb3 ef3c
00000310: 016d be3b 452b 1b3d 8558 6c3d 5bc0 b7bb
00000320: 0e14 8dbc 947b 36bd 73cf 3b3c d2fe 23bd
00000330: 0515 5ebd 7f21 6abd b2ff 663a 59af 463d
00000340: 3845 3bbc 7275 4a3d d60e 0abd 46c8 62bd
00000350: d3cd 563d a8b1 eabb 88d1 0fbb 5098 153c
00000360: 75f4 853c 12f8 36bc 7336 813c 726a 36bd
00000370: 7b31 47bc 3023 11bd 9696 3fbd 3055 823d
00000380: 96c5 253c 88e1 f93c b701 1d3c acb0 8ebc
00000390: 608b bbbb dae5 013d c4a4 4fbd db04 e73b
000003a0: 2cd8 50bd 5a7b b03c 5ad9 debb 622e 3e3c
000003b0: ef40 50bd ca0d 1abd 5b20 883c 0007 323d
000003c0: 95e1 e73c da20 45bd 01b7 81bd 6b43 1bbc
000003d0: 7531 00bd 0051 f83c c92d 4e3d 77ea 47bd
000003e0: f1ae 13bb d9a3 2e3d 4c96 95bb ced7 bbbc
000003f0: 2799 5bbd 9afb ba3b b787 00bd 871f 273c
0.0098533835 -0.0530961 -0.0013274048 0.028814364 -0.011815819 0.012356377 0.026261138 0.040892407
0.033513464 -0.01206604 -0.03653222 -0.05029826 0.037471637 -0.048289202 -0.059298515 -0.022813821
0.015224183 0.05839786 0.05410804 0.019977732 0.04235222 0.02532098 0.011541235 0.011871426
0.012725048 -0.026588172 -0.044273846 -0.026341127 0.00010262933 0.019491028 0.0040320316 0.05746311
-0.005007442 -0.032171573 0.022850998 -0.029781794 0.005000951 0.038786408 0.05424426 -0.029232925
-0.042782586 0.022110285 0.04477066 -0.03280188 0.053330943 -0.016249048 0.031235488 0.04485236
0.034584027 -0.058564734 -0.026146926 -0.026329435 0.00015774096 0.0053610196 -0.05646497 -0.056140266
0.06435387 -0.040990006 0.0047683353 0.02402733 0.035898037 -0.039552946 0.05405265 -0.051306903
-0.027757904 0.009888603 0.046094783 -0.05851927 0.057731904 -0.01453806 0.016518125 -0.05610897
-0.020862535 0.042287804 -0.04349037 -0.04393396 -0.02950503 0.049395226 -0.022335203 0.046682812
0.019592695 -0.011763727 -0.057881385 -0.02766369 -0.036599252 0.040592134 -0.028526355 -0.011940023
0.031807285 -0.018968375 -0.059037924 0.01954697 0.053648207 0.049404085 -0.03935189 -0.05126053
0.00047802212 -0.008733605 -0.016094502 -0.039046112 -0.057076395 0.012750706 -0.009113617 0.051369403
-0.05707402 -0.04776714 -0.009525801 0.024595058 -0.0034905185 -0.027554648 0.0454159 0.005212202
0.0029612747 0.033438213 0.024623662 -0.027410481 0.0024532706 0.00036449314 0.04611183 0.059290085
-0.007805506 -0.048261207 0.03143447 -0.04589735 0.05808006 0.053944305 0.047733504 -0.004820912
0.03874518 0.017376544 -0.043749277 -0.012948557 0.040633336 -0.056894366 0.030043254 0.01288311
-0.029906027 0.024362404 -0.029339597 0.037799545 0.019382555 0.054460786 0.048379842 -0.057832234
0.024081267 0.046347924 -0.035161894 0.0029456483 0.044063125 0.033056837 0.06656408 -0.012519708
0.00712089 -0.0379068 -0.024171442 0.005154178 -0.062354185 0.03519621 0.0038208822 -0.035541452
0.056895535 0.035506833 -0.04867801 0.00064591476 -0.0070263958 0.046517696 -0.039974112 0.018964045
-0.06050541 0.06295462 0.029124487 0.000505384 0.0053522745 0.020136967 0.022871902 -0.004510725
-0.03622567 0.01103195 -0.038750913 0.02140202 0.01804154 0.06445305 0.0026862356 -0.033844136
-0.06428497 -0.02954116 -0.032238837 0.051426493 0.04935281 0.026783694 -0.0038075123 0.062214125
-0.059703276 -0.051051367 -0.05317319 0.029260244 0.005811334 0.037883062 0.057701606 -0.0056076474
-0.017221477 -0.044551447 0.011463034 -0.040037937 -0.054219265 -0.05716085 0.0008811905 0.04850707
-0.011430077 0.04942841 -0.033705555 -0.055366777 0.052442383 -0.0071622916 -0.0021944959 0.009130552
0.016351918 -0.011167543 0.015773034 -0.044535108 -0.012157793 -0.035433948 -0.04677447 0.063639045
0.010117909 0.03050305 0.009582928 -0.017418228 -0.005723402 0.031713344 -0.050694242 0.0070501394
-0.050987408 0.021543194 -0.0068008127 0.011607738 -0.050843176 -0.037610807 0.01661699 0.043463707
0.028305808 -0.048127033 -0.06333733 -0.009476523 -0.031297166 0.030312061 0.050336633 -0.048807587
-0.0022534693 0.042636726 -0.004565036 -0.022930052 -0.053612854 0.005706263 -0.031379428 0.010200388

fc2.bias f4 [128]
00000000: 5afa 1fb8 24ed 383c 7364 f8bc 1f35 1b3c
00000010: 3f7f 7f3b 0942 613b b532 6fba 699f 133d
00000020: 254e 0fbd 558c 163c 7ec9 ff37 8bdf c3b8
00000030: 0a94 be3c 0847 b1b7 180a b7b7 4b8f a4b7
00000040: 0c41 1537 9226 1cbb eb40 9ebc 2010 423c
00000050: 77a2 0c3d 5434 9637 05d5 04ba 52ea 22bc
00000060: e39a 88bb aee4 303c ed9b 5cb7 f74f 8e3c
00000070: 2c64 153c dc5e 90b8 69fe 0f3d 6672 c6b8
00000080: 46a6 fdbc e978 ebba 2f4c 6d38 b7ff f9bc
00000090: b2a2 a736 ab89 57bb 9e88 f03c 8d81 bbbc
000000a0: 8918 0e3d c459 253c 83d7 f2b6 58e6 9538
000000b0: f8ad 1e36 c853 acb7 8457 2ebb fdf8 bb3b
000000c0: c171 9f3a 81b8 12bd 2ca0 033c ad26 1b3c
000000d0: 563a 023d fa22 653a c2f0 283b b2d0 adb8
000000e0: 9683 b5bc 414b ae3c 9216 26bb b74a 3136
000000f0: 24f5 19b7 b143 e73a 4473 fc37 afb0 1cbc
00000100: 42e3 d43c 75fc a6b6 fc35 02b5 81a9 cb3c
00000110: 3d3c 063d afbc dabc 2de1 0039 6954 863b
00000120: 4fde 2f3c 1aaf c736 ab40 3fb8 803f 2b37
00000130: c960 99bc 6509 5c3c f4e7 1a37 9992 b03c
00000140: e8db 033d 62ea 013d 3d49 0abc d6cd 643b
00000150: c9be f93c c848 dbb5 1853 a63c b2c0 003d
00000160: 1c52 ee3c 137e 41b7 f0c1 fe37 90fb 19b8
00000170: 0457 6d3c cb5a 05b9 71aa 1abc bf14 9abb
00000180: 4998 993b bcb9 80bc 2f2e 073d 7af1 9cbc
00000190: f109 b338 10c3 ec3b b2dd a536 6f58 0f3d
000001a0: 160c 7837 c6a9 01b7 f6a0 3e3c b51b bd3b
000001b0: cfa1 cc36 e546 4db9 faa7 c13c 5bbc a8bb
000001c0: e808 24b7 8739 6cb7 c8c2 f035 0613 74b7
000001d0: 3042 ea3c 3028 0dbb 0a51 943c b48c 443c
000001e0: bb9f b8bc d2eb ec37 2169 ab3c 4892 47bb
000001f0: 5044 4237 1b6f a6b7 5078 7a3c 3301 ffbc
-3.8141712e-05 0.0112870075 -0.030321335 0.009473114 0.0038985757 0.0034371635 -0.00091246824 0.036040697
-0.034986634 0.009188731 3.0492196e-05 -9.339963e-05 0.02326395 -2.113312e-05 -2.182e-05 -1.961705e-05
8.896237e-06 -0.00238267 -0.019318065 0.011844665 0.034334626 1.790576e-05 -0.0005067143 -0.009943562
-0.0041688546 0.010796709 -1.3149326e-05 0.017372115 0.009118121 -6.884124e-05 0.035154734 -9.462684e-05
-0.030963074 -0.0017965111 5.6576155e-05 -0.030517442 4.995928e-06 -0.0032888453 0.02936202 -0.022888923
0.034691367 0.010092203 -7.237251e-06 7.1477785e-05 2.3645098e-06 -2.0543011e-05 -0.0026602456 0.005736469
0.0012164639 -0.035820488 0.008033793 0.00946967 0.031793915 0.00087408687 0.0025778268 -8.2881554e-05
-0.022157472 0.021276118 -0.0025343043 2.6418545e-06 -9.176587e-06 0.0017644075 3.0094416e-05 -0.009563609
0.025987271 -4.9765754e-06 -4.850733e-07 0.0248611 0.03277229 -0.0267013 0.00012290916 0.004099418
0.010734155 5.9510467e-06 -4.5598175e-05 1.0207179e-05 -0.018722909 0.013429974 9.233121e-06 0.021554278
0.03219214 0.031717665 -0.008440313 0.0034912727 0.030486481 -1.6337954e-06 0.020303294 0.03143377
0.029091887 -1.153305e-05 3.0369469e-05 -3.671233e-05 0.014486078 -0.00012717691 -0.00944005 -0.00470218
0.0046873433 -0.015713565 0.03300303 -0.019158114 8.537237e-05 0.0072254017 4.943192e-06 0.034996446
1.4784766e-05 -7.728528e-06 0.011635056 0.005771125 6.0985108e-06 -0.00019576734 0.023639668 -0.005149407
-9.777235e-06 -1.408009e-05 1.7938082e-06 -1.4547963e-05 0.028596014 -0.0021538846 0.018105049 0.011996437
-0.022537103 2.8243205e-05 0.020924153 -0.003045218 1.1579206e-05 -1.984048e-05 0.015287474 -0.031128502

bn2.weight f4 [128]
00000000: f117 803f 6351 803f 1607 803f 77d2 7f3f
00000010: d9e6 803f 8a31 803f 5624 7f3f dd7b 803f
00000020: 7aff 7f3f 6ee4 7f3f 1524 803f 777c 7f3f
00000030: 4821 7f3f 920a 803f 8220 803f f30a 803f
00000040: 72ab 803f aa71 803f 7411 803f 9724 7f3f
00000050: c438 7f3f 124d 7f3f f0b0 7f3f 6c8d 7f3f
00000060: 05d2 7f3f d979 803f d0e9 7e3f f718 803f
00000070: 032b 803f e114 803f 7412 803f b103 803f
00000080: 732a 803f c920 803f 4d07 803f f2db 7f3f
00000090: 9b08 803f b302 803f 86df 7e3f 6303 803f
000000a0: 4857 803f 305b 7f3f 3632 7f3f 3bf6 7f3f
000000b0: 4a6f 803f 1b0b 803f 752d 7f3f b84f 803f
000000c0: 48e5 7f3f a543 803f 9677 7f3f f719 803f
000000d0: b2a8 7f3f 9328 803f 57e7 7e3f 5a82 7f3f
000000e0: 70d7 7f3f 6e7e 803f 3f2d 803f 0249 7f3f
000000f0: 8509 803f 9b4d 803f 605e 7f3f 7eb6 7f3f
00000100: 7910 803f 1609 803f e972 7f3f a948 803f
00000110: 6b07 803f 6479 7f3f a23d 7f3f de62 803f
00000120: fa6a 7f3f ee0e 803f 92d9 7f3f 3e45 803f
00000130: 7f32 803f 1292 803f 3d0a 803f 2cee 7d3f
00000140: d10a 803f a5ea 7f3f 5142 803f 2358 803f
00000150: 1066 7f3f ec6f 7f3f a213 803f 0ee5 7e3f
00000160: d061 803f 06e3 7f3f 276e 7e3f f522 803f
00000170: 1182 803f 3397 7f3f 4ebf 7e3f 465e 7f3f
00000180: 2a07 803f 597e 803f 4419 803f 4b49 803f
00000190: 7237 803f ee1a 803f 317f 803f 7911 803f
000001a0: 1b4e 803f e9b6 7f3f 84c0 7f3f 1b16 803f
000001b0: 1df6 7e3f 75d1 7f3f 6fe7 7e3f 2ed0 7e3f
000001c0: f5af 7f3f 7ae9 7e3f dc4f 803f 7333 803f
000001d0: 428c 7f3f 5548 7e3f 8efd 7f3f 1bc8 7f3f
000001e0: e31e 803f 80c4 7e3f 1a04 803f 7462 803f
000001f0: bd5d 7f3f e033 7f3f 5f26 803f 5960 803f
1.0007306 1.0024837 1.0002162 0.9993052 1.0070449 1.0015118 0.9966482 1.00378
0.999992 0.9995793 1.0011011 0.99799293 0.9966016 1.0003226 1.0009921 1.0003341
1.0052321 1.0034688 1.0005326 0.99665207 0.9969599 0.99726975 0.9987936 0.9982517
0.9992984 1.0037185 0.9957552 1.0007619 1.0013126 1.0006372 1.0005631 1.0001127
1.0012954 1.0010005 1.0002228 0.99944985 1.0002626 1.0000824 0.9955982 1.0001034
1.0026636 0.99748516 0.9968599 0.9998509 1.0033963 1.0003389 0.99678737 1.0024328
0.9995923 1.0020643 0.9979185 1.0007924 0.99866784 1.0012382 0.99571747 0.99808276
0.99938107 1.0038583 1.0013808 0.99720776 1.0002905 1.0023683 0.9975338 0.99887836
1.0005027 1.0002773 0.99784714 1.0022174 1.0002264 0.997946 0.9970342 1.0030172
0.9977261 1.0004556 0.9994136 1.0021131 1.001541 1.0044577 1.0003124 0.99191546
1.0003301 0.99967414 1.0020238 1.0026897 0.9976511 0.99780154 1.0005991 0.9956826
1.002985 0.99955785 0.9938683 1.0010668 1.0039693 0.99840087 0.9951066 0.99753225
1.0002186 1.0038558 1.000771 1.0022367 1.001692 1.0008218 1.0038816 1.0005332
1.0023836 0.99888474 0.9990313 1.0006746 0.9959429 0.9992898 0.9957189 0.99536407
0.99877864 0.99575007 1.0024371 1.0015701 0.9982339 0.9932912 0.9999627 0.9991471
1.0009426 0.99518585 1.0001252 1.0030046 0.9975241 0.9968853 1.001171 1.0029403
