tryst/model_round_4.pth (torch, 193715 bytes, 19 tensors)

fc1.weight f4 [256, 13]
-0.09684219 -0.21110952 -0.16983141 0.037520148 -0.010985822 -0.02024629 -0.01859442 0.14877349
-0.099742636 -0.25495455 -0.18013844 -0.1650465 -0.033026323 -0.1132104 -0.121807836 -0.12236557
-0.03850796 -0.04512569 -0.17352617 -0.10587883 -0.12945749 -0.12018365 0.06168873 -0.024672111
0.25102413 0.08098172 -0.16039313 0.15572676 0.1831123 -0.2620086 0.0038727124 -0.16303085
0.012230756 0.15744278 -0.049884908 0.22105128 -0.16994208 -0.07454087 0.05248914 -0.21955049
-0.028562626 0.27537444 -0.11315225 0.05999447 0.21147163 0.16862184 -0.10023211 0.2750768
0.1223935 0.22954309 0.2217214 -0.21251635 0.13801141 0.05348825 -0.097662956 0.02307716
0.22264853 -0.006389262 0.18422368 0.14829534 0.12971462 -0.120082766 -0.066742025 -0.21436128
-0.07291586 -0.01632022 -0.2597223 -0.15254724 -0.17871706 -0.15669365 0.2521198 -0.24287184
-0.20177545 0.07108416 -0.24203292 0.11055477 0.16463196 -0.019713353 0.1459932 -0.114081025
0.15529746 0.1692946 -0.27301913 -0.029339304 0.05127924 -0.105321236 -0.07055185 -0.053697895
0.24574353 -0.17142938 0.2754028 -0.017207384 -0.01083702 -0.11873402 0.11166455 -0.042711545
0.044591513 -0.17109297 -0.0915625 0.024555603 0.032205105 0.18481664 0.0014743707 -0.1009115
0.11572388 0.0047471337 -0.04824171 0.25116408 0.151729 -0.25338 -0.26550663 0.050687343
-0.15480627 -0.23618186 0.11493808 -0.22630173 -0.14888006 -0.11768415 0.07277144 0.0049983887
0.26885232 -0.16224489 -0.16311958 -0.103635 0.04137724 -0.025831664 0.22739738 0.050839774
0.23875064 -0.007259823 -0.15849583 -0.022487752 0.04570934 0.23673087 0.09460294 0.093075074
-0.018368896 0.07451567 -0.11103467 0.004199486 0.036011472 -0.087654084 -0.124592304 0.115254216
-0.010294401 0.2165913 -0.12765795 0.21327856 0.14229488 -0.012018902 -0.23942947 -0.0671448
0.14204904 0.23192039 -0.15651354 -0.014487842 -0.2004777 0.039800223 -0.00580612 0.12841293
-0.14401147 -0.20686506 0.06295648 -0.27494192 0.1656056 0.001892636 0.26337507 0.14646828
0.23492795 0.25563923 -0.06822574 0.22218707 -0.1387921 0.026559345 0.07789222 -0.11242393
-0.19341351 0.20019169 0.19870023 0.0038516328 4.4816494e-05 -0.0072640413 0.013629375 0.23444372
-0.0030309884 -0.22559507 -0.24933292 -0.22242922 0.25457177 -0.0943269 -0.13094525 0.010067987
0.21438274 0.02093706 0.27245456 -0.2446014 0.19640316 0.15348968 -0.11338741 -0.18020956
-0.23948503 0.18156703 0.2323914 -0.12393302 -0.005026996 0.19586188 0.010556065 0.08905153
-0.21713693 -0.23927641 0.086269036 0.2479097 0.20745926 0.11156631 -0.26612845 -0.16916916
-0.020542031 -0.26406813 0.12269801 -0.020780535 -0.23950224 -0.27022752 0.02858006 0.2549533
-0.02457394 0.233269 0.26829812 0.19379634 0.08218038 0.016662885 0.15681498 -0.18560326
-0.0074716676 -0.2250065 0.2622935 0.2601451 -0.118769184 0.1934592 -0.06151907 0.07545142
-0.19043829 -0.23341721 0.11536322 -0.049975142 -0.13991784 -0.24109855 0.034415353 0.058839284
0.14165728 0.11932966 -0.11370693 0.12104277 0.12701392 0.046047043 0.24843033 -0.006460455
00000000: 3355 c6bd 182d 58be 49e8 2dbe baae 193d
00000010: e1fd 33bc 8cdb a5bc 5353 98bc 1458 183e
00000020: de45 ccbd 6789 82be 3676 38be f301 29be
00000030: 9c46 07bd dbda e7bd 6376 f9bd cd9a fabd
00000040: 86ba 1dbd b7d5 38bd d8b0 31be 00d7 d8bd
00000050: 8190 04be d822 f6bd 52ad 7c3d 2b1d cabc
00000060: 3c86 803e bed9 a53d 193e 24be d676 1f3e
00000070: ca81 3b3e fe25 86be 55cd 7d3b 8ff1 26be
00000080: 8263 483c ae38 213e 1e54 4cbd 445b 623e
00000090: 4c05 2ebe e2a8 98bd dafe 563d d8d1 60be
000000a0: 2bfc e9bc e1fd 8c3e 5ebc e7bd c3bc 753d
000000b0: 058c 583e 34ab 2c3e 7e46 cdbd ded6 8c3e
000000c0: 71a9 fa3d 580d 6b3e ef0a 633e e39d 59be
000000d0: dd52 0d3e 7f16 5b3d 8403 c8bd 500c bd3c
000000e0: fafd 633e 045d d1bb 22a5 3c3e bcda 173e
000000f0: e9d3 043e f4ed f5bd 0bb0 88bd 8681 5bbe
00000100: e954 95bd fbb1 85bc 52fa 84be 5835 1cbe
00000110: 9b01 37be 4d74 20be d915 813e 65b3 78be
00000120: 399e 4ebe 9294 913d 7ad7 77be 8a6a e23d
00000130: 4895 283e e67d a1bc 3e7f 153e 50a3 e9bd
00000140: 4c06 1f3e 905b 2d3e 2ac9 8bbe fb58 f0bc
00000150: 2e0a 523d a9b2 d7bd 7d7d 90bd 53f2 5bbd
00000160: 31a4 7b3e 2f8b 2fbe 9901 8d3e 80f6 8cbc
00000170: c28d 31bc d22a f3bd 62b0 e43d 4df2 2ebd
00000180: 97a5 363d ff32 2fbe 1f85 bbbd d528 c93c
00000190: 80e9 033d 9340 3d3e ac3f c13a b0aa cebd
000001a0: a400 ed3d d88d 9b3b 1999 45bd 9498 803e
000001b0: d95e 1b3e 06bb 81be 7cf0 87be 889d 4f3d
000001c0: 8985 1ebe a8d9 71be a864 eb3d a4bb 67be
000001d0: 0474 18be 6304 f1bd 3109 953d 86c9 a33b
000001e0: 03a7 893e 8623 26be d208 27be 963e d4bd
000001f0: 2e7b 293d ed9c d3bc dcda 683e 5e3d 503d
00000200: 0c7b 743e cfe3 edbb bb4c 22be 3c38 b8bc
00000210: b839 3b3d 9469 723e 30bf c13d 259e be3d
00000220: 5e7a 96bc ac9b 983d 2566 e3bd d89b 893b
00000230: c480 133d fc83 b3bd 402a ffbd 670a ec3d
00000240: d9a9 28bc 1cca 5d3e c4b8 02be b265 5a3e
00000250: c0b5 113e eeea 44bc 002d 75be 3783 89bd
00000260: 4e75 113e 8a7c 6d3e 1645 20be 6a5e 6dbc
00000270: 074a 4dbe 8f05 233d 4441 bebb ae7e 033e
00000280: be77 13be 6fd4 53be 54ef 803d 30c5 8cbe
00000290: 8494 293e 5312 f83a 19d9 863e c8fb 153e
000002a0: f490 703e 25e3 823e f0b9 8bbd 0285 633e
000002b0: 841f 0ebe fc92 d93c f585 9f3d 843e e6bd
000002c0: 310e 46be 0dff 4c3e 1378 4b3e ad6b 7c3b
000002d0: 58f9 3b38 3207 eebb be4d 5f3c 0412 703e
000002e0: 8ca3 46bb 6502 67be 2151 7fbe 7cc4 63be
000002f0: 3b57 823e 762e c1bd 8316 06be 33f4 243c
00000300: 2687 5b3e 3284 ab3c 2a7f 8b3e ca78 7abe
00000310: e91d 493e 662c 1d3e a937 e8bd db88 38be
00000320: 903b 75be b5ec 393e 03f8 6d3e 98d0 fdbd
00000330: 80b9 a4bb 0490 483e 58f3 2c3c a660 b63d
00000340: 2559 5ebe e004 75be d2ad b03d 0adc 7d3e
00000350: 3370 543e e17c e43d fd41 88be ae3a 2dbe
00000360: c347 a8bc f033 87be 1849 fb3d f13b aabc
00000370: 1340 75be 435b 8abe bb20 ea3c 3d89 823e
00000380: 4a4f c9bc 12de 6e3e 5f5e 893e 8c72 463e
00000390: 304e a83d 9a80 883c 1b94 203e c80e 3ebe
000003a0: e4d4 f4bb 1b68 66be 554b 863e bd31 853e
000003b0: 423d f3bd 2b1a 463e 6cfb 7bbd 4686 9a3d
000003c0: 4102 43be ec04 6fbe 8d43 ec3d bcb2 4cbd
000003d0: 9f46 0fbe 8ae2 76be 1df7 0c3d 7601 713d
000003e0: 9b0e 113e 1c63 f43d 2edf e8bd 46e5 f73d
000003f0: f00f 023e d39b 3c3d 8564 7e3e 39b2 d3bb

fc1.bias f4 [256]
-0.18252839 -0.12878983 -0.14153065 -0.00096792355 -0.12429449 0.12418322 0.15333912 0.18514499
-0.18120362 0.1162505 -0.14998348 -0.2231085 -0.09525772 0.17216784 -0.055081103 -0.19051427
-0.04146309 0.10594797 -0.1599397 0.062818974 0.20828165 -0.24797678 -0.12666678 -0.004809302
-0.083934784 0.2321395 0.1514257 -0.2496549 0.14145593 -0.1745204 0.12952875 -0.05582195
0.2000214 -0.19806968 0.06323309 0.11662944 0.120746955 -0.15186615 -0.17989008 -0.036472205
-0.045495942 -0.0832351 0.15898807 0.061036304 -0.0015035158 0.11229435 0.08113752 0.101544164
0.041060273 -0.13454036 0.1461702 -0.2545556 0.229812 0.24339436 -0.2400435 0.09736028
-0.082081914 0.25006843 0.07130341 -0.028577588 0.08771004 0.15416548 -0.014640447 0.17562887
0.24789244 0.09571269 0.0117719155 -3.156298e-05 -0.09644766 0.23169082 0.021717237 0.06862479
-0.101735875 -0.06176635 -0.08372037 0.23279788 0.22229958 -0.010864641 -0.06233428 0.07130016
0.16723502 -0.015472852 -0.17252667 0.14226149 -0.183788 0.24019077 -0.25982133 0.21052833
0.10651448 -0.24965201 0.053382292 -0.18953064 -0.17157637 -0.17125279 0.000182827 0.22785383
0.14435145 0.02684053 0.1516079 0.027608536 -0.07688759 -0.26031196 -0.09835318 0.19891688
0.24936756 0.20585978 7.118538e-05 -0.05990237 -0.19565204 -0.24027973 -0.08226982 -0.23928595
-0.26227355 0.25137597 0.023717152 0.07295657 -0.22570293 -0.03144355 -0.18722822 0.13657117
-0.009821781 -0.01531011 0.13261762 0.021322144 0.11224384 0.012573119 0.031731278 0.07586151
-0.13112323 0.08924028 -0.014595218 0.002206999 -0.13978994 0.18286896 -0.19850318 -0.24103376
0.094928294 0.11848885 -0.11570193 -0.17595379 -0.22292632 0.12633514 0.13162163 -0.18508127
-0.112158224 -0.039986636 0.1463666 -0.2031838 0.17322837 0.08930832 -0.20073643 -0.25530815
-0.10943304 -0.26074088 0.1546624 0.111985534 0.21904774 0.22943734 -0.13543311 -0.08395745
-0.06605492 0.16060205 0.25393012 0.11254155 0.16280225 -0.13716447 -0.24104545 0.023887329
-0.07994674 0.21625158 -0.1851593 0.23500928 0.22927539 -0.037474744 -0.13520919 -0.010866982
0.032921966 -0.075016975 -0.14873014 0.092377186 0.14900145 7.9699064e-05 0.21631862 -0.21173128
-0.0053225625 -0.2528624 -0.20712166 0.05866267 -0.2119587 0.16065846 -0.100337036 0.16723102
-0.17850214 -0.02849921 0.026338436 -0.19250591 0.08025965 0.22692227 -0.08519622 0.1495296
0.11193514 0.03728666 -0.1898419 0.14393464 -0.1055632 0.10643749 -0.15924904 0.069704324
-0.12776944 -0.09970814 0.2441271 0.034671135 -0.027086474 0.03840324 0.1794222 -0.20689547
0.18779075 -0.109027326 -0.07878237 -0.14653175 0.07339525 -0.17010906 -0.0053352076 0.115567215
0.02658848 -0.09428312 0.25172037 -0.1422854 -0.052718095 0.18891858 -0.26095217 5.3683412e-05
-0.23900864 0.14028274 -0.1997977 8.227785e-06 -0.2066496 -0.19770251 -0.2586884 -0.226476
0.029122844 0.17522645 -0.009141372 -0.243202 -0.22405684 -0.067605704 0.10426179 0.0014406263
4.6133468e-05 0.14679989 0.19014853 0.15354773 -0.11689724 0.11535742 0.013410414 -0.06715552
00000000: b9e8 3abe 7be1 03be 69ed 10be 40bc 7dba
00000010: 1c8e febd c653 fe3d ee04 1d3e a696 3d3e
00000020: 718d 39be be14 ee3d 4595 19be 8e76 64be
00000030: 7b16 c3bd c44c 303e b99c 61bd 2c16 43be
00000040: 33d5 29bd 40fb d83d 3cc7 23be 3ca7 803d
00000050: c947 553e a0ed 7dbe f0b4 01be 5997 9dbb
00000060: 00e6 abbd fab5 6d3e 570f 1b3e 89a5 7fbe
00000070: d3d9 103e 7ab5 32be 2fa3 043e 8fa5 64bd
00000080: 69d2 4c3e c7d2 4abe 5a80 813d 6adb ee3d
00000090: 2e4a f73d cd82 1bbe 1b35 38be e163 15bd
000000a0: f459 3abd 2a77 aabd c5cd 223e 3401 7a3d
000000b0: 9e11 c5ba 95fa e53d 6e2b a63d 63f6 cf3d
000000c0: d12e 283d f3c4 09be a4ad 153e 1d55 82be
000000d0: d653 6b3e 5f3c 793e f7cd 75be d464 c73d
000000e0: 901a a8bd f808 803e 8607 923d 8c1b eabc
000000f0: 52a1 b33d 8edd 1d3e 7cde 6fbc 0ed8 333e
00000100: 84d7 7d3e 0405 c43d fede 403c 7e62 04b8
00000110: 5a86 c5bd 5c40 6d3e 59e8 b13c 278b 8c3d
00000120: e65a d0bd b6fe 7cbd 9675 abbd 9162 6e3e
00000130: 80a2 633e 9b01 32bc 3b52 7fbd d105 923d
00000140: a83f 2b3e d881 7dbc d5aa 30be ffac 113e
00000150: ec32 3cbe 92f4 753e 4d07 85be bd94 573e
00000160: 4424 da3d c7a4 7fbe 64a7 5a3d 5214 42be
00000170: b7b1 2fbe e45c 2fbe 40b5 3f39 8452 693e
00000180: ded0 133e ace0 db3c 1a3f 1b3e 4c2b e23c
00000190: 3e77 9dbd 9c47 85be 646d c9bd deb0 4b3e
000001a0: 365a 7f3e e8cc 523e 5c49 9538 305c 75bd
000001b0: 0259 48be e40b 76be 147d a8bd 6007 75be
000001c0: b848 86be 5ab4 803e 794a c23c 416a 953d
000001d0: ab1e 67be f4ca 00bd c1b8 3fbe 50d9 0b3e
000001e0: 89eb 20bc 41d7 7abc eacc 073e c7ab ae3c
000001f0: 19e0 e53d 7cff 4d3c a8f8 013d 485d 9b3d
00000200: 2b45 06be 9cc3 b63d c820 6fbc 4da3 103b
00000210: 1825 0fbe 0042 3b3e 6b44 4bbe 8ed1 76be
00000220: c469 c23d 48aa f23d 22f5 ecbd 3b2d 34be
00000230: cc46 64be 005e 013e d2c7 063e f285 3dbe
00000240: 36b3 e5bd 07c9 23bd 20e1 153e 6a0f 50be
00000250: c762 313e 48e7 b63d da8d 4dbe c0b7 82be
00000260: 6e1e e0bd d47f 85be d25f 1e3e ac58 e53d
00000270: 0d4e 603e 9ff1 6a3e faae 0abe e2f1 abbd
00000280: cd47 87bd dd74 243e 2103 823e 2f7c e63d
00000290: a2b5 263e d874 0cbe 9ed4 76be 5caf c33c
000002a0: 1ebb a3bd 0e71 5d3e 669a 3dbe 46a6 703e
000002b0: 2bc7 6a3e 1e7f 19bd 4774 0abe 6d0b 32bc
000002c0: 2fd9 063d 80a2 99bd b74c 18be 4030 bd3d
000002d0: d693 183e 1c24 a738 a182 5d3e 16d0 58be
000002e0: e468 aebb 2e77 81be b317 54be 4548 703d
000002f0: b40b 59be a783 243e 817d cdbd 9c3e 2b3e
00000300: 44c9 36be 2d77 e9bc b4c3 d73c 4520 45be
00000310: 2c5f a43d 505e 683e 5b7b aebd 4a1e 193e
00000320: 403e e53d e6b9 183d ea65 42be 9a63 133e
00000330: 8531 d8bd e6fb d93d 2e12 23be 24c1 8e3d
00000340: fed5 02be c833 ccbd 74fc 793e 5203 0e3d
00000350: 74e4 ddbc b74c 1d3d 74ba 373e 68dc 53be
00000360: 384c 403e b849 dfbd a758 a1bd 6b0c 16be
00000370: 4050 963d 1231 2ebe f7d2 aebb 81ae ec3d
00000380: 16d0 d93c 8217 c1bd 7ee1 803e 44b3 11be
00000390: eeee 57bd df73 413e 869b 85be 202a 6138
000003a0: aebe 74be 47a6 0f3e c597 4cbe 110a 0a37
000003b0: f49b 53be 8772 4abe ce72 84be 53e9 67be
000003c0: 0893 ee3c 906e 333e b1c5 15bc f209 79be
000003d0: 286f 65be dc74 8abd 3587 d53d 66d3 bc3a
000003e0: 6f7f 4138 b652 163e 4cb6 423e 9e3b 1d3e
000003f0: d267 efbd 8340 ec3d 5ab7 5b3c d588 89bd

bn1.weight f4 [256]
0.9980782 0.99822414 0.99688244 0.99863535 1.0004288 1.0002316 0.99895436 1.0024796
0.99659276 1.0009313 1.0003794 1.0032116 1.0016809 0.9999924 1.0013089 1.0006802
1.0028362 1.0009521 1.0012558 0.9972368 1.0001471 0.9997958 1.0016873 1.0001127
0.9995805 1.0000836 0.9995966 0.9970471 0.999446 1.001105 0.9990623 0.99888754
1.0002927 0.9998291 1.0006684 1.0003777 0.99937826 1.0002438 0.9998779 1.0020101
1.0034506 1.0002681 1.0000212 0.99906397 0.9972561 1.0016297 0.9947192 1.0016676
0.99913496 1.0003844 0.99841845 1.0006998 1.0002898 1.0019822 0.9995615 1.003287
0.9971359 0.9988979 1.0000393 0.99699956 0.9978482 0.99781334 0.9982392 0.9998997
1.0008856 1.0009334 0.996012 1.0005454 1.0020751 0.9980898 1.0021329 0.9977138
0.9992666 0.99714315 0.99978554 0.9992806 0.9984302 1.00051 1.0040574 0.9989561
0.9990004 0.99911004 0.99886817 1.0006669 0.9982534 0.99835855 0.99831474 0.99992096
1.0004773 0.9980371 0.9997967 1.000535 1.0030136 0.9990621 1.0024121 0.9986802
0.9975289 0.9982642 1.0019732 1.0006529 1.0013889 1.0019808 1.0035093 1.003205
0.99764204 0.998262 0.9993741 1.0002731 0.996815 1.00269 1.0002601 1.0012468
1.0010027 1.0018913 0.9985543 0.9987743 0.9993224 0.99996614 1.0034562 0.9986652
0.998627 1.00048 1.0006055 0.9990341 1.0010858 1.0021223 1.0010425 1.00075
1.0010536 0.99791336 0.9984447 0.9992327 1.0017396 1.0008019 1.0005684 1.0021966
0.99777454 1.0019414 0.9982524 1.000811 1.0037057 1.0020521 0.9990003 0.9975477
0.99676096 0.9973199 1.000494 1.0035528 0.9990213 1.0008724 0.99942094 0.9989255
0.9976835 1.0002187 1.001024 1.0014077 0.99847025 1.0005866 1.0001355 0.9983107
0.99507195 1.000098 0.99926835 1.0004497 1.0008572 0.9995211 1.0024096 0.99819666
1.0015701 0.99960995 1.0002025 1.0013876 0.9980618 1.0001484 0.9970619 0.9994587
1.0006521 0.99893546 1.0007032 1.0029559 1.0005753 1.0016681 0.999115 0.99668825
0.99975246 0.99885166 0.99836653 0.9978147 0.9989191 0.9981926 1.0027364 0.9991286
1.0014048 0.9993101 1.001007 1.0016968 1.0006269 0.99903154 0.99882144 0.9990185
1.0004832 0.99999243 1.0012456 0.99769944 1.0009282 1.0010495 0.9992438 0.9983053
0.997563 1.000524 1.0002308 1.0015069 1.0012945 0.9981547 1.0021886 1.0014812
1.003815 0.99869317 0.9985657 1.0013788 0.999868 0.9982557 1.0012883 1.0026346
0.99687475 0.9990026 1.0004134 0.9990591 1.0045961 0.9971109 0.9986168 0.9999439
0.99904704 1.0028569 1.0008197 0.99812365 1.0003234 1.0009551 1.0008285 0.99999905
1.001085 0.99728596 0.9998887 1.0007153 1.0010607 1.001645 0.99973524 1.0022763
1.0022111 0.9966886 0.9968774 1.0012996 0.9996277 1.0011263 1.0023196 0.9996517
00000000: 0e82 7f3f 9e8b 7f3f b033 7f3f 91a6 7f3f
00000010: 0d0e 803f 9707 803f 79bb 7f3f 4051 803f
00000020: b420 7f3f 841e 803f 6f0c 803f 3d69 803f
00000030: 1437 803f 80ff 7f3f e42a 803f 4a16 803f
00000040: f05c 803f 331f 803f 2629 803f e94a 7f3f
00000050: d204 803f 9ef2 7f3f 4a37 803f b103 803f
00000060: 82e4 7f3f bd02 803f 90e5 7f3f 7b3e 7f3f
00000070: b1db 7f3f 3524 803f 8cc2 7f3f 18b7 7f3f
00000080: 9709 803f cdf4 7f3f e715 803f 600c 803f
00000090: 41d7 7f3f fd07 803f 00f8 7f3f de41 803f
000000a0: 1271 803f c908 803f b200 803f a8c2 7f3f
000000b0: 2d4c 7f3f 6735 803f eba5 7e3f a536 803f
000000c0: 4fc7 7f3f 990c 803f 5a98 7f3f ee16 803f
000000d0: 7f09 803f f440 803f 43e3 7f3f b56b 803f
000000e0: 4c44 7f3f c6b7 7f3f 4a01 803f 5d3b 7f3f
000000f0: fb72 7f3f b270 7f3f 9b8c 7f3f 6df9 7f3f
00000100: 051d 803f 961e 803f a4fa 7e3f df11 803f
00000110: ff43 803f d082 7f3f e445 803f 2c6a 7f3f
00000120: f0cf 7f3f c644 7f3f f2f1 7f3f dad0 7f3f
00000130: 1f99 7f3f b610 803f f484 803f 96bb 7f3f
00000140: 7dbe 7f3f adc5 7f3f d3b5 7f3f da15 803f
00000150: 898d 7f3f 6d94 7f3f 8e91 7f3f d2fa 7f3f
00000160: a40f 803f 5c7f 7f3f adf2 7f3f 8811 803f
00000170: c062 803f 89c2 7f3f 0a4f 803f 81a9 7f3f
00000180: 0e5e 7f3f 3e8e 7f3f a840 803f 6515 803f
00000190: 832d 803f e840 803f fe72 803f 0569 803f
000001a0: 7865 7f3f 198e 7f3f fbd6 7f3f f308 803f
000001b0: 452f 7f3f 2558 803f 8608 803f db28 803f
000001c0: db20 803f f93d 803f 41a1 7f3f acaf 7f3f
000001d0: 98d3 7f3f c8fd 7f3f 4171 803f 86a8 7f3f
000001e0: 05a6 7f3f bb0f 803f d713 803f b3c0 7f3f
000001f0: 9423 803f 8b45 803f 2922 803f 9318 803f
00000200: 8622 803f 4077 7f3f 129a 7f3f b7cd 7f3f
00000210: 0139 803f 471a 803f a012 803f fa47 803f
00000220: 276e 7f3f 9e3f 803f 788d 7f3f 931a 803f
00000230: 6e79 803f 3e43 803f 7cbe 7f3f 495f 7f3f
00000240: ba2b 7f3f 5b50 7f3f 3010 803f 6b74 803f
00000250: dcbf 7f3f 961c 803f 0dda 7f3f 95b9 7f3f
00000260: 3068 7f3f 2b07 803f 8e21 803f 212e 803f
00000270: bf9b 7f3f 3913 803f 7104 803f 4a91 7f3f
00000280: 09bd 7e3f 3603 803f 0dd0 7f3f bc0e 803f
00000290: 171c 803f 9de0 7f3f f54e 803f d189 7f3f
000002a0: 7333 803f 70e6 7f3f a306 803f 782d 803f
000002b0: fa80 7f3f dd04 803f 733f 7f3f 86dc 7f3f
000002c0: 5e15 803f 3cba 7f3f 0b17 803f dc60 803f
000002d0: da12 803f a936 803f 00c6 7f3f f626 7f3f
000002e0: c7ef 7f3f beb4 7f3f f394 7f3f c970 7f3f
000002f0: 2ab9 7f3f 8d89 7f3f ab59 803f e4c6 7f3f
00000300: 082e 803f c9d2 7f3f ff20 803f 9a37 803f
00000310: 8b14 803f 88c0 7f3f c3b2 7f3f adbf 7f3f
00000320: d50f 803f 81ff 7f3f d128 803f 3b69 7f3f
00000330: 6a1e 803f 6422 803f 71ce 7f3f f090 7f3f
00000340: 4a60 7f3f 2c11 803f 9007 803f 6131 803f
00000350: 6b2a 803f 1187 7f3f b747 803f 8930 803f
00000360: 037d 803f 5baa 7f3f 00a2 7f3f 2e2d 803f
00000370: 59f7 7f3f b08d 7f3f 372a 803f 5556 803f
00000380: 2f33 7f3f a2be 7f3f 8c0d 803f 56c2 7f3f
00000390: 9b96 803f a942 7f3f 5aa5 7f3f 53fc 7f3f
000003a0: 8cc1 7f3f 9d5d 803f dc1a 803f 0885 7f3f
000003b0: 990a 803f 4c1f 803f 261b 803f f0ff 7f3f
000003c0: 8e23 803f 224e 7f3f b5f8 7f3f 7017 803f
000003d0: c222 803f e735 803f a6ee 7f3f 974a 803f
000003e0: 7448 803f fc26 7f3f 5b33 7f3f 962a 803f
000003f0: 9ae7 7f3f e824 803f 024c 803f 2ce9 7f3f

bn1.bias f4 [256]
-0.0009208899 0.000270489 -0.0005509767 -0.001714724 0.0015712539 0.0008171383 -0.0007229632 0.002676569
-0.003810206 0.00086600723 -5.008056e-05 0.002727661 -0.0003489997 -0.00027788457 0.0017756838 0.0035187316
0.0004800109 0.00070913107 -0.0011473381 -2.6814203e-05 -0.001373002 -0.0026597567 0.0030501513 0.00041107615
0.0022218602 -0.002659031 -0.0008528131 -0.0001579778 -0.000629644 0.0016733 -0.00015454125 -0.0022945874
5.547179e-05 0.00012527884 0.0032948402 -0.0013396752 -0.0014043007 -0.0009709527 0.00060898776 0.0018738044
0.0012293825 -0.001007923 0.00083917566 -0.0017667484 -0.00096335367 0.0011284365 -0.0017842294 0.00088504737
-0.0009609259 0.00088211085 0.0014253422 -0.00198596 -0.0028759036 0.0024488876 -0.00081827363 0.0020542247
-0.0014780657 0.0001077918 -0.0015432509 -0.00075177825 -0.001486536 -0.0018575648 -0.0028755674 -0.0027051042
0.0002558411 0.0021916737 -0.0012416823 0.0024849523 0.0013862678 -0.0029643609 0.0015451999 -0.0015134726
-0.00047405847 -0.0015774381 -7.810387e-05 0.0025088494 -0.0011064247 0.0018059027 0.0029387288 -0.0004348066
-0.0006024417 -0.00022681699 -0.0014656867 0.00022729306 -0.0028491993 -0.0004574787 -0.0007663405 0.00061287277
0.00021558348 -0.0019292762 -0.0016052959 0.0008371132 0.0032236069 1.2082106e-05 0.0011983785 -0.0016431637
-0.0014517645 -0.0009812263 0.0028204327 0.0013428231 0.0019002409 0.0039982507 0.002575248 0.0020276043
-0.0019364955 -0.0010001408 0.0016060619 0.0027392665 -0.0014723451 0.004500464 -0.003227812 0.0018474021
0.0011500327 0.0017595495 -0.0010511761 0.00031296987 -0.0023022883 -0.0014360456 6.2159597e-06 0.0005401978
0.0004034366 0.0016226136 0.0018002861 0.0028136012 -9.528753e-05 0.00034830964 -0.0020338276 -0.0014171384
-0.0004356568 -0.00014957279 -0.0005272409 -0.00074625504 0.0019326899 0.0013809034 -0.001429767 0.0014025042
-0.0010295319 0.0018231254 -0.0007891748 -0.00017820377 -0.00046832176 0.0025227205 0.00014326553 -0.00058197696
-0.0013035235 -0.00071532733 1.5111436e-05 9.490608e-05 -0.0019220042 -0.00095958705 0.00032943176 8.471508e-05
-0.0029283215 0.0008421823 0.0020942916 -0.00010495802 -0.0009979913 -0.0019293497 0.0024555274 -0.0014088752
-0.0033823743 -0.0004906582 -0.0014798951 0.0012231955 -0.001742036 -0.00078999106 0.002161571 0.0014442729
0.0021167751 -0.000657839 -0.00033929216 0.001350736 0.001134024 -0.001419457 -0.00094232796 -0.0008010979
0.00045699708 0.00017166403 -0.00025135354 0.0031132663 0.0013522817 -0.0016376793 -0.0014358654 -0.0022185217
-0.0019248652 0.0004212256 -0.0021394196 -0.00189145 0.00072963454 -0.0003406792 -0.00010548413 0.00048435395
0.00078264263 -0.0014086218 0.0026964091 -0.0012361663 0.0015684133 -0.002273993 0.00043964878 -0.00076876295
9.1624854e-05 -0.00032374955 0.0025853582 -0.0023207013 0.00015800362 0.00027612832 -0.0012159423 -0.0010512173
-0.0028015568 0.0008884927 0.0033302337 -4.470536e-05 8.096304e-05 -0.002153529 0.002072894 0.0012728975
0.0021761488 -0.004119087 -0.00037415177 0.00048611965 0.0007441258 0.002212927 0.00019194231 0.00057109736
0.00016841681 -0.001656919 -0.0012802139 -0.0020881277 0.003924107 0.00067461067 0.0028279307 -0.0010383097
0.0009368642 0.0016471993 -2.3225573e-05 -0.0019506698 -0.0008123863 -0.0011142276 -4.3757027e-06 0.0013258515
-0.00011083254 -0.0022449263 -0.0021450913 0.0005466472 0.0013025369 0.002842385 -0.0028496285 -0.00035584124
0.0034474228 -0.00041987386 -0.00023429893 0.0020091624 -0.0008633244 0.00029026365 0.00200961 -0.0027984846
00000000: e067 71ba 6bd0 8d39 6c6f 10ba 97c0 e0ba
00000010: 88f2 cd3a 3935 563a 3d85 3dba 6069 2f3b
00000020: a6b4 79bb c304 633a 980d 52b8 8fc2 323b
00000030: f2f9 b6b9 09b1 91b9 10be e83a 859a 663b
00000040: f9a9 fb39 fbe4 393a 4762 96ba 10ef e0b7
00000050: 4df6 b3ba 504f 2ebb 0ce5 473b b585 d739
00000060: a19c 113b 2343 2ebb 518f 5fba d8a6 25b9
00000070: b20e 25ba a252 db3a 5a0c 22b9 ca60 16bb
00000080: 62aa 6838 485d 0339 3fee 573b 0a98 afba
00000090: 8310 b8ba 8887 7eba 7aa4 1f3a 719a f53a
000000a0: 3b23 a13a 491c 84ba 20fc 5b3a 3d92 e7ba
000000b0: 9289 7cba 0ce8 933a cedc e9ba 8602 683a
000000c0: a5e6 7bba 753d 673a 8cd2 ba3a e126 02bb
000000d0: a879 3cbb 847d 203b 6a81 56ba 2ca0 063b
000000e0: a8bb c1ba 480e e238 e846 caba fc12 45ba
000000f0: dfd7 c2ba 8879 f3ba 0474 3cbb 1e48 31bb
00000100: 6922 8639 2fa2 0f3b f2bf a2ba 95da 223b
00000110: 6eb3 b53a b945 42bb 4e88 ca3a b75f c6ba
00000120: 0d8b f8b9 0ac2 ceba b2cb a3b8 826b 243b
00000130: 7405 91ba 0ab4 ec3a b097 403b c1f6 e3b9
00000140: 2eed 1dba b9d5 6db9 491c c0ba 8455 6e39
00000150: a2b9 3abb c0d9 efb9 3ee4 48ba 32a9 203a
00000160: 400e 6239 c4df fcba cb68 d2ba b771 5b3a
00000170: 2643 533b 40b4 4a37 e912 9d3a 6d5f d7ba
00000180: 2249 beba 7e9c 80ba 02d7 383b ab01 b03a
00000190: 8111 f93a c203 833b 7ec5 283b 8ee1 043b
000001a0: 02d2 fdba 2817 83ba 7f82 d23a 4485 333b
000001b0: b4fb c0ba a178 933b b389 53bb 8724 f23a
000001c0: b2bc 963a afa0 e63a 9ec7 89ba 1b16 a439
000001d0: fde1 16bb b239 bcba b092 d036 109c 0d3a
000001e0: 5884 d339 e1ad d43a 94f7 eb3a 6564 383b
000001f0: 1ad5 c7b8 549d b639 f749 05bb 46bf b9ba
00000200: de68 e4b9 a4d6 1cb9 8a36 0aba 54a0 43ba
00000210: 5052 fd3a 6eff b43a 0567 bbba 3bd4 b73a
00000220: 5cf1 86ba f0f5 ee3a a0e0 4eba 36dc 3ab9
00000230: 1589 f5b9 3a54 253b 8c39 1639 d08f 18ba
00000240: feda aaba ce84 3bba 2087 7d37 5008 c738
00000250: c2eb fbba cc8c 7bba 95b7 ac39 10a9 b138
00000260: 15e9 3fbb e6c5 5c3a 6240 093b e81c dcb8
00000270: 08cf 82ba 3ce2 fcba eaec 203b 02aa b8ba
00000280: d3aa 5dbb 849f 00ba 0af9 c1ba a153 a03a
00000290: 0755 e4ba 6717 4fba 25a9 0d3b c24d bd3a
000002a0: 98b9 0a3b d472 2cba 06e3 b1b9 2e0b b13a
000002b0: 88a3 943a 130d baba 8f06 77ba c500 52ba
000002c0: 1c99 ef39 b600 3439 1ac8 83b9 f107 4c3b
000002d0: 0b3f b13a 66a7 d6ba a633 bcba 9e64 11bb
000002e0: c24b fcba f1d7 dc39 8135 0cbb 88ea f7ba
000002f0: f244 3f3a 309d b2b9 5c37 ddb8 e3f0 fd39
00000300: 422a 4d3a 81a1 b8ba 3db6 303b dc06 a2ba
00000310: 3893 cd3a 4607 15bb a980 e639 cf86 49ba
00000320: b826 c038 eebc a9b9 1d6f 293b e816 18bb
00000330: c6ad 2539 51c5 9039 4160 9fba 00c9 89ba
00000340: 539a 37bb bce9 683a 0d40 5a3b 0482 3bb8
00000350: b3ca a938 3922 0dbb 64d9 073b 5ad7 a63a
00000360: b89d 0e3b 68f9 86bb cd29 c4b9 e0dd fe39
00000370: 7011 433a c106 113b 1f44 4939 b2b5 153a
00000380: 0b99 3039 fa2c d9ba dacc a7ba f8d8 08bb
00000390: cc95 803b 5bd8 303a ce54 393b e417 88ba
000003a0: e497 753a d6e6 d73a 8ad4 c2b7 9ead ffba
000003b0: 52f6 54ba 460b 92ba 00d3 92b6 32c8 ad3a
000003c0: c46e e8b8 9d1f 13bb a994 0cbb df4c 0f3a
000003d0: e3b9 aa3a 4f47 3a3b d5c0 3abb 3490 bab9
000003e0: 28ee 613b 8422 dcb9 24ae 75b9 27ac 033b
000003f0: b850 62ba 872e 9839 a9b3 033b c866 37bb

bn1.running_mean f4 [256]
-0.113513164 -0.09915394 -0.101366 -0.003887903 -0.07934596 0.10077255 0.11276147 0.13155062
-0.12561913 0.059511837 -0.11644021 -0.16151306 -0.078791335 0.11020652 -0.019158939 -0.11936054
-0.034432683 0.07536562 -0.14023386 0.056957595 0.15808614 -0.19758937 -0.10124086 -0.0026171794
-0.060424656 0.14442162 0.107223354 -0.1684848 0.094573386 -0.12774824 0.0835143 -0.049694777
0.13023646 -0.105927326 0.039648227 0.09202626 0.06853117 -0.12013203 -0.122297615 -0.009329682
-0.05839978 -0.053841166 0.08847503 0.07690389 0.0016343129 0.08066261 0.05414723 0.087088734
0.053723663 -0.13263257 0.11445989 -0.20682852 0.14371136 0.18931836 -0.17574272 0.10952311
-0.064734876 0.19984047 0.059167653 -0.030399367 0.08328281 0.11918675 0.004273829 0.12244169
0.1864803 0.058105174 0.012531389 -0.002353076 -0.06409269 0.16024448 0.025680734 0.040474974
-0.10147801 -0.060431834 -0.07378992 0.15512088 0.15967306 -0.0041555692 -0.025740936 0.06405807
0.12742564 0.042956457 -0.14597735 0.09768878 -0.13962626 0.19023865 -0.16461334 0.18334365
0.072240464 -0.19394058 0.07821064 -0.12576824 -0.12123377 -0.109846145 0.019596 0.18596737
0.12031273 0.014554384 0.12579496 -0.008587428 -0.046438564 -0.21709955 -0.051644035 0.15450491
0.18657792 0.145269 -0.023754323 -0.026403228 -0.12730616 -0.16113378 -0.062381987 -0.19761994
-0.19547175 0.17699867 0.04144857 0.035970453 -0.1708207 -0.004649949 -0.14579585 0.077711254
-0.015380456 -0.0014987519 0.08386534 0.021620309 0.05297872 0.027767746 0.011504986 0.055960275
-0.07452463 0.06845045 -0.05141156 -0.024498567 -0.113556094 0.1349741 -0.15716688 -0.17478596
0.09100059 0.09940497 -0.09778135 -0.12853242 -0.17551526 0.08428922 0.11365129 -0.13371085
-0.08664637 -0.03346274 0.081635736 -0.1326181 0.13286377 0.07517199 -0.16110764 -0.17895856
-0.09775916 -0.2047486 0.10224442 0.09933395 0.15812933 0.15714557 -0.12179222 -0.058947146
-0.05823224 0.10111954 0.15186645 0.07403289 0.0943664 -0.094801255 -0.15357827 0.028033746
-0.05214413 0.15529516 -0.12245399 0.16972752 0.1954377 -0.0359842 -0.08903302 0.014305402
0.0557647 -0.06964765 -0.10560846 0.072989896 0.10679771 -0.0073737386 0.16026913 -0.124415904
0.0017646542 -0.22798277 -0.15293984 0.046791017 -0.16072977 0.14807895 -0.063136935 0.14175978
-0.13194181 -0.01912805 -0.008969369 -0.14131387 0.068171114 0.17407896 -0.07345015 0.120965034
0.084016584 0.007006415 -0.16498518 0.14117499 -0.09422819 0.086309165 -0.1318227 0.021781534
-0.11259032 -0.070060715 0.19666575 0.025898892 0.00568048 0.027666416 0.12776317 -0.1842976
0.1514769 -0.0721776 -0.0479129 -0.11228383 0.06794573 -0.1110072 0.0032341531 0.062421203
-0.0049843327 -0.05628193 0.1649367 -0.07752329 -0.06164567 0.14796554 -0.18931794 0.013837869
-0.14196585 0.10596731 -0.14308125 -0.0065275836 -0.14649238 -0.1550416 -0.21017632 -0.17222436
0.026622191 0.14512832 0.006555734 -0.21240862 -0.13471942 -0.06438603 0.081115775 0.018089358
0.015565392 0.15434863 0.13661346 0.09445697 -0.06852764 0.065313905 0.010139171 -0.054617856
00000000: 9779 e8bd 3911 cbbd fa98 cfbd 30cc 7ebb
00000010: 2280 a2bd d761 ce3d 7cef e63d 35b5 063e
00000020: 4da2 00be afc2 733d 3478 eebd ae63 25be
00000030: 5a5d a1bd f5b3 e13d 35f3 9cbc 4c73 f4bd
00000040: 4909 0dbd 4a59 9a3d 7799 0fbe 5e4c 693d
00000050: 55e1 213e de54 4abe 5e57 cfbd fc84 2bbb
00000060: d87f 77bd 43e3 133e eb97 db3d 4887 2cbe
00000070: b1af c13d 6fd0 02be 8c09 ab3d c08c 4bbd
00000080: b55c 053e 6df0 d8bd 2e66 223d 4478 bc3d
00000090: 125a 8c3d c807 f6bd 2c77 fabd 86db 18bc
000000a0: 9c34 6fbd 8e88 5cbd 6632 b53d c97f 9d3d
000000b0: 7136 d63a 7032 a53d 7cc9 5d3d 945b b23d
000000c0: 580d 5c3d d5d0 07be f269 ea3d dbca 53be
000000d0: 1229 133e acdc 413e e6f5 33be a74d e03d
000000e0: b893 84bd fba2 4c3e c859 723d 1808 f9bc
000000f0: 2e90 aa3d 2f18 f43d 7a0b 8c3b b5c2 fa3d
00000100: b1f4 3e3e b1ff 6d3d 7450 4d3c 1036 1abb
00000110: 0743 83bd 2117 243e 6760 d23c 16c9 253d
00000120: b4d3 cfbd 5f87 77bd 2b1f 97bd 02d8 1e3e
00000130: 5681 233e 712b 88bb a8de d2bc e130 833d
00000140: de7b 023e 1cf3 2f3d 167b 15be 0e11 c83d
00000150: 30fa 0ebe eccd 423e 6690 28be 70be 3b3e
00000160: cff2 933d 5c98 46be e62c a03d 64c9 00be
00000170: 6949 f8bd 04f7 e0bd ca87 a03c 3b6e 3e3e
00000180: 8566 f63d 8375 6e3c 65d0 003e 49b2 0cbc
00000190: 5d36 3ebd 584f 5ebe b288 53bd 8936 1e3e
000001a0: 480e 3f3e 66c1 143e 6d98 c2bc 954b d8bc
000001b0: 8c5c 02be 4100 25be 4184 7fbd e25c 4abe
000001c0: bf29 48be 243f 353e fac5 293d c155 133d
000001d0: 9feb 2ebe 995e 98bb 824b 15be 1427 9f3d
000001e0: 4ffe 7bbc c571 c4ba 97c1 ab3d 131d b13c
000001f0: 3700 593d 2f79 e33c 697f 3c3c 9a36 653d
00000200: 5fa0 98bd c02f 8c3d ee94 52bd 38b1 c8bc
00000210: 1990 e8bd a736 0a3e 5bf0 20be 17fb 32be
00000220: 845e ba3d d594 cb3d 9741 c8bd 019e 03be
00000230: 46ba 33be d49f ac3d 02c2 e83d 7feb 08be
00000240: a773 b1bd 3a10 09bd a330 a73d 0acd 07be
00000250: 710d 083e c6f3 993d 67f9 24be ea40 37be
00000260: f435 c8bd 9ea9 51be 8665 d13d 996f cb3d
00000270: a8ec 213e c5ea 203e 336e f9bd 9072 71bd
00000280: ee84 6ebd c317 cf3d e182 1b3e 8e9e 973d
00000290: 2c43 c13d 2927 c2bd 9f43 1dbe 07a7 e53c
000002a0: 1595 55bd b205 1f3e 28c9 fabd 0dcd 2d3e
000002b0: d220 483e 2b64 13bd f256 b6bd 3461 6a3c
000002c0: 8769 643d 6da3 8ebd 4049 d8bd ba7b 953d
000002d0: c2b8 da3d 679f f1bb 971d 243e c4cd febd
000002e0: f84b e73a 5174 69be 439c 1cbe f0a7 3f3d
000002f0: 5896 24be 02a2 173e f04d 81bd 7a29 113e
00000300: c11b 07be 6eb2 9cbc 43f4 12bc 95b4 10be
00000310: 4c9d 8b3d c141 323e 086d 96bd 84bc f73d
00000320: e310 ac3d 1296 e53b e0f1 28be 2d90 103e
00000330: b6fa c0bd dcc2 b03d 88fc 06be 306f b23c
00000340: c195 e6bd fe7b 8fbd bf62 493e ea29 d43c
00000350: 5223 ba3b aea4 e23c 59d4 023e 83b8 3cbe
00000360: c31c 1b3e d9d1 93bd 5140 44bd 11f5 e5bd
00000370: 2227 8b3d be57 e3bd 16f4 533b 60ad 7f3d
00000380: 9d53 a3bb e287 66bd 2be5 283e 88c4 9ebd
00000390: 2c80 7cbd 4784 173e 90dc 41be 3bb8 623c
000003a0: 7f5f 11be 6405 d93d e483 12be 57e5 d5bb
000003b0: 1902 16be 3ac3 1ebe 7638 57be 955b 30be
000003c0: c816 da3c 859c 143e 7cd1 d63b a581 59be
000003d0: e3f3 09be d3dc 83bd 0720 a63d 2230 943c
000003e0: fc05 7f3c 910d 1e3e 66e4 0b3e a872 c13d
000003f0: 3858 8cbd 4cc3 853d c41e 263c f9b6 5fbd

bn1.running_var f4 [256]
0.4182542 0.38126093 0.5005363 0.47855452 0.39931306 0.54593176 0.48785317 0.34545085
0.54947865 0.4220822 0.38243812 0.42249003 0.47668695 0.4999876 0.61046654 0.6760596
0.5502664 0.5420027 0.56842947 0.5530632 0.42292526 0.5278277 0.48752528 0.49595886
0.56052744 0.39911956 0.43447053 0.53117466 0.5011755 0.4915591 0.42560804 0.48377904
0.39347765 0.61478883 0.49321413 0.4525385 0.49510494 0.4524466 0.35252386 0.51010036
0.48829424 0.5877557 0.49507195 0.5285518 0.4103827 0.4875788 0.45087928 0.4639172
0.4057455 0.46159077 0.41577533 0.43456692 0.5219485 0.5350752 0.5658617 0.5692527
0.54437816 0.50967497 0.533254 0.44170332 0.48185232 0.41865757 0.5674025 0.4819061
0.5399197 0.504357 0.46710736 0.49472427 0.45553043 0.474967 0.6439859 0.40253162
0.5239439 0.5079407 0.51256436 0.45809847 0.5474276 0.5708956 0.5766873 0.4579764
0.5137937 0.58382356 0.54617953 0.49286667 0.46416348 0.54616547 0.52064705 0.5987623
0.5029782 0.48515576 0.578967 0.5271104 0.43907782 0.4843919 0.5161495 0.5540227
0.5322296 0.5152931 0.44762197 0.51552695 0.61560076 0.5085743 0.5565603 0.5303748
0.59023607 0.49504143 0.5558337 0.4284145 0.5118566 0.5219493 0.44625896 0.5148325
0.5061423 0.5246791 0.47047773 0.5409753 0.4848325 0.43953 0.4201465 0.51894534
0.48201784 0.43674415 0.46247435 0.5747063 0.5489245 0.40773454 0.51103914 0.43378356
0.4704116 0.43521893 0.57530415 0.5155293 0.49177283 0.5248994 0.5242108 0.47001672
0.46387458 0.4688964 0.39609623 0.44324195 0.46472034 0.4951827 0.4850846 0.41528916
0.51537824 0.43447936 0.5380397 0.58613986 0.5284685 0.44048494 0.3970092 0.4207804
0.5934946 0.40766332 0.4263026 0.46422687 0.42325068 0.45212877 0.48582605 0.4753908
0.4479744 0.5388707 0.52104515 0.450064 0.58497494 0.46657324 0.4972662 0.5118564
0.4534579 0.5236688 0.5986958 0.47377318 0.5071895 0.48710707 0.4490143 0.4401086
0.44716796 0.55409825 0.4526691 0.37006488 0.5165601 0.45732325 0.45169532 0.46577036
0.53060323 0.51669335 0.5716979 0.57000023 0.5550032 0.5605747 0.5552919 0.54478323
0.5394798 0.40664664 0.5417467 0.5135247 0.4342275 0.41868314 0.501291 0.43507278
0.48620316 0.49008766 0.49447435 0.54814345 0.40743864 0.48472625 0.44469187 0.62408656
0.512312 0.42872784 0.45645756 0.45630336 0.6684828 0.421123 0.48734766 0.51668423
0.50484526 0.66788757 0.41557932 0.42955056 0.5460129 0.5914737 0.515502 0.49104983
0.4898697 0.44600886 0.47399455 0.405236 0.558044 0.3803417 0.4537043 0.3845488
0.6258416 0.5043645 0.48880622 0.3392808 0.4345057 0.53073496 0.46561202 0.45699903
0.4746139 0.43631375 0.48261815 0.41104737 0.6061538 0.44247323 0.56475925 0.5778389
0.41158995 0.6592198 0.36373535 0.4154693 0.5267215 0.5397324 0.5128485 0.43337265
00000000: 6a25 d63e a234 c33e 2623 003f 1905 f53e
00000010: c372 cc3e 2fc2 0b3f e4c7 f93e efde b03e
00000020: a2aa 0c3f 281b d83e eece c33e 9d50 d83e
00000030: 5010 f43e 60fe ff3e 8947 1c3f 3e12 2d3f
00000040: 42de 0c3f b0c0 0a3f 9884 113f 8d95 0d3f
00000050: a989 d83e b71f 073f ea9c f93e 52ee fd3e
00000060: ba7e 0f3f 6659 cc3e ec72 de3e 10fb 073f
00000070: 0a4d 003f a2ad fb3e 4ce9 d93e e3b1 f73e
00000080: e775 c93e cd62 1d3f 9086 fc3e 20b3 e73e
00000090: 657e fd3e 15a7 e73e 027e b43e f095 023f
000000a0: b401 fa3e 2877 163f 127a fd3e 2c4f 073f
000000b0: ae1d d23e eea3 f93e a6d9 e63e 8e86 ed3e
000000c0: e0bd cf3e a055 ec3e 81e0 d43e 8e7f de3e
000000d0: 6b9e 053f b0fa 083f 50dc 103f 8cba 113f
000000e0: 5e5c 0b3f 0f7a 023f 5683 083f f026 e23e
000000f0: 59b5 f63e 495a d63e 4a41 113f 65bc f63e
00000100: 2d38 0a3f 8a1d 013f b228 ef3e 804c fd3e
00000110: 493b e93e e02e f33e 43dc 243f a018 ce3e
00000120: 3021 063f 6708 023f 6b37 033f e28b ea3e
00000130: 3724 0c3f 3726 123f c7a1 133f e27b ea3e
00000140: fc87 033f 7675 153f 6cd2 0b3f 0559 fc3e
00000150: d6a6 ed3e 80d1 0b3f 2049 053f 7c48 193f
00000160: 2ec3 003f 5666 f83e 2e37 143f b5f0 063f
00000170: cfce e03e 3702 f83e 6022 043f 6fd4 0d3f
00000180: 3340 083f 40ea 033f b52e e53e 93f9 033f
00000190: 0398 1d3f ed31 023f bc7a 0e3f a5c6 073f
000001a0: b619 173f 1276 fd3e 1e4b 0e3f 2559 db3e
000001b0: 0909 033f 789e 053f 0e7c e43e 10cc 033f
000001c0: 8b92 013f 5f51 063f 75e2 f03e 5b7d 0a3f
000001d0: f73b f83e 130a e13e 711d d73e 9ad9 043f
000001e0: 0bcb f63e ee9c df3e 70c9 ec3e f41f 133f
000001f0: 5186 0c3f 95c2 d03e 76d3 023f e118 de3e
00000200: cad9 f03e 04d5 de3e 2247 133f baf9 033f
00000210: a6c9 fb3e cf5f 063f ae32 063f 08a6 f03e
00000220: f880 ed3e 3013 f03e 20cd ca3e 9cf0 e23e
00000230: d3ef ed3e 9688 fd3e 025d f83e c8a0 d43e
00000240: d4ef 033f 1474 de3e f8bc 093f 430d 163f
00000250: b649 073f 3e87 e13e ca44 cb3e 8770 d73e
00000260: 43ef 173f 3fb9 d03e 5644 da3e 25af ed3e
00000270: 50b4 d83e 6c7d e73e 31be f83e 6c66 f33e
00000280: e75c e53e 6ef3 093f 3763 053f ca6e e63e
00000290: ebc0 153f b0e2 ee3e ad99 fe3e 0509 033f
000002a0: a22b e83e 290f 063f 2144 193f 6692 f23e
000002b0: 2cd7 013f 1966 f93e 34e5 e53e ea55 e13e
000002c0: 33f3 e43e 62d9 0d3f 3fc4 e73e 2579 bd3e
000002d0: 483d 043f 4626 ea3e 9c44 e73e 7479 ee3e
000002e0: 9dd5 073f 0446 043f cb5a 123f 89eb 113f
000002f0: b114 0e3f d381 0f3f 9c27 0e3f ea76 0b3f
00000300: 591b 0a3f fd33 d03e e9af 0a3f 5b76 033f
00000310: 1153 de3e a35d d63e 9b54 003f dcc1 de3e
00000320: 9fef f83e c5ec fa3e be2b fd3e 2153 0c3f
00000330: cc9b d03e 0a2e f83e a7ae e33e 23c4 1f3f
00000340: e126 033f 3782 db3e ceb4 e93e 98a0 e93e
00000350: b021 2b3f 6f9d d73e a285 f93e 6b45 043f
00000360: 8a3d 013f aefa 2a3f d0c6 d43e 0dee db3e
00000370: 80c7 0b3f d26a 173f f0f7 033f e26a fb3e
00000380: 34d0 fa3e 465b e43e 6aaf f23e 187b cf3e
00000390: f9db 0e3f 26bc c23e ee4b e83e 95e3 c43e
000003a0: 2837 203f 081e 013f cf44 fa3e 37b6 ad3e
000003b0: 8877 de3e 3fde 073f b364 ee3e c7fb e93e
000003c0: 9800 f33e 8464 df3e ba19 f73e cd74 d23e
000003d0: e52c 1b3f da8b e23e 1094 103f 40ed 133f
000003e0: ebbb d23e a1c2 283f 853b ba3e 64b8 d43e
000003f0: 38d7 063f e72b 0a3f 0a4a 033f 05e3 dd3e

fc2.weight f4 [128, 256]
0.010953115 -0.05197281 -0.0022102837 0.030836511 -0.011145971 0.0145997135 0.023369804 0.04232387
0.03282892 -0.014783933 -0.037221737 -0.05222932 0.038972188 -0.04682819 -0.058333654 -0.020044101
0.019676711 0.05853519 0.05294503 0.024125297 0.04274154 0.026950084 0.01487015 0.0090174135
0.014783345 -0.022763502 -0.044755172 -0.023818213 0.00060994667 0.019741599 0.005376913 0.05796042
-0.0049470337 -0.032353535 0.023102809 -0.028208308 0.006745683 0.037991818 0.05712046 -0.026019186
-0.043601986 0.022183636 0.04544146 -0.026069209 0.053920716 -0.018468713 0.028856067 0.041813854
0.03336921 -0.060096182 -0.025916936 -0.028450856 -0.00080402597 0.0075996732 -0.05594343 -0.05572009
0.06250104 -0.04365171 0.008359265 0.024605561 0.03598367 -0.03740577 0.049566843 -0.05152771
-0.028528912 0.0132768275 0.04557034 -0.05880375 0.057435628 -0.017974101 0.016470637 -0.056359474
-0.022026751 0.04286572 -0.04246056 -0.040981285 -0.02813985 0.05234163 -0.019997386 0.046792928
0.020345006 -0.008526578 -0.057766814 -0.029078208 -0.03598458 0.04260286 -0.024386311 -0.008644667
0.03378538 -0.021936685 -0.05879436 0.021412076 0.05196164 0.047691964 -0.034203492 -0.053398814
0.00067025033 -0.010851942 -0.015263159 -0.040521793 -0.054756563 0.015272602 -0.0056320513 0.051267028
-0.05566434 -0.048242394 -0.0127518885 0.029238608 -0.0030091507 -0.028212953 0.04353577 0.006648008
0.0051547466 0.030179504 0.026322257 -0.028075498 0.0024433099 0.0031371021 0.047721945 0.05803478
-0.0064165187 -0.044349484 0.032544576 -0.04507241 0.058747433 0.05587097 0.05103529 -0.0051349048
0.037648294 0.02067099 -0.045948997 -0.014379453 0.04061903 -0.057397783 0.031035407 0.014121754
-0.028202266 0.022980224 -0.027827512 0.035395697 0.018348899 0.054033425 0.05158662 -0.057939753
0.026020624 0.04812668 -0.035778936 0.0029078964 0.046568092 0.033632718 0.062040173 -0.010713258
0.0038280864 -0.040112466 -0.020375187 0.0044964235 -0.06176769 0.034800388 0.00097527663 -0.035116125
0.05869606 0.03589207 -0.052942947 7.846643e-05 -0.0063343383 0.045643497 -0.038435508 0.020835044
-0.059501365 0.061956402 0.031118082 0.002551102 0.0026097805 0.01900994 0.022663657 -0.004458543
-0.038642988 0.01129469 -0.038027436 0.02397284 0.019400483 0.060710557 0.0048994264 -0.032931395
-0.062035326 -0.028816164 -0.030797113 0.05281958 0.046017513 0.030166136 -0.0025657448 0.061247848
-0.05943303 -0.049750973 -0.052997835 0.030604629 0.0060404455 0.039784044 0.054966044 -0.008869854
-0.015914056 -0.04618915 0.009035628 -0.04055954 -0.055902924 -0.057305705 0.0013729887 0.04997108
-0.011515686 0.04804562 -0.03636961 -0.054347053 0.055012837 -0.0062951287 -0.004023262 0.011656098
0.019427102 -0.008952225 0.01629443 -0.044331327 -0.014066134 -0.038244538 -0.0472236 0.060915146
0.009896623 0.032678023 0.009244731 -0.014972847 -0.006409398 0.03135853 -0.05042623 0.0082945535
-0.04796303 0.023161981 -0.0067387125 0.0128619 -0.047350083 -0.030978747 0.016243065 0.044051528
0.027077697 -0.05103659 -0.06136314 -0.0142115485 -0.031266123 0.027546603 0.053908035 -0.04531826
-0.0037367376 0.04389578 -0.0047475016 -0.023000889 -0.053995214 0.0055180453 -0.032333203 0.012052108
00000000: b274 333c 71e1 54bd 68da 10bb da9c fc3c
00000010: 979d 36bc a333 6f3c 0872 bf3c cb5b 2d3d
00000020: 9e77 063d 4f38 72bc d275 18bd 69ee 55bd
00000030: 4da1 1f3d ebce 3fbd 45ef 6ebd 8733 a4bc
00000040: 0e31 a13c 98c2 6f3d e3dc 583d 6aa2 c53c
00000050: c111 2f3d 6cc6 dc3c eea1 733c c6bd 133c
00000060: d835 723c 867a babc 3351 37bd 6a1e c3bc
00000070: d4e4 1f3a 22b9 a13c d130 b03b e867 6d3d
00000080: ba1a a2bb 2485 04bd 1a42 bd3c 1c15 e7bc
00000090: e40a dd3b 4f9d 1b3d 25f7 693d 3026 d5bc
000000a0: ff97 32bd 75ba b53c d320 3a3d 188f d5bc
000000b0: f8db 5c3d b34b 97bc 8f63 ec3c 0145 2b3d
000000c0: 27ae 083d 6a27 76bd c14f d4bc c511 e9bc
000000d0: 45c5 52ba ae06 f93b f024 65bd c03a 64bd
000000e0: 8c00 803d 23cc 32bd 4cf5 083c 9a91 c93c
000000f0: 9d63 133d cb36 19bd 9a06 4b3d b80e 53bd
00000100: 77b5 e9bc 0d87 593c f7a7 3a3d 33dc 70bd
00000110: 9f41 6b3d 6c3e 93bc 6eed 863c 31d9 66bd
00000120: 7271 b4bc f793 2f3d 20eb 2dbd fedb 27bd
00000130: 8b85 e6bc 2d64 563d 8fd1 a3bc f1a9 3f3d
00000140: 92aa a63c 0fb3 0bbc e59c 6cbd 6c35 eebc
00000150: 9164 13bd 5680 2e3d cdc5 c7bc 5da2 0dbc
00000160: 8a62 0a3d 90b4 b3bc 5bd2 70bd 6168 af3c
00000170: bbd5 543d a658 433d f618 0cbd b7b8 5abd
00000180: bdb3 2f3a 58cc 31bc 5412 7abc 2efa 25bd
00000190: 6b48 60bd f039 7a3c 128d b8bb 60fd 513d
000001a0: 4a00 64bd d199 45bd 4ced 50bc ce85 ef3c
000001b0: 2c35 45bb da1e e7bc 9052 323d 88d7 d93b
000001c0: 26e9 a83b 023b f73c c6a1 d73c 96fe e5bc
000001d0: f01f 203b d797 4d3b 1678 433d e1b5 6d3d
000001e0: a941 d2bb cea7 35bd 764d 053d d99d 38bd
000001f0: 26a1 703d f5d8 643d 610a 513d b442 a8bb
00000200: 1935 1a3d 3556 a93c 0435 3cbd cc97 6bbc
00000210: 2460 263d f019 6bbd f73d fe3c ee5e 673c
00000220: 7008 e7bc 0641 bc3c 86f6 e3bc 14fb 103d
00000230: 6e50 963c 2752 5d3d 7e4c 533d 3c52 6dbd
00000240: 3429 d53c 7b20 453d ef8c 12bd 6892 3e3b
00000250: 2fbe 3e3d 76c2 093d d61d 7e3d a986 2fbc
00000260: a2e0 7a3b f84c 24bd dde9 a6bc bc56 933b
00000270: 1e00 7dbd da8a 0e3d b5a9 7f3a edd5 0fbd
00000280: 486b 703d 9003 133d b4da 58bd 588e a438
00000290: 4890 cfbb adf4 3a3d 8d6e 1dbd 41ae aa3c
000002a0: b4b7 73bd ffc5 7d3d 59eb fe3c 6430 273b
000002b0: da08 2b3b bcba 9b3c 22a9 b93c f818 92bb
000002c0: 1c48 1ebd 5d0d 393c a8c2 1bbd b062 c43c
000002d0: c3ed 9e3c a2ab 783d 5e8b a03b 12e3 06bd
000002e0: c118 7ebd e00f ecbc 3a4a fcbc 5859 583d
000002f0: dc7c 3c3d f91e f73c 0e26 28bb 06df 7a3d
00000300: 0d70 73bd adc7 4bbd 4214 59bd 8fb6 fa3c
00000310: eeee c53b 98f4 223d 1324 613d dd52 11bc
00000320: 325e 82bc d630 3dbd 2c0a 143c c321 26bd
00000330: 77fa 64bd 63b9 6abd dbf5 b33a 7aae 4c3d
00000340: 4aac 3cbc 7ccb 443d 4df8 14bd 049b 5ebd
00000350: 2455 613d 5e47 cebb 91d5 83bb 38f9 3e3c
00000360: 9625 9f3c 5aac 12bc e57b 853c c494 35bd
00000370: a475 66bc 4ea6 1cbd 896d 41bd 2982 793d
00000380: 7225 223c 64d9 053d 3677 173c ac50 75bc
00000390: ed05 d2bb cd71 003d bc8b 4ebd e1e5 073c
000003a0: e274 44bd 32be bd3c 6bd0 dcbb b8ba 523c
000003b0: 29f2 41bd 24c7 fdbc 2d10 853c 606f 343d
000003c0: 0cd2 dd3c be0b 51bd ea57 7bbd 8ed7 68bc
000003d0: e810 00bd 6aa9 e13c acce 5c3d a49f 39bd
000003e0: 0ee4 74bb 10cc 333d ee90 9bbb 5c6c bcbc
000003f0: 162a 5dbd b8d0 b43b d26f 04bd 3476 453c

fc2.bias f4 [128]
5.7443787e-05 0.025486428 -0.044924706 0.02358244 0.017496696 0.01695787 -0.013683054 0.050695397
-0.04963296 0.023282137 0.0025225056 -0.007212315 0.037777487 0.00021753002 6.0325932e-05 0.00012887291
-0.0015543029 -0.015681723 -0.033760227 0.026067853 0.048975438 0.006679971 -0.013009638 -0.024078533
-0.01780873 0.024974229 -2.9415063e-05 0.031770647 0.023207638 -0.006993463 0.04980239 -0.007466984
-0.045572985 -0.014926506 0.0030995766 -0.045122765 7.09821e-05 -0.016783468 0.043955203 -0.0373966
0.049335156 0.024234395 1.3617954e-05 0.0024111136 -0.00025136292 0.00917991 -0.016025567 0.019565139
0.014135789 -0.050473437 0.022054542 0.023579068 0.04641188 0.013617719 0.015925402 -0.0071104895
-0.03665307 0.035756342 -0.015870284 5.2851068e-05 6.7991896e-05 0.014892867 0.002570821 -0.023678456
0.040539823 -4.6270463e-05 5.6463363e-05 0.039398253 0.047399454 -0.041263275 0.008564111 0.01772824
0.024907667 -0.00020266851 5.6002318e-05 -0.00024420893 -0.033152733 0.027713783 -0.00021227873 0.03603925
0.04681401 0.046334855 -0.022487942 0.017021839 0.04509144 5.3316428e-05 0.03476543 0.046048313
0.043682043 -0.0027981268 -3.146146e-05 -8.161775e-05 0.0288049 -0.00787893 -0.023547852 -0.018413492
0.018396078 -0.030068986 0.047632296 -0.03359717 0.008780245 0.02118648 4.925607e-05 0.049642935
-0.00018731417 -0.0015472614 0.0258499 0.019604186 -5.477824e-05 0.010264689 0.03815891 -0.018914778
0.0012396598 -4.4928838e-05 -0.004450787 -0.0002117172 0.043180585 -0.01539138 0.03252101 0.026226204
-0.03703904 -9.2761526e-05 0.035397645 -0.016492845 0.0034558335 1.7608774e-05 0.029630546 -0.045739975
00000000: ccef 7038 eac8 d03c f802 38bd f62f c13c
00000010: 3b55 8f3c 3beb 8a3c e32e 60bc faa5 4f3d
00000020: ee4b 4bbd 2eba be3c 9f50 253b 4955 ecbb
00000030: 91bc 1a3d c518 6439 7a06 7d38 0f22 0739
00000040: c0b9 cbba f576 80bc 2a48 0abd 408c d53c
00000050: 789a 483d a8e3 da3b 6026 55bc 5840 c5bc
00000060: 9de3 91bc c196 cc3c 5ec0 f6b7 f021 023d
00000070: f21d be3c 6b29 e5bb 97fd 4b3d 9aad f4bb
00000080: bdaa 3abd 4e8e 74bc 4422 4b3b a6d2 38bd
00000090: 3adc 9438 7c7d 89bc 5f0a 343d 2d2d 19bd
000000a0: a913 4a3d 3687 c63c ab78 6437 c603 1e3b
000000b0: 5cc9 83b9 5567 163c 0d48 83bc 1247 a03c
000000c0: cc99 673c 3cbd 4ebd baab b43c e428 c13c
000000d0: 621a 3e3d da1c 5f3c fd75 823c 1cff e8bb
000000e0: 8821 16bd 3e75 123d 6602 82bc 67ac 5d38
000000f0: df96 8e38 3601 743c 387b 283b 52f9 c1bc
00000100: 160d 263d 8812 42b8 13d3 6c38 1060 213d
00000110: ee25 423d ae03 29bd 7c50 0c3c d03a 913c
00000120: 2a0b cc3c 6a83 54b9 08e4 6a38 2b09 80b9
00000130: 29cb 07bd 0408 e33c 2397 5eb9 e59d 133d
00000140: 0cc0 3f3d 9ec9 3d3d a238 b8bc 6271 8b3c
00000150: cdb1 383d 14a0 5f38 3266 0e3d 289d 3c3d
00000160: f1eb 323d c760 37bb 7cf5 03b8 322a abb8
00000170: 41f8 eb3c a116 01bc 6de7 c0bc e4d7 96bc
00000180: 5fb3 963c 3c53 f6bc 151a 433d 309d 09bd
00000190: 04db 0f3c 458f ad3c 4d98 4e38 6456 4b3d
000001a0: c469 44b9 7acd caba 2bc3 d33c f598 a03c
000001b0: b0c1 65b8 3a2d 283c 844c 1c3d 2af3 9abc
000001c0: 157c a23a f971 3cb8 e8d7 91bb 6700 5eb9
000001d0: 20de 303d 202c 7cbc c034 053d 56d8 d63c
000001e0: 40b6 17bd f788 c2b8 1ffd 103d 011c 87bc
000001f0: 447b 623b 8eb6 9337 c2bb f23c d759 3bbd

bn2.weight f4 [128]
1.0007317 1.0035845 1.0017887 1.000514 1.0027807 0.99830055 0.9992493 1.0017388
0.9974865 0.9989398 1.003327 1.000165 0.9954827 1.0001898 1.0001944 0.99895823
1.0018964 1.0003986 1.0014427 1.0019855 0.99756676 0.99845123 1.0007248 1.0005429
1.0002449 1.0004542 0.9999092 0.9994732 0.9992818 0.9999951 1.0006382 0.9991156
1.0009882 0.9987316 0.99983454 0.9966152 0.99834645 0.999065 1.0002946 1.0004117
1.0013297 0.99889433 0.9995873 0.9980813 1.003289 1.000663 0.9995067 0.9987331
1.0023394 1.0017803 1.001636 0.9985757 0.9983339 0.9993432 0.9975478 0.99956506
1.0004109 1.0003216 1.0018573 1.0007445 1.0005939 1.0012836 0.99845 0.9990759
0.99904984 1.0006312 0.9988295 0.9998257 1.000823 0.9991753 0.9987319 1.0018443
0.99980295 1.0013646 0.9986173 1.0003871 1.0022777 0.99945855 1.0011097 0.9984839
1.0010793 0.9994081 0.9987127 1.0011785 0.9988432 0.9995814 0.99888676 0.99706614
0.99977785 0.9967302 0.99654543 0.9990747 0.99943393 0.9976852 0.9971398 0.99833715
1.0007533 1.0014744 1.0000372 1.0010755 1.0020318 1.0005932 1.0034293 1.0016675
0.99995005 0.99974704 0.99829495 0.99991244 0.9962776 0.999611 0.99802047 0.9975477
1.000266 0.9983489 1.0000392 0.998527 1.0000559 0.9966163 0.9956741 1.0012771
1.0007564 0.99869436 1.0019665 1.000214 0.9995793 0.9974804 1.0004815 1.0003572
00000000: fa17 803f 7575 803f 9d3a 803f d810 803f
00000010: 1e5b 803f a090 7f3f cdce 7f3f fa38 803f
00000020: 465b 7f3f 85ba 7f3f 056d 803f 6805 803f
00000030: f4d7 7e3f 3806 803f 5f06 803f babb 7f3f
00000040: 243e 803f 100d 803f 462f 803f 1041 803f
00000050: 8960 7f3f 809a 7f3f c017 803f ca11 803f
00000060: 0608 803f e20e 803f 0dfa 7f3f 7add 7f3f
00000070: efd0 7f3f aeff 7f3f ea14 803f 0ac6 7f3f
00000080: 6220 803f e0ac 7f3f 28f5 7f3f 2c22 7f3f
00000090: a293 7f3f b9c2 7f3f a709 803f 7e0d 803f
000000a0: 922b 803f 8ab7 7f3f f4e4 7f3f 4282 7f3f
000000b0: c66b 803f ba15 803f acdf 7f3f f9ac 7f3f
000000c0: a84c 803f 563a 803f 9c35 803f a8a2 7f3f
000000d0: cf92 7f3f f5d4 7f3f 4b5f 7f3f 7fe3 7f3f
000000e0: 770d 803f 8a0a 803f dc3c 803f 6518 803f
000000f0: 7613 803f 102a 803f 6b9a 7f3f 70c3 7f3f
00000100: bbc1 7f3f af14 803f 4ab3 7f3f 94f4 7f3f
00000110: f81a 803f f4c9 7f3f e5ac 7f3f 6f3c 803f
00000120: 16f3 7f3f b72c 803f 62a5 7f3f af0c 803f
00000130: a34a 803f 84dc 7f3f 5d24 803f a49c 7f3f
00000140: 5e23 803f 36d9 7f3f a3ab 7f3f 9e26 803f
00000150: 30b4 7f3f 91e4 7f3f 0bb7 7f3f ba3f 7f3f
00000160: 71f1 7f3f b629 7f3f 9a1d 7f3f 5cc3 7f3f
00000170: e7da 7f3f 4c68 7f3f 8e44 7f3f 0693 7f3f
00000180: af18 803f 5030 803f 3801 803f 3e23 803f
00000190: 9442 803f 7013 803f 5f70 803f a436 803f
000001a0: bafc 7f3f 6cef 7f3f 4290 7f3f 43fa 7f3f
000001b0: 0c0c 7f3f 82e6 7f3f 457e 7f3f 495f 7f3f
000001c0: b708 803f cb93 7f3f 4901 803f 779f 7f3f
000001d0: d501 803f 3f22 7f3f 7fe4 7e3f d929 803f
000001e0: c918 803f 6faa 7f3f 7040 803f 0307 803f
000001f0: 6ee4 7f3f e05a 7f3f c70f 803f b40b 803f
