tryst/model_round_2.pth (torch, 193715 bytes, 19 tensors)

fc1.weight f4 [256, 13]
-0.09708013 -0.21005094 -0.1693564 0.036360722 -0.014811401 -0.020498402 -0.018511655 0.15175653
-0.09954296 -0.25436547 -0.1792178 -0.16698162 -0.03471999 -0.114483476 -0.122944914 -0.12285745
-0.038741708 -0.044454787 -0.17201099 -0.10504609 -0.12844823 -0.118664056 0.0636848 -0.024435913
0.25282934 0.07905971 -0.15972108 0.15406694 0.1833844 -0.26214403 0.0050872257 -0.1620245
0.011156475 0.158233 -0.049711738 0.22245063 -0.17110407 -0.0723127 0.051353917 -0.21898547
-0.026711753 0.27555156 -0.11345873 0.05860193 0.21314764 0.16820866 -0.09925094 0.2747765
0.121332325 0.22861345 0.2230258 -0.21219745 0.1369542 0.05211103 -0.09786281 0.022326738
0.22222136 -0.007140588 0.18460797 0.15085252 0.12917277 -0.11709958 -0.067297734 -0.212746
-0.07492598 -0.014938881 -0.2591206 -0.15356095 -0.17606272 -0.15714906 0.25304163 -0.24316078
-0.20266093 0.07230553 -0.2399759 0.10904658 0.1663597 -0.02134157 0.14725702 -0.11414024
0.15441512 0.17020902 -0.27295524 -0.030065622 0.050684046 -0.104700774 -0.07094017 -0.055668075
0.24815 -0.17024982 0.27522883 -0.01747325 -0.01028739 -0.11869489 0.11251773 -0.043305516
0.044934683 -0.1704695 -0.09100193 0.025112934 0.032022014 0.18492112 0.0015974508 -0.10146076
0.11441891 0.005563766 -0.050163444 0.25158367 0.15126656 -0.25453958 -0.26479208 0.050981164
-0.15313296 -0.23500644 0.11462086 -0.22585374 -0.15050337 -0.12035178 0.07260658 0.00478735
0.26769257 -0.16347674 -0.16512313 -0.102936685 0.043114096 -0.025348842 0.22632553 0.051557023
0.23708563 -0.0065297084 -0.15654986 -0.021710085 0.045844346 0.23639537 0.09574127 0.09288815
-0.016997222 0.0741566 -0.11284994 0.0046589198 0.034553748 -0.08948712 -0.12479069 0.11469018
-0.011171809 0.21518989 -0.12812464 0.21350737 0.1440763 -0.0112233935 -0.23940475 -0.06748811
0.13998306 0.23460716 -0.15673865 -0.014221813 -0.20045401 0.04023677 -0.0064042043 0.12631471
-0.1458754 -0.20733696 0.06302479 -0.2765573 0.16316709 0.004428478 0.26427627 0.14667338
0.23417678 0.2558999 -0.068039715 0.22230987 -0.13830128 0.027714122 0.07948237 -0.11185147
-0.19418465 0.20251408 0.19997151 0.0046064253 -0.0016103432 -0.006859261 0.013054701 0.23467678
-0.0058620768 -0.22679245 -0.25032324 -0.22103521 0.2547986 -0.094524466 -0.13147973 0.011221573
0.21643291 0.021249702 0.27118713 -0.24631651 0.19493411 0.15572774 -0.114740975 -0.1810987
-0.2390824 0.18155809 0.23106793 -0.124776036 -0.0063098017 0.19662029 0.011694998 0.087300666
-0.21700595 -0.24031106 0.083774745 0.24750024 0.20829877 0.11017403 -0.26574358 -0.16728136
-0.020387424 -0.26494616 0.12285267 -0.021710312 -0.24113016 -0.26964575 0.028602332 0.25667843
-0.025106227 0.2359164 0.26651356 0.19660945 0.083548866 0.015387639 0.15817416 -0.18567002
-0.006239477 -0.22332945 0.26211414 0.26080993 -0.11846104 0.19454107 -0.061798252 0.07733749
-0.18864335 -0.23201174 0.1161226 -0.050222773 -0.140059 -0.24234375 0.034710996 0.059904404
0.14184716 0.11941647 -0.11273679 0.121829614 0.12920588 0.044387367 0.24666142 -0.00577816
00000000: f2d1 c6bd 9817 57be c46b 2dbe fbee 143d
00000010: 85ab 72bc 44ec a7bc c1a5 97bc 1066 1b3e
00000020: 2edd cbbd 313c 82be df84 37be 3bfd 2abe
00000030: 8c36 0ebd 5076 eabd 8bca fbbd b09c fbbd
00000040: a0af 1ebd 3916 36bd a623 30be 6822 d7bd
00000050: ef87 03be 2406 f3bd 2d6d 823d d32d c8bc
00000060: d972 813e 0fea a13d ec8d 23be b9c3 1d3e
00000070: 1fc9 3b3e be37 86be beb2 a63b c0e9 25be
00000080: a6c9 363c d507 223e 899e 4bbd 19ca 633e
00000090: e835 2fbe ae18 94bd 7c58 523d ba3d 60be
000000a0: 9bd2 dabc 1815 8d3e 0d5d e8bd 9408 703d
000000b0: 6043 5a3e e43e 2c3e 1444 cbbd 81af 8c3e
000000c0: 157d f83d a519 6a3e e060 643e 4a4a 59be
000000d0: b93d 0c3e 6072 553d 4c6c c8bd 90e6 b63c
000000e0: ff8d 633e 98fb e9bb df09 3d3e 1579 1a3e
000000f0: de45 043e e8d1 efbd 65d3 89bd 16da 59be
00000100: cb72 99bd 35c2 74bc 75ab 84be 153f 1dbe
00000110: c949 34be afeb 20be ac8e 813e 24ff 78be
00000120: 5986 4fbe ec14 943d 3ebc 75be d053 df3d
00000130: 325a 2a3e 84d4 aebc 8bca 163e 5cc2 e9bd
00000140: ff1e 1e3e 464b 2e3e cac0 8bbe 2e4c f6bc
00000150: 139a 4f3d 5c6d d6bd 1449 91bd 3504 64bd
00000160: 091b 7e3e f855 2ebe cbea 8c3e 1024 8fbc
00000170: 718c 28bc 4e16 f3bd b26f e63d 2061 31bd
00000180: 6e0d 383d 8e8f 2ebe 385f babd a4b9 cd3c
00000190: 8429 033d f65b 3d3e 8e61 d13a a9ca cfbd
000001a0: 7654 ea3d 4150 b63b 2f78 4dbd 93cf 803e
000001b0: 9fe5 1a3e 0353 82be d492 87be a0d1 503d
000001c0: e3ce 1cbe 87a5 70be 57be ea3d 3446 67be
000001d0: 8e1d 1abe fe7a f6bd c2b2 943d 34df 9c3b
000001e0: 000f 893e 7266 27be 0a16 29be 78d0 d2bd
000001f0: 6898 303d 60a8 cfbc e1c1 673e 752d 533d
00000200: 93c6 723e 2af7 d5bb 9b4e 20be 59d9 b1bc
00000210: 48c7 3b3d a111 723e 0014 c43d 243c be3d
00000220: c23d 8bbc 6adf 973d df1d e7bd daa9 983b
00000230: 3b88 0d3d 0645 b7bd 4392 ffbd afe2 ea3d
00000240: f709 37bc bd5a 5c3e 1b33 03be ada1 5a3e
00000250: bd88 133e 53e2 37bc 8526 75be 3537 8abd
00000260: b857 0f3e dc3c 703e 1980 20be 9b02 69bc
00000270: d143 4dbe 50cf 243d 5cda d1bb a558 013e
00000280: 5c60 15be 2450 54be 2413 813d eb98 8dbe
00000290: 4615 273e c41c 913b 384f 873e 8c31 163e
000002a0: 0acc 6f3e 5005 833e 6858 8bbd 33a5 633e
000002b0: da9e 0dbe ba08 e33c a7c7 a23d 6212 e5bd
000002c0: 57d8 46be da5f 4f3e 55c5 4c3e 7ff1 963b
000002d0: 2712 d3ba a7c3 e0bb 62e3 553c 1c4f 703e
000002e0: aa16 c0bb 483c 68be 5e2a 80be 0e57 62be
000002f0: f674 823e 0b96 c1bd 9fa2 06be b0da 373c
00000300: 97a0 5d3e db13 ae3c 0ad9 8a3e 653a 7cbe
00000310: cf9c 473e 1877 1f3e 51fd eabd f071 39be
00000320: 04d2 74be 5dea 393e 129d 6c3e 948a ffbd
00000330: 74c2 cebb d456 493e 609c 3f3c b1ca b23d
00000340: cf36 5ebe 1a14 76be 1892 ab3d b470 7d3e
00000350: 464c 553e eca2 e13d 8b0f 88be ce4b 2bbe
00000360: 8703 a7bc 06a7 87be 2e9a fb3d d3d9 b1bc
00000370: d3ea 76be 020f 8abe 704f ea3c 5b6b 833e
00000380: 93ab cdbc 1294 713e 7774 883e fd53 493e
00000390: ab1b ab3d 701c 7c3c 68f8 213e 4820 3ebe
000003a0: 8774 ccbb 7ab0 64be d333 863e e188 853e
000003b0: b49b f2bd c635 473e 2a20 7dbd 1e63 9e3d
000003c0: b92b 41be 7c94 6dbe b0d1 ed3d 65b6 4dbd
000003d0: a06b 0fbe f628 78be 1e2d 0e3d 525e 753d
000003e0: 6240 113e 9f90 f43d 8ce2 e6bd ce81 f93d
000003f0: 8c4e 043e 87cf 353d d094 7c3e b856 bdbb

fc1.bias f4 [256]
-0.18849537 -0.13474345 -0.14748834 -0.00561093 -0.13024656 0.13013522 0.15929995 0.1911124
-0.18717033 0.12219936 -0.15594348 -0.22908136 -0.10119585 0.17813286 -0.060977653 -0.19648258
-0.047329087 0.111892074 -0.16590214 0.06872742 0.21425259 -0.2539523 -0.13261971 -0.010122395
-0.08986502 0.2381134 0.15738606 -0.25563058 0.14741361 -0.18048587 0.13548265 -0.061719753
0.20599118 -0.20403919 0.06914207 0.12257844 0.12669766 -0.15782665 -0.1858566 -0.042321935
-0.05137275 -0.089164756 0.16495027 0.06694222 -0.006327481 0.11824149 0.0870655 0.10748594
0.046925053 -0.14049594 0.1521292 -0.26053175 0.2357856 0.24936941 -0.24601819 0.10329969
-0.08801066 0.25604412 0.077222034 -0.03439144 0.09364312 0.16012654 -0.02031779 0.18159457
0.25386795 0.10165109 0.017391082 -0.0015690799 -0.102386534 0.23766463 0.027482357 0.07454045
-0.10767777 -0.06767331 -0.08965044 0.23877183 0.22827229 -0.016460817 -0.068242006 0.07721878
0.17319903 -0.0211639 -0.17849174 0.14821938 -0.18975519 0.24616547 -0.26579794 0.21649958
0.11245887 -0.2556277 0.059275784 -0.19549878 -0.17754126 -0.1772176 -0.0033279427 0.23382722
0.15030992 0.032644033 0.15756834 0.03341678 -0.08281179 -0.26628858 -0.10429318 0.20488648
0.25534323 0.2118304 -0.0018717702 -0.06580662 -0.20162115 -0.24625447 -0.08819868 -0.24526057
-0.26825035 0.2573518 0.029498903 0.078876935 -0.23167609 -0.037272234 -0.19319598 0.14252737
-0.015387671 -0.020998474 0.13857256 0.027083617 0.118190944 0.018210739 0.037561297 0.081784725
-0.13707769 0.09517446 -0.020271836 0.0071928897 -0.14574715 0.18883595 -0.20447272 -0.24700856
0.10086621 0.12443864 -0.12165055 -0.18191954 -0.22889918 0.13228793 0.13757625 -0.19104865
-0.1181053 -0.045848206 0.15232565 -0.20915402 0.17919362 0.09524253 -0.2067063 -0.2612843
-0.11537885 -0.26671752 0.16062358 0.11793251 0.22502008 0.2354109 -0.14138897 -0.08988768
-0.07196752 0.16656461 0.2599062 0.1184888 0.16876534 -0.14312088 -0.24702027 0.029670449
-0.08587368 0.22222358 -0.19112673 0.2409835 0.23524894 -0.04332802 -0.141165 -0.01646331
0.038757347 -0.08093939 -0.15468982 0.0983135 0.15496121 0.00041471756 0.22229056 -0.21770272
-0.010674173 -0.2588384 -0.21309246 0.06456507 -0.21793014 0.16662103 -0.106278166 0.17319503
-0.18446836 -0.03431264 0.03213884 -0.19847453 0.08618687 0.23289555 -0.09112745 0.15548949
0.11788213 0.043139275 -0.19581011 0.14989302 -0.1115071 0.11238183 -0.1652113 0.07562122
-0.13372272 -0.105648905 0.25010222 0.040513895 -0.03289155 0.044259652 0.18538857 -0.2128662
0.19375859 -0.11497295 -0.0847083 -0.15249084 0.079316065 -0.17607367 -0.010688568 0.12151578
0.032390445 -0.10022061 0.2576962 -0.14824332 -0.058610395 0.19488661 -0.26692888 0.00011866252
-0.24498323 0.14624007 -0.20576742 5.6609108e-05 -0.21262032 -0.20367193 -0.26466492 -0.23244923
0.03493973 0.18119207 -0.014684829 -0.24917704 -0.23002979 -0.07352018 0.11020502 0.0062442133
0.00011033108 0.15275906 0.19611676 0.15950863 -0.12284636 0.12130591 0.01906525 -0.07306948
00000000: ee04 41be 30fa 09be 2f07 17be e4db b7bb
00000010: 5b5f 05be 2b42 053e 871f 233e f8b2 433e
00000020: 94a9 3fbe a843 fa3d a6af 1fbe 4e94 6abe
00000030: c53f cfbd 7668 363e b4c3 79bd bb32 49be
00000040: 25dc 41bd ac27 e53d 40e2 29be f6c0 8c3d
00000050: 0865 5b3e 0906 82be 76cd 07be 67d8 25bc
00000060: 270b b8bd 00d4 733e d029 213e 03e2 82be
00000070: 98f3 163e 4ad1 38be f7bb 0a3e dacd 7cbd
00000080: 5aef 523e a6ef 50be 5c9a 8d3d 680a fb3d
00000090: 08bd 013e 4f9d 21be 3151 3ebe c459 2dbd
000000a0: 3c6c 52bd 039c b6bd b9e8 283e 0119 893d
000000b0: c256 cfbb 9828 f23d 664f b23d 9721 dc3d
000000c0: 7c34 403d 2bde 0fbe c2c7 1b3e 6b64 85be
000000d0: c871 713e b25a 7f3e 31ec 7bbe ca8e d33d
000000e0: ef3e b4bd 3718 833e 9626 9e3d 0ade 0cbd
000000f0: f7c7 bf3d 36f8 233e 7e71 a6bc edf3 393e
00000100: fbfa 813e 722e d03d be77 8e3c 96a9 cdba
00000110: 08b0 d1bd 5b5e 733e ae22 e13c aaa8 983d
00000120: 2a86 dcbd 4e98 8abd a69a b7bd 9a80 743e
00000130: 36c0 693e d6d8 86bc 77c2 8bbd e124 9e3d
00000140: 165b 313e ea5f adbc 8ac6 36be d2c6 173e
00000150: 2f4f 42be cd12 7c3e ab16 88be 11b2 5d3e
00000160: d650 e63d a2e1 82be 2acb 723d d530 48be
00000170: 60cd 35be 8878 35be 9d19 5abb 6770 6f3e
00000180: d8ea 193e c0b5 053d 9859 213e 09e0 083d
00000190: 3a99 a9bd fa56 88be aa97 d5bd c3cd 513e
000001a0: 59bc 823e 12ea 583e 3056 f5ba 9fc5 86bd
000001b0: c675 4ebe 222a 7cbe 82a1 b4bd 9625 7bbe
000001c0: 1c58 89be 9dc3 833e afa7 f13c 3b8a a13d
000001d0: 7f3c 6dbe c5aa 18bd 2bd5 45be b2f2 113e
000001e0: 921c 7cbc fe04 acbc f7e5 0d3e 76de dd3c
000001f0: 180e f23d b02e 953c e0d9 193d c07e a73d
00000200: 185e 0cbe d4ea c23d 1f11 a6bc 55b2 eb3b
00000210: be3e 15be 365e 413e 4c61 51be d0ef 7cbe
00000220: f292 ce3d b0d9 fe3d ec23 f9bd 1e49 3abe
00000230: 8c64 6abe 7d76 073e cae0 0c3e 42a2 43be
00000240: 31e1 f1bd 54cb 3bbd 41fb 1b3e 792c 56be
00000250: 887e 373e 840e c33d d1aa 53be 0ec7 85be
00000260: bf4b ecbd 338f 88be 827a 243e 9a86 f13d
00000270: aa6b 663e 8e0f 713e 45c8 10be 0817 b8bd
00000280: b563 93bd ea8f 2a3e 6d12 853e 42aa f23d
00000290: d2d0 2c3e 488e 12be e2f2 7cbe 710f f33c
000002a0: 8ade afbd 948e 633e bab6 43be 61c4 763e
000002b0: 19e5 703e b978 31bd 8f8d 10be 10de 86bc
000002c0: 06c0 1e3d 8dc3 a5bd 0267 1ebe 9758 c93d
000002d0: 27ae 1e3e 736e d939 23a0 633e 76ed 5ebe
000002e0: bae2 2ebc 7786 84be e934 5abe b13a 843d
000002f0: 1429 5fbe b49e 2a3e 5ea8 d9bd 0a5a 313e
00000300: 46e5 3cbe 698b 0cbd 04a4 033d e83c 4bbe
00000310: be82 b03d 2c7c 6e3e 07a1 babd a338 1f3e
00000320: 306c f13d cfb2 303d 7282 48be 8e7d 193e
00000330: d65d e4bd 7228 e63d 272d 29be 4cdf 9a3d
00000340: 9cee 08be 745e d8bd 660d 803e e6f1 253d
00000350: 4ab9 06bd 9c49 353d 80d6 3d3e 99f9 59be
00000360: a768 463e f076 ebbd 8c7b adbd 8f26 1cbe
00000370: 7670 a23d a84c 34be 1b1f 2fbc 44dd f83d
00000380: d8ab 043d 7740 cdbd c2f0 833e 19cd 17be
00000390: 7411 70bd 5b90 473e e7aa 88be 75da f838
000003a0: e2dc 7abe f5bf 153e b2b4 52be 916f 6d38
000003b0: 24b9 59be 608f 50be 2982 87be 2c07 6ebe
000003c0: f61c 0f3d 6a8a 393e a398 70bc 4428 7fbe
000003d0: ee8c 6bbe c091 96bd 2bb3 e13d 429c cc3b
000003e0: 8c61 e738 df6c 1c3e d5d2 483e 3b56 233e
000003f0: df96 fbbd 3c6f f83d ba2e 9c3c 74a5 95bd

bn1.weight f4 [256]
0.9994434 1.0017196 1.0002359 0.9986472 0.9992744 0.99904203 0.9983022 1.00178
0.99896216 0.9996567 1.0018226 1.0029743 1.0016172 0.9995775 1.0012927 1.0009047
1.0025563 0.9997199 1.0014379 0.9986766 1.0004256 0.9995054 1.0013742 0.9998712
0.99917996 1.0014776 0.99932766 0.9982211 0.9992783 1.0015765 0.9989153 1.0005639
1.0001721 1.0001508 0.99966913 1.0005789 0.9997552 0.9994875 0.9999043 1.0005476
1.0000795 0.9996851 1.0004294 0.9989671 0.99732614 0.9998364 0.9975068 1.0017514
0.99923635 1.0006485 0.99855584 1.0018126 1.0014837 1.0002518 1.0001981 1.0020874
0.9978598 0.99856246 0.9987429 0.99866515 0.99961674 1.0003558 0.99886686 0.99981713
1.0005693 1.0015354 0.99891764 1.0002575 1.0006804 0.99733496 1.0022291 0.99839485
0.99953485 0.99799514 1.0000312 0.9998367 0.9993329 0.9999474 1.0021896 0.99798393
1.0001249 0.99844927 1.0004439 0.9994529 0.99899036 0.9987522 0.9999448 0.9999218
0.9985614 0.99746865 0.9988211 1.0006939 1.0006481 0.9992628 1.0025401 0.9985219
0.9989832 0.99873114 1.0018346 1.0010812 1.0013115 1.0014057 1.0007056 0.9998242
1.0000108 0.997941 0.9999273 1.0000229 0.9984182 1.0007113 1.0009687 0.9997776
1.0011321 1.0019759 0.99946606 0.99844134 0.99974483 0.999893 1.0023916 0.9997321
0.998472 0.9985111 1.0008366 1.000739 1.0009223 1.0016161 1.0020269 1.0012281
1.001472 1.0000801 0.9993365 0.99929994 1.0016394 1.000012 0.9993129 1.0020514
0.9986498 1.0005585 0.9989753 1.0004501 1.0018479 1.0032448 0.99897546 0.99909157
0.997667 1.0000381 1.0007715 1.0015194 1.0000135 1.0005035 0.9983217 0.9990453
0.9985642 1.0008777 0.9996244 1.0011637 0.99870586 1.000293 0.9995017 0.9987391
0.99790084 0.9983901 0.99996024 1.0009458 1.0007491 0.99908555 1.0021698 0.9990254
1.0011516 0.9999642 0.99954146 1.0007902 0.99948484 1.0001663 0.99815303 0.99973774
0.9997829 1.0002351 1.0009149 1.0010318 1.0004804 1.0031062 0.9997082 0.9982578
0.9990653 0.9992124 0.9984778 0.99896526 0.99970126 0.99915457 1.0000573 1.0004456
1.0012311 0.9989905 1.0008017 1.0000409 0.9999252 1.000696 0.99861914 1.0008457
0.9997211 1.000412 1.0006769 0.9979961 1.001306 1.0003368 0.9988476 0.9991111
0.9976162 0.99981064 0.9993456 1.0006692 1.0020412 0.9974997 1.001868 1.0013301
1.0023099 0.99971175 0.99925953 1.0006393 0.99866176 1.000757 0.9999565 1.0007832
0.9995713 0.9983326 0.9991301 0.99816537 1.0034547 0.99913245 0.99982345 1.0005671
0.9997644 1.0013098 0.9987334 0.9985925 0.99902403 1.0004992 0.999775 0.99818605
1.0001948 0.99876904 1.0011419 0.9996449 0.99875695 1.001806 0.9997288 1.0007513
1.0012572 0.99769473 0.9989334 1.0010102 0.9992981 1.0018055 1.0012617 0.99972403
00000000: 86db 7f3f 5938 803f bb07 803f 58a7 7f3f
00000010: 72d0 7f3f 38c1 7f3f bc90 7f3f 543a 803f
00000020: fcbb 7f3f 80e9 7f3f b93b 803f 7661 803f
00000030: fe34 803f 50e4 7f3f 5c2a 803f a51d 803f
00000040: c453 803f a5ed 7f3f 1e2f 803f 45a9 7f3f
00000050: f20d 803f 96df 7f3f 082d 803f 8ff7 7f3f
00000060: 42ca 7f3f 6b30 803f f0d3 7f3f 6b8b 7f3f
00000070: b4d0 7f3f a933 803f eab8 7f3f 7a12 803f
00000080: a405 803f f104 803f 51ea 7f3f f812 803f
00000090: f5ef 7f3f 6ade 7f3f baf9 7f3f f211 803f
000000a0: 9b02 803f 5deb 7f3f 120e 803f 4fbc 7f3f
000000b0: c450 7f3f 47f5 7f3f 9b5c 7f3f 6439 803f
000000c0: f4cd 7f3f 4015 803f 5ba1 7f3f 653b 803f
000000d0: 9e30 803f 4008 803f 7e06 803f 6644 803f
000000e0: bd73 7f3f caa1 7f3f 9dad 7f3f 85a8 7f3f
000000f0: e2e6 7f3f a90b 803f bdb5 7f3f 04f4 7f3f
00000100: a812 803f 5032 803f 11b9 7f3f 7008 803f
00000110: 4c16 803f 5851 7f3f 0b49 803f ce96 7f3f
00000120: 84e1 7f3f 9c7c 7f3f 0601 803f 4cf5 7f3f
00000130: 48d4 7f3f 8efc 7f3f c047 803f e07b 7f3f
00000140: 1804 803f 5f9a 7f3f 8c0e 803f 25dc 7f3f
00000150: d5bd 7f3f 39ae 7f3f 62fc 7f3f e0fa 7f3f
00000160: b8a1 7f3f 1b5a 7f3f bdb2 7f3f bd16 803f
00000170: 3d15 803f b0cf 7f3f 3c53 803f 229f 7f3f
00000180: 5dbd 7f3f d8ac 7f3f 1e3c 803f 6e23 803f
00000190: fa2a 803f 102e 803f 1f17 803f 7bf4 7f3f
000001a0: 5b00 803f 1079 7f3f 3cfb 7f3f c000 803f
000001b0: 5698 7f3f 4f17 803f be1f 803f 6df1 7f3f
000001c0: 1925 803f bf40 803f 02dd 7f3f da99 7f3f
000001d0: 47ef 7f3f fdf8 7f3f 5e4e 803f 71ee 7f3f
000001e0: dc9b 7f3f 6c9e 7f3f 6a1b 803f 3718 803f
000001f0: 391e 803f f534 803f 6b42 803f 3e28 803f
00000200: 3c30 803f a002 803f 84d4 7f3f 1fd2 7f3f
00000210: b835 803f 6500 803f f8d2 7f3f 3843 803f
00000220: 83a7 7f3f 4d12 803f d8bc 7f3f c00e 803f
00000230: 8d3c 803f 536a 803f dbbc 7f3f 77c4 7f3f
00000240: 1b67 7f3f 4001 803f 4819 803f ca31 803f
00000250: 7100 803f 8010 803f 0392 7f3f 6fc1 7f3f
00000260: e7a1 7f3f c31c 803f 62e7 7f3f 2226 803f
00000270: 30ab 7f3f 9a09 803f 58df 7f3f 5ead 7f3f
00000280: 6e76 7f3f 7e96 7f3f 65fd 7f3f fe1e 803f
00000290: 8c18 803f 12c4 7f3f 1a47 803f 21c0 7f3f
000002a0: bc25 803f a7fd 7f3f f3e1 7f3f e519 803f
000002b0: 3dde 7f3f 7305 803f f586 7f3f d0ee 7f3f
000002c0: c6f1 7f3f b407 803f fb1d 803f cf21 803f
000002d0: be0f 803f c965 803f e0ec 7f3f d38d 7f3f
000002e0: bec2 7f3f 62cc 7f3f 3e9c 7f3f 30bc 7f3f
000002f0: 6cec 7f3f 98c8 7f3f e101 803f 9a0e 803f
00000300: 5728 803f d7bd 7f3f 451a 803f 5701 803f
00000310: 19fb 7f3f ce16 803f 81a5 7f3f b61b 803f
00000320: b9ed 7f3f 800d 803f 2e16 803f ac7c 7f3f
00000330: cc2a 803f 090b 803f 7ab4 7f3f bfc5 7f3f
00000340: c663 7f3f 97f3 7f3f 1dd5 7f3f ee15 803f
00000350: e342 803f 245c 7f3f 363d 803f 962b 803f
00000360: b14b 803f 1ced 7f3f 79cf 7f3f f314 803f
00000370: 4ca8 7f3f ce18 803f 26fd 7f3f aa19 803f
00000380: e8e3 7f3f ba92 7f3f fdc6 7f3f c487 7f3f
00000390: 3471 803f 25c7 7f3f 6ef4 7f3f 9512 803f
000003a0: 8ff0 7f3f eb2a 803f feac 7f3f c2a3 7f3f
000003b0: 0ac0 7f3f 5c10 803f 41f1 7f3f 1f89 7f3f
000003c0: 6206 803f 54af 7f3f 6b25 803f bae8 7f3f
000003d0: 89ae 7f3f 2e3b 803f 3aee 7f3f 9e18 803f
000003e0: 3229 803f ec68 7f3f 19ba 7f3f 1a21 803f
000003f0: 00d2 7f3f 2a3b 803f 5829 803f eaed 7f3f

bn1.bias f4 [256]
-0.00067632715 0.0017518764 0.00088123267 -0.0014789632 -0.00040347135 0.00047014252 2.7660979e-05 0.0017436321
-0.0018344998 -0.0004006462 0.0019008319 0.0024723886 0.001744492 -0.0003587996 0.0013817524 0.0030678126
0.0015087244 -0.00013415489 1.5376427e-05 -0.0009727824 -0.00050408026 -0.0015263137 0.0017858339 0.0006335397
0.0013191984 -0.0006500341 -0.0001738266 -0.0005826179 -0.0003850446 0.0012599754 -0.0012925377 4.019167e-05
0.0006789857 -9.041853e-05 0.0006057842 -0.00013390728 -0.002036614 -0.00210957 0.00079640164 -0.0002442959
-0.00048446067 -0.0013402085 0.00081309053 -0.0011564535 -0.00078901154 -0.0009023966 -0.0005118136 0.0005841855
-0.0004238892 0.0013437765 0.00068220205 -0.0002628037 -0.00041481553 0.00012960934 0.00022002173 0.0007761843
-0.002202482 -0.00054162706 -0.0014769391 -0.0007386288 5.988346e-05 0.00011898292 -0.0021707183 -0.00158124
0.00073245657 0.0016672356 -0.00043119182 4.6205736e-05 0.00064157415 -0.002919144 0.0018735838 -0.00073108193
-0.0011461376 5.1378767e-05 0.00017327958 0.002252255 -0.00045506528 0.00028118805 0.0031314727 -0.00136277
-0.0007284526 -0.0014634179 -0.00030907083 -0.0014143554 -0.0010921794 -0.0013975202 -0.00027834863 0.00037860192
-0.0023235905 -0.0011853692 -0.0009660187 0.0011943143 0.002069598 2.6802969e-05 0.0021407802 -0.0009907788
-0.0009979105 -0.0012208188 0.0026590023 0.0028598006 -0.0003762122 0.0022125454 0.000499254 -0.0008622635
0.000649872 -0.0010600294 0.0011979921 0.0014105032 -0.002232868 0.0012950094 -0.0011407124 -2.7776521e-05
0.0015787293 0.0021253403 0.00034417646 -0.0011513238 -0.001334104 -0.0012552737 -0.00020394567 0.0005418168
-0.00096444704 0.0006847647 0.00083607435 0.0018008603 -0.00011990269 -0.00061222835 0.00010408141 -0.00034114407
0.00090302224 0.0005859763 -0.000628575 -0.001745524 0.0017091192 0.0010041241 -0.0013505507 0.0010439191
-0.00017434097 0.0007457405 0.0002794955 -0.0005671362 0.0005815965 0.0027942352 -8.442596e-05 0.0005864098
-0.0025600814 -0.0007084691 0.0011464008 0.00033150744 -0.00017778281 0.0003739817 -0.0009943162 -0.0024817034
-0.0018710737 0.0010743664 0.0010415162 -5.7507612e-05 -0.00199493 -0.00062687084 0.001786846 0.00037794336
-0.00029308975 -0.0012474534 0.00016084933 0.0015014634 -0.0009757214 -0.0004255295 0.0019624108 -0.000174439
0.0012134798 -0.00031327194 0.0002732326 0.00079620554 0.0016149794 -0.0010727523 -0.0019661067 0.0003449998
0.0006163604 -5.4044067e-06 0.00027401795 0.0017585522 -0.0001703402 -3.456023e-05 -7.631548e-06 -0.0023087114
-0.0019455232 -0.00097048446 -0.0022033115 -0.00024022188 0.0015200116 -0.00031898892 -6.9430476e-05 0.0009390629
0.0010375095 -0.0010177563 0.0012419934 -4.188888e-05 -0.00015202345 -0.00072277145 0.00031111893 0.0007159253
-0.0011373596 0.00095861626 0.0017844604 -0.0010872014 0.0007399202 -0.00021223677 -0.0013582859 -0.0010410432
-0.0026678005 0.00027900928 0.0029924847 0.00021634792 0.00042241742 -0.0008104594 0.0017552797 -0.00010067211
0.0013198581 -0.00166319 -0.00030033785 0.001299907 -0.0006379513 0.0031245728 0.0006797352 -0.00071486225
0.0014049595 -0.00191138 -0.0015013166 -0.0016807877 0.0027832554 0.00025914735 0.0035411483 0.0005508641
-0.00019678118 0.00027833183 -0.0025743349 -0.0024160377 -0.00037060544 -0.001176589 -0.00050393987 -0.0005380585
-0.00036918712 -5.969836e-05 -0.0006411745 -0.00024906854 -0.00014125613 0.002557925 -0.0011509851 -0.00071392755
0.0014152082 -0.0004982238 0.00019040331 0.00085939356 -0.001297246 0.0018468478 -0.00067936885 -0.0012245299
00000000: 8c4b 31ba 389f e53a 8602 673a c5d9 c1ba
00000010: 0289 d3b9 767d f639 8009 e837 968a e43a
00000020: 9973 f0ba d30d d2b9 5625 f93a cc07 223b
00000030: 70a7 e43a 441d bcb9 eb1b b53a 5b0d 493b
00000040: 64c0 c53a eeab 0cb9 a0fc 8037 5202 7fba
00000050: 4124 04ba 970e c8ba a412 ea3a 2114 263a
00000060: f4e8 ac3a 0d67 2aba 3945 36b9 d3ba 18ba
00000070: d0df c9b9 c225 a53a 5e6a a9ba 7a93 2838
00000080: f6fd 313a 149f bdb8 7dcd 1e3a 7669 0cb9
00000090: b778 05bb b640 0abb 9cc5 503a d714 80b9
000000a0: 36ff fdb9 efa9 afba 9525 553a 2494 97ba
000000b0: abd5 4eba d08e 6cba 3b2b 06ba 0624 193a
000000c0: 723d deb9 a821 b03a ced5 323a eac8 89b9
000000d0: 997b d9b9 bee7 0739 a2b5 6639 d978 4b3a
000000e0: 8457 10bb fafb 0dba da95 c1ba 8aa0 41ba
000000f0: 602b 7b38 7886 f938 9c42 0ebb 9c41 cfba
00000100: 5402 403a 2587 da3a 9611 e2b9 08cd 4138
00000110: 502f 283a 1c4f 3fbb 0a93 f53a 14a6 3fba
00000120: ff39 96ba 887f 5738 62b2 3539 929a 133b
00000130: d495 eeb9 6c6c 9339 6539 4d3b f99e b2ba
00000140: a0f5 3eba 28d0 bfba c90a a2b9 e461 b9ba
00000150: 7627 8fba ff2c b7ba 52ef 91b9 177f c639
00000160: 6147 18bb 645e 9bba 6b3c 7dba 8a8a 9c3a
00000170: 18a2 073b f0d6 e037 554c 0c3b 05dd 81ba
00000180: 52cc 82ba e203 a0ba a842 2e3b 7e6b 3b3b
00000190: 593e c5b9 5a00 113b 5ee0 023a 8609 62ba
000001a0: 2c5c 2a3a aff0 8aba f205 9d3a a2e0 b83a
000001b0: 4f55 12bb 4ebd a93a f583 95ba a001 e9b7
000001c0: 5ded ce3a 4b49 0b3b 9572 b439 04e8 96ba
000001d0: 1add aeba ff87 a4ba 40da 55b9 b608 0e3a
000001e0: f2d2 7cba c881 333a 002c 5b3a d80a ec3a
000001f0: 4474 fbb8 f37d 20ba 4846 da38 95db b2b9
00000200: ccb8 6c3a 349c 193a f4c6 24ba 11ca e4ba
00000210: 8604 e03a d09c 833a f604 b1ba 1dd4 883a
00000220: 4ccf 36b9 cc7d 433a 4089 9239 deab 14ba
00000230: 4876 183a 7d1f 373b d80d b1b8 4cb9 193a
00000240: 0ac7 27bb 8eb8 39ba d442 963a 2dce ad39
00000250: 366b 3ab9 f912 c439 b753 82ba 13a4 22bb
00000260: d13e f5ba c1d1 8c3a 7c83 883a 5434 71b8
00000270: 5fbd 02bb 9754 24ba 9a34 ea3a b326 c639
00000280: d7a9 99b9 9781 a3ba aaa9 2839 c0cc c43a
00000290: 8ec7 7fba 9a19 dfb9 ca9b 003b 9de9 36b9
000002a0: a00d 9f3a a63e a4b9 a940 8f39 73b8 503a
000002b0: b7ad d33a 989b 8cba ccd9 00bb 17e1 b439
000002c0: 3f93 213a 8057 b5b6 11aa 8f39 387f e63a
000002d0: 599d 32b9 c4f4 10b8 4009 00b7 c04d 17bb
000002e0: ed00 ffba 1c68 7eba 6f65 10bb 12e4 7bb9
000002f0: 203b c73a f83d a7b9 349b 91b8 722b 763a
00000300: 0bfd 873a 3c66 85ba 62ca a23a d8b1 2fb8
00000310: 7c68 1fb9 5f78 3dba ad1d a339 efac 3b3a
00000320: 7513 95ba a64b 7b3a 8ee4 e93a 6d80 8eba
00000330: 34f7 413a e08b 5eb9 8308 b2ba 9d73 88ba
00000340: 44d6 2ebb fe47 9239 901d 443b 74db 6239
00000350: e877 dd39 0275 54ba 6a11 e63a ed1f d3b8
00000360: 17ff ac3a 65ff d9ba aa76 9db9 a461 aa3a
00000370: 303c 27ba a2c5 4c3b 4230 323a 9865 3bba
00000380: 9e26 b83a 4587 faba d3c7 c4ba e04d dcba
00000390: 4767 363b 2bde 8739 9c12 683b dd67 103a
000003a0: 0c57 4eb9 11ed 9139 2cb6 28bb 6356 1ebb
000003b0: d24d c2b9 c737 9aba d51a 04ba 7f0c 0dba
000003c0: 758f c1b9 a064 7ab8 7e14 28ba 6a95 82b9
000003d0: 271e 14b9 dca2 273b a7dc 96ba de26 3bba
000003e0: 827e b93a 3c9b 02ba 00a7 4739 ed48 613a
000003f0: 5a08 aaba ee11 f23a ac17 32ba 6880 a0ba

bn1.running_mean f4 [256]
-0.09636259 -0.03649075 -0.06561294 -0.026979763 -0.080409594 0.071771935 0.06503352 0.09858094
-0.0864796 0.08137302 -0.09272993 -0.12982453 -0.029958367 0.08619115 -0.017966472 -0.098561265
-0.038778216 0.0194682 -0.062477123 0.0052824933 0.11323467 -0.0829471 -0.08311089 -0.010470921
-0.04889066 0.114533514 0.055329017 -0.100538015 0.08573399 -0.103894666 0.05824255 -0.02830204
0.08689139 -0.11430169 0.035332523 0.030923657 0.059242126 -0.06923525 -0.089665145 -0.0014025439
-0.036231264 -0.035806075 0.09728136 0.042656362 -0.010279499 0.06538705 0.03241062 0.055284824
0.0289708 -0.053439725 0.05200012 -0.10935986 0.10875667 0.099774376 -0.13250814 0.062807456
-0.04995774 0.12324244 -0.0017926116 -0.034251794 0.01603693 0.06908949 0.0044858893 0.0665891
0.13025327 0.059023336 0.011709442 0.021299567 -0.048396207 0.118755504 0.030569455 0.04145123
-0.057962246 -0.037308387 -0.0682026 0.116037175 0.103955515 0.0064561376 -0.066930965 0.04739458
0.08499478 -0.025052032 -0.08348496 0.08546043 -0.07406822 0.09889388 -0.17224383 0.07311337
0.05644885 -0.13107792 0.045262456 -0.09207913 -0.05211 -0.09618321 -0.0355364 0.08198108
0.08394472 0.021311672 0.057181437 0.01686309 -0.056647245 -0.13207355 -0.05532291 0.09855844
0.14577067 0.08258923 0.019085264 -0.041732 -0.084323436 -0.10727054 -0.03357497 -0.08603611
-0.15525165 0.10897204 0.0065004644 0.05529985 -0.1435455 -0.037753392 -0.070920706 0.07101552
-0.008401776 -0.016031072 0.050542343 0.0296984 0.053162783 0.0067326427 -0.017440327 0.039098524
-0.07980479 0.049759444 -0.008616474 0.020560788 -0.069015905 0.098565824 -0.08852693 -0.13552175
0.0448713 0.04830749 -0.04470636 -0.08678871 -0.10419158 0.061088454 0.05208759 -0.10103384
-0.049358375 -0.040925805 0.0686958 -0.09843302 0.08931743 0.038910918 -0.08842012 -0.116643265
-0.07676995 -0.107398815 0.07042898 0.044379003 0.09457399 0.08559693 -0.08973646 -0.03878075
-0.013530428 0.09297639 0.13401598 0.07915381 0.10998811 -0.08312741 -0.09784942 0.0053959433
-0.03621383 0.13239235 -0.07749852 0.10941696 0.12485394 -0.0011172108 -0.051462144 -0.009772301
0.015465403 -0.05245958 -0.057085365 0.034028977 0.06872772 0.006740477 0.1089674 -0.09593405
-0.019501956 -0.11069064 -0.08160417 0.016387416 -0.100680664 0.079647616 -0.04872947 0.07337389
-0.0854678 -0.026225574 0.0568934 -0.088951774 0.03313123 0.103950724 -0.048208117 0.056172
0.035362877 0.030319555 -0.090499625 0.06421684 -0.03328549 0.06972405 -0.07208949 0.020697111
-0.060139857 -0.047254775 0.12341814 0.028313061 -0.0019244347 0.034326512 0.06880569 -0.07284244
0.085574776 -0.051187545 -0.047216866 -0.081763536 0.013187519 -0.0732921 -0.018279102 0.08322803
0.020408638 -0.058340296 0.13565591 -0.064015605 -0.04392917 0.08631988 -0.14357 0.014979776
-0.109060585 0.081543446 -0.10557342 -0.004842676 -0.108381666 -0.08808152 -0.11772716 -0.10956481
0.0015833955 0.07070844 -0.015414062 -0.10091151 -0.09771158 -0.020134432 0.022259634 -0.013140358
-0.0129370745 0.06581258 0.09248089 0.09450015 -0.048400134 0.079673514 -0.011278318 -0.042411596
00000000: c059 c5bd 5377 15bd 1460 86bd aa04 ddbc
00000010: c9ad a4bd 2afd 923d 4b30 853d cee4 c93d
00000020: 371c b1bd e6a6 a63d 31e9 bdbd b9f0 04be
00000030: 406b f5bc fc84 b03d 6c2e 93bc 7dda c9bd
00000040: e8d5 1ebd c67b 9f3c 03e8 7fbd c418 ad3b
00000050: 94e7 e73d 2be0 a9bd 0b36 aabd 3a8e 2bbc
00000060: 9341 48bd 8c90 ea3d aea0 623d e0e6 cdbd
00000070: 4d95 af3d bac6 d4bd bd8f 6e3d aed9 e7bc
00000080: 1df4 b13d 0117 eabd d6b8 103d 9c53 fd3c
00000090: dfa7 723d 36cb 8dbd 5ca2 b7bd 90d5 b7ba
000000a0: 3c67 14bd 64a9 12bd 733b c73d 70b8 2e3d
000000b0: 586b 28bc a5e9 853d 00c1 043d 5772 623d
000000c0: 2c54 ed3c 9de3 5abd 14fe 543d 10f8 dfbd
000000d0: d1bb de3d 8256 cc3d 37b0 07be 32a1 803d
000000e0: 7da0 4cbd 8866 fc3d 10f6 eaba 9c4b 0cbd
000000f0: e15f 833c ca7e 8d3d 5efe 923b de5f 883d
00000100: 1d61 053e 74c2 713d f6d8 3f3c 6e7c ae3c
00000110: 1a3b 46bd 1636 f33d cb6c fa3c c4c8 293d
00000120: d269 6dbd aed0 18bd cead 8bbd e6a4 ed3d
00000130: a1e6 d43d 028e d33b 1a13 89bd d220 423d
00000140: be11 ae3d eb39 cdbc 2afa aabd e105 af3d
00000150: 14b1 97bd e088 ca3d b060 30be 76bc 953d
00000160: e936 673d 4a39 06be 2065 393d fc93 bcbd
00000170: 4c71 55bd b4fb c4bd 9e8e 11bd b2e5 a73d
00000180: 36eb ab3d d195 ae3c 1537 6a3d 7724 8a3c
00000190: f106 68bd 4a3e 07be 479a 62bd 02d9 c93d
000001a0: e844 153e 8b24 a93d b358 9c3c 2cef 2abd
000001b0: c4b1 acbd a8b0 dbbd e885 09bd b333 b0bd
000001c0: 4afa 1ebe bc2c df3d d901 d53b 1882 623d
000001d0: 97fd 12be 4da3 1abd e03e 91bd 9670 913d
000001e0: 9aa7 09bc 9853 83bc 7d05 4f3d 0f4a f33c
000001f0: 38c1 593d 809d dc3b 04df 8ebc c625 203d
00000200: b270 a3bd 8fd0 4b3d 1d2c 0dbc 196f a83c
00000210: 3658 8dbd e1dc c93d 9b4d b5bd 37c6 0abe
00000220: f8ca 373d 13de 453d 041e 37bd 47be b1bd
00000230: 6562 d5bd e337 7a3d cc59 553d d4ea cebd
00000240: 022c 4abd d1a1 27bd 62b0 8c3d 4097 c9bd
00000250: 0fec b63d 0e61 1f3d 9c15 b5bd aae2 eebd
00000260: 9039 9dbd e9f3 dbbd 123d 903d c2c6 353d
00000270: 02b0 c13d 714d af3d c0c7 b7bd 90d8 1ebd
00000280: baae 5dbc 686a be3d 7c3b 093e 651b a23d
00000290: 7241 e13d b43e aabd 4765 c8bd 74d0 b03b
000002a0: f454 14bd dc91 073e 8bb7 9ebd 0016 e03d
000002b0: 6cb3 ff3d 606f 92ba f8c9 52bd 001c 20bc
000002c0: 9a62 7d3c dbdf 56bd 58d2 69bd f861 0b3d
000002d0: 1ec1 8c3d 38df dc3b 4d2a df3d 1279 c4bd
000002e0: 91c2 9fbc c6b1 e2bd 1620 a7bd e73e 863c
000002f0: aa31 cebd 4a1e a33d 8e98 47bd 0d45 963d
00000300: be09 afbd 04d7 d6bc 0e09 693d 592c b6bd
00000310: 9db4 073d 1ee4 d43d e075 45bd 9c14 663d
00000320: aad8 103d b760 f83c de57 b9bd 1e84 833d
00000330: 5e56 08bd 7ccb 8e3d a8a3 93bd fd8c a93c
00000340: 3655 76bd 398e 41bd a6c2 fc3d cbf0 e73c
00000350: 503d fcba f599 0c3d ffe9 8c3d 6b2e 95bd
00000360: d441 af3d 08aa 51bd 7966 41bd a473 a7bd
00000370: 7710 583c 2b1a 96bd 0ebe 95bc 7573 aa3d
00000380: 0430 a73c 3cf6 6ebd 62e9 0a3e 9d1a 83bd
00000390: 13ef 33bd 7ac8 b03d 0404 13be bc6d 753c
000003a0: 285b dfbd 4000 a73d e136 d8bd 50af 9ebb
000003b0: 35f7 ddbd 1564 b4bd f01a f1bd 8463 e0bd
000003c0: f089 cf3a 96cf 903d 438b 7cbc b2aa cebd
000003d0: 021d c8bd f7f0 a4bc d659 b63c a84a 57bc
000003e0: 06f6 53bc bfc8 863d 9f66 bd3d 4b89 c13d
000003f0: 383f 46bd de2b a33d b2c8 38bc c8b7 2dbd

bn1.running_var f4 [256]
0.6259836 0.601181 0.6509963 0.66852814 0.6200406 0.68080264 0.6513399 0.5746324
0.7265394 0.6398655 0.59871787 0.6175661 0.6750057 0.67112917 0.7415873 0.7880645
0.7102592 0.67987275 0.72976965 0.7187072 0.6185732 0.691592 0.6619109 0.6679171
0.7217068 0.6079398 0.63170475 0.68886995 0.69138074 0.66482526 0.62925 0.6622753
0.6032451 0.7777616 0.6592281 0.65024334 0.6718222 0.64385635 0.57128274 0.67000186
0.6598668 0.74300325 0.6809781 0.683406 0.6170594 0.68759817 0.6361499 0.63760453
0.60161763 0.67863667 0.62771297 0.6341508 0.7066306 0.706641 0.6908346 0.69815356
0.6724738 0.6816652 0.7119217 0.63602054 0.66688764 0.6244265 0.71078086 0.671039
0.68359685 0.693806 0.6680399 0.66501725 0.62703854 0.6588593 0.7375225 0.6052913
0.6655592 0.66353226 0.68483025 0.6336914 0.70368123 0.71279395 0.73330575 0.6419555
0.68844765 0.7290415 0.6978797 0.6659013 0.6452404 0.6784579 0.71171486 0.7520526
0.68020445 0.6467438 0.73144555 0.69755304 0.6348581 0.6737553 0.6934162 0.7014767
0.7158126 0.6712649 0.64924455 0.6746118 0.78173923 0.662145 0.70716345 0.69860125
0.74361384 0.666025 0.7039402 0.6227827 0.70652586 0.6695498 0.6289746 0.6646588
0.6913674 0.69043857 0.644215 0.6954239 0.65555227 0.62988424 0.6212744 0.6774223
0.6504417 0.6459485 0.6478267 0.73782194 0.70303196 0.6219662 0.68546486 0.64124525
0.6542603 0.644933 0.71979916 0.71113926 0.67029 0.67076576 0.6864379 0.65098
0.64371884 0.6408337 0.61589193 0.64149106 0.65385324 0.67742944 0.6666263 0.61041826
0.6835555 0.6237504 0.677672 0.72129536 0.69611436 0.6428901 0.6003971 0.6305748
0.7260264 0.60783124 0.6098836 0.6470674 0.6305804 0.64794147 0.65985674 0.65512663
0.632255 0.71117675 0.69586134 0.65050066 0.7410861 0.6657414 0.6742715 0.68111825
0.6462324 0.66827 0.73940355 0.65503013 0.6545817 0.6749471 0.62756085 0.63746846
0.64030355 0.6874126 0.63847625 0.58474284 0.6682989 0.64904886 0.6519455 0.6429825
0.6891866 0.70886946 0.72487766 0.7344533 0.6747452 0.71288085 0.70794153 0.6878848
0.6910439 0.6005938 0.71078885 0.68055296 0.6370082 0.6163558 0.66637766 0.6274687
0.6433276 0.667827 0.6552677 0.7122747 0.6014315 0.66111517 0.6456547 0.72644
0.7078308 0.6293025 0.6317417 0.6482457 0.78150356 0.63022226 0.67382747 0.68110424
0.6881685 0.7725673 0.63273305 0.61872363 0.6901489 0.7214292 0.6651904 0.6923665
0.6802133 0.6390497 0.6590595 0.60098076 0.7164647 0.5940218 0.64700425 0.60107815
0.7468059 0.68379736 0.6549547 0.56409127 0.6234908 0.6862656 0.6409856 0.642384
0.6494988 0.632215 0.6630455 0.63532573 0.7515212 0.63270986 0.7145575 0.72011364
0.61239785 0.7772076 0.5889305 0.6175853 0.67775834 0.7138534 0.682862 0.63217765
00000000: 7640 203f ffe6 193f b2a7 263f a924 2b3f
00000010: fbba 1e3f 1549 2e3f 36be 263f 1c1b 133f
00000020: 7cfe 393f 3ace 233f 9345 193f d018 1e3f
00000030: 2ccd 2c3f 1fcf 2b3f aad8 3d3f 98be 493f
00000040: 8cd3 353f 240c 2e3f 2fd2 3a3f 32fd 373f
00000050: d05a 1e3f 2c0c 313f fe72 293f 9dfc 2a3f
00000060: c7c1 383f f1a1 1b3f 67b7 213f c859 303f
00000070: 54fe 303f fd31 2a3f 8716 213f e08a 293f
00000080: 456e 1a3f 621b 473f 2cc3 283f 5976 263f
00000090: 8afc 2b3f c5d3 243f 963f 123f 3e85 2b3f
000000a0: 08ed 283f 7635 3e3f 9554 2e3f b2f3 2e3f
000000b0: 9bf7 1d3f 6f06 303f b8da 223f 0d3a 233f
000000c0: 9d03 1a3f 22bb 2d3f ccb1 203f b557 223f
000000d0: bee5 343f 6de6 343f 89da 303f 31ba 323f
000000e0: 3e27 2c3f 9c81 2e3f 8040 363f 3ed2 223f
000000f0: 26b9 2a3f 6ada 1f3f bcf5 353f 36c9 2b3f
00000100: 3400 2f3f 459d 313f aa04 2b3f 923e 2a3f
00000110: 9985 203f 01ab 283f 46ce 3c3f 5ff4 1a3f
00000120: 1662 2a3f 40dd 293f 0951 2f3f 9939 223f
00000130: 7424 343f aa79 363f edb9 3b3f 3257 243f
00000140: 1b3e 303f 77a2 3a3f 3ea8 323f 8278 2a3f
00000150: 7a2e 253f 6baf 2d3f f232 363f 8586 403f
00000160: e121 2e3f 0091 253f 0440 3b3f d692 323f
00000170: 0f86 223f 3a7b 2c3f b983 313f fa93 333f
00000180: 7f3f 373f 04d8 2b3f e434 263f 5cb3 2c3f
00000190: 1020 483f 5682 293f aa08 353f 88d7 323f
000001a0: 7a5d 3e3f 9d80 2a3f 6d35 343f b06e 1f3f
000001b0: e1de 343f 9e67 2b3f 7b04 213f 1427 2a3f
000001c0: 74fd 303f 95c0 303f 46eb 243f 4d07 323f
000001d0: 46d2 273f 1840 213f d70b 1f3f 8c6b 2d3f
000001e0: 5983 263f e25c 253f f8d7 253f e6e1 3c3f
000001f0: e7f9 333f 2d39 1f3f a07a 2f3f a628 243f
00000200: 9a7d 273f 541a 253f c244 383f 390d 363f
00000210: 2098 2b3f 4eb7 2b3f 65ba 2f3f a0a6 263f
00000220: c2ca 243f ad0d 243f 18ab 1d3f c238 243f
00000230: ed62 273f 046c 2d3f 05a8 2a3f 5f44 1c3f
00000240: 7efd 2e3f 1bae 1f3f ea7b 2d3f d0a6 383f
00000250: 8d34 323f 7294 243f a0b3 193f 5a6d 213f
00000260: dedc 393f d49a 1b3f 5521 1c3f 36a6 253f
00000270: b86d 213f 7edf 253f 5fec 283f 61b6 273f
00000280: 77db 213f ae0f 363f f823 323f 3687 263f
00000290: d2b7 3d3f 076e 2a3f 0f9d 2c3f c45d 2e3f
000002a0: 7d6f 253f be13 2b3f 8d49 3d3f 0eb0 273f
000002b0: ab92 273f 55c9 2c3f d4a7 203f 2231 233f
000002c0: efea 233f 46fa 2f3f 2e73 233f b5b1 153f
000002d0: a315 2b3f 1128 263f e6e5 263f 809a 243f
000002e0: 886e 303f 7878 353f 9591 393f 2205 3c3f
000002f0: 1abc 2c3f 5c7f 363f a83b 353f 3819 303f
00000300: 41e8 303f 84c0 193f 42f6 353f b838 2e3f
00000310: f812 233f 7ec9 1d3f ba97 2a3f caa1 203f
00000320: 1eb1 243f b6f6 2a3f a0bf 273f a257 363f
00000330: 6af7 193f d83e 293f a049 253f f9f7 393f
00000340: 6634 353f f819 213f d3b9 213f 6ef3 253f
00000350: 9e10 483f 3f56 213f f57f 2c3f d95c 2e3f
00000360: d02b 303f f8c6 453f cbfa 213f ac64 1e3f
00000370: 99ad 303f 96af 383f eb49 2a3f ee3e 313f
00000380: 7522 2e3f c398 233f 20b8 283f e0d9 193f
00000390: 3b6a 373f d011 183f 12a2 253f 42e0 193f
000003a0: ac2e 3f3f 580d 2f3f 1cab 273f 4968 103f
000003b0: 189d 1f3f 1aaf 2f3f a217 243f 4773 243f
000003c0: 8e45 263f d8d8 213f 5abd 293f b5a4 223f
000003d0: b263 403f 46f9 213f 3eed 363f 5e59 383f
000003e0: 1bc6 1c3f 14f7 463f 26c4 163f 121a 1e3f
000003f0: 9281 2d3f 19bf 363f 0bd0 2e3f 65d6 213f

fc2.weight f4 [128, 256]
0.011100624 -0.05190806 -0.0010430677 0.03011716 -0.009924592 0.014501018 0.023978816 0.042562004
0.035759956 -0.014500465 -0.038465068 -0.052628376 0.03909388 -0.047251888 -0.05665595 -0.017246839
0.020574046 0.0591156 0.052332554 0.025409115 0.042365875 0.0268814 0.014150505 0.007580046
0.016137196 -0.022952802 -0.044253603 -0.02340192 0.00086573116 0.017851045 0.0034820943 0.059429992
-0.0033981756 -0.029845433 0.022811871 -0.028594602 0.0065770033 0.03825985 0.056241643 -0.027447563
-0.04425065 0.023263307 0.043971743 -0.026908554 0.05391742 -0.017430868 0.028719302 0.04054477
0.034723926 -0.061856657 -0.028763402 -0.029679485 -0.0018418415 0.008052535 -0.056277893 -0.05527884
0.062363192 -0.04338338 0.007330074 0.025119506 0.03549813 -0.038317498 0.051647477 -0.050018042
-0.02793975 0.01232806 0.045728926 -0.059365064 0.056301396 -0.018174145 0.017285723 -0.055974133
-0.024367701 0.044945505 -0.041481245 -0.0377947 -0.026816374 0.05350915 -0.020280233 0.047627572
0.019181766 -0.007965265 -0.05851887 -0.029203948 -0.03465598 0.04475926 -0.026333528 -0.006718242
0.032702643 -0.021126466 -0.058195993 0.023168392 0.052115455 0.047375865 -0.035084505 -0.054279465
0.004014699 -0.010373977 -0.013344739 -0.042647406 -0.0519952 0.014141772 -0.0046363096 0.052792847
-0.057431735 -0.047979992 -0.015577415 0.030807596 -0.001757192 -0.027023375 0.043386675 0.007789329
0.0047829044 0.02960618 0.0250473 -0.027220821 0.0027271663 0.003160595 0.047210105 0.059112374
-0.007939735 -0.04243801 0.033058956 -0.04796935 0.058470532 0.056709472 0.050915677 -0.0051797763
0.039340783 0.019898044 -0.045904472 -0.012999376 0.040261704 -0.056854755 0.031247765 0.0131467115
-0.02744199 0.02336086 -0.026866995 0.033948913 0.016761696 0.05513421 0.051139873 -0.057540406
0.028787922 0.04658769 -0.03695408 0.0028048065 0.047838908 0.032961484 0.06284298 -0.010664986
0.0023698625 -0.040000558 -0.020890264 0.0016227289 -0.060290277 0.0343638 0.0010334807 -0.03477058
0.0576241 0.034954015 -0.05311305 -0.0009467831 -0.005666175 0.04535427 -0.040703822 0.021980273
-0.057117086 0.061284658 0.03328982 0.0010974954 0.0013879942 0.019793812 0.023107095 -0.004157205
-0.03782256 0.0119036175 -0.039604016 0.024074642 0.01987024 0.05837794 0.005682395 -0.032268565
-0.05910914 -0.029090023 -0.031501126 0.053463217 0.046501182 0.031653553 -0.0036396002 0.06232053
-0.057487722 -0.048524063 -0.05176753 0.03295097 0.0050394787 0.040520754 0.055375416 -0.010113416
-0.017142776 -0.046635754 0.008812399 -0.03965373 -0.055560976 -0.057105847 -0.00030109915 0.050790444
-0.012009303 0.048175305 -0.036650304 -0.053980775 0.05502129 -0.006411296 -0.005816811 0.010702137
0.01868262 -0.00888793 0.01636483 -0.04496263 -0.014454803 -0.039319724 -0.046871994 0.059122067
0.011339904 0.029942708 0.0106302835 -0.014329207 -0.0073368037 0.03031952 -0.05261217 0.0059441742
-0.048831858 0.021968026 -0.0069954284 0.013613596 -0.05015303 -0.032597344 0.014921421 0.044758093
0.027604695 -0.05044641 -0.06010966 -0.014393463 -0.029025478 0.02748219 0.054791648 -0.042609565
-0.0042589833 0.04507195 -0.00667951 -0.021898339 -0.0560234 0.003525661 -0.031039929 0.011527288
00000000: 64df 353c 8c9d 54bd 8bb7 88ba 43b8 f63c
00000010: c29a 22bc ae95 6d3c 396f c43c 7f55 2e3d
00000020: 0879 123d 5c93 6dbc 8c8d 1dbd da90 57bd
00000030: e820 203d 328b 41bd 1210 68bd 3e49 8dbc
00000040: e78a a83c 3323 723d a95a 563d c726 d03c
00000050: d787 2d3d 6236 dc3c 85d7 673c 0962 f83b
00000060: 2732 843c 8407 bcbc 4443 35bd 62b5 bfbc
00000070: 3cf2 623a 5b3c 923c d933 643b dd6c 733d
00000080: edb3 5ebb 697e f4bc f6df ba3c 3a3f eabc
00000090: e783 d73b 5cb6 1c3d a35d 663d b6d9 e0bc
000000a0: 2b40 35bd b192 be3c b71b 343d 546f dcbc
000000b0: 83d8 5c3d 2ecb 8ebc be44 eb3c 4612 263d
000000c0: ad3a 0e3d 685d 7dbd 3aa1 ebbc 6422 f3bc
000000d0: f269 f1ba c8ee 033c a683 66bd 116c 62bd
000000e0: 8c70 7f3d c5b2 31bd 1e31 f03b 6cc7 cd3c
000000f0: 7d66 113d cff2 1cbd 4e8c 533d b8df 4cbd
00000100: e7e1 e4bc a2fb 493c 414e 3b3d c828 73bd
00000110: 4b9c 663d f2e1 94bc ca9a 8d3c 2245 65bd
00000120: c69e c7bc c718 383d 3de8 29bd 9ece 1abd
00000130: 03ae dbbc 692c 5b3d bb22 a6bc 2115 433d
00000140: 1423 9d3c be80 02bc 7cb1 6fbd 1e3d efbc
00000150: 6ef3 0dbd 7c55 373d 69b9 d7bc b324 dcbb
00000160: 35f3 053d 6911 adbc ec5e 6ebd a4cb bd3c
00000170: 0477 553d 320d 423d c5b4 0fbd 2554 5ebd
00000180: bc8d 833b 9df7 29bc e4a3 5abc 0caf 2ebd
00000190: ebf8 54bd e4b2 673c 2fec 97bb 503d 583d
000001a0: 8a3d 6bbd ab86 44bd 6a38 7fbc 3660 fc3c
000001b0: 9451 e6ba 2060 ddbc 3ab6 313d a13d ff3b
000001c0: e9b9 9c3b a988 f23c ff2f cd3c 33fe debc
000001d0: 42ba 323b fc21 4f3b 625f 413d d11f 723d
000001e0: aa15 02bc 7bd3 2dbd d468 073d 827b 44bd
000001f0: cc7e 6f3d 3148 683d f58c 503d 1dbb a9bb
00000200: cd23 213d 3901 a33c 5406 3cbd 56fb 54bc
00000210: 75e9 243d 88e0 68bd 50fb ff3c 4e65 573c
00000220: 06ce e0bc 465f bf3c 2c18 dcbc 040e 0b3d
00000230: d34f 893c 69d4 613d 0b78 513d 7daf 6bbd
00000240: a6d4 eb3c bcd2 3e3d 295d 17bd d8d0 373b
00000250: bbf2 433d 9f02 073d d2b3 803d 32bc 2ebc
00000260: b24f 1b3b a0d7 23bd 0f22 abbc bfb1 d43a
00000270: f0f2 76bd 0ec1 0c3d dc75 873a 986b 0ebd
00000280: 4007 6c3d f12b 0f3d 128d 59bd 8a31 78ba
00000290: 52ab b9bb 66c5 393d 0db9 26bd f90f b43c
000002a0: 9bf3 69bd 9f05 7b3d e85a 083d d6d9 8f3a
000002b0: 5bed b53a a226 a23c 174b bd3c 2a39 88bb
000002c0: d4eb 1abd 6407 433c d237 22bd 2f38 c53c
000002d0: eac6 a23c b51d 6f3d 6233 ba3b 0b2c 04bd
000002e0: 6d1c 72bd 334e eebc 5307 01bd 3ffc 5a3d
000002f0: 0678 3e3d 28a7 013d 5c86 6ebb d043 7f3d
00000300: 3f78 6bbd 2bc1 46bd 310a 54bd 99f7 063d
00000310: 3622 a53b 17f9 253d 55d1 623d beb2 25bc
00000320: 026f 8cbc 2205 3fbd e161 103c f36b 22bd
00000330: e893 63bd d2e7 69bd d8dc 9db9 a409 503d
00000340: abc2 44bc 7853 453d a11e 16bd f21a 5dbd
00000350: 015e 613d d915 d2bb f39a bebb 0458 2f3c
00000360: 4b0c 993c ae9e 11bc 890f 863c bc2a 38bd
00000370: d7d3 6cbc b80d 21bd d9fc 3fbd fb29 723d
00000380: 01cb 393c 694a f53c a42a 2e3c 0dc5 6abc
00000390: 9269 f0bb a460 f83c dc7f 57bd 59c7 c23b
000003a0: ea03 48bd 4af6 b33c e839 e5bb 8f0b 5f3c
000003b0: 436d 4dbd cb84 05bd fa78 743c 4354 373d
000003c0: 3e23 e23c e5a0 4ebd 8c35 76bd 8fd2 6bbc
000003d0: d7c6 edbc 5422 e13c 356d 603d 5e87 2ebd
000003e0: f18e 8bbb 5d9d 383d cbdf dabb 2564 b3bc
000003f0: cb78 65bd c70e 673b 7347 febc f3dc 3c3c

fc2.bias f4 [128]
0.00012293816 0.03128109 -0.050800074 0.029363155 0.023216322 0.022670323 -0.019343328 0.056583762
-0.055519115 0.029060587 0.0075684777 -0.01267622 0.043631855 -0.0026301583 0.001412334 -0.0035677827
-0.006385949 -0.021376338 -0.039599247 0.031866547 0.054860163 0.012117211 -0.01865641 -0.029863056
-0.0235324 0.030765258 -0.00013224801 0.03760086 0.028985467 -0.012446686 0.05568884 -0.012943064
-0.051449977 -0.020608647 0.008232252 -0.050998613 0.004132739 -0.022493681 0.04982805 -0.043249644
0.05522061 0.030020017 4.64646e-05 0.007436837 -0.0044892267 0.014724412 -0.021724992 0.025309049
0.019804498 -0.05636134 0.027822671 0.029359732 0.0522909 0.019276392 0.021623392 -0.012569342
-0.042503428 0.041603453 -0.021567408 0.0013903808 0.0041034888 0.020574674 0.007623491 -0.029459812
0.046403125 -0.000103395985 0.00016369924 0.045257974 0.05328072 -0.047128733 0.014086527 0.023450792
0.030698251 0.0025021571 9.573348e-05 0.0028160834 -0.03898907 0.033522636 0.002547893 0.041887358
0.052693978 0.05221364 -0.028259728 0.022735246 0.05096717 0.00018278242 0.04060866 0.05192648
0.0495542 -0.0078887995 -9.8111566e-05 -0.00022796624 0.034620136 -0.013373668 -0.02932825 -0.024144465
0.024126856 -0.03589081 0.05351405 -0.039435536 0.014310468 0.02694671 0.00011177708 0.055529103
0.0023614014 -0.0063837105 0.031647146 0.025348328 -0.000104572304 0.015844308 0.04401456 -0.024651488
0.005981679 -8.9751564e-05 -0.009731971 -0.004410319 0.04905138 -0.021080943 0.038354654 0.032025773
-0.042890795 -0.00031246242 0.04124332 -0.022198865 0.008634105 3.653488e-05 0.035450254 -0.05161737
00000000: f6e8 0039 9a20 003d bd13 50bd 008b f03c
00000010: 2830 be3c 1db7 b93c e675 9ebc 60c4 673d
00000020: 0368 63bd 7810 ee3c fe00 f83b ecaf 4fbc
00000030: 51b7 323d bc5e 2cbb 111e b93a 76d1 69bb
00000040: 3941 d1bb 6e1d afbc d232 22bd 7f86 023d
00000050: 0db5 603d 4487 463c 54d5 98bc 5ea3 f4bc
00000060: 05c7 c0bc 6c07 fc3c 0eac 0ab9 5c03 1a3d
00000070: ee72 ed3c 2fed 4bbc fb19 643d 250f 54bc
00000080: 36bd 52bd 77d3 a8bc 91e0 063c ece3 50bd
00000090: ed6b 873b ab44 b8bc 7f18 4c3d 8a26 31bd
000000a0: 022f 623d 8aec f53c fce2 4238 b6b0 f33b
000000b0: 5d1a 93bb a93e 713c 9cf8 b1bc ec54 cf3c
000000c0: 0b3d a23c 26db 66bd 5fec e33c d283 f03c
000000d0: fc2e 563d 86e9 9d3c 8a23 b13c a4ef 4dbc
000000e0: 1318 2ebd 6268 2a3d 22ae b0bc 703d b63a
000000f0: 8f76 863b 388c a83c 7ace f93b b455 f1bc
00000100: 3411 3e3d 4cd6 d8b8 aea6 2b39 6d60 393d
00000110: e23c 5a3d 0f0a 41bd 2dcb 663c e01b c03c
00000120: e67a fb3c 3bfb 233b 85c4 c838 0a8e 383b
00000130: 01b3 1fbd 084f 093d 8dfa 263b 1492 2b3d
00000140: a4d5 573d f8dd 553d f280 e7bc 443f ba3c
00000150: f4c2 503d 48a9 3f39 4455 263d dcb0 543d
00000160: 58f9 4a3d 0640 01bc 3fc1 cdb8 390a 6fb9
00000170: d8cd 0d3d 3b1d 5bbc cc41 f0bc 9dca c5bc
00000180: afa5 c53c 3e02 13bd 8c31 5b3d 2887 21bd
00000190: 7476 6a3c 59bf dc3c dd69 ea38 7c72 633d
000001a0: bec1 1a3b 722e d1bb 70a0 013d 4ca7 cf3c
000001b0: d44d dbb8 eccb 813c 9c48 343d ebf1 c9bc
000001c0: f601 c43b 0139 bcb8 d872 1fbc 7084 90bb
000001d0: 1aea 483d f1b1 acbc c519 1d3d 752d 033d
000001e0: 42ae 2fbd ffd1 a3b9 c1ee 283d 65da b5bc
000001f0: 1076 0d3c 073d 1938 4934 113d bc6c 53bd

bn2.weight f4 [128]
0.9991392 1.0021822 1.000614 0.999611 1.0009989 0.9974918 1.0002935 0.99977785
0.99904305 0.99902135 1.0016519 0.99882835 0.9976422 1.0007755 0.9990816 1.0007066
1.0026352 0.99818707 1.0011257 1.0009962 0.99802846 0.9994604 1.0006651 1.0002451
1.0003351 0.9992427 0.9997991 1.0006242 0.999983 1.0014541 0.99923897 1.0006554
1.0016223 0.9989174 0.99998486 0.9976364 1.0002506 0.99866474 1.0005138 1.0006497
1.0004281 0.99948317 0.99983746 0.9979305 1.0012075 1.001739 0.9992628 0.9981845
0.9997233 1.0013317 1.0004727 0.9979659 0.99848723 1.0000783 0.9993141 1.0002329
1.0003906 1.0004268 1.0019932 1.0001966 0.99894637 1.0010219 0.9992825 0.99903536
0.9987101 1.000993 0.99866045 0.99990225 0.9992938 0.99897915 0.9996461 0.999891
1.0011612 1.0008783 0.9985883 1.0003777 1.0019586 0.9994997 1.000971 0.9998196
1.0002254 0.9990719 0.99877554 1.0001231 1.0001715 0.9976102 0.99819595 0.99747306
1.0002149 0.9985976 0.9974792 0.9984637 0.9994742 0.9994828 0.9995955 1.0004803
1.0010524 1.0017345 1.0001292 1.0007308 1.0007375 1.0003119 1.0034287 0.9998088
0.9987626 1.0008919 1.0006629 1.0018656 0.9981077 1.0002639 0.9999032 0.9998925
0.99964815 0.99877775 1.0004612 1.0002098 0.99963874 0.99699557 0.99772274 1.001206
1.0016831 0.99867356 1.0020946 1.0007887 0.9983011 0.99931735 1.0003355 1.0013793
00000000: 96c7 7f3f 8247 803f 1f14 803f 82e6 7f3f
00000010: bb20 803f 9f5b 7f3f 9e09 803f 71f1 7f3f
00000020: 49c1 7f3f ddbf 7f3f 2136 803f 37b3 7f3f
00000030: 7b65 7f3f 6919 803f d0c3 7f3f 2717 803f
00000040: 5a56 803f 3089 7f3f e324 803f a520 803f
00000050: cb7e 7f3f a3dc 7f3f cb15 803f 0808 803f
00000060: fb0a 803f 5fce 7f3f d5f2 7f3f 7414 803f
00000070: e3fe 7f3f a62f 803f 20ce 7f3f 7a15 803f
00000080: 2935 803f 0db9 7f3f 02ff 7f3f 1965 7f3f
00000090: 3608 803f 7ea8 7f3f d610 803f 4a15 803f
000000a0: 070e 803f 21de 7f3f 59f5 7f3f 6078 7f3f
000000b0: 9127 803f fc38 803f b0cf 7f3f 0589 7f3f
000000c0: deed 7f3f a32b 803f 7d0f 803f b17a 7f3f
000000d0: dc9c 7f3f 9102 803f 0dd3 7f3f a207 803f
000000e0: cd0c 803f fc0d 803f 5041 803f 7106 803f
000000f0: f3ba 7f3f 7c21 803f fad0 7f3f c8c0 7f3f
00000100: 77ab 7f3f 8a20 803f 36a8 7f3f 98f9 7f3f
00000110: b8d1 7f3f 19bd 7f3f cfe8 7f3f dbf8 7f3f
00000120: 0d26 803f c81c 803f 7ca3 7f3f 600c 803f
00000130: 2e40 803f 36df 7f3f d11f 803f 2df4 7f3f
00000140: 6307 803f 2dc3 7f3f c1af 7f3f 0904 803f
00000150: 9f05 803f 6263 7f3f c589 7f3f 655a 7f3f
00000160: 0b07 803f 18a4 7f3f cc5a 7f3f 519b 7f3f
00000170: 8bdd 7f3f 1bde 7f3f 7ee5 7f3f bd0f 803f
00000180: 7c22 803f d638 803f 3c04 803f f217 803f
00000190: 2b18 803f 380a 803f 5a70 803f 78f3 7f3f
000001a0: e8ae 7f3f 3a1d 803f b915 803f 223d 803f
000001b0: fc83 7f3f a608 803f a8f9 7f3f f4f8 7f3f
000001c0: f1e8 7f3f e6af 7f3f 1d0f 803f e006 803f
000001d0: 53e8 7f3f 1a3b 7f3f c26a 7f3f 8527 803f
000001e0: 2737 803f 12a9 7f3f a344 803f d819 803f
000001f0: a990 7f3f 43d3 7f3f fe0a 803f 322d 803f
