tryst/model_round_3.pth (torch, 193715 bytes, 19 tensors)

fc1.weight f4 [256, 13]
-0.098409176 -0.21000445 -0.16968185 0.03646745 -0.012614793 -0.019590642 -0.018411217 0.14995316
-0.09968232 -0.2549142 -0.1800199 -0.16617385 -0.03352207 -0.11374715 -0.12116146 -0.12252717
-0.039806873 -0.045155443 -0.17354561 -0.10495243 -0.12991859 -0.119538486 0.062290512 -0.023955908
0.252614 0.07975539 -0.16060928 0.15495232 0.18200108 -0.26170754 0.0039500324 -0.1624404
0.010956729 0.159067 -0.049927358 0.22187844 -0.17072265 -0.07344475 0.051285855 -0.21875842
-0.027706496 0.27542132 -0.112839654 0.0594907 0.21259998 0.1687086 -0.09902157 0.27317432
0.12219838 0.23005313 0.22213122 -0.21245497 0.13770321 0.053074524 -0.096163765 0.023143513
0.2226423 -0.005919848 0.18483005 0.1495183 0.1288687 -0.11879256 -0.06735192 -0.21291387
-0.074098736 -0.015312852 -0.25941938 -0.1528042 -0.17659853 -0.15722342 0.25284335 -0.24246943
-0.20121743 0.07207291 -0.24163279 0.1100692 0.16523254 -0.02005874 0.1462143 -0.11454824
0.15527442 0.16973872 -0.27289724 -0.029629037 0.05015655 -0.104079306 -0.070433505 -0.05387734
0.24648692 -0.17046583 0.2756181 -0.017825916 -0.010138089 -0.11816782 0.112105176 -0.04260707
0.045189947 -0.17101046 -0.09136097 0.024986397 0.032348864 0.18426326 0.0019202254 -0.102333724
0.114780515 0.0059323446 -0.04979571 0.251089 0.15159544 -0.25489536 -0.26611784 0.05136482
-0.15336795 -0.23658526 0.1154153 -0.22626683 -0.14944704 -0.11951826 0.0732828 0.0036191514
0.26820353 -0.16324994 -0.16452378 -0.104906395 0.041937873 -0.025174057 0.22559267 0.05134861
0.23739947 -0.005860962 -0.15751934 -0.02181288 0.047157325 0.23649527 0.09435752 0.093545616
-0.01842304 0.074957855 -0.11168555 0.0046926113 0.03468788 -0.089331105 -0.12403479 0.11458998
-0.010947235 0.21583998 -0.12859464 0.2135809 0.1438917 -0.011353209 -0.2393646 -0.06679591
0.14194886 0.23260058 -0.1561557 -0.0143604 -0.20082614 0.040297393 -0.0060475487 0.1277258
-0.1458107 -0.20833214 0.06279044 -0.27512738 0.16351981 0.0023410718 0.26405495 0.14734973
0.23457086 0.25538287 -0.068674184 0.22224718 -0.1385757 0.027285328 0.07933863 -0.112777725
-0.19345641 0.20199037 0.19936322 0.003370385 -0.0003655418 -0.007298235 0.012169385 0.23531029
-0.004400764 -0.22572538 -0.2492808 -0.22260013 0.25414842 -0.09398629 -0.13169113 0.009805482
0.2154724 0.021802403 0.27060705 -0.2446143 0.19536702 0.15407449 -0.11411488 -0.180806
-0.24002835 0.181209 0.23199566 -0.124008775 -0.006559458 0.19701156 0.011488677 0.08847558
-0.21712252 -0.2392078 0.08421899 0.24738362 0.20790552 0.11031178 -0.26563373 -0.16923058
-0.020636005 -0.26483485 0.122434236 -0.02168766 -0.24085137 -0.2692716 0.028935611 0.25516558
-0.024841398 0.23413925 0.26811045 0.1949009 0.08202195 0.017017763 0.15843718 -0.18661311
-0.007963977 -0.22381893 0.26230726 0.26150224 -0.119111195 0.19377193 -0.060547672 0.07680253
-0.18959041 -0.23270983 0.11718579 -0.049919385 -0.13988392 -0.24206014 0.034294523 0.059185565
0.1425148 0.11840936 -0.113223925 0.12175132 0.12808977 0.044388607 0.24716276 -0.0056545893
00000000: c08a c9bd 680b 57be 14c1 2dbe e55e 153d
00000010: 47ae 4ebc 8e7c a0bc 1fd3 96bc 528d 193e
00000020: 3f26 ccbd 1d84 82be 2357 38be 7a29 2abe
00000030: 704e 09bd 44f4 e8bd 8023 f8bd 86ef fabd
00000040: 880c 23bd eaf4 38bd f1b5 31be 4df1 d6bd
00000050: 6109 05be 98d0 f4bd 5624 7f3d 2e3f c4bc
00000060: 9f56 813e cb56 a33d c276 24be d2ab 1e3e
00000070: 7e5e 3a3e 88fe 85be 466f 813b c756 26be
00000080: da83 333c 76e2 223e a180 4cbd 1a34 633e
00000090: ebd1 2ebe 336a 96bd 1e11 523d 3502 60be
000000a0: bcf8 e2bc 0604 8d3e 7a18 e7bd 85ac 733d
000000b0: cfb3 593e f2c1 2c3e d2cb cabd 81dd 8b3e
000000c0: 2543 fa3d 0c93 6b3e 5e76 633e cc8d 59be
000000d0: 1202 0d3e ac64 593d 82f1 c4bd 7797 bd3c
000000e0: 58fc 633e 49fb c1bb 1744 3d3e 531b 193e
000000f0: 28f6 033e 8449 f3bd ceef 89bd 1806 5abe
00000100: 14c1 97bd c2e2 7abc 9ed2 84be b478 1cbe
00000110: 3fd6 34be 2dff 20be af74 813e e849 78be
00000120: f10b 4ebe f69a 933d 966e 77be f66b e13d
00000130: b832 293e 3a52 a4bc 34b9 153e 4598 eabd
00000140: 4200 1f3e fdcf 2d3e 30b9 8bbe 98b8 f2bc
00000150: f470 4d3d 8827 d5bd 713f 90bd 7cae 5cbd
00000160: 1167 7c3e 988e 2ebe d11d 8d3e a807 92bc
00000170: 3a1a 26bc f801 f2bd 6697 e53d c084 2ebd
00000180: 1819 393d 5e1d 2fbe 761b bbbd 46b0 cc3c
00000190: 3e80 043d 82af 3c3e 13b0 fb3a 5894 d1bd
000001a0: 0c12 eb3d 1d64 c23b 96f6 4bbd bd8e 803e
000001b0: d63b 1b3e a581 82be 9940 88be eb63 523d
000001c0: 7d0c 1dbe 6843 72be db5e ec3d 7eb2 67be
000001d0: a508 19be fdc5 f4bd 4b15 963d 492f 6d3b
000001e0: f951 893e fe2a 27be ec78 28be 2ad9 d6bd
000001f0: 0cc7 2b3d d339 cebc c401 673e ec52 523d
00000200: d918 733e 500d c0bb c04c 21be edb0 b2bc
00000210: 0a28 413d d12b 723e 843e c13d d894 bf3d
00000220: eaeb 96bc 8183 993d 65bb e4bd 7ac4 993b
00000230: e114 0e3d 3af3 b6bd f405 febd 27ae ea3d
00000240: 085c 33bc 2805 5d3e 50ae 03be f4b4 5a3e
00000250: 5958 133e cf02 3abc fe1b 75be 4bcc 88bd
00000260: 0b5b 113e d92e 6e3e 48e7 1fbe e247 6bbc
00000270: 5ea5 4dbe e10e 253d 842a c6bb 8dca 023e
00000280: 664f 15be 0555 55be 4698 803d 7fdd 8cbe
00000290: bd71 273e ab6c 193b 3632 873e d9e2 163e
000002a0: 5833 703e 8bc1 823e 0da5 8cbd c494 633e
000002b0: cae6 0dbe 7b85 df3c 4b7c a23d 02f8 e6bd
000002c0: 7019 46be 90d6 4e3e df25 4c3e ade1 5c3b
000002d0: 31a6 bfb9 0826 efbb 1a62 473c 2ef5 703e
000002e0: 4934 90bb 8e24 67be 7743 7fbe 4af1 63be
000002f0: be1f 823e e27b c0bd 0ada 06be 2ca7 203c
00000300: cca4 5c3e f49a b23c 028d 8a3e 2c7c 7abe
00000310: 4b0e 483e b4c5 1d3e 10b5 e9bd 3525 39be
00000320: fec9 75be da8e 393e 4590 6d3e 50f8 fdbd
00000330: b9f0 d6bb 66bd 493e 013b 3c3c af32 b53d
00000340: 5e55 5ebe e4f2 74be 017b ac3d 2252 7d3e
00000350: 2fe5 543e 24eb e13d 2501 88be c84a 2dbe
00000360: d70c a9bc 6f98 87be cdbe fa3d 52aa b1bc
00000370: bea1 76be f8dd 89be 600a ed3c 10a5 823e
00000380: 3080 cbbc 33c2 6f3e c645 893e 1a94 473e
00000390: 20fb a73d d668 8b3c 5b3d 223e 8217 3fbe
000003a0: 577b 02bc ca30 65be 234d 863e 9fe3 853e
000003b0: 92f0 f3bd 266c 463e d600 78bd a54a 9d3d
000003c0: fd23 42be 7c4b 6ebe 1aff ef3d 4578 4cbd
000003d0: bb3d 0fbe 9dde 77be 6a78 0c3d 906c 723d
000003e0: 66ef 113e 9b80 f23d f2e1 e7bd c258 f93d
000003f0: f729 033e d4d0 353d 3c18 7d3e 224a b9bb

fc1.bias f4 [256]
-0.18551174 -0.13176638 -0.14450929 -0.0031207458 -0.12727025 0.12715895 0.15631935 0.18812855
-0.18418685 0.11922462 -0.15296328 -0.22609484 -0.09822632 0.1751502 -0.058028113 -0.19349831
-0.044393945 0.10891965 -0.16292076 0.0657722 0.21126702 -0.25096446 -0.12964298 -0.0074156285
-0.086899325 0.23512638 0.1544057 -0.25264266 0.14443454 -0.17750299 0.13250545 -0.058769614
0.20300618 -0.20105432 0.06618659 0.11960362 0.12372202 -0.1548462 -0.1828732 -0.0393944
-0.048432548 -0.08619934 0.16196899 0.06398821 -0.003783539 0.11526759 0.08410089 0.10451464
0.043990508 -0.1375179 0.14914949 -0.25754362 0.23279873 0.24638182 -0.24303077 0.10032955
-0.08504568 0.2530562 0.07426195 -0.031480446 0.09067604 0.15714583 -0.017467193 0.17861158
0.25088012 0.098681435 0.014565021 3.9725037e-05 -0.09941664 0.23467764 0.024593372 0.07158176
-0.10470642 -0.064718805 -0.08668482 0.23578477 0.22528584 -0.013644383 -0.065287136 0.07425868
0.17021686 -0.018307379 -0.17550907 0.14524022 -0.18677147 0.24317804 -0.26280957 0.21351385
0.1094863 -0.25263977 0.056327693 -0.1925146 -0.17455867 -0.17423505 -0.0011314357 0.23084043
0.14733048 0.02973777 0.15458792 0.030508362 -0.079849005 -0.2633002 -0.10132275 0.20190157
0.2523553 0.20884499 -0.000115658666 -0.0628534 -0.19863647 -0.24326703 -0.08523364 -0.24227317
-0.2652619 0.2543638 0.026602505 0.07591599 -0.22868942 -0.034354463 -0.19021198 0.13954905
-0.012583719 -0.018143184 0.13559484 0.024196323 0.11521705 0.015377045 0.034642905 0.07882241
-0.13410021 0.09220685 -0.01742154 0.004597702 -0.14276832 0.18585233 -0.20148784 -0.24402109
0.097896785 0.12146343 -0.11867592 -0.17893653 -0.22591266 0.12931126 0.13459869 -0.18806483
-0.11513142 -0.042915177 0.14934592 -0.2061688 0.17621085 0.09227491 -0.20372126 -0.25829616
-0.11240558 -0.26372913 0.15764281 0.11495868 0.22203381 0.23242402 -0.1384108 -0.086921975
-0.0690103 0.16358317 0.2569181 0.115514845 0.16578363 -0.14014244 -0.24403279 0.026773388
-0.08290957 0.21923749 -0.18814288 0.23799631 0.23226207 -0.040398844 -0.13818687 -0.01364684
0.035836462 -0.077977456 -0.15170978 0.09534487 0.15198113 -0.00018448947 0.2193045 -0.21471693
-0.007953258 -0.25585032 -0.21010695 0.061612744 -0.21494433 0.16363958 -0.10330718 0.17021286
-0.18148512 -0.031401835 0.029233983 -0.19549009 0.083222635 0.22990882 -0.08816127 0.15250936
0.11490829 0.0402104 -0.19282588 0.14691362 -0.108534776 0.10940928 -0.16223 0.07266194
-0.13074583 -0.1026781 0.24711457 0.037589587 -0.029984556 0.04132903 0.18240523 -0.20988074
0.19077456 -0.11199979 -0.081744686 -0.14951108 0.07635491 -0.17309122 -0.007966981 0.11854118
0.029484892 -0.0972514 0.2547082 -0.14526415 -0.055662863 0.19190246 -0.26394045 -7.0226364e-05
-0.24199584 0.14326118 -0.20278245 1.084949e-06 -0.20963487 -0.20068711 -0.26167658 -0.22946255
0.03202734 0.17820911 -0.01189001 -0.24618945 -0.22704323 -0.07056207 0.10723302 0.0037061954
-6.544086e-05 0.14977928 0.19313253 0.15652801 -0.11987148 0.11833134 0.016224353 -0.070111625
00000000: caf6 3dbe c4ed 06be 3efa 13be 6d85 4cbb
00000010: 2253 02be f535 023e 2e12 203e c5a4 403e
00000020: 7a9b 3cbe 0a2c f43d 68a2 1cbe 6885 67be
00000030: e22a c9bd 935a 333e e3ae 6dbd 6c24 46be
00000040: 6dd6 35bd 4411 df3d b3d4 26be 93b3 863d
00000050: 6256 583e 6a7e 80be 21c1 04be cdfe f2bb
00000060: 46f8 b1bd f8c4 703e 871c 1e3e 615a 81be
00000070: a6e6 133e 58c3 35be 82af 073e 68b8 70bd
00000080: dae0 4f3e 2fe1 4dbe d68c 873d bef2 f43d
00000090: f861 fd3d 0190 1ebe 1d43 3bbe 065c 21bd
000000a0: 3561 46bd 4889 b0bd 33db 253e 400c 833d
000000b0: 40f5 77bb 6a11 ec3d 163d ac3d c60b d63d
000000c0: 642f 343d 7ed1 0cbe a5ba 183e c2dc 83be
000000d0: ca62 6e3e 844b 7c3e 0fdd 78be 9479 cd3d
000000e0: 6e2c aebd 9590 813e a616 983d a4f1 00bd
000000f0: 5cb4 b93d d6ea 203e 5c17 8fbc f4e5 363e
00000100: 5c73 803e 7e19 ca3d 20a2 6e3c 6f9e 2638
00000110: f49a cbbd 564f 703e 0a78 c93c 7599 923d
00000120: 5270 d6bd 4b8b 84bd d087 b1bd 9071 713e
00000130: 55b1 663e b18c 5fbc 43b5 85bd ef14 983d
00000140: 544d 2e3e 5bf9 95bc a6b8 33be dab9 143e
00000150: 0541 3fbe aa03 793e fa8e 86be 60a3 5a3e
00000160: 5a3a e03d 005a 81be deb7 663d 8c22 45be
00000170: 82bf 32be ac6a 32be af4c 94ba 6f61 6c3e
00000180: cddd 163e a09c f33c 4c4c 1e3e acec f93c
00000190: e087 a3bd 49cf 86be 4d82 cfbd 49bf 4e3e
000001a0: b734 813e 76db 553e c68d f2b8 49b9 80bd
000001b0: 5c67 4bbe fe1a 79be fa8e aebd 7516 78be
000001c0: 68d0 87be f93b 823e 7fed d93c d879 9b3d
000001d0: 8f2d 6abe 44b7 0cbd eec6 42be f2e5 0e3e
000001e0: f12b 4ebc 04a1 94bc 60d9 0a3e 5e37 c63c
000001f0: ebf6 eb3d 00f0 7b3c b8e5 0d3d a56d a13d
00000200: 9151 09be f2d6 bc3d 9eb7 8ebc 52a8 963b
00000210: dc31 12be 1350 3e3e d452 4ebe aae0 79be
00000220: 1c7e c83d d2c1 f83d 5c0c f3bd 233b 37be
00000230: a655 67be 2c6a 043e 3dd4 093e 1194 40be
00000240: 06ca ebbd d3c7 2fbd 23ee 183e ea1d 53be
00000250: 9e70 343e a1fa bc3d 4e9c 50be 653f 84be
00000260: e634 e6bd 8107 87be 1e6d 213e 756f eb3d
00000270: d55c 633e 9000 6e3e 90bb 0dbe 2604 b2bd
00000280: 4655 8dbd 5982 273e c58a 833e 0c93 ec3d
00000290: 2fc3 293e 8081 0fbe bbe3 79be dd53 db3c
000002a0: 7ecc a9bd cb7f 603e 87a8 40be 4eb5 733e
000002b0: 1cd6 6d3e 4279 25bd dc80 0dbe ff96 5fbc
000002c0: 41c9 123d a5b2 9fbd cf59 1bbe 2c44 c33d
000002d0: f1a0 1b3e 8473 41b9 5c91 603e c1de 5bbe
000002e0: 624e 02bc d0fe 82be 4726 57be a55d 7c3d
000002f0: 5e1a 5cbe 2291 273e b792 d3bd 484c 2e3e
00000300: 3cd7 39be 369f 00bd 1b7c ef3c 8e2e 48be
00000310: a170 aa3d 386d 6b3e e58d b4bd 6a2b 1c3e
00000320: 0a55 eb3d a9b3 243d 2674 45be 8670 163e
00000330: 7b47 debd f911 e03d 9f1f 26be c8cf 943d
00000340: 3ce2 05be e548 d2bd 9a0b 7d3e 8af7 193d
00000350: 2ca2 f5bc a148 293d 70c8 3a3e faea 56be
00000360: 685a 433e 2560 e5bd c269 a7bd 6f19 19be
00000370: f75f 9c3d d33e 31be f187 02bc b8c5 f23d
00000380: 4d8a f13c be2b c7bd 1d69 823e 20c0 14be
00000390: befe 63bd 1482 443e 3423 87be 7e46 93b8
000003a0: c2cd 77be 0fb3 123e 34a6 4fbe 909e 9135
000003b0: 86aa 56be ec80 4dbe 79fa 85be 3bf8 6abe
000003c0: 1a2f 033d 737c 363e 51ce 42bc 1619 7cbe
000003d0: 057e 68be d982 90bd fc9c db3d a4e3 723b
000003e0: 4b3d 89b8 bd5f 193e 89c4 453e e148 203e
000003f0: 2e7f f5bd b457 f23d efe8 843c af96 8fbd

bn1.weight f4 [256]
0.9984921 0.9995185 0.998808 0.9986919 1.0013456 1.0001602 0.9990689 1.0015799
0.9974481 0.9997555 1.0014395 1.002469 1.0005004 0.99991345 1.0002509 1.0000836
1.0031539 1.0009832 1.0003039 0.99803674 1.0005606 0.9991191 1.0020442 0.99952656
0.9990162 1.0003124 0.9981209 0.9976553 0.9997847 1.0022862 0.9981771 0.999466
0.99994123 1.0000995 0.99926853 0.99955297 0.99986243 1.0005989 1.0008942 1.0016233
1.0022173 0.9997222 0.9993768 0.99849427 0.997767 1.0010579 0.99538267 1.0015719
0.99869126 1.0000545 0.99772394 1.0011778 1.0003327 1.0005715 0.9998069 1.002679
0.99762416 0.9993578 0.99998325 0.99741364 0.99885297 0.9991871 0.99817157 0.99929947
1.0014135 1.0007775 0.9975757 0.99985015 1.0018326 0.9978158 1.0028176 0.99722505
0.9996043 0.9981101 1.0006697 1.0001281 0.9987084 0.9993029 1.0025392 0.999128
1.0005624 0.9981912 0.99993736 0.99975073 0.9996799 0.99856305 0.99854046 1.0002549
0.99904156 0.99794316 0.9994807 1.0015152 1.0018519 0.99899757 1.0014813 0.99825644
0.9986789 0.9994755 1.0022763 1.0002646 1.0011947 1.0014404 1.0006955 1.0018395
0.9987472 0.9976462 1.000013 1.0004656 0.9971226 1.0021967 1.0001463 0.9999257
0.9998486 1.0018976 0.9999991 0.9991039 0.99962246 0.9999063 1.0027169 0.9987402
0.998791 1.0007079 1.0004829 1.0004691 1.000462 1.0022271 1.0020041 1.0027287
1.0013106 0.99894214 0.9991486 0.9997872 1.0008675 1.0006493 0.99894965 1.0019821
0.9988083 1.0006639 0.9988481 1.0008223 1.0032392 1.0019205 1.0002778 0.99962467
0.99776995 0.99840146 1.001292 1.0015385 0.99967086 1.0004535 0.99860346 0.9983424
0.99847984 1.0003815 1.0013703 1.00093 0.99872404 1.0007674 0.999498 0.99872786
0.9971509 0.9993937 1.0001719 1.0013713 1.0009633 1.0001022 1.0036552 0.9991064
1.0028347 0.9996311 1.000978 1.0003664 0.9981129 0.9981466 0.99727154 0.9987174
0.999241 1.00018 1.0011982 1.002083 1.0004932 1.0025718 0.9985944 0.99692136
1.0000501 0.9992699 0.9969744 0.9975487 0.99937624 0.9979507 1.0012721 0.9989933
1.0009586 0.99850595 1.0008531 1.0010581 1.0003638 0.9999467 0.9982983 1.0003039
1.000397 1.0007312 1.0017961 0.9980513 1.0022913 1.001365 0.99951154 0.9998397
0.99689585 1.000446 1.0000013 1.0008786 1.0018294 0.9981518 1.0023257 1.0017337
1.0035187 0.9988261 0.99888456 1.0018181 1.0001509 0.99861383 1.0000143 1.000783
0.99902946 0.9967919 0.9994879 0.9986384 1.0046091 0.9978668 0.99902904 1.0000774
0.99956167 1.0031409 1.0000184 0.99852794 0.9982952 1.0006963 1.000827 0.9994635
0.99924135 0.9974234 1.0016294 1.0009987 1.0004156 1.0009276 0.99912524 1.0012348
1.0012293 0.9972495 0.9982028 1.0013684 1.0006884 1.0010468 1.0007966 0.9983282
00000000: 2e9d 7f3f 72e0 7f3f e2b1 7f3f 46aa 7f3f
00000010: 182c 803f 4005 803f fbc2 7f3f c533 803f
00000020: c258 7f3f faef 7f3f 2b2f 803f e750 803f
00000030: 6610 803f 54fa 7f3f 3908 803f bd02 803f
00000040: 5967 803f 3820 803f f509 803f 567f 7f3f
00000050: 5f12 803f 45c6 7f3f fc42 803f f9e0 7f3f
00000060: 87bf 7f3f 3d0a 803f da84 7f3f 5666 7f3f
00000070: e4f1 7f3f ea4a 803f 8988 7f3f 01dd 7f3f
00000080: 26fc 7f3f 4303 803f 10d0 7f3f b4e2 7f3f
00000090: fcf6 7f3f a013 803f 4d1d 803f 3135 803f
000000a0: a848 803f cbed 7f3f 28d7 7f3f 529d 7f3f
000000b0: a86d 7f3f aa22 803f 66d1 7e3f 8233 803f
000000c0: 3baa 7f3f c901 803f d66a 7f3f 9826 803f
000000d0: e70a 803f ba12 803f 58f3 7f3f c957 803f
000000e0: 4c64 7f3f ead5 7f3f e7fe 7f3f 8056 7f3f
000000f0: d4b4 7f3f baca 7f3f 2c88 7f3f 17d2 7f3f
00000100: 512e 803f 7a19 803f 1f61 7f3f 2ef6 7f3f
00000110: 0d3c 803f db70 7f3f 545c 803f 244a 7f3f
00000120: 11e6 7f3f 2584 7f3f f215 803f 3304 803f
00000130: 5bab 7f3f 51d2 7f3f 3453 803f dac6 7f3f
00000140: 6e12 803f 7589 7f3f e5fb 7f3f aaef 7f3f
00000150: 06eb 7f3f d4a1 7f3f 59a0 7f3f 5a08 803f
00000160: 30c1 7f3f 3479 7f3f f8dd 7f3f a631 803f
00000170: af3c 803f 4ebe 7f3f 8a30 803f bc8d 7f3f
00000180: 6ca9 7f3f a0dd 7f3f 974a 803f ac08 803f
00000190: 2627 803f 332f 803f ca16 803f 473c 803f
000001a0: e6ad 7f3f be65 7f3f 6d00 803f 420f 803f
000001b0: 6d43 7f3f fb47 803f cb04 803f 21fb 7f3f
000001c0: 14f6 7f3f 2e3e 803f f1ff 7f3f 46c5 7f3f
000001d0: 42e7 7f3f dcf9 7f3f 0759 803f 70ad 7f3f
000001e0: c4b0 7f3f 3217 803f d30f 803f 5f0f 803f
000001f0: 240f 803f fa48 803f ac41 803f 6a59 803f
00000200: f22a 803f acba 7f3f 34c8 7f3f 0ef2 7f3f
00000210: 6d1c 803f 4715 803f 2abb 7f3f f340 803f
00000220: e7b1 7f3f c115 803f 82b4 7f3f f21a 803f
00000230: 246a 803f ee3e 803f 1a09 803f 67e7 7f3f
00000240: da6d 7f3f 3d97 7f3f 562a 803f 6a32 803f
00000250: 6eea 7f3f dc0e 803f 7aa4 7f3f 5e93 7f3f
00000260: 609c 7f3f 800c 803f e72c 803f 791e 803f
00000270: 61ac 7f3f 2519 803f 1adf 7f3f a1ac 7f3f
00000280: 4845 7f3f 44d8 7f3f a205 803f ef2c 803f
00000290: 911f 803f 5903 803f c677 803f 70c5 7f3f
000002a0: e35c 803f d3e7 7f3f 0c20 803f 020c 803f
000002b0: 5484 7f3f 8986 7f3f 304d 7f3f f2ab 7f3f
000002c0: 42ce 7f3f e605 803f 4327 803f 4144 803f
000002d0: 2910 803f 4654 803f e2a3 7f3f 3d36 7f3f
000002e0: a401 803f 27d0 7f3f b739 7f3f 5a5f 7f3f
000002f0: 1fd7 7f3f b279 7f3f af29 803f 06be 7f3f
00000300: 691f 803f 169e 7f3f f41b 803f ac22 803f
00000310: ec0b 803f 82fc 7f3f 7a90 7f3f f509 803f
00000320: 020d 803f f617 803f db3a 803f 4a80 7f3f
00000330: 154b 803f ba2c 803f fddf 7f3f 7ff5 7f3f
00000340: 9134 7f3f 9d0e 803f 0b00 803f ca1c 803f
00000350: f23b 803f e086 7f3f 354c 803f cf38 803f
00000360: 4d73 803f 11b3 7f3f e6b6 7f3f 933b 803f
00000370: f204 803f 28a5 7f3f 7800 803f a819 803f
00000380: 65c0 7f3f c12d 7f3f 70de 7f3f c4a6 7f3f
00000390: 0897 803f 3374 7f3f 5ec0 7f3f 8902 803f
000003a0: 46e3 7f3f ec66 803f 9a00 803f 879f 7f3f
000003b0: 4690 7f3f d116 803f 191b 803f d7dc 7f3f
000003c0: 48ce 7f3f 2457 7f3f 6435 803f ba20 803f
000003d0: 9e0d 803f 651e 803f acc6 7f3f 7628 803f
000003e0: 4828 803f be4b 7f3f 388a 7f3f d72c 803f
000003f0: 8f16 803f 4d22 803f 1a1a 803f 7092 7f3f

bn1.bias f4 [256]
-0.0009662738 0.0005969594 0.00021116424 -0.0014370763 0.0016139469 0.0017494925 -0.00082772516 0.0010201108
-0.0027574338 -1.6468053e-05 0.00054752675 0.0025530271 -0.0001017585 0.00036009378 0.0006206534 0.003133167
0.0017205769 0.0015550917 -0.0014386136 -0.00080155395 -0.00064783223 -0.0018437724 0.0035913086 0.0006628289
0.0014879873 -0.0016589389 -0.001207338 0.00011000456 -0.0006590998 0.002113029 -0.0008645386 -0.0015394919
0.0009631575 0.001097914 0.002251624 -0.0014483954 -0.0015378648 -0.0019765145 0.00076612434 0.0005856841
1.08615495e-07 -0.0011456949 -0.0008822782 -0.0013867477 -0.00042337197 -0.00040102063 -0.0020825528 0.0011128742
-0.0016841725 0.00057155965 0.00015203949 -0.00073491456 -0.0019023162 0.0006202716 -0.00033258772 0.0015497976
-0.0021711732 0.00037848274 -0.0019592969 -0.0011069545 -0.0007420051 -0.0008966124 -0.0025374992 -0.002266178
0.00095096853 0.0018796297 -0.0009718457 0.00049058883 0.001649253 -0.004046106 0.0028086507 -0.0010949895
-0.0003877241 0.00050613546 0.0003205173 0.0031047696 -0.0018257461 -0.0004382157 0.0015559759 -0.00053231034
0.0004365283 -0.0016596168 -0.0008128752 -0.00051550014 -0.0017361437 -0.0015986592 0.0003999967 0.0009766127
-0.00097484747 -0.0012148393 -0.0010058328 0.00068331324 0.0013063045 0.0002792153 0.0005915486 -0.0011050564
-0.00044355058 0.0004796838 0.004139891 0.0015829614 0.0006142662 0.0030564417 2.9678646e-05 0.0006892486
-0.00079029833 -0.0014090659 0.001261719 0.002172009 -0.0018548358 0.0026266747 -0.0025808637 0.00045268633
0.00031029223 0.0015791459 0.00030123565 -0.00039225558 -0.0013639401 -0.00033178332 -0.0004087647 0.00041772777
3.0270952e-05 0.0017810554 0.0010492535 0.0024859114 -0.0005300133 0.0006161322 -0.00039944315 -3.531141e-05
0.00066897256 -0.0007394147 -3.9342558e-07 -0.00084490154 0.0018024461 0.00050627394 -0.0020953047 0.0015416526
-0.0005861603 0.0011602577 -0.0002628293 -0.0005066051 -0.00015475415 0.0019794274 0.0013874166 0.0011431498
-0.001432795 -0.0015498509 0.0014537015 0.0003405429 -0.0007065508 0.000585597 -0.0011813769 -0.0012378527
-0.0016702081 0.001393867 0.0022595476 -0.00065685547 -0.0021820543 -0.0005863179 0.0015211204 -0.00024351591
-0.0012814928 -0.0007035721 0.00015900325 0.0020937545 -0.0013081466 -0.00056007307 0.0027353915 0.0007151289
0.0026011122 -0.0009330723 0.001988147 0.00063066295 0.00047573773 -0.0027848869 -0.0010540304 -0.00067644875
0.00033510753 0.0008234096 0.0001144879 0.0024771297 0.0009314206 9.241869e-05 -0.0017176061 -0.0022679318
-0.0024234639 0.00063889235 -0.0032013338 -0.001594314 0.0010069314 -0.000722824 -0.00075700344 0.00034336955
1.5887083e-05 -0.0011902903 0.0010821549 -0.0007959489 0.00056304585 -0.0008595111 4.4625933e-05 0.00033585308
0.0007876145 0.0002060814 0.0025312891 -0.0019636892 0.0010581813 0.00032947902 -0.0010673875 -9.307917e-05
-0.0036135372 0.00078934466 0.0030343402 -0.0005181629 0.00034400224 -0.0008394882 0.0017314743 0.0015215011
0.0020047508 -0.0028577847 0.00058359304 0.00085214444 0.0011666431 0.001822186 -0.00041527924 -0.00057651923
0.0013701186 -0.0030167503 -0.0011076806 -0.0025954414 0.0025156122 0.00040368325 0.002889533 0.00043543233
0.0005416818 0.0016614647 -0.0010438883 -0.0022626878 -0.0001663469 -0.0017486557 -0.00048403195 0.0016220622
-0.0011258649 -0.0019591872 -0.00047862993 0.00073713355 0.0007884528 0.0029896935 -0.0023259725 -0.0001335465
0.0022577243 -0.0002212142 -0.00077010714 0.0020500226 -0.0015816074 0.00064862845 0.0011792644 -0.0030072904
00000000: 894d 7dba 447d 1c3a f86b 5d39 475c bcba
00000010: 128b d33a 3a4f e53a b2fb 58ba 3db5 853a
00000020: 10b6 34bb e024 8ab7 e687 0f3a b050 273b
00000030: 2e67 d5b8 f8ca bc39 58b3 223a d255 4d3b
00000040: fb84 e13a 38d4 cb3a dd8f bcba 601f 52ba
00000050: 49d3 29ba bcaa f1ba 295c 6b3b b2c1 2d3a
00000060: 9208 c33a c170 d9ba 8a3f 9eba 40b2 e638
00000070: 70c7 2cba be7a 0a3b 34a2 62ba c7c8 c9ba
00000080: 687c 7c3a e1e7 8f3a fb8f 133b 16d8 bdba
00000090: 2e92 c9ba 6988 01bb bcd5 483a 9888 193a
000000a0: 0040 e933 242b 96ba b048 67ba 88c3 b5ba
000000b0: 06f8 ddb9 1440 d2b9 707b 08bb dddd 913a
000000c0: 74bf dcba b8d4 153a ca6c 1f39 48a7 40ba
000000d0: 2457 f9ba b999 223a 2b5f aeb9 9422 cb3a
000000e0: 3e4a 0ebb 186f c639 8c67 00bb 3b17 91ba
000000f0: 1f83 42ba a40a 6bba 2c4c 26bb 2884 14bb
00000100: 6b4a 793a e85d f63a 76c3 7eba dc9a 003a
00000110: bf2b d83a 3295 84bb 5711 383b c085 8fba
00000120: 7347 cbb9 2dae 043a 1b0b a839 6479 4b3b
00000130: e04d efba 51c0 e5b9 e3f1 cb3a be8a 0bba
00000140: d6dd e439 8087 d9ba 2217 55ba a122 07ba
00000150: 518f e3ba 1a8a d1ba a6b6 d139 af01 803a
00000160: e88c 7fba 3e3b 9fba 26d6 83ba 6020 333a
00000170: 4e38 ab3a a563 9239 2812 1b3a 8ad7 90ba
00000180: 5a8c e8b9 127e fb39 eca7 873b 5f7b cf3a
00000190: b506 213a 954e 483b 68f6 f837 b1ae 343a
000001a0: 062c 4fba 68b0 b8ba 4460 a53a 4458 0e3b
000001b0: f61d f3ba 4a24 2c3b b523 29bb 8856 ed39
000001c0: b8ae a239 58fb ce3a 2aef 9d39 a7a7 cdb9
000001d0: 3cc6 b2ba 34f3 adb9 784f d6b9 7902 db39
000001e0: 60ee fd37 4d72 e93a 1b87 893a acea 223b
000001f0: 97f0 0aba ef83 213a 5a6c d1b9 561b 14b8
00000200: fd5d 2f3a 48d5 41ba 0038 d3b4 627c 5dba
00000210: 0e40 ec3a 78b7 043a 6151 09bb 4711 ca3a
00000220: 8da8 19ba ca13 983a 5acc 89b9 b1cd 04ba
00000230: 8045 22b9 48b9 013b fad9 b53a bed5 953a
00000240: 9fcc bbba 5e24 cbba 218a be3a e58a b239
00000250: d237 39ba c082 193a 6ed8 9aba 723f a2ba
00000260: e2ea daba 6ab2 b63a eb14 143b d330 2cba
00000270: cc00 0fbb 21b3 19ba 5560 c73a 4e58 7fb9
00000280: c3f7 a7ba ed6f 38ba 1cba 2639 5f37 093b
00000290: 1e76 abba ded1 12ba 4144 333b 7d77 3b3a
000002a0: 6c77 2a3b 6c99 74ba 924b 023b 1353 253a
000002b0: 706c f939 a682 36bb 6427 8aba b553 31ba
000002c0: 5fb1 af39 15da 573a 3919 f038 5757 223b
000002d0: 942a 743a e8d0 c138 4c21 e1ba 95a1 14bb
000002e0: fad2 1ebb 577b 273a 78cd 51bb 4df8 d0ba
000002f0: 03fb 833a e67b 3dba a471 46ba 4806 b439
00000300: 4045 8537 8403 9cba 18d7 8d3a 3aa7 50ba
00000310: 5e99 133a d050 61ba bb2c 3b38 7015 b039
00000320: ea77 4e3a 8e17 5839 fce3 253b 3db1 00bb
00000330: acb2 8a3a edbd ac39 95e7 8bba 8033 c3b8
00000340: 18d1 6cbb 06ec 4e3a c8db 463b 53d5 07ba
00000350: 335b b439 1911 5cba a3f2 e23a 1b6d c73a
00000360: 2362 033b ac49 3bbb 44fc 183a 7262 5f3a
00000370: 0cea 983a 6bd6 ee3a d6b9 d9b9 8d21 17ba
00000380: 8d95 b33a acb4 45bb 982f 91ba 4818 2abb
00000390: f8dc 243b 73a5 d339 525e 3d3b bd4a e439
000003a0: a6ff 0d3a 81c5 d93a 14d3 88ba 9a49 14bb
000003b0: 686d 2eb9 2633 e5ba abc5 fdb9 609b d43a
000003c0: c291 93ba b565 00bb 9ff0 fab9 323c 413a
000003d0: 2cb0 4e3a bcee 433b 586f 18bb 9e08 0cb9
000003e0: 54f6 133b bcf5 67b9 04e1 49ba ac59 063b
000003f0: f04d cfba b808 2a3a 8c91 9a3a f615 45bb

bn1.running_mean f4 [256]
-0.10970805 -0.077669054 -0.091168545 0.0017957396 -0.07678962 0.085275814 0.08750642 0.11858781
-0.1245329 0.0716499 -0.103392504 -0.15008211 -0.059289604 0.102081 -0.02406656 -0.1168523
-0.039135635 0.06861487 -0.10791354 0.020198908 0.14280018 -0.16389793 -0.093282655 0.015194428
-0.04681003 0.13614775 0.09328053 -0.14430706 0.09915407 -0.113034114 0.075639926 -0.039678838
0.11266808 -0.116924606 0.039976936 0.06804722 0.059689797 -0.091323 -0.106376275 -0.0072188545
-0.043377593 -0.06178345 0.08370224 0.05394438 0.0055782218 0.07340301 0.041158076 0.07386937
0.051720344 -0.09770139 0.09946735 -0.1689296 0.14540869 0.16828634 -0.14702307 0.10733688
-0.060248077 0.17770804 0.050285086 -0.026027262 0.075506665 0.103426024 0.0082224645 0.09162714
0.16245326 0.065672025 -0.0035748254 0.005760827 -0.06056613 0.14585651 0.03136657 0.052143373
-0.088316575 -0.04240205 -0.07005933 0.13929117 0.12331741 -0.0145473275 -0.03322665 0.061994676
0.107146785 0.023696825 -0.11480981 0.10320163 -0.11059609 0.15425332 -0.16682966 0.13982049
0.07469133 -0.16150495 0.058747284 -0.119529426 -0.09672025 -0.10026226 -0.0039842213 0.14166012
0.092520066 0.017898224 0.093035735 -0.0023153482 -0.07647635 -0.18355662 -0.05368781 0.13437241
0.18871756 0.13225615 -0.01891942 -0.03695674 -0.11329631 -0.1417939 -0.047700413 -0.16392773
-0.17328428 0.1600292 0.03959624 0.039309263 -0.14855683 -0.011975491 -0.115710706 0.081035964
-0.012165138 -0.015289104 0.06429112 0.026995417 0.0585602 0.01674191 0.011563559 0.055703633
-0.075323865 0.065530285 -0.047059305 0.0071482062 -0.09231624 0.11964965 -0.14199507 -0.14249983
0.06883145 0.091298215 -0.08136829 -0.10726394 -0.13712135 0.08375619 0.10150372 -0.121920206
-0.076724105 -0.027530026 0.080486014 -0.1112927 0.101232156 0.058426812 -0.12220599 -0.16361284
-0.08349218 -0.15879291 0.07909143 0.08130954 0.12903698 0.12736928 -0.107897505 -0.06128619
-0.037069228 0.10483505 0.13075154 0.06900263 0.10219774 -0.10023932 -0.13158263 -0.0008380535
-0.051361013 0.13530788 -0.114926726 0.1446876 0.17204288 -0.025433607 -0.077890016 0.008954222
0.044171117 -0.06909889 -0.09116425 0.05379288 0.09462004 0.016908396 0.13465104 -0.11322109
-0.020267472 -0.18207408 -0.12961876 0.051000252 -0.12410842 0.12487723 -0.041368864 0.1172458
-0.1058523 -0.02745274 0.012716321 -0.12315753 0.06391705 0.15251666 -0.06185837 0.10041322
0.055419017 0.0056817117 -0.12875736 0.1049896 -0.076878436 0.09115411 -0.102760464 0.016592715
-0.08557315 -0.061428424 0.17301114 0.015342049 -0.010510292 0.014779878 0.10940687 -0.14698377
0.1334728 -0.06414482 -0.053949505 -0.10192548 0.051681414 -0.07938705 0.004598964 0.08324596
0.010870904 -0.04413806 0.15223478 -0.07351123 -0.040882953 0.12468195 -0.16769838 0.011711152
-0.1406403 0.103521414 -0.11751886 -0.010745395 -0.117090315 -0.124674454 -0.17800158 -0.15447447
0.023748532 0.12587431 0.0013116342 -0.16800219 -0.119060576 -0.045051493 0.061022393 0.0027246373
0.011905278 0.10546548 0.116508946 0.088967346 -0.05392046 0.06504767 0.01307878 -0.05581779
00000000: 9dae e0bd f410 9fbd 93b6 babd 065f eb3a
00000010: e043 9dbd 16a5 ae3d 9136 b33d 2ade f23d
00000020: 1b0b ffbd 2fbd 923d 73bf d3bd 20af 19be
00000030: a8d9 72bd d80f d13d 3c27 c5bc 4250 efbd
00000040: b04c 20bd f485 8c3d c601 ddbd 2e78 a53c
00000050: 363a 123e dcd4 27be fa0a bfbd 0df2 783c
00000060: e0bb 3fbd 516a 0b3e dd09 bf3d 3bc5 13be
00000070: 4a11 cb3d 6e7e e7bd 1be9 9a3d 4786 22bd
00000080: 86be e63d 2b76 efbd dbbe 233d 575c 8b3d
00000090: 4a7d 743d 8e07 bbbd cedb d9bd 248c ecbb
000000a0: b4ac 31bd a510 7dbd 146c ab3d c8f4 5c3d
000000b0: 84c9 b63b 5154 963d 5f95 283d d348 973d
000000c0: b6d8 533d ab17 c8bd 8ab5 cb3d e2fb 2cbe
000000d0: 04e6 143e 4153 2c3e 378d 16be 70d3 db3d
000000e0: b0c6 76bd 19f9 353e bcf7 4d3d 2037 d5bc
000000f0: 3da3 9a3d 06d1 d33d 84b7 063c 03a7 bb3d
00000100: 265a 263e 0e7f 863d 9e47 6abb 52c5 bc3b
00000110: 3114 78bd 695b 153e 3c7a 003d 4a94 553d
00000120: 52df b4bd c6ad 2dbd 447b 8fbd 58a2 0e3e
00000130: d78d fc3d ea57 6ebc ab18 08bd 21ee 7d3d
00000140: c66f db3d d81f c23c 6821 ebbd 605b d33d
00000150: 3480 e2bd 95f4 1d3e 65d5 2abe 1a2d 0f3e
00000160: c5f7 983d 8e61 25be fea0 703d d8cb f4bd
00000170: 4415 c6bd 4d56 cdbd 128e 82bb 5a0f 113e
00000180: 297b bd3d 4c9f 923c 8589 be3d 19bd 17bb
00000190: a29f 9cbd 44f6 3bbe c0e7 5bbd ec98 093e
000001a0: 2d3f 413e 286e 073e e6fc 9abc f35f 17bd
000001b0: e507 e8bd 6c32 11be 8261 43bd acdc 27be
000001c0: 6f71 31be b2de 233e ab2f 223d c002 213d
000001d0: 481f 18be da34 44bc bcf9 ecbd 2ff6 a53d
000001e0: 4950 47bc 267f 7abc 10ab 833d 7e25 dd3c
000001f0: d2dc 6f3d 5426 893c 1575 3d3c 7e29 643d
00000200: 6643 9abd be34 863d 42c1 40bd 803b ea3b
00000210: 4c10 bdbd e00a f53d 2867 11be 7aeb 11be
00000220: 81f7 8c3d 8ffa ba3d 6ba4 a6bd 32ad dbbd
00000230: 8a69 0cbe 5e88 ab3d 2fe1 cf3d 4db1 f9bd
00000240: 8721 9dbd a686 e1bc dad5 a43d 6ded e3bd
00000250: ce52 cf3d f450 6f3d 2247 fabd 208a 27be
00000260: f3fd aabd 9c9a 22be b0fa a13d 9e85 a63d
00000270: 4522 043e 186d 023e 5ef9 dcbd 3a07 7bbd
00000280: e7d5 17bd c2b3 d63d bbe3 053e 4051 8d3d
00000290: 0c4d d13d 464a cdbd 99bd 06be d1b0 5bba
000002a0: ed5f 52bd 268e 0a3e b45e ebbd fc28 143e
000002b0: 022c 303e 245a d0bc cd84 9fbd bbb4 123c
000002c0: c6ec 343d b883 8dbd 53b4 babd ec55 5c3d
000002d0: 27c8 c13d 7a83 8a3c f6e1 093e 75e0 e7bd
000002e0: f807 a6bc a171 3abe c8ba 04be a4e5 503d
000002f0: 8e2c febd a2bf ff3d 6672 29bd 911e f03d
00000300: 17c9 d8bd 92e4 e0bc 1e58 503c 043a fcbd
00000310: f1e6 823d 542d 1c3e 345f 7dbd 72a5 cd3d
00000320: 0dff 623d a72d ba3b f8d8 03be ca04 d73d
00000330: 7172 9dbd 02af ba3d 1474 d2bd 72ed 873c
00000340: fa40 afbd 5f9c 7bbd d529 313e 385d 7b3c
00000350: 5c33 2cbc 4d27 723c b610 e03d ea82 16be
00000360: 18ad 083e 5c5e 83bd 28fa 5cbd 4ebe d0bd
00000370: e4af 533d ad95 a2bd e8b2 963b dc7c aa3d
00000380: e01b 323c 1cca 34bd 6fe3 1b3e 0e8d 96bd
00000390: e274 27bd 4059 ff3d 20b9 2bbe 22e0 3f3c
000003a0: 0304 10be 0903 d43d baad f0bd 740d 30bc
000003b0: 0ccd efbd 5255 ffbd 0c46 36be 8e2e 1ebe
000003c0: 488c c23c 32e5 003e 24eb ab3a c408 2cbe
000003d0: 08d6 f3bd ea87 38bd 9ef2 793d d48f 323b
000003e0: 5b0e 433c 49fe d73d 3e9c ee3d 8334 b63d
000003f0: b3db 5cbd b637 853d 6148 563c 32a1 64bd

bn1.running_var f4 [256]
0.50916815 0.476016 0.56890607 0.5592266 0.49466848 0.6005051 0.56266165 0.44411445
0.632027 0.5140808 0.47563535 0.50952876 0.5604988 0.58078563 0.6616827 0.7246878
0.6228034 0.5993919 0.64112014 0.6252372 0.5111032 0.6039568 0.55520475 0.5741603
0.62979746 0.4874557 0.5248321 0.6069588 0.5928453 0.5597522 0.51548487 0.5651922
0.47943854 0.6912768 0.56202686 0.5429335 0.5695606 0.53949213 0.4432029 0.5723108
0.5645175 0.6559319 0.57603556 0.5878482 0.5008315 0.5701289 0.52783406 0.5396058
0.49209255 0.557533 0.513897 0.51928985 0.60330313 0.6136209 0.6288813 0.6307528
0.5926534 0.59409374 0.6196821 0.52899563 0.567721 0.5070756 0.62657696 0.56542015
0.6099402 0.58939594 0.5568742 0.56825346 0.53606415 0.55028605 0.69183457 0.48780346
0.5911134 0.56406474 0.60251015 0.52815694 0.62519205 0.64303744 0.6517127 0.5415647
0.5928091 0.6289819 0.6133045 0.56578165 0.5523958 0.6017444 0.6048024 0.6505373
0.5831952 0.5452087 0.66562426 0.59959674 0.52555853 0.5653946 0.59430444 0.6252249
0.6106815 0.57733166 0.5311379 0.587959 0.6982368 0.5728955 0.6284013 0.60494894
0.67030317 0.5745558 0.620536 0.5026225 0.60215855 0.5948431 0.5166634 0.5862621
0.58574724 0.5911645 0.55202025 0.6015545 0.55327094 0.5296408 0.50737876 0.5963248
0.5611258 0.52714264 0.5491678 0.64600223 0.6237764 0.49794906 0.59167147 0.52786744
0.54962 0.531778 0.63815147 0.6076638 0.5621682 0.5828817 0.6087196 0.5584688
0.5427729 0.55527735 0.49442172 0.5308624 0.5461422 0.56619316 0.55318487 0.50082034
0.58388126 0.5233658 0.58819604 0.66218907 0.5956365 0.5298943 0.48285025 0.511728
0.642983 0.49199104 0.5077505 0.5393175 0.52145153 0.5396434 0.56014574 0.5542819
0.5285322 0.6182825 0.6057363 0.5317877 0.65323466 0.5508857 0.57334715 0.5883117
0.5345707 0.5895047 0.6538121 0.55934757 0.5765926 0.566362 0.5300369 0.5285952
0.53230983 0.626341 0.5313065 0.4651873 0.5833722 0.5433905 0.54075265 0.54623693
0.5966738 0.60150373 0.6526867 0.64761245 0.60097873 0.60930544 0.6275687 0.59725684
0.6104765 0.49086407 0.6141588 0.5739827 0.52523774 0.5039569 0.5665368 0.5184711
0.55710554 0.5754937 0.56151927 0.6202072 0.49796832 0.5715081 0.53707886 0.6776437
0.5873512 0.52350277 0.5310715 0.53400594 0.7225882 0.51760906 0.5758178 0.58714676
0.57485616 0.71351194 0.5092019 0.5091087 0.6201637 0.6647737 0.59349203 0.5811432
0.57830703 0.538504 0.5521332 0.4853371 0.6250257 0.47176796 0.54098165 0.4814557
0.677917 0.59306926 0.5579669 0.43589973 0.52140397 0.5950773 0.53790843 0.5475284
0.54244936 0.52817893 0.5555616 0.50388163 0.66474414 0.52692634 0.62899673 0.6370034
0.5014707 0.69928837 0.459858 0.50419414 0.594493 0.61206937 0.57515895 0.5143331
00000000: d858 023f 5fb8 f33e d4a3 113f 7929 0f3f
00000010: 3045 fd3e b4ba 193f 980a 103f f862 e33e
00000020: 85cc 213f cd9a 033f 7a86 f33e 7a70 023f
00000030: d97c 0f3f 5eae 143f 0a64 293f 2485 393f
00000040: 0b70 1f3f bf71 193f 7320 243f 8c0f 203f
00000050: a9d7 023f ea9c 1a3f e621 0e3f 2bfc 123f
00000060: 683a 213f cb93 f93e 665b 063f a761 1b3f
00000070: b6c4 173f ec4b 0f3f d1f6 033f 70b0 103f
00000080: f878 f53e 84f7 303f fee0 0f3f b1fd 0a3f
00000090: b9ce 113f 281c 0a3f 7eeb e23e f682 123f
000000a0: 3884 103f 27eb 273f 1177 133f 387d 163f
000000b0: 7e36 003f f8f3 113f 2220 073f 9b23 0a3f
000000c0: 8ef3 fb3e 7cba 0e3f c18e 033f 2ef0 043f
000000d0: 1372 1a3f 4216 1d3f 5dfe 203f 0479 213f
000000e0: 22b8 173f 8716 183f 7ca3 1e3f 426c 073f
000000f0: 2a56 113f b5cf 013f 5967 203f 60bf 103f
00000100: 0a25 1c3f a7e2 163f 4f8f 0e3f 0f79 113f
00000110: 803b 093f 8cdf 0c3f 121c 313f 60c1 f93e
00000120: 3553 173f 8c66 103f 1b3e 1a3f 4b35 073f
00000130: 960c 203f 1a9e 243f a5d6 263f fca3 0a3f
00000140: 56c2 173f f504 213f 8601 1d3f 11d7 103f
00000150: d069 0d3f ec0b 1a3f 55d4 1a3f 9d89 263f
00000160: 484c 153f cc92 0b3f 5a66 2a3f 2c7f 193f
00000170: 018b 063f b3bd 103f 5624 183f bd0e 203f
00000180: 9f55 1c3f 02cc 133f a7f8 073f 7b84 163f
00000190: a6bf 323f 48a9 123f e8de 203f efdd 1a3f
000001a0: fd98 2b3f 1716 133f 73db 1e3f deab 003f
000001b0: 1027 1a3f a347 183f 0d44 043f 4615 163f
000001c0: 88f3 153f 8f56 173f 3351 0d3f 7aff 193f
000001d0: 2aa3 0d3f 8a96 073f 93e3 013f bea8 183f
000001e0: f1a5 0f3f d2f2 063f 4396 0c3f 6760 253f
000001f0: cfaf 1f3f 2ef3 fe3e c877 173f 5222 073f
00000200: e5b3 0c3f 9a22 083f e55d 233f db8f 1b3f
00000210: 41ea 0f3f bc37 153f 0cd5 1b3f d0f7 0e3f
00000220: 2af3 0a3f a826 0e3f d824 fd3e 99e6 073f
00000230: facf 0b3f 09f2 103f 869d 0d3f c335 003f
00000240: 3e79 153f 4dfb 053f 0494 163f 3985 293f
00000250: a27b 183f 27a7 073f 2638 f73e 9b00 033f
00000260: 899a 243f 40e6 fb3e f0fb 013f b610 0a3f
00000270: d97d 053f 1226 0a3f b665 0f3f 6be5 0d3f
00000280: e34d 073f c347 1e3f 8911 1b3f 3d23 083f
00000290: 633a 273f d806 0d3f e1c6 123f 989b 163f
000002a0: a0d9 083f c8e9 163f 3b60 273f 6731 0f3f
000002b0: 939b 133f 1afd 103f 80b0 073f 0452 073f
000002c0: 7545 083f e257 203f b403 083f 082d ee3e
000002d0: e157 153f a41b 0b3f c46e 0a3f 2fd6 0b3f
000002e0: 9dbf 183f 26fc 193f 7a16 273f eec9 253f
000002f0: bed9 193f 71fb 1b3f 58a8 203f d3e5 183f
00000300: 3048 1c3f 8952 fb3e 8339 1d3f 88f0 123f
00000310: fb75 063f 5203 013f 8e08 113f 86ba 043f
00000320: 789e 0e3f 8e53 133f babf 0f3f e6c5 1e3f
00000330: b4f5 fe3e 5b4e 123f 007e 093f 0f7a 2d3f
00000340: a65c 163f 4704 063f 4df4 073f 9db4 083f
00000350: 8afb 383f 0782 043f cc68 133f 404f 163f
00000360: c629 133f b8a8 363f 0e5b 023f f354 023f
00000370: 0cc3 1e3f 9c2e 2a3f 18ef 173f cdc5 143f
00000380: ee0b 143f 66db 093f 9a58 0d3f 1b7e f83e
00000390: af01 203f 928b f13e c67d 0a3f 5d81 f63e
000003a0: f88b 2d3f 63d3 173f ebd6 0e3f 402e df3e
000003b0: bb7a 053f fc56 183f 5eb4 093f d22a 0c3f
000003c0: f6dd 0a3f bc36 073f 4939 0e3f 63fe 003f
000003d0: ac2c 2a3f a5e4 063f ee05 213f a812 233f
000003e0: 6260 003f 9004 333f 8272 eb3e de12 013f
000003f0: b130 183f 94b0 1c3f 9e3d 133f 56ab 033f

fc2.weight f4 [128, 256]
0.010090716 -0.05237912 -0.0017769665 0.031087182 -0.011202343 0.013675237 0.0234316 0.041918553
0.034253553 -0.015409103 -0.03796213 -0.05213806 0.03939666 -0.046868507 -0.056612022 -0.017868266
0.02082944 0.0593402 0.05273676 0.024931308 0.040954396 0.026616374 0.015201721 0.008530114
0.015739612 -0.022552935 -0.044458643 -0.023310386 0.0007827454 0.020481773 0.0043821316 0.058261443
-0.003403991 -0.032212645 0.022404753 -0.027362667 0.007036545 0.037934944 0.05730805 -0.026981076
-0.04366217 0.022727743 0.044445932 -0.02654588 0.05284239 -0.018939499 0.029291578 0.040496476
0.033239767 -0.060588844 -0.027876131 -0.02921947 -0.0010559798 0.008802616 -0.05659303 -0.055698007
0.06136853 -0.044199184 0.008041419 0.024642913 0.034247875 -0.038551576 0.049949884 -0.051147614
-0.028156186 0.012739824 0.046730492 -0.059779145 0.057123438 -0.01875792 0.015794095 -0.056085702
-0.022385716 0.04354829 -0.04215318 -0.039558604 -0.028412439 0.05256433 -0.018227339 0.047745217
0.018898506 -0.008325434 -0.05821593 -0.03117606 -0.03555375 0.04431084 -0.024736155 -0.0077473302
0.03396204 -0.02153842 -0.05831988 0.022727424 0.05261601 0.04825464 -0.034448493 -0.054472096
0.0015923547 -0.010663336 -0.013768472 -0.041246828 -0.05203927 0.014886658 -0.0058769356 0.05100095
-0.056464903 -0.047855496 -0.013975222 0.029766116 -0.0031245768 -0.028652102 0.044482462 0.0060501504
0.006059995 0.030825969 0.025247736 -0.028787155 0.0021295596 0.004432653 0.046822622 0.0578941
-0.007086578 -0.044375584 0.032909885 -0.046958067 0.059007578 0.05544036 0.052080985 -0.005104391
0.038733523 0.021026917 -0.0449736 -0.013802662 0.03978312 -0.0569977 0.03140589 0.014316686
-0.02703054 0.024252333 -0.027349718 0.03512156 0.01736374 0.05471123 0.05185865 -0.05801273
0.028182603 0.046655923 -0.036791265 0.002759457 0.047057644 0.033290457 0.0618289 -0.009905954
0.0039067296 -0.041062087 -0.019473525 0.0038457804 -0.06060394 0.035357654 0.0007305958 -0.03462836
0.056824107 0.035253484 -0.05242827 -0.0012863303 -0.0070644612 0.04534553 -0.039516337 0.022051804
-0.058389302 0.060354218 0.03314629 0.0011038445 0.0020598173 0.01921563 0.022397216 -0.004450142
-0.038192697 0.011373303 -0.039205596 0.023793643 0.020059451 0.05889706 0.005668217 -0.033850797
-0.06090401 -0.028807778 -0.030775933 0.052723873 0.046718307 0.031370007 -0.0038229176 0.0622531
-0.059267182 -0.04808115 -0.052699823 0.03152197 0.0056956657 0.040256064 0.054473933 -0.008692764
-0.016091438 -0.047721297 0.008273241 -0.041494843 -0.05577988 -0.056745037 0.0011197908 0.051033948
-0.011763136 0.049085226 -0.036795475 -0.054116372 0.054159854 -0.0054287743 -0.005501158 0.011481408
0.02010723 -0.008734327 0.017021943 -0.04540095 -0.014084703 -0.038207162 -0.047687132 0.060529046
0.009421021 0.031443078 0.0109180035 -0.014159862 -0.0055777826 0.03198064 -0.05149074 0.0066132657
-0.04910366 0.02265273 -0.007899158 0.0137523785 -0.04790514 -0.031683747 0.01594161 0.043781456
0.027427971 -0.05022084 -0.06066804 -0.014402232 -0.030171666 0.026500478 0.054348446 -0.044091977
-0.003914983 0.04434802 -0.006358266 -0.022048496 -0.054862835 0.0046780636 -0.031613287 0.011193072
00000000: 8853 253c 7d8b 56bd 1ae9 e8ba 8caa fe3c
00000010: 088a 37bc 1a0e 603c a0f3 bf3c cab2 2b3d
00000020: 744d 0c3d 7676 7cbc 2e7e 1bbd b88e 55bd
00000030: 645e 213d 31f9 3fbd 02e2 67bd 7860 92bc
00000040: 80a2 aa3c b60e 733d 8002 583d be3c cc3c
00000050: ccbf 273d 950a da3c a410 793c e4c1 0b3c
00000060: 5cf0 803c efc0 b8bc 441a 36bd 6cf5 bebc
00000070: 2831 4d3a 64c9 a73c fc97 8f3b 8da3 6e3d
00000080: 7e15 5fbb 68f1 03bd 2c8a b73c ac27 e0bc
00000090: d192 e63b ac61 1b3d d9bb 6a3d 6b07 ddbc
000000a0: 1bd7 32bd 882f ba3c f00c 363d bf76 d9bc
000000b0: 4371 583d 0227 9bbc e4f4 ef3c a2df 253d
000000c0: 6c26 083d 022c 78bd 7c5c e4bc ac5d efbc
000000d0: cd68 8aba d938 103c 18ce 67bd 9823 64bd
000000e0: 915d 7b3d 340a 35bd 28c0 033c efdf c93c
000000f0: 8047 0c3d 42e8 1dbd 4098 4c3d 2980 51bd
00000100: cda7 e6bc b2ba 503c 7968 3f3d fada 74bd
00000110: 44fa 693d 36aa 99bc 9e62 813c 1fba 65bd
00000120: 4062 b7bc b15f 323d d0a8 2cbd 3408 22bd
00000130: 34c1 e8bc b24d 573d 8051 95bc 7d90 433d
00000140: 0ad1 9a3c 6767 08bc d473 6ebd f064 ffbc
00000150: cfa0 11bd 497f 353d 7aa3 cabc 51dd fdbb
00000160: c81b 0b3d 5771 b0bc d4e0 6ebd dd2e ba3c
00000170: e383 573d a8a6 453d dd19 0dbd 221e 5fbd
00000180: 8fb6 d03a 46b5 2ebc 2895 61bc 6ff2 28bd
00000190: 2127 55bd 2be7 733c 4f93 c0bb 5fe6 503d
000001a0: be47 67bd 2004 44bd 54f8 64bc 12d8 f33c
000001b0: b3c5 4cbb d0b7 eabc 3e33 363d 5740 c63b
000001c0: ec92 c63b be86 fc3c 57d4 ce3c 0ad3 ebbc
000001d0: 1590 0b3b ca3f 913b 14c9 3f3d 5d22 6d3d
000001e0: 8636 e8bb 2cc3 35bd 84cc 063d 1a57 40bd
000001f0: eeb1 713d 6e15 633d df52 553d bc42 a7bb
00000200: 0ba7 1e3d a440 ac3c 3d36 38bd 8f24 62bc
00000210: a0f3 223d 6c76 69bd 76a3 003d 8990 6a3c
00000220: 276f ddbc d4ac c63c 840c e0bc a0db 0f3d
00000230: 673e 8e3c e218 603d bc69 543d c29e 6dbd
00000240: 34df e63c 481a 3f3d 70b2 16bd 02d8 343b
00000250: 84bf 403d 935b 083d 4d40 7d3d 954c 22bc
00000260: 0604 803b b830 28bd f186 9fbc 7d09 7c3b
00000270: d63b 78bd 30d3 103d 7485 3f3a 78d6 0dbd
00000280: 65c0 683d f565 103d 07bf 56bd 159a a8ba
00000290: ff7c e7bb 3cbc 393d e2db 21bd fca5 b43c
000002a0: 9f29 6fbd fc35 773d 67c4 073d e0ae 903a
000002b0: 00fe 063b 196a 9d3c 5e7a b73c 7fd2 91bb
000002c0: f26f 1cbd 1757 3a3c 0c96 20bd e3ea c23c
000002d0: b853 a43c 0b3e 713d 73bc b93b 22a7 0abd
000002e0: 7c76 79bd 4afe ebbc cf1d fcbc fdf4 573d
000002f0: b25b 3f3d d67d 003d ea89 7abb 1bfd 7e3d
00000300: 25c2 72bd bdf0 44bd c5db 57bd 2e1d 013d
00000310: b5a2 ba3b 8be3 243d 0f20 5f3d 186c 0ebc
00000320: 31d2 83bc 6877 43bd 7d8c 073c 7ff6 29bd
00000330: 7279 64bd 7c6d 68bd f2c5 923a f908 513d
00000340: 2bba 40bc 970d 493d dab6 16bd 21a9 5dbd
00000350: b9d6 5d3d dce3 b1bb 0f43 b4bb 841c 3c3c
00000360: ebb7 a43c 6c1a 0fbc 9a71 8b3c 59f6 39bd
00000370: 87c3 66bc 1d7f 1cbd 9553 43bd 4eed 773d
00000380: a05a 1a3c 75ca 003d 6de1 323c c4fe 67bc
00000390: d5c5 b6bb 22fe 023d f4e7 52bd 18b4 d83b
000003a0: eb20 49bd 3892 b93c 786b 01bc a851 613c
000003b0: 2e38 44bd d1c6 01bd fb97 823c 2f54 333d
000003c0: a0b0 e03c 5eb4 4dbd 0d7f 78bd 57f7 6bbc
000003d0: 922a f7bc 8817 d93c 7a9c 5e3d ca99 34bd
000003e0: 4249 80bb 45a6 353d 0059 d0bb 0c9f b4bc
000003f0: dab7 60bd 714a 993b ef7c 01bd 2663 373c

fc2.bias f4 [128]
-7.8486926e-05 0.0283789 -0.04786054 0.026467226 0.020347467 0.0198046 -0.016500054 0.053638104
-0.052574493 0.026165638 0.004955126 -0.009912711 0.04070218 -0.0006047212 -0.00010008585 -0.0013260696
-0.0038390695 -0.018518437 -0.036676705 0.028962487 0.051916238 0.0093642315 -0.01581883 -0.026965398
-0.020661736 0.027864654 8.4569794e-05 0.034682356 0.026090821 -0.009687247 0.05274409 -0.01017494
-0.04850968 -0.017756036 0.005589403 -0.048058845 0.0018020159 -0.01962897 0.0468897 -0.040320553
0.05227631 0.027121842 -3.551026e-05 0.0048296675 -0.0021115679 0.011929106 -0.018864984 0.022429496
0.016957616 -0.053415883 0.024932299 0.026463797 0.049349666 0.016433807 0.018764041 -0.009808054
-0.039575614 0.038677156 -0.018708372 -0.000102904596 0.001774664 0.017722167 0.0050073117 -0.026563559
0.04346928 6.3092935e-05 -8.343692e-05 0.042325765 0.050338425 -0.044193864 0.0112998495 0.020580616
0.027797848 0.0005104769 -4.1992636e-05 0.00073342095 -0.036067717 0.030613938 0.0005462333 0.038960576
0.049752295 0.049272474 -0.025367793 0.019869076 0.048027474 -0.000100929516 0.03768409 0.048985634
0.046616167 -0.005259767 6.343792e-05 0.00012623303 0.031708498 -0.010598287 -0.026432397 -0.021270648
0.021253094 -0.032976188 0.05057151 -0.036513314 0.01152073 0.024059957 -8.0054764e-05 0.05258446
0.00041814588 -0.0038358152 0.028743718 0.022468625 6.1436054e-05 0.013034672 0.041084234 -0.021775138
0.0034618867 6.192674e-05 -0.007036743 -0.0020416952 0.046114005 -0.018225156 0.03543461 0.029121254
-0.039962314 0.00018370363 0.038317677 -0.01933593 0.005975608 -2.4082055e-05 0.032536585 -0.04867687
00000000: 5999 a4b8 de7a e83c 6a09 44bd ccd1 d83c
00000010: bbaf a63c 423d a23c 1f2b 87bc a1b3 5b3d
00000020: 5a58 57bd 5259 d63c 9c5e a23b ec68 22bc
00000030: 54b7 263d 2786 1eba 2ee5 d1b8 83cf adba
00000040: e698 7bbb fab3 97bc 503a 16bd bd42 ed3c
00000050: 1fa6 543d 6f6c 193c 7e96 81bc 8ae6 dcbc
00000060: cd42 a9bc 6a44 e43c 105b b138 160f 0e3d
00000070: 6bbc d53c 42b7 1ebc 300a 583d cbb4 26bc
00000080: 16b2 46bd 1b75 91bc 5027 b73b 5ad9 44bd
00000090: 9f31 ec3a efcc a0bc 6a0f 403d 2a27 25bd
000000a0: af1f 563d a02e de3c daf0 14b8 3042 9e3b
000000b0: 3b62 0abb 4c72 433c bd8a 9abc 10be b73c
000000c0: b3ea 8a3c 9dca 5abd d23e cc3c 9bca d83c
000000d0: e022 4a3d 31a0 863c 0cb7 993c f6b1 20bc
000000e0: 0a1a 22bd f06b 1e3d 4d42 99bc 7cce d7b8
000000f0: d89b e83a 142e 913c 6014 a43b d29b d9bc
00000100: d80c 323d c350 8438 dbfa aeb8 c85d 2d3d
00000110: aa2f 4e3d a004 35bd 0123 393c ae98 a83c
00000120: 50b8 e33c 86d1 053a 4021 30b8 0c43 403a
00000130: bebb 13bd 15ca fa3c 1931 0f3a 2095 1f3d
00000140: 10c9 4b3d efd1 493d 1ed0 cfbc 79c4 a23c
00000150: 75b8 443d 1faa d3b8 a25a 1a3d 29a5 483d
00000160: 98f0 3e3d 205a acbb f909 8538 6c5d 0439
00000170: c5e0 013d 70a4 2dbc c188 d8bc c83f aebc
00000180: f81a ae3c 0a12 07bd 1224 4f3d fc8e 15bd
00000190: 72c1 3c3c 6319 c53c 13e3 a7b8 cd62 573d
000001a0: 973a db39 4d62 7bbb f277 eb3c 1f10 b83c
000001b0: 3bd7 8038 608f 553c f147 283d c661 b2bc
000001c0: d2e0 623b aade 8138 7b94 e6bb f6cd 05bb
000001d0: 0ae2 3c3d ec4c 95bc e223 113d b28f ee3c
000001e0: 86af 23bd 91a0 4039 fff2 1c3d 6266 9ebc
000001f0: 08cf c33b d203 cab7 1545 053d 6661 47bd

bn2.weight f4 [128]
0.999743 1.0026355 1.0002817 1.0007668 1.0024105 0.9982545 0.99978936 1.001628
0.99761075 0.99933565 1.0023082 0.99894935 0.99628794 1.0001873 0.99958444 1.000413
1.001653 0.99901617 1.000131 1.0015655 0.9969554 0.9987075 1.0008929 0.99984837
0.9997298 1.0001566 1.0003569 0.99856246 1.0005338 1.0001838 0.9994916 0.9999912
1.0003822 0.9985305 1.0009786 0.99736464 0.99903077 0.997785 0.99962264 1.0003146
1.0012324 0.999557 1.0002792 0.9992125 1.0025375 1.001871 1.000256 0.99927133
1.0017912 1.0017128 0.9997567 0.99859273 0.9975878 0.9991733 0.9987116 0.9997833
1.000865 1.0002949 1.0009519 1.0000902 0.9996647 1.0016294 0.99926686 0.9981432
0.9995748 1.0004162 0.9986395 1.0012614 1.0003338 0.9995481 0.9991286 1.000387
1.0011725 1.0009407 0.9979076 1.000662 1.0020344 0.99916047 1.0023357 0.99903345
0.9998361 0.99867296 0.9987402 1.0005158 0.99997497 0.99875265 0.9989648 0.9959196
1.0006964 0.99745286 0.9965134 0.99931985 1.0000359 0.9989261 0.99847007 0.9987397
1.0013496 1.002771 1.0006187 1.0014421 1.0020804 1.0000331 1.0031557 1.0005354
1.0004475 0.9997542 0.99917346 1.0015807 0.9979636 0.99922514 0.9975507 0.9979023
0.99908113 0.9995832 1.0007099 1.0001023 0.9987366 0.99590886 0.99629104 1.000554
1.0004282 0.9991256 1.0025647 1.00037 0.99787384 0.99898285 0.9998245 1.000058
00000000: 28ef 7f3f 5c56 803f 3b09 803f 2019 803f
00000010: fd4e 803f 9b8d 7f3f 32f2 7f3f 5935 803f
00000020: 6b63 7f3f 76d4 7f3f a34b 803f 25bb 7f3f
00000030: ba0c 7f3f 2306 803f c4e4 7f3f 880d 803f
00000040: 2a36 803f 86bf 7f3f 4b04 803f 4c33 803f
00000050: 7838 7f3f 4bab 7f3f 421d 803f 10f6 7f3f
00000060: 4bee 7f3f 2205 803f b20b 803f caa1 7f3f
00000070: 7e11 803f 0606 803f aede 7f3f 6cff 7f3f
00000080: 860c 803f b29f 7f3f 1120 803f 4a53 7f3f
00000090: 7bc0 7f3f d66e 7f3f 45e7 7f3f 4f0a 803f
000000a0: 6228 803f f8e2 7f3f 2609 803f 64cc 7f3f
000000b0: 2653 803f 4f3d 803f 6308 803f 3fd0 7f3f
000000c0: b23a 803f 2038 803f 0ef0 7f3f c6a3 7f3f
000000d0: ea61 7f3f d2c9 7f3f 90ab 7f3f ccf1 7f3f
000000e0: 581c 803f aa09 803f 311f 803f f502 803f
000000f0: 07ea 7f3f 6435 803f f4cf 7f3f 5086 7f3f
00000100: 22e4 7f3f a30d 803f d7a6 7f3f 5529 803f
00000110: f00a 803f 62e2 7f3f e4c6 7f3f ae0c 803f
00000120: 6c26 803f d31e 803f df76 7f3f b115 803f
00000130: aa42 803f fbc8 7f3f 894c 803f a8c0 7f3f
00000140: 42f5 7f3f 08a9 7f3f 70ad 7f3f e710 803f
00000150: 5cfe 7f3f 41ae 7f3f 28bc 7f3f 96f4 7e3f
00000160: d216 803f 1259 7f3f 811b 7f3f 6dd3 7f3f
00000170: 2d01 803f 9fb9 7f3f bc9b 7f3f 68ad 7f3f
00000180: 392c 803f cd5a 803f 4614 803f 412f 803f
00000190: 2c44 803f 1601 803f 6867 803f 8b11 803f
000001a0: aa0e 803f e4ef 7f3f d5c9 7f3f cc33 803f
000001b0: 8b7a 7f3f 38cd 7f3f 7c5f 7f3f 8676 7f3f
000001c0: c8c3 7f3f afe4 7f3f 4317 803f 5a03 803f
000001d0: 34ad 7f3f e2f3 7e3f ee0c 7f3f 2712 803f
000001e0: 080e 803f b2c6 7f3f 0a54 803f 200c 803f
000001f0: a974 7f3f 57bd 7f3f 80f4 7f3f e701 803f
