tryst/model_round_6.pth (torch, 194739 bytes, 19 tensors)

fc1.weight f4 [256, 14]
0	0x3e371ade	0.17881343
1	0xbdedbb82	-0.1160803
2	0x3cbacf0c	0.022803806
3	0x3dd0383a	0.10166974
4	0x3dbc8dd2	0.092067376
5	0x3cd8e409	0.026475923
6	0x3da135f9	0.078716226
7	0x3e074eda	0.13213673
8	0x3e0a5196	0.13507685
9	0x3d1bc0d6	0.0380257
10	0x3d8f2a5c	0.06990501
11	0xbb966e7b	-0.004590807
12	0xbc082f2b	-0.008312027
13	0xbdb78115	-0.08960167
14	0x3d4dbfeb	0.050231855
15	0x3dd4133c	0.10355231
16	0xbcbd6325	-0.023118565
17	0xbe3f5e81	-0.18688394
18	0x3d1cc47b	0.038273316
19	0x3cd60988	0.026127592
20	0xbdc4369c	-0.095807284
21	0xbddff3bd	-0.10935161
22	0xbdd7e737	-0.105421476
23	0x3d635d30	0.055508792
24	0xbc6ff36f	-0.014645441
25	0xbd98c705	-0.07459835
26	0x3ccc199d	0.024914557
27	0xbe127aae	-0.14304611
28	0xbe029807	-0.12753306
29	0xbd53c99d	-0.051705945
30	0x3d73246e	0.059360914
31	0xbc871809	-0.016490953
32	0xbd9e8e2b	-0.0774196
33	0xbd4b0902	-0.049569137
34	0x3d343684	0.043997303
35	0xbda04e52	-0.078274384
36	0xbd03261c	-0.032018766
37	0xbd8bc557	-0.06824749
38	0x3e0aa4f3	0.13539486
39	0xbd911742	-0.07084514
40	0x3d613758	0.05498442
41	0xbdd9e63a	-0.10639615
42	0x3e1de7d4	0.15420467
43	0xbe24d3ed	-0.16096468
44	0x3c4f1115	0.01263835
45	0xbe244185	-0.16040619
46	0xbd29b439	-0.04143164
47	0xbd66da06	-0.056360267
48	0x3d6a0ae8	0.057139307
49	0xbddd87e8	-0.10816938
50	0xbdd96ffb	-0.10617062
51	0x3dc61caf	0.0967344
52	0x3e1572f7	0.14594637
53	0x3b9d1db4	0.0047948007
54	0x3df03a56	0.11729877
55	0x3db1146f	0.086464755
56	0xbdb9fae8	-0.0908106
57	0x3dca4dac	0.09878096
58	0xbca4bdf6	-0.020110112
59	0x3de957dc	0.11393711
60	0xbcffc996	-0.031224053
61	0x3d6935ba	0.056936003
62	0x3dcb4609	0.099254675
63	0x3d673dd0	0.056455433
64	0xbdf0bbf2	-0.11754598
65	0x3c5ac312	0.013352172
66	0xbe2afd24	-0.16698128
67	0x3dbbdae4	0.091726094
68	0xbc418e82	-0.011813762
69	0x3b819840	0.003954917
70	0x3b4e3e07	0.0031470077
71	0x3c13674e	0.008996798
72	0x3c0f9488	0.00876344
73	0xbe20583a	-0.15658656
74	0xbddfa69a	-0.109204486
75	0x3dd8e6b1	0.10590876
76	0x3be873af	0.0070938687
77	0x3d5f959e	0.054586045
78	0x3d27565e	0.04085385
79	0x3da0b180	0.078463554
80	0xbd147808	-0.036247283
81	0x3d56b571	0.05241913
82	0x3dcc8708	0.09986693
83	0xbdc96a78	-0.098347604
84	0x3dec2b14	0.11531654
85	0xbd0df9c8	-0.034662038
86	0x3dc11484	0.09427741
87	0xbd9250a6	-0.07144289
88	0x3d474acc	0.048655316
89	0x3dd3340a	0.1031266
90	0x3de6e87f	0.11274814
91	0x3ccd4ed4	0.025062002
92	0xbd2a90ca	-0.041641988
93	0x3b15a9d3	0.0022836819
94	0xbe0c45e8	-0.13698542
95	0xbda61e16	-0.08111207
96	0xbd255d5e	-0.040372245
97	0x3df30d64	0.118677884
98	0x3d96a302	0.0735531
99	0x3dbcdfe4	0.09222391
100	0xbd7d908c	-0.06190543
101	0x3e1046b8	0.14089477
102	0xbd6fd8b0	-0.05855626
103	0xbc13f80a	-0.009031305
104	0x3d99b03a	0.07504316
105	0x3d9eb96e	0.07750212
106	0xbdb7a6e4	-0.08967379
107	0xbe1fdca0	-0.15611506
108	0x3d17f157	0.037095394
109	0xbd9cd9c2	-0.076587215
110	0xbcb72b1f	-0.022359429
111	0xbe0be797	-0.13662563
112	0xbde8dfd8	-0.1137082
113	0xbd8c4cd8	-0.06850594
114	0x3dca1170	0.09866607
115	0x3d10990c	0.035302207
116	0x3d849185	0.06473068
117	0x3ca3d5de	0.01999944
118	0xbdc2cacd	-0.095113374
119	0xbe034f60	-0.12823248
120	0xbdbecebd	-0.09316776
121	0x3b44b7a2	0.003001668
122	0xbdd1f2f4	-0.10251418
123	0xbdde31ea	-0.10849364
124	0xbdf28b32	-0.11842956
125	0x3d3592f0	0.044329584
126	0xbdc091af	-0.09402787
127	0xbd59d8de	-0.053185336
128	0x3b79760a	0.0038064742
129	0x3d099d9f	0.033597585
130	0xbd261dd0	-0.040555775
131	0x3d6ad9c1	0.057336573
132	0xbe0d3d31	-0.13792874
133	0xbd8850fc	-0.066560715
134	0xbccd99d3	-0.025097763
135	0x3d02f037	0.031967368
136	0xbe0beb31	-0.13663937
137	0xbdbd1916	-0.092333004
138	0x3bc9a367	0.0061535123
139	0x3e3046bb	0.17214482
140	0x3d82eeaa	0.06393178
141	0xbd04652e	-0.032323055
142	0x3d908ee8	0.07058507
143	0xbdec8d2e	-0.115503654
144	0x3c66ccc9	0.0140869105
145	0x3b57a4b6	0.0032904572
146	0xbe1fe087	-0.15612994
147	0x3d1714d4	0.036885098
148	0xbdb0d063	-0.086334966
149	0xbc8d4e1c	-0.01724916
150	0xbc8862fe	-0.016648766
151	0xbdd57d82	-0.10424329
152	0x3adc9964	0.0016830382
153	0x3d5a575a	0.05330596
154	0x3d6ff595	0.058583815
155	0x3dda7508	0.10666853
156	0x3dcce4fe	0.10004614
157	0xbcdfc002	-0.027313236
158	0xbc9fccee	-0.019506898
159	0x3d41dd06	0.047329925
160	0xbc90d647	-0.0176803
161	0xbd9cdcda	-0.076593116
162	0x3c410e68	0.01178322
163	0x3dafe646	0.08588843
164	0xbd0261dc	-0.031831607
165	0x3cb3ecbe	0.021963473
166	0x3da03b92	0.07823862
167	0x3e70baa3	0.23508696
168	0xbdfbcf90	-0.12295449
169	0xbcd7262e	-0.026263323
170	0xbdc439d1	-0.0958134
171	0xbd393355	-0.04521497
172	0xbe0aec1d	-0.13566633
173	0xbdde926f	-0.10867774
174	0x3ca58874	0.020206667
175	0x3caf8fb9	0.021430837
176	0xbdb261df	-0.08710074
177	0x3db641e0	0.088992834
178	0x3e045434	0.12922746
179	0xbdd023d6	-0.10163085
180	0xbc2ace54	-0.010425169
181	0xbc8d10ba	-0.01721989
182	0xbcd29796	-0.025707047
183	0x3c9ad1c2	0.018898848
184	0xbd957d62	-0.072993055
185	0xbc097282	-0.008389117
186	0x3dafa3ac	0.0857614
187	0xbda8ddf6	-0.08245461
188	0x3c41bac8	0.011824317
189	0xbe17ae01	-0.14812471
190	0x3dbf6c35	0.09346811
191	0x3e0beea2	0.1366525
192	0xbd6d2566	-0.057896994
193	0x3d531b7a	0.051539876
194	0x3e16d080	0.14727974
195	0xbdca279e	-0.09870838
196	0xbdfa83db	-0.12232181
197	0xbd18806a	-0.03723184
198	0xbe164b90	-0.14677262
199	0xbd9b124d	-0.0757185
200	0x3d5b428d	0.053530265
201	0xbd5277d6	-0.051383816
202	0xbdd61258	-0.104527175
203	0x3dbca392	0.09210886
204	0x3ad970c1	0.0016589389
205	0xbe191cd8	-0.1495241
206	0x3c9cdacf	0.019147305
207	0x3d0b287c	0.033974156
208	0x3b1eab54	0.0024211006
209	0xbdcbf980	-0.09959698
210	0x3da78b1a	0.081808284
211	0x3cfb1415	0.030649224
212	0xbd6b5e0c	-0.057462737
213	0x3dbd8163	0.09253194
214	0xbdf54f90	-0.11978066
215	0x3dd38ab8	0.10329193
216	0x3da25a6c	0.07927403
217	0x3dc23ff4	0.09484854
218	0xbd069c67	-0.032864
219	0x3dfd3bd5	0.12364928
220	0x3e22ab40	0.15885639
221	0xbdb835ac	-0.08994612
222	0x3e1785f8	0.14797199
223	0x3e0ce0ce	0.13757631
224	0xbdb99d9c	-0.09063265
225	0x3d523287	0.051317718
226	0xbbabb781	-0.005240381
227	0xbc714283	-0.01472533
228	0x3d17ae07	0.0370312
229	0xbcefc393	-0.029268062
230	0x3e0b0a06	0.13578042
231	0xbd8d13d3	-0.06888547
232	0xbb4932f2	-0.0030700532
233	0xbe3be75b	-0.18349974
234	0xbdb10284	-0.08643058
235	0xbddbd136	-0.10733263
236	0x3d8fc740	0.07020426
237	0xbd52f453	-0.051502537
238	0x3d9c3b8e	0.07628547
239	0xbe15d5ce	-0.14632341
240	0x3e1478e1	0.14499237
241	0xbe1d41a6	-0.15357074
242	0xbd74d0fe	-0.059769623
243	0x3dead01c	0.11465475
244	0xbe05cdee	-0.13066837
245	0xbcaa733e	-0.020806905
246	0xbdb8f61b	-0.09031316
247	0x3c998aba	0.018742908
248	0xbcff3bf6	-0.031156521
249	0xbdde9fa2	-0.10870291
250	0xbd9a97f5	-0.07548515
251	0xbd7a037c	-0.06103848
252	0xbc09202e	-0.008369489
253	0x3bb98482	0.005661548
254	0xbd9bf745	-0.07615522
255	0xbdcce518	-0.10004634

fc1.bias f4 [256]
0	0xb68fcf84	-4.28589e-06
1	0xb3ae79ba	-8.124648e-08
2	0xb5b20d76	-1.3265951e-06
3	0xb731c7dc	-1.05965555e-05
4	0x36f48ea7	7.2883736e-06
5	0x3504de88	4.949766e-07
6	0xb507989e	-5.0513506e-07
7	0x3634210f	2.6841333e-06
8	0x3643e86c	2.9192552e-06
9	0xb7388f36	-1.10005985e-05
10	0x35a63508	1.2383398e-06
11	0xb6fe8f90	-7.5865028e-06
12	0x375d3003	1.3183805e-05
13	0x36880dfb	4.0547434e-06
14	0xb63bb6ce	-2.7971578e-06
15	0x368aae88	4.1330386e-06
16	0xb5cace2c	-1.5110177e-06
17	0x36e98fb0	6.9606685e-06
18	0xb70694bb	-8.021651e-06
19	0x355ba4fa	8.182393e-07
20	0xb6942b04	-4.4157514e-06
21	0x35eaf3b2	1.7505283e-06
22	0x36b01e8f	5.2487662e-06
23	0xb658df20	-3.2316384e-06
24	0x36ee3fed	7.1003947e-06
25	0xb5304a26	-6.567301e-07
26	0xb5e57060	-1.7094535e-06
27	0xb7bbf158	-2.2404522e-05
28	0xb692de60	-4.377027e-06
29	0xb68b2de9	-4.1478675e-06
30	0xb6b00062	-5.2452533e-06
31	0xb5bb3efa	-1.3950914e-06
32	0x36b64222	5.4317215e-06
33	0x36411c45	2.8775696e-06
34	0x3699b196	4.580429e-06
35	0xb732d775	-1.0659792e-05
36	0x36f17393	7.1958143e-06
37	0xb77bdec2	-1.5012631e-05
38	0x36d44514	6.326134e-06
39	0xb5ae1986	-1.2971439e-06
40	0xb73b44a6	-1.1162052e-05
41	0xb595b595	-1.1154212e-06
42	0x3575957e	9.148715e-07
43	0xb6b81ef7	-5.487232e-06
44	0x35f649c7	1.83499e-06
45	0xb7535cc0	-1.2598175e-05
46	0x35161ae0	5.591846e-07
47	0x37656336	1.3672563e-05
48	0xb5a2c373	-1.2126824e-06
49	0xb5c375fc	-1.456297e-06
50	0xb773335e	-1.44958885e-05
51	0x37941e71	1.765715e-05
52	0xb7911ee9	-1.729974e-05
53	0xb65afe2d	-3.2632481e-06
54	0x368fcab1	4.2853285e-06
55	0xb786a972	-1.6052949e-05
56	0x359738bc	1.1266889e-06
57	0x358edde2	1.0644401e-06
58	0x3689064a	4.0836503e-06
59	0x35f698f4	1.8372943e-06
60	0xb4da0f4e	-4.06168e-07
61	0xb61a90d2	-2.3032085e-06
62	0x36de512c	6.625565e-06
63	0x36301cba	2.6242765e-06
64	0xb7244c6e	-9.792957e-06
65	0x373d83ac	1.1295935e-05
66	0x37aea445	2.081891e-05
67	0xb5a51e6a	-1.230231e-06
68	0x34d7cef0	4.0197438e-07
69	0xb496a9ca	-2.8063215e-07
70	0x366ae1a4	3.5000057e-06
71	0x37198c17	9.152128e-06
72	0xb6d2097a	-6.259591e-06
73	0xb5baed78	-1.3927192e-06
74	0x37073610	8.059214e-06
75	0x3520a988	5.9851345e-07
76	0x36ee96ff	7.110531e-06
77	0xb5a00694	-1.1922843e-06
78	0x36747050	3.6424208e-06
79	0x37a9c930	2.0240055e-05
80	0xb6793d04	-3.7139407e-06
81	0x35ef09d2	1.7809746e-06
82	0xb7611ff4	-1.3418485e-05
83	0x3618a388	2.2744953e-06
84	0x35b98852	1.3823249e-06
85	0x36e6aae5	6.874429e-06
86	0xb6eb4ef8	-7.012739e-06
87	0xb6bff40c	-5.7206544e-06
88	0x37173520	9.0126705e-06
89	0xb6db5d09	-6.5375393e-06
90	0xb6bf4c1a	-5.701103e-06
91	0x375fb890	1.3334808e-05
92	0x34a4d6be	3.0703626e-07
93	0xb64f09ca	-3.0851102e-06
94	0x371f8e9d	9.510343e-06
95	0x354a16b0	7.528388e-07
96	0xb73ee617	-1.13784545e-05
97	0x36415110	2.8806426e-06
98	0x37ac77e4	2.0559826e-05
99	0xb3522770	-4.8930303e-08
100	0x35bfe8bf	1.4298347e-06
101	0x371e4d92	9.435595e-06
102	0xb7e134ca	-2.6846672e-05
103	0x36c81514	5.9629183e-06
104	0xb70da56d	-8.442771e-06
105	0x3714b9b9	8.864729e-06
106	0xb6f6d85f	-7.35656e-06
107	0x370c8907	8.376554e-06
108	0x3600e5b2	1.9207187e-06
109	0x372165bf	9.620037e-06
110	0xb6941026	-4.4126236e-06
111	0xb62eda5a	-2.6055118e-06
112	0x37214b6b	9.613907e-06
113	0x36444661	2.9247242e-06
114	0x37ea776b	2.7950582e-05
115	0xb693613b	-4.3922605e-06
116	0x35edc938	1.7716438e-06
117	0x3697b0db	4.5207394e-06
118	0x3651ca2d	3.1261109e-06
119	0x3656bafa	3.199732e-06
120	0xb70ab48a	-8.267476e-06
121	0xb7359f91	-1.0825593e-05
122	0x36fc03ac	7.5106127e-06
123	0x3796057e	1.7883951e-05
124	0x374b375a	1.211263e-05
125	0xb79d89c2	-1.8780007e-05
126	0xb622fd40	-2.4287292e-06
127	0xb72ff51b	-1.0487881e-05
128	0x36dd632a	6.5978575e-06
129	0xb4c40648	-3.6512415e-07
130	0xb733076e	-1.0670961e-05
131	0x365ad9fc	3.2611415e-06
132	0xb65dfac5	-3.3077533e-06
133	0x36bf1cd8	5.6956014e-06
134	0xb7946592	-1.7690272e-05
135	0x3538dcd1	6.886667e-07
136	0xb6a400f2	-4.887691e-06
137	0xb6c06e2a	-5.7348707e-06
138	0xb7151760	-8.8865345e-06
139	0xb64034e9	-2.8641027e-06
140	0x37792b31	1.4851613e-05
141	0xb714e7d6	-8.875466e-06
142	0x3707fd81	8.1056505e-06
143	0xb4b3bf80	-3.3480683e-07
144	0x36b376a8	5.348429e-06
145	0xb673a8f9	-3.6308177e-06
146	0x3714cde8	8.869429e-06
147	0xb640922d	-2.8695315e-06
148	0x36794759	3.7145421e-06
149	0x35fa7584	1.8660653e-06
150	0xb748fdc8	-1.1980017e-05
151	0x365dc8b4	3.304839e-06
152	0xb6816bb7	-3.8570392e-06
153	0xb61018e9	-2.1472172e-06
154	0x37928b8b	1.7469536e-05
155	0xb7126012	-8.724646e-06
156	0xb7c92c3d	-2.3981667e-05
157	0xb6ed6f21	-7.0760875e-06
158	0x363c5e37	2.8069023e-06
159	0x3702ce7c	7.79668e-06
160	0xb7678a86	-1.3800925e-05
161	0x33e02e20	1.0439203e-07
162	0xb6e97976	-6.958081e-06
163	0x3681f8fe	3.873486e-06
164	0x35b17fa6	1.3224678e-06
165	0x364a3c00	3.013527e-06
166	0xb7078cbc	-8.079394e-06
167	0x360fb15f	2.1411904e-06
168	0x36c00e2d	5.723696e-06
169	0x372ea902	1.0410558e-05
170	0x35c272a0	1.4487487e-06
171	0x36e765fa	6.896208e-06
172	0x37154f4a	8.899553e-06
173	0xb6c62e94	-5.9062822e-06
174	0x34c295f8	3.6244433e-07
175	0x371638ac	8.953892e-06
176	0xb7362a28	-1.0857861e-05
177	0x35ab649b	1.2769773e-06
178	0x375a6d03	1.3019194e-05
179	0xb69608fe	-4.471395e-06
180	0xb649e282	-3.008318e-06
181	0x36c73bff	5.9376466e-06
182	0x3643db65	2.9184969e-06
183	0x35f929a6	1.8564067e-06
184	0xb6a6a628	-4.9665286e-06
185	0x3660d6e6	3.3503688e-06
186	0x35aac58d	1.2723482e-06
187	0x36b66e1a	5.43684e-06
188	0x360cdb3e	2.0989241e-06
189	0x3444b394	1.8319253e-07
190	0x343b276a	1.7430071e-07
191	0xb73fead1	-1.143916e-05
192	0xb5b9b3da	-1.3835918e-06
193	0x36051d4e	1.9835602e-06
194	0x357fb1ee	9.5253824e-07
195	0xb703a76c	-7.847189e-06
196	0x3616a0c0	2.244531e-06
197	0x37e127e8	2.6840673e-05
198	0x37f33b6a	2.8995524e-05
199	0x3783763c	1.5671474e-05
200	0xb797a689	-1.8078152e-05
201	0xb6883c89	-4.060163e-06
202	0xb7128eb3	-8.735503e-06
203	0x3669187b	3.4733955e-06
204	0xb763da36	-1.3581061e-05
205	0xb682e408	-3.9008482e-06
206	0xb5b94caa	-1.3805886e-06
207	0x36ce1513	6.141732e-06
208	0xb65102f8	-3.1145155e-06
209	0xb6922a6f	-4.356079e-06
210	0xb7531657	-1.2581781e-05
211	0xb72c58cd	-1.0272674e-05
212	0xb6b7263a	-5.458275e-06
213	0x35f36c37	1.8136406e-06
214	0xb79bcfa4	-1.857413e-05
215	0x370bd1d1	8.333897e-06
216	0x36a766f4	4.988973e-06
217	0xb5e04218	-1.6708536e-06
218	0x36b7b610	5.47502e-06
219	0x361542e8	2.2241675e-06
220	0xb6abad20	-5.1163515e-06
221	0x374c37dd	1.2172354e-05
222	0x34fc54f4	4.700047e-07
223	0x36d26d9c	6.271248e-06
224	0xb7c29483	-2.3195758e-05
225	0xb6eeed4a	-7.120577e-06
226	0xb7231c82	-9.722195e-06
227	0xb6ae941e	-5.202847e-06
228	0x3723fcbd	9.774402e-06
229	0xb7d3b560	-2.523762e-05
230	0xb7879f46	-1.6167422e-05
231	0xb6835f46	-3.9151955e-06
232	0xb45e9900	-2.0731022e-07
233	0x37429043	1.159689e-05
234	0xb6d5d10f	-6.3722323e-06
235	0xb555d027	-7.9651585e-07
236	0xb7bf57cc	-2.2809858e-05
237	0xb77a9a94	-1.4937152e-05
238	0xb65bde4a	-3.2762932e-06
239	0x36d38dfc	6.304819e-06
240	0xb5adc686	-1.2947282e-06
241	0x37553ec9	1.2710408e-05
242	0x36c89994	5.9783433e-06
243	0x35b90c59	1.3787168e-06
244	0xb70951f1	-8.184915e-06
245	0xb71aeb0b	-9.2338405e-06
246	0x35a20bc3	1.2073364e-06
247	0xb526c9b6	-6.2133347e-07
248	0xb59310e8	-1.0957274e-06
249	0xb784f0ce	-1.584776e-05
250	0x36dfba9c	6.667642e-06
251	0x3648b416	2.9907146e-06
252	0x362cb45b	2.5734978e-06
253	0x3589521e	1.0231195e-06
254	0x361ce288	2.337767e-06
255	0xb72f3339	-1.0442739e-05

bn1.weight f4 [256]
0	0x3f79926e	0.9748906
1	0x3f78518c	0.9699943
2	0x3f754e25	0.95822364
3	0x3f83d59c	1.0299563
4	0x3f6b9554	0.9202473
5	0x3f77d044	0.96802163
6	0x3f6a4bff	0.9152221
7	0x3f79b5d0	0.9754305
8	0x3f797490	0.97443485
9	0x3f720d45	0.945515
10	0x3f69968d	0.9124535
11	0x3f702c90	0.93817997
12	0x3f7d52b7	0.9895434
13	0x3f7688d2	0.9630252
14	0x3f77e92d	0.96840173
15	0x3f75ebf1	0.96063143
16	0x3f69e021	0.9135762
17	0x3f6bc0a7	0.9209084
18	0x3f73c04f	0.95215315
19	0x3f6d8d38	0.9279361
20	0x3f6acd96	0.9171995
21	0x3f778fdb	0.9670388
22	0x3f64e3fa	0.89410365
23	0x3f6ddfaa	0.9291941
24	0x3f6fc4bb	0.9365956
25	0x3f780077	0.9687571
26	0x3f73714c	0.9509475
27	0x3f7619bf	0.96133035
28	0x3f6e2204	0.93020654
29	0x3f6f6423	0.9351217
30	0x3f76d3a3	0.9641668
31	0x3f857d84	1.0428929
32	0x3f7b3b16	0.98137033
33	0x3f70e7f6	0.94103944
34	0x3f76956c	0.9632175
35	0x3f7280d5	0.9472783
36	0x3f6dfa00	0.92959595
37	0x3f6f2111	0.9340983
38	0x3f7bcd64	0.98360276
39	0x3f6bb0e4	0.9206679
40	0x3f725ddb	0.9467446
41	0x3f811b57	1.0086468
42	0x3f5f5baa	0.87249243
43	0x3f70ae3d	0.94015867
44	0x3f6f18de	0.9339732
45	0x3f824283	1.0176548
46	0x3f70f28c	0.941201
47	0x3f845608	1.0338755
48	0x3f70c4ac	0.940501
49	0x3f7f099d	0.99624044
50	0x3f6ea3ac	0.93218493
51	0x3f744a30	0.954257
52	0x3f7f4ed0	0.99729633
53	0x3f7a4db4	0.97774816
54	0x3f7cae5c	0.9870355
55	0x3f7b39db	0.98135155
56	0x3f6d57d8	0.92712164
57	0x3f74d46b	0.95636624
58	0x3f6ecd4d	0.93282014
59	0x3f76fcae	0.9647931
60	0x3f668a54	0.9005482
61	0x3f7367df	0.9508037
62	0x3f6d4a31	0.9269133
63	0x3f66e874	0.90198445
64	0x3f67ff25	0.90623695
65	0x3f732dfe	0.94992054
66	0x3f67f136	0.90602434
67	0x3f6f79d6	0.9354528
68	0x3f664772	0.89952767
69	0x3f677359	0.9041038
70	0x3f7c6913	0.9859783
71	0x3f74129a	0.95340884
72	0x3f740bb4	0.9533036
73	0x3f82c0c5	1.0215079
74	0x3f7d2c22	0.98895466
75	0x3f7ca845	0.9869426
76	0x3f76d308	0.9641576
77	0x3f689009	0.9084478
78	0x3f60eb58	0.87859106
79	0x3f74bb56	0.9559835
80	0x3f7014b4	0.9378159
81	0x3f703711	0.93834025
82	0x3f790ee0	0.9728832
83	0x3f6afd2c	0.9179256
84	0x3f7be856	0.9840139
85	0x3f7125de	0.94198406
86	0x3f6f4039	0.9345737
87	0x3f6a7a66	0.91593015
88	0x3f73041a	0.94928133
89	0x3f77ab90	0.9674616
90	0x3f7e5a77	0.9935679
91	0x3f7b5e1c	0.98190475
92	0x3f768836	0.9630159
93	0x3f6ebb4a	0.9325453
94	0x3f7b135c	0.98076415
95	0x3f6d66f2	0.9273521
96	0x3f818536	1.0118778
97	0x3f71d55f	0.94466203
98	0x3f76c75a	0.96397936
99	0x3f79163c	0.9729955
100	0x3f719220	0.94363594
101	0x3f7b51e9	0.9817186
102	0x3f8334dd	1.0250508
103	0x3f79539f	0.9739322
104	0x3f7e8aa2	0.99430287
105	0x3f6ff9d7	0.937406
106	0x3f7cf50e	0.98811424
107	0x3f7c24c9	0.9849363
108	0x3f5cbc60	0.8622494
109	0x3f61b9d6	0.8817419
110	0x3f705098	0.93872976
111	0x3f769960	0.9632778
112	0x3f77e54c	0.96834254
113	0x3f73d5ac	0.9524791
114	0x3f7b2fe0	0.98119926
115	0x3f6ed7e6	0.93298185
116	0x3f75d20f	0.9602365
117	0x3f715b53	0.94279975
118	0x3f7544bb	0.95808
119	0x3f71ff84	0.9453051
120	0x3f680568	0.9063325
121	0x3f6e36f1	0.93052584
122	0x3f756f9b	0.9587342
123	0x3f6e6c0d	0.9313362
124	0x3f737808	0.9510503
125	0x3f73b6dc	0.95200896
126	0x3f67dc22	0.9057027
127	0x3f723742	0.94615567
128	0x3f829d68	1.0204287
129	0x3f6881b6	0.90822923
130	0x3f6a1ab6	0.9144701
131	0x3f7f4f10	0.99730015
132	0x3f6c8d50	0.92403126
133	0x3f80de41	1.0067827
134	0x3f71bff8	0.94433546
135	0x3f74b234	0.95584416
136	0x3f710dd0	0.941617
137	0x3f78d32c	0.9719722
138	0x3f79e84e	0.97620094
139	0x3f769b3c	0.9633062
140	0x3f6a76fe	0.9158782
141	0x3f77b0eb	0.9675433
142	0x3f8229a0	1.0168953
143	0x3f744444	0.95416665
144	0x3f6a839c	0.9160707
145	0x3f7bf3be	0.98418796
146	0x3f695e14	0.91159177
147	0x3f744542	0.9541818
148	0x3f727c5c	0.9472101
149	0x3f68532f	0.9075193
150	0x3f68115c	0.9065149
151	0x3f6edc66	0.9330505
152	0x3f6c6456	0.923406
153	0x3f775b20	0.9662342
154	0x3f77099c	0.9649904
155	0x3f74a706	0.9556736
156	0x3f837413	1.0269798
157	0x3f8190ea	1.0122349
158	0x3f7df5c2	0.9920312
159	0x3f79de88	0.9760518
160	0x3f88420b	1.0645155
161	0x3f6aa68a	0.9166037
162	0x3f73b0b2	0.9519149
163	0x3f769326	0.9631828
164	0x3f72e9de	0.94888103
165	0x3f7dd5a8	0.9915414
166	0x3f5becf4	0.85908437
167	0x3f80044a	1.0001309
168	0x3f6e1463	0.9299986
169	0x3f742d71	0.9538184
170	0x3f73d7b5	0.9525102
171	0x3f72a24b	0.9477889
172	0x3f794934	0.97377324
173	0x3f7b8fb8	0.9826617
174	0x3f62c964	0.8858855
175	0x3f832132	1.0244505
176	0x3f83d916	1.0300624
177	0x3f6fbeba	0.936504
178	0x3f848a0f	1.0354632
179	0x3f645d13	0.8920452
180	0x3f7d24d6	0.9888433
181	0x3f6426cc	0.891217
182	0x3f7254be	0.94660556
183	0x3f656aa1	0.8961583
184	0x3f7bcb4c	0.9835708
185	0x3f66dcbd	0.9018057
186	0x3f7a1e2a	0.97702277
187	0x3f7da94e	0.99086463
188	0x3f7051bb	0.9387471
189	0x3f6ebd75	0.9325784
190	0x3f80154a	1.0006497
191	0x3f716dbe	0.9430808
192	0x3f73ab64	0.95183396
193	0x3f75f44c	0.9607589
194	0x3f8172c3	1.0113147
195	0x3f6d8af2	0.9279014
196	0x3f8534b6	1.0406711
197	0x3f716a03	0.94302386
198	0x3f815bac	1.0106101
199	0x3f744e58	0.95432043
200	0x3f8318bf	1.0241927
201	0x3f74a263	0.9556028
202	0x3f6615c0	0.8987694
203	0x3f7795b9	0.96712834
204	0x3f68da72	0.9095832
205	0x3f70db32	0.94084466
206	0x3f77f5a3	0.96859187
207	0x3f8281e6	1.0195892
208	0x3f7860d1	0.9702273
209	0x3f6d5615	0.92709476
210	0x3f7dc7f2	0.9913322
211	0x3f6c27f7	0.9224848
212	0x3f6b7d6c	0.91988254
213	0x3f7cf244	0.9880717
214	0x3f702afb	0.93815583
215	0x3f6671ff	0.90017694
216	0x3f667046	0.90015066
217	0x3f77fcb1	0.9686995
218	0x3f7e8732	0.9942504
219	0x3f63cb31	0.8898192
220	0x3f7a7c88	0.9784627
221	0x3f72b7cf	0.9481172
222	0x3f676bb0	0.90398693
223	0x3f62646d	0.8843449
224	0x3f78c24b	0.9717147
225	0x3f686a64	0.9078734
226	0x3f6ba57d	0.9204939
227	0x3f642314	0.89116025
228	0x3f794e2a	0.97384894
229	0x3f7d6a4b	0.98990315
230	0x3f6c7dc6	0.92379415
231	0x3f7043fa	0.93853724
232	0x3f642f02	0.8913423
233	0x3f7aaaa3	0.9791662
234	0x3f70288c	0.9381187
235	0x3f7e4992	0.9933101
236	0x3f7c0dec	0.98458743
237	0x3f6c6010	0.9233408
238	0x3f77aff0	0.96752834
239	0x3f73f136	0.95289934
240	0x3f7d191d	0.98866445
241	0x3f7f91f0	0.9983206
242	0x3f6fb401	0.9363404
243	0x3f78b76b	0.97154874
244	0x3f7556bb	0.95835465
245	0x3f77253a	0.9654118
246	0x3f7ccce2	0.98750126
247	0x3f68da08	0.9095769
248	0x3f7f1fc7	0.99657863
249	0x3f79de2d	0.9760464
250	0x3f684e8b	0.9074485
251	0x3f7598d6	0.95936334
252	0x3f75534d	0.9583023
253	0x3f743bed	0.9540394
254	0x3f67c96a	0.9054171
255	0x3f750f00	0.95726013

bn1.bias f4 [256]
0	0xbcd63a8a	-0.02615096
1	0xbdf35bf2	-0.118827716
2	0x3cb3f8c7	0.021969212
3	0xbd32c4e4	-0.0436448
4	0xbdf9700a	-0.12179573
5	0xbd6e9bef	-0.05825418
6	0xbdc97f2a	-0.09838708
7	0xbd0b4d2a	-0.034009136
8	0xbdf4638d	-0.1193305
9	0xbe0b3417	-0.1359409
10	0xbe35ea39	-0.1776513
11	0xbe0ea2a9	-0.13929237
12	0x3cd45042	0.025917176
13	0xbd186176	-0.03720232
14	0xbdb6d626	-0.08927564
15	0xbdba2ccc	-0.090905756
16	0xbdec087f	-0.11525058
17	0xbde3d915	-0.111253895
18	0xbdd36b3c	-0.10323188
19	0xbdb0aa7a	-0.08626266
20	0xbdc140fa	-0.094362214
21	0xbd866c1a	-0.065635875
22	0xbdeb1136	-0.11477892
23	0xbd3294ac	-0.043598816
24	0xbd67ac7a	-0.05656097
25	0xbd64fff4	-0.05590816
26	0xbe1ade8e	-0.1512396
27	0xbdd06a45	-0.10176519
28	0xbda99c63	-0.082817815
29	0xbe071cf2	-0.13194636
30	0xbb1498f2	-0.002267417
31	0xbd93577f	-0.07194423
32	0xbe0ff8c0	-0.14059734
33	0xbdb33b83	-0.08751585
34	0xbc1ed8fe	-0.00969529
35	0xbd7d3811	-0.061821047
36	0xbde8ceb3	-0.1136755
37	0xbd1c1cfe	-0.038113587
38	0xbe5104b6	-0.20411953
39	0xbe072da9	-0.13201012
40	0xbde6bad0	-0.112661004
41	0xbd8e9f40	-0.06963968
42	0xbd4bb93b	-0.049737196
43	0xbd866323	-0.065618776
44	0xbd22e026	-0.039764546
45	0xbe7ddc27	-0.24791013
46	0xbdddd6fc	-0.10832021
47	0xbd0c7ff4	-0.034301713
48	0xbda8c1b4	-0.08240071
49	0xbd63dbe2	-0.05562962
50	0xbd942eee	-0.07235514
51	0xbe0ebeee	-0.13940021
52	0xbdc6925e	-0.09695886
53	0xbd1f1c04	-0.038845077
54	0xbe4e498e	-0.20145246
55	0xbc8debe3	-0.017324394
56	0xbdaded80	-0.08492565
57	0xbdbc09fd	-0.091815926
58	0xbdd612a2	-0.10452773
59	0xbc23a9fe	-0.00998926
60	0xbe08ae64	-0.13347775
61	0xbe21c438	-0.15797508
62	0xbde0397f	-0.109484665
63	0xbe102309	-0.14075865
64	0xbd9d13aa	-0.07669766
65	0xbda83d52	-0.08214821
66	0xbe26ec08	-0.16300976
67	0xbdf211ae	-0.118197784
68	0xbdc48865	-0.09596328
69	0xbd81b1d0	-0.06332743
70	0xbd118644	-0.035528436
71	0xbdfa8874	-0.122330576
72	0xbdf6c6a6	-0.12049608
73	0xbd7d32fc	-0.0618162
74	0xbe061dab	-0.13097255
75	0xbda92cea	-0.0826052
76	0xbd0fd6b5	-0.03511687
77	0xbd913310	-0.070898175
78	0xbdc80bec	-0.09767899
79	0xbd9b4f0b	-0.075834356
80	0xbda15b9a	-0.078788
81	0xbda427fe	-0.080154404
82	0xbd795266	-0.060869597
83	0xbdbc69dc	-0.091998786
84	0xbde7f478	-0.113259256
85	0xbe15f28a	-0.14643303
86	0xbd93c789	-0.07215793
87	0xbd726f74	-0.05918832
88	0xbdb5e824	-0.08882168
89	0xbab667a6	-0.0013916388
90	0xbdd0380a	-0.101669386
91	0xbdbf6256	-0.09344928
92	0xbd81f957	-0.06346386
93	0xbd985b48	-0.074392855
94	0xbda22b17	-0.07918375
95	0xbdc89146	-0.09793334
96	0xbd546082	-0.05184985
97	0xbdfdf4e5	-0.124002255
98	0xbd0a64ff	-0.033787724
99	0xbd3fc60c	-0.04681973
100	0xbdd49e77	-0.10381787
101	0xbdc6630a	-0.09686859
102	0xbd4ce6eb	-0.050024908
103	0xbde56157	-0.11200207
104	0xbe233e72	-0.1594179
105	0xbcd83f37	-0.02639733
106	0x3a8cac2a	0.0010732461
107	0xbd4e0828	-0.050300747
108	0xbdfd7eb5	-0.12377683
109	0xbdaad53c	-0.083414525
110	0xbda99aa6	-0.0828145
111	0xbd84ca92	-0.0648395
112	0xbd8d1ede	-0.06890653
113	0xbdb5a72a	-0.08869775
114	0xbd82fe6e	-0.06396185
115	0xbd862eba	-0.06551881
116	0xbdd8d687	-0.10587793
117	0xbdc9f42a	-0.09861024
118	0xbd5583a7	-0.052127507
119	0xbd8d2fd4	-0.06893888
120	0xbe1ae461	-0.15126182
121	0xbdf6ea39	-0.12056393
122	0xbe16c62a	-0.14724031
123	0xbdb58ef0	-0.08865154
124	0xbe03c303	-0.1286736
125	0xbd8bcbbc	-0.068259686
126	0xbe032276	-0.12806115
127	0xbc9c2574	-0.019060828
128	0xbcfdcaaf	-0.030980436
129	0xbdf7b720	-0.12095475
130	0xbdb6258a	-0.08893879
131	0xbe0b69da	-0.13614598
132	0xbd9bfde8	-0.07616788
133	0xbd0d2d2a	-0.0344669
134	0xbe06c1ea	-0.1315991
135	0xbd9b1a4e	-0.075733766
136	0xbddafad2	-0.106923714
137	0xbdd76e64	-0.10519102
138	0xbd4bb68f	-0.04973465
139	0xbd19cec2	-0.037550695
140	0xbd794506	-0.06085684
141	0xbe3b5a4c	-0.18296164
142	0xbdb7c4be	-0.089730725
143	0xbdee879c	-0.11646959
144	0xbdec1836	-0.11528055
145	0xbdbcc8be	-0.09217976
146	0xbddea12a	-0.10870583
147	0xbe21f068	-0.15814364
148	0xbe00f1c0	-0.1259222
149	0xbdf04476	-0.11731808
150	0xbe125776	-0.14291176
151	0xbe4e30c0	-0.20135784
152	0xbd9b6827	-0.07588225
153	0xbd537bb6	-0.05163165
154	0xbd187cc8	-0.037228376
155	0xbd1a5f93	-0.037688803
156	0xbd9ac0f0	-0.07556331
157	0xbd2c9562	-0.04213465
158	0xbdb37518	-0.08762568
159	0xbdd49e2a	-0.1038173
160	0xbded04ea	-0.11573203
161	0xbd947622	-0.072490945
162	0xbcba357c	-0.022730581
163	0xbe8cdc95	-0.2751204
164	0xbe0c3506	-0.13692102
165	0xbd051965	-0.03249492
166	0xbd81c757	-0.06336849
167	0xbdba7710	-0.091047406
168	0xbd92d902	-0.07170297
169	0xbd889ff6	-0.06671135
170	0xbc7fe326	-0.015618121
171	0xbdb2e87e	-0.087357506
172	0xbd97a9c0	-0.07405424
173	0xbd2a77a4	-0.041618004
174	0xbdc3d5d6	-0.0956227
175	0xbd1fe126	-0.039033078
176	0xbd8d2e55	-0.06893603
177	0xbb3d3fec	-0.0028877212
178	0xbe177d68	-0.14793932
179	0xbd80bfc7	-0.062865786
180	0xbda85d9d	-0.0822098
181	0xbda97e2e	-0.0827602
182	0xbe16b712	-0.14718273
183	0xbe33426b	-0.17505805
184	0xbd8f8893	-0.07008471
185	0xbe082206	-0.13294229
186	0xbcf8a17b	-0.030350437
187	0xbdadc0b8	-0.08484024
188	0xbd514b96	-0.051097475
189	0xbdc242e4	-0.094854146
190	0xbd7a0960	-0.061044097
191	0xbdb6564f	-0.08903181
192	0xbd667859	-0.056267116
193	0xbe13a5e3	-0.1441875
194	0xbd8be04c	-0.068298906
195	0xbd82f52a	-0.063944176
196	0xbca488d4	-0.020084776
197	0xbd0efa6c	-0.03490679
198	0xbcf79096	-0.030220311
199	0xbcdf7e86	-0.02728201
200	0xbe2c9002	-0.1685181
201	0x3ba2923e	0.004961281
202	0xbd390894	-0.045174196
203	0xbe190dbf	-0.1494665
204	0xbde2df05	-0.11077694
205	0xbd807016	-0.06271379
206	0xbdbcb782	-0.09214689
207	0xbe270142	-0.16309074
208	0xbdc312d7	-0.09525078
209	0xbdb93aa3	-0.09044387
210	0xbddd1d0c	-0.10796556
211	0xbd2e4ef8	-0.04255578
212	0xbd4ccd2a	-0.050000347
213	0xbe296390	-0.16541886
214	0xbd891dde	-0.0669515
215	0xbd9924df	-0.07477736
216	0xbd6407ad	-0.055671383
217	0xbd1f7e10	-0.038938582
218	0xbe12879a	-0.1430954
219	0xbdffc5c4	-0.12488893
220	0xbca3e54c	-0.020006798
221	0xbd516b8e	-0.051127963
222	0xbdd3e2e4	-0.1034601
223	0xbdef1c61	-0.11675335
224	0xbe2739a0	-0.16330576
225	0xbd47f6fe	-0.048819534
226	0xbd81ef02	-0.06344415
227	0xbe04c3cc	-0.12965316
228	0xbe07cc0c	-0.13261431
229	0xbd32bdcb	-0.043638032
230	0xbdaf5194	-0.08560482
231	0xbdba452f	-0.09095227
232	0xbdb0dd2a	-0.08635934
233	0xbbfb6424	-0.00767185
234	0xbd8f6d47	-0.07003265
235	0xbcee218e	-0.029068734
236	0xbdb9139d	-0.09036944
237	0xbd364bf3	-0.044506025
238	0xbdc7bb70	-0.09752548
239	0xbd901644	-0.07035497
240	0xbdaf8e8e	-0.08572112
241	0xbd49fd3a	-0.04931376
242	0xbcfe2462	-0.031023208
243	0xbdf35ed4	-0.118833214
244	0xbda98ec4	-0.082791835
245	0xbe0b12b3	-0.13581352
246	0xbdc78d9e	-0.09743808
247	0xbde68682	-0.11256124
248	0xbdbaebd6	-0.091270134
249	0xbcb9ee93	-0.022696769
250	0xbd76dff7	-0.060272183
251	0xbdb5faa9	-0.088857
252	0xbdee7fe1	-0.11645485
253	0xbdab230d	-0.08356295
254	0xbc11fbc2	-0.008910121
255	0xbdde6333	-0.108587645

bn1.running_mean f4 [256]
0	0xbcfb53c1	-0.030679585
1	0xbc9e69f0	-0.019337624
2	0x3c84eee9	0.016227202
3	0x3cb02ccc	0.021505736
4	0xbb8dd2a2	-0.004328088
5	0xbc9ad7b4	-0.018901683
6	0xbb55d00a	-0.0032625222
7	0xbbca4622	-0.0061729113
8	0x3c44b0b4	0.01200502
9	0x3b6978ef	0.003562506
10	0x3cb78ff3	0.022407508
11	0xbb9beb71	-0.0047582914
12	0x3cffe02c	0.031234823
13	0xbd31c8ef	-0.043404516
14	0x3cbf6f8a	0.023368616
15	0xbc975afa	-0.018475998
16	0xbbab9b29	-0.0052370024
17	0x3c4487e4	0.0119952895
18	0xbca88192	-0.020569596
19	0x3c4a9a63	0.01236591
20	0x3d3d4eaa	0.046217598
21	0x3d0d5732	0.034506984
22	0xbba2a87a	-0.0049639316
23	0xbc3f422c	-0.011673491
24	0x3cc36a5a	0.023854423
25	0x3b6c85eb	0.0036090564
26	0x3cfbf335	0.030755619
27	0xbcd414d0	-0.02588883
28	0xbb043284	-0.0020171711
29	0x3bcc971d	0.0062436
30	0xbc4ea2fe	-0.012612103
31	0xbc2a92ee	-0.010411007
32	0x3b892a71	0.0041859676
33	0x3c4ddb91	0.012564556
34	0x3d2d76d4	0.04234965
35	0x3d02fa83	0.031977188
36	0xbd1d9398	-0.038470834
37	0x3bcc7148	0.00623909
38	0x3cd93932	0.02651653
39	0xbd5818a9	-0.052757893
40	0x3b6d8708	0.0036243815
41	0x3d0c191a	0.034203626
42	0xbc90dd4b	-0.017683646
43	0xbce884cc	-0.028383635
44	0xbd0b5a6f	-0.03402179
45	0xbcb195f8	-0.021677956
46	0xbcc23ddd	-0.02371114
47	0x3d07c9d7	0.033151474
48	0x3be08ad0	0.0068524852
49	0x3d0e7dc6	0.034787916
50	0xbce57530	-0.02800998
51	0xbd56bb2b	-0.05242459
52	0x3c2c143c	0.010502871
53	0x3d1ad66c	0.037802145
54	0xbc9af902	-0.018917564
55	0x3d3896d0	0.0450657
56	0xbd204f50	-0.03913814
57	0xbcd91b08	-0.026502147
58	0x3cb87d20	0.022520602
59	0xbb54d19c	-0.003247357
60	0xbd014804	-0.03156282
61	0xbbd64f5c	-0.006540222
62	0xbd3c3f7a	-0.045958973
63	0x3d12afdf	0.035812255
64	0xbb977977	-0.004622634
65	0x3c9e23d1	0.019304188
66	0xb9f1a500	-0.00046090037
67	0x3b9ea195	0.0048410394
68	0x3b1e0eef	0.0024117788
69	0xbc11ffae	-0.008911056
70	0x3c842f8c	0.016135953
71	0xbbe4cac8	-0.006982181
72	0x3cae5467	0.02128048
73	0xbacf804a	-0.001583108
74	0xbcc908ce	-0.024540331
75	0x3d9113c0	0.07083845
76	0x3c91d17e	0.017800089
77	0x3c86536a	0.016397197
78	0x3c3194b0	0.0108386725
79	0x3b68ac68	0.0035503153
80	0xbc92bee8	-0.017913297
81	0x3ced6aa6	0.028981518
82	0xbc207a16	-0.009794733
83	0xbc9d2a8a	-0.019185323
84	0xbbca9047	-0.00618175
85	0xbcdb1eda	-0.02674811
86	0x3cd7dec0	0.026351333
87	0xbc1e422c	-0.009659331
88	0xbd1c2f2c	-0.038130924
89	0xbcd2c42a	-0.025728304
90	0xbb9c7f98	-0.0047759525
91	0xbccd1795	-0.025035659
92	0x3c26361e	0.0101447385
93	0x3cb854db	0.0225014
94	0x3d193ced	0.03741162
95	0x3cb6c762	0.02231187
96	0x3cb3f799	0.02196865
97	0x3cc6e843	0.024280673
98	0x3c77c93d	0.015123663
99	0xbcbd1654	-0.023081936
100	0xbd40b2c6	-0.04704549
101	0x3bd6b510	0.006552346
102	0x3ccc821c	0.024964385
103	0xbc9e73ec	-0.019342385
104	0xbcb038f8	-0.02151154
105	0xbb02fa8a	-0.0019985759
106	0x3bc13e7a	0.0058973404
107	0xbd5a03f0	-0.05322641
108	0x3cc2c644	0.023776181
109	0xbb95aff7	-0.004568096
110	0xbd71ff7e	-0.059081547
111	0x3cf5c970	0.03000328
112	0x3c8be216	0.01707558
113	0xbd456f4a	-0.048201837
114	0x3c5f5117	0.013630173
115	0xbc8b4820	-0.017002165
116	0xbc3f1a3d	-0.011663971
117	0xbc602f07	-0.013683087
118	0x3d43b66f	0.047781404
119	0xbcafcd6c	-0.021460257
120	0x3c980f97	0.018562121
121	0xbbe45ce3	-0.006969081
122	0x3bfd39c2	0.0077278325
123	0xbbd1f450	-0.006407298
124	0x3c843234	0.01613722
125	0xbcb608bc	-0.022220962
126	0x3b21d6fc	0.002469479
127	0xbc4ae670	-0.012384042
128	0x3ae34b04	0.0017341082
129	0xbd91be08	-0.07116324
130	0x3bf40264	0.007446574
131	0xbd2ded14	-0.042462423
132	0x3b9fafa6	0.004873234
133	0x3cbd6222	0.023118082
134	0x3ac91700	0.0015341938
135	0x3c9ebbfb	0.019376745
136	0x3920a0f0	0.00015318743
137	0xbcc66739	-0.024219142
138	0x3ca54d86	0.020178568
139	0x3bf20bec	0.007386675
140	0xbcf141f4	-0.029450394
141	0xbcf8bff8	-0.030364975
142	0x3d5c1b6a	0.05373708
143	0x3c08f83c	0.008359965
144	0xbd284790	-0.041083872
145	0x3d1d71b8	0.03843853
146	0x3ba6697f	0.005078494
147	0x3d5e8b0a	0.054331817
148	0xbc482a1d	-0.012217072
149	0xbc4a918b	-0.012363802
150	0x3c73f734	0.014890481
151	0xbd36a128	-0.044587284
152	0xbbdc403b	-0.006721524
153	0x3d3f5591	0.04671246
154	0xbd746f9c	-0.05967675
155	0x3cba833e	0.02276766
156	0xbce14a43	-0.027501231
157	0xbd0c5cae	-0.034268074
158	0x3cab2996	0.020893853
159	0xbcbaea49	-0.022816794
160	0xbccd5d4a	-0.025068898
161	0x3d2502c1	0.04028583
162	0xbc101a1c	-0.008795287
163	0x3aba0024	0.0014190716
164	0xbb65ad46	-0.0035045906
165	0x3d1ccca6	0.038281105
166	0x3cdcac13	0.02693752
167	0x3cb044c8	0.021517172
168	0xbd29a721	-0.041419152
169	0xbd393c9c	-0.045223817
170	0x3c929cb6	0.017896991
171	0x3d80ad48	0.06283051
172	0x3ccbe1f8	0.024888024
173	0xbb3c3ca1	-0.002872266
174	0x3afd908c	0.0019345446
175	0xbb4f3182	-0.0031615202
176	0xbc5b56fb	-0.013387437
177	0x3cb60e21	0.022223534
178	0x3ba9464e	0.0051658517
179	0xbbdeda94	-0.006800959
180	0xbc0ac532	-0.008469867
181	0x3ca48e44	0.020087369
182	0xbc5aa669	-0.013345339
183	0xbc34b98e	-0.011030568
184	0xbb6108e8	-0.0034337584
185	0x3cc68ac6	0.024236094
186	0x3ce83f78	0.028350577
187	0x3cb98035	0.022644142
188	0xbcd0e2b2	-0.025498722
189	0x3c12577d	0.008931992
190	0x3ba759e8	0.005107153
191	0xba3bccd0	-0.00071640033
192	0xbd12b4d3	-0.03581698
193	0x3cf7b7ac	0.030238949
194	0x3ce46de0	0.027884424
195	0x3c49ef5e	0.012325136
196	0x3ce3c086	0.027801763
197	0x3c927d47	0.017882003
198	0x3d122ae0	0.03568542
199	0xbcbb2164	-0.02284307
200	0x3d1c1546	0.038106225
201	0xbc31c70e	-0.010850681
202	0x3c10454b	0.008805583
203	0x3ba87cd4	0.005141834
204	0x3d59c996	0.053170763
205	0xbd0644a0	-0.03278029
206	0xbc119802	-0.008886339
207	0x3c19e735	0.009393503
208	0xbc95a68c	-0.018267892
209	0xbcc3b1ee	-0.023888554
210	0xbb80d178	-0.0039312206
211	0x3c329416	0.010899564
212	0xbc5b6ee5	-0.013393139
213	0xbc690d4d	-0.014224363
214	0x3c5df1b9	0.013546401
215	0xbd6cecba	-0.057842948
216	0x3ce9449a	0.028475095
217	0xbc999720	-0.01874882
218	0xbce834e9	-0.028345542
219	0xbd214393	-0.039371084
220	0x3be0a21f	0.006855264
221	0x3ca267ab	0.019824823
222	0x3d28a9f4	0.041177705
223	0x3d1735b9	0.03691647
224	0x3bd3eca8	0.0064674206
225	0xbad60f5e	-0.0016331484
226	0xbb25fe7c	-0.0025328686
227	0xbc3bc0ac	-0.011459511
228	0x3c6aad3f	0.014323532
229	0x3bdad81e	0.006678595
230	0xbd0fea83	-0.035135757
231	0xbc9259f1	-0.017865153
232	0xbc043c6b	-0.008071045
233	0x3ce83498	0.028345391
234	0xbc934f86	-0.017982256
235	0x3c2522ea	0.010079125
236	0x398bc8a0	0.00026661623
237	0xbb9c53c8	-0.0047707297
238	0xbbc9ab0c	-0.0061544236
239	0xbc54f0e0	-0.012996882
240	0xbc58108c	-0.013187539
241	0x3d61cf36	0.055129252
242	0x3cf38e05	0.029730806
243	0xbbb4685a	-0.0055056037
244	0xbc8f149e	-0.017465886
245	0x3d2e88b4	0.04261084
246	0xbb060004	-0.0020446787
247	0x3d29a158	0.041413635
248	0xbc275783	-0.0102137355
249	0xbc963427	-0.018335415
250	0xbb73db00	-0.0037209392
251	0x3cff18ab	0.031139692
252	0xbd385cee	-0.0450105
253	0xbcec7a0c	-0.02886679
254	0xbc8af561	-0.016962709
255	0xbbce0a82	-0.0062878737

bn1.running_var f4 [256]
0	0x3dc9dc52	0.09856476
1	0x3dd18c06	0.102317855
2	0x3db8cd8a	0.090235785
3	0x3dec40e4	0.115358144
4	0x3dbc12b1	0.091832526
5	0x3da90651	0.08253158
6	0x3dd13c02	0.10216524
7	0x3dd8cf5d	0.105864264
8	0x3e05141d	0.12995954
9	0x3de2c7f2	0.11073293
10	0x3d93b008	0.0721131
11	0x3de1a5f2	0.1101798
12	0x3de6911a	0.11258145
13	0x3e4fb44d	0.20283623
14	0x3df9e99e	0.12202762
15	0x3de15a50	0.11003554
16	0x3d97772b	0.07395776
17	0x3e010521	0.12599613
18	0x3dbe4301	0.09290124
19	0x3decc32c	0.115606636
20	0x3e014994	0.12625724
21	0x3de66a80	0.11250782
22	0x3da2d916	0.07951562
23	0x3e1fd4bb	0.15608494
24	0x3dd3a7ad	0.10334716
25	0x3d9e545d	0.07730935
26	0x3d9e9590	0.077433705
27	0x3d8c91dc	0.06863758
28	0x3e23d3a8	0.15998709
29	0x3df76605	0.120800056
30	0x3e09584e	0.13412592
31	0x3d915426	0.07096128
32	0x3d958eb5	0.0730261
33	0x3d604246	0.054750703
34	0x3e393869	0.18087925
35	0x3dc75a77	0.09734052
36	0x3daffb65	0.085928716
37	0x3dc64ff4	0.096832186
38	0x3db1cb6a	0.08681376
39	0x3e59bf28	0.21264327
40	0x3ddd7002	0.108123794
41	0x3dab848f	0.08374893
42	0x3dcb2a62	0.09920193
43	0x3d79fda0	0.06103289
44	0x3deeda23	0.116627
45	0x3dd116e2	0.10209443
46	0x3da54eb7	0.08071654
47	0x3e01ff1c	0.12694973
48	0x3dd1a2aa	0.10236104
49	0x3e5e7a0a	0.21726242
50	0x3de095e4	0.10966089
51	0x3dc00159	0.09375257
52	0x3d965917	0.07341211
53	0x3deef03c	0.11666915
54	0x3db6a29e	0.089177355
55	0x3db21c38	0.086967885
56	0x3e2c9d20	0.16856813
57	0x3e25b000	0.1618042
58	0x3e12b22d	0.14325781
59	0x3da6fbf0	0.08153522
60	0x3df6b8c3	0.12046959
61	0x3d3a5fb2	0.04550142
62	0x3e14154e	0.14461252
63	0x3dfcd0ee	0.12344538
64	0x3d56f88e	0.052483134
65	0x3daf5232	0.085605994
66	0x3d9e3471	0.07724846
67	0x3ddc0496	0.10743062
68	0x3da64582	0.08118726
69	0x3dace4c0	0.08442068
70	0x3df8b430	0.12143743
71	0x3d4fceb7	0.050734248
72	0x3dc787e7	0.09742718
73	0x3da50792	0.080580845
74	0x3de4d660	0.11173701
75	0x3e52c484	0.20582777
76	0x3e161a36	0.14658436
77	0x3dc2624a	0.094914034
78	0x3db55788	0.08854586
79	0x3e1d0162	0.15332559
80	0x3df362d5	0.11884085
81	0x3dd6b705	0.10484127
82	0x3ddabb90	0.10680306
83	0x3d9d86f2	0.076917544
84	0x3dbe3805	0.09288029
85	0x3e18e001	0.149292
86	0x3e1ba1c5	0.15198429
87	0x3da26f3f	0.07931375
88	0x3d95ddef	0.07317721
89	0x3d84db91	0.064871915
90	0x3da93b1a	0.08263226
91	0x3dbd9560	0.09257007
92	0x3e2afe04	0.16698462
93	0x3daad2bc	0.08340976
94	0x3e2ae0b2	0.16687277
95	0x3def17ff	0.11674499
96	0x3ddc08b4	0.107438475
97	0x3e2779e5	0.16355093
98	0x3dd45504	0.10367778
99	0x3df468c9	0.11934049
100	0x3ddef0c2	0.10885765
101	0x3e017657	0.126428
102	0x3df43b99	0.1192543
103	0x3dd5d85d	0.10441659
104	0x3db805a6	0.08985452
105	0x3d74dba9	0.059779797
106	0x3d9750ed	0.07388482
107	0x3e457352	0.19282272
108	0x3dee1880	0.11625767
109	0x3d752781	0.059852127
110	0x3e035d32	0.1282852
111	0x3debbf9c	0.11511156
112	0x3e2810ee	0.16412708
113	0x3db672fa	0.08908649
114	0x3db14dac	0.08657393
115	0x3de12756	0.10993831
116	0x3dbcd2eb	0.09219917
117	0x3d9c9488	0.076455176
118	0x3e0b97c9	0.1363212
119	0x3dff6009	0.12469489
120	0x3db77ef4	0.08959761
121	0x3da328cb	0.07966765
122	0x3daa8af6	0.08327286
123	0x3d935cce	0.071954355
124	0x3dbb565b	0.091473304
125	0x3d8772b6	0.06613676
126	0x3d9f6248	0.077824175
127	0x3dafa528	0.08576423
128	0x3d8988dc	0.06715557
129	0x3dfe601f	0.124206774
130	0x3d718d03	0.05897237
131	0x3e273e11	0.1633227
132	0x3dfb6b21	0.122762926
133	0x3e031e82	0.12804607
134	0x3dae5677	0.085125856
135	0x3de78ffc	0.1130676
136	0x3de5e107	0.11224561
137	0x3d936240	0.07196474
138	0x3e025f07	0.12731563
139	0x3e12de04	0.14342505
140	0x3df0eee3	0.11764314
141	0x3d83a186	0.064272925
142	0x3e23cc08	0.159958
143	0x3e13d6bf	0.14437388
144	0x3e12aa5b	0.14322798
145	0x3da6b6ec	0.08140358
146	0x3d87888e	0.066178426
147	0x3e12348d	0.14277859
148	0x3e350f44	0.17681605
149	0x3e05525a	0.13019696
150	0x3e12d0e9	0.14337505
151	0x3db03514	0.08603874
152	0x3d9aa72b	0.07551416
153	0x3e2cc837	0.16873251
154	0x3dd3535e	0.103186354
155	0x3db21dd4	0.086970955
156	0x3d93661d	0.07197211
157	0x3d796b5c	0.0608934
158	0x3dd3e7e5	0.10346965
159	0x3e181d11	0.14854838
160	0x3e09b46b	0.1344773
161	0x3e17bdb3	0.14818458
162	0x3d82f708	0.06394774
163	0x3d7fda54	0.062464073
164	0x3d8372b2	0.06418361
165	0x3e14e092	0.14538792
166	0x3df1f747	0.118147425
167	0x3e2a7315	0.16645463
168	0x3e07e950	0.13272595
169	0x3e07297b	0.13199417
170	0x3e231884	0.1592732
171	0x3e32103e	0.17389008
172	0x3e0b91d0	0.13629842
173	0x3e26cc6f	0.16288923
174	0x3db0ce7a	0.08633132
175	0x3dd1ebe6	0.10250072
176	0x3db389c9	0.08766515
177	0x3ddf4ce3	0.10903337
178	0x3d890c04	0.06691745
179	0x3dfe7b68	0.124258816
180	0x3de7a9ff	0.11311721
181	0x3dea1220	0.11429238
182	0x3db52d9e	0.088465914
183	0x3dbf421c	0.09338781
184	0x3dfb660c	0.12275323
185	0x3e064c51	0.1311505
186	0x3de64749	0.11244065
187	0x3da61026	0.08108549
188	0x3dd2be61	0.10290218
189	0x3dc29a88	0.09502131
190	0x3de94700	0.11390495
191	0x3dba9664	0.09110716
192	0x3db960b2	0.09051646
193	0x3e257b54	0.16160327
194	0x3dac4777	0.08412068
195	0x3e2a0536	0.1660355
196	0x3e213e23	0.1574636
197	0x3dd4e14e	0.10394536
198	0x3dffd12f	0.124910705
199	0x3d340753	0.043952297
200	0x3da37d08	0.07982832
201	0x3e0f884c	0.14016837
202	0x3dc79328	0.09744865
203	0x3d704c9d	0.058666814
204	0x3e9d339c	0.30703437
205	0x3e134e16	0.14385256
206	0x3d9e45e8	0.07728177
207	0x3dc8a1f6	0.097965166
208	0x3e5ab3c7	0.21357642
209	0x3da0a5d6	0.07844131
210	0x3dedd710	0.116132855
211	0x3dae8e8b	0.08523282
212	0x3dafe6c6	0.085889384
213	0x3dcc3d4b	0.09972628
214	0x3e227492	0.1586478
215	0x3df36cd5	0.118859924
216	0x3dc4aa67	0.09602814
217	0x3df2b002	0.11849977
218	0x3d9830a3	0.07431152
219	0x3deab77b	0.11460777
220	0x3dc4cb0f	0.09609043
221	0x3d470bf6	0.04859539
222	0x3dfcacf9	0.123376794
223	0x3e1b94e3	0.15193515
224	0x3e229b0c	0.15879458
225	0x3dd419d2	0.10356487
226	0x3d870110	0.065919995
227	0x3dd6455a	0.104624465
228	0x3db048bb	0.08607622
229	0x3dcf9eef	0.10137736
230	0x3dcbab04	0.09944728
231	0x3e1acc62	0.15117028
232	0x3db20e2c	0.08694109
233	0x3ddaa926	0.10676794
234	0x3dcd9b80	0.10039425
235	0x3dc1467c	0.09437272
236	0x3df759f7	0.12077706
237	0x3dd18265	0.10229949
238	0x3db5e019	0.08880634
239	0x3dd80519	0.10547847
240	0x3dbe8ffc	0.093048066
241	0x3e7f3ae1	0.24924804
242	0x3df689c0	0.120379925
243	0x3d9c5c15	0.07634751
244	0x3df82634	0.12116662
245	0x3dd8507a	0.10562225
246	0x3e04b69c	0.12960285
247	0x3e19eb72	0.15031222
248	0x3daa8799	0.083266445
249	0x3d9bcc06	0.07607274
250	0x3ddaa60f	0.106762044
251	0x3e198e85	0.14995773
252	0x3e2086fa	0.1567649
253	0x3e048a76	0.12943444
254	0x3e37d4a3	0.17952208
255	0x3d9eba95	0.077504314

fc2.weight f4 [128, 256]
0	0xbd184ae8	-0.03718081
1	0x3dd2bc38	0.10289806
2	0x3b47da77	0.0030495205
3	0x3d825407	0.06363683
4	0xbc80237a	-0.015641917
5	0xbc82c042	-0.015960816
6	0xbc79d9b8	-0.015249662
7	0xbcfaabda	-0.030599523
8	0xbc172144	-0.00922424
9	0xbd212b71	-0.03934807
10	0xbd8593d5	-0.06522337
11	0xbd1abc52	-0.037777252
12	0x3d3d5b15	0.04622944
13	0x3d19c618	0.037542433
14	0x3c146541	0.009057344
15	0xbc2995b3	-0.0103506325
16	0x3c5e60ac	0.013572853
17	0x3d437b2b	0.047724884
18	0xbd8e767e	-0.06956194
19	0x3d1014c6	0.03517606
20	0x3d55c42c	0.052189037
21	0xbd7844d6	-0.060612522
22	0x3d097eec	0.033568308
23	0x3ce19f70	0.027541846
24	0x3d5245bf	0.051336046
25	0x3cccfaa3	0.025021857
26	0x3c8fb61c	0.017542891
27	0x3d835e52	0.064144745
28	0x3cdeafbb	0.027183404
29	0xbd5eb790	-0.054374278
30	0x3c8b39e8	0.016995385
31	0xbc5d7cd2	-0.013518529
32	0xbd6d5f59	-0.05795226
33	0xbd8894ef	-0.06669032
34	0xbcfbe5a6	-0.030749153
35	0xbd0d48fe	-0.03449344
36	0xbd9d64a2	-0.0768521
37	0x3d824996	0.06361692
38	0x3cd3201b	0.025772145
39	0x3d5a1f3d	0.053252447
40	0x3c828b2b	0.015935501
41	0x3d188eb8	0.037245482
42	0xbd368076	-0.044556104
43	0xbd8265a8	-0.06367046
44	0x3c6b25b0	0.014352247
45	0xbce0e971	-0.027455064
46	0x3ce297da	0.0276603
47	0xbcc0768c	-0.023494028
48	0xbd826812	-0.06367506
49	0xbd2a88e3	-0.04163445
50	0x3d3de790	0.046363413
51	0x3d12f61f	0.03587925
52	0x3a05d7f9	0.000510573
53	0x3d266088	0.040619403
54	0x3cba3900	0.022732258
55	0x3cbf9c02	0.02338982
56	0x3c1bbca3	0.009505424
57	0xbd13c0b2	-0.03607244
58	0x3c84fce1	0.016233863
59	0xbcdc186a	-0.02686711
60	0x3d69827e	0.057009213
61	0xbcefe86e	-0.029285636
62	0x3ba5a35c	0.0050548743
63	0x3c0d6a34	0.008631278
64	0xbd7575fd	-0.059926976
65	0x3b961f65	0.0045813792
66	0xbcf6802e	-0.030090418
67	0xbcc2b58f	-0.023768215
68	0x3b880807	0.0041513476
69	0x3ce4c24a	0.027924675
70	0x3d7f1a77	0.0622811
71	0x3be1815e	0.006881877
72	0x3c29f9bc	0.010374483
73	0x3d45fa8c	0.048334643
74	0xbc55b2a1	-0.013043077
75	0x3d5fa10c	0.054596946
76	0xbdb1d7d4	-0.08683744
77	0x3d0e9a44	0.034815088
78	0xbc689ccf	-0.014197542
79	0xbc01f6f3	-0.007932412
80	0xbd0c1f8b	-0.03420977
81	0xbd1a2398	-0.0376316
82	0x3d2919cd	0.04128437
83	0xbd3d255c	-0.046178207
84	0x3abedbdf	0.0014561376
85	0xbbc2db2a	-0.0059465365
86	0x3d2d2ac7	0.042277124
87	0xbb91b664	-0.0044467915
88	0x3a8df53f	0.0010830535
89	0x3d2f05b7	0.04273006
90	0x3b67011d	0.0035248466
91	0x3d088b40	0.033335924
92	0xbbead03e	-0.0071659377
93	0x3c142dde	0.009044139
94	0x3d671ba4	0.056422845
95	0xbc9649dd	-0.018345768
96	0xbb0bf919	-0.002135819
97	0xbcedb70e	-0.029017951
98	0x3b058d91	0.002037857
99	0xbccdc114	-0.02511648
100	0x3d450c9a	0.04810772
101	0xbd42531c	-0.04744254
102	0x3b5f15a0	0.003403999
103	0xbb48eccf	-0.0030658727
104	0xbd53a6d6	-0.05167278
105	0xbc289d82	-0.010291459
106	0x3c0c8073	0.008575547
107	0xbccb4100	-0.024811268
108	0xbce809a3	-0.028324908
109	0xbc8e1bd9	-0.017347263
110	0xbc6c88df	-0.0144369295
111	0xbc7ae760	-0.015313953
112	0xbb9e8c5a	-0.0048385086
113	0x3d2547a2	0.040351517
114	0xbc5e6100	-0.013572931
115	0xbd696401	-0.056980137
116	0xbce5ce02	-0.028052334
117	0xbd65eb59	-0.05613265
118	0x3da41dc6	0.08013491
119	0xbce42868	-0.027851298
120	0xbb980a26	-0.0046398817
121	0x3c2148af	0.009843989
122	0xbb8bb87d	-0.004263936
123	0x3b87ad36	0.0041405214
124	0x3d8efb14	0.06981483
125	0xbc3b5c2e	-0.011435552
126	0x3b121be2	0.0022294451
127	0xbd36f36a	-0.04466573
128	0xbd1ecd81	-0.038770203
129	0xbd630b86	-0.05543091
130	0x3bd8b0d2	0.0066128755
131	0xbd085221	-0.03328145
132	0x3c893bff	0.016752241
133	0xbcaada40	-0.020856023
134	0x3af67248	0.0018802369
135	0x3d291ae1	0.0412854
136	0xbd770b3f	-0.06031346
137	0xbd0023c2	-0.0312841
138	0x3d16f8f5	0.036858518
139	0xbd533e13	-0.05157287
140	0x3b90d9ae	0.0044204807
141	0xbc0497ca	-0.00809283
142	0xbd18585d	-0.037193645
143	0xbd30c300	-0.043154716
144	0xbcfc06a9	-0.030764895
145	0xbc9267e2	-0.0178718
146	0x3d5649ff	0.052316662
147	0x3d6dc497	0.05804881
148	0x3b99ca84	0.004693331
149	0x3c66ab00	0.0140788555
150	0xbd795835	-0.060875136
151	0xbd3b531a	-0.04573355
152	0x3ca5fdae	0.020262565
153	0x3d12066d	0.03565066
154	0x3d8373a8	0.06418544
155	0xbd668bb2	-0.056285568
156	0x3ce10a55	0.027470747
157	0xbd7d1315	-0.061785776
158	0xbcaa19ae	-0.020764198
159	0x3c55f973	0.013059962
160	0x3b6ceae1	0.003615074
161	0x3ca5c1d2	0.020234022
162	0x3d6898ae	0.05678623
163	0xbc1a1f08	-0.0094068125
164	0x3c8e8da2	0.01740152
165	0x3cdeae89	0.027182834
166	0xbd507a7f	-0.05089807
167	0xbd0b749c	-0.034046754
168	0x3d772ee3	0.06034745
169	0x3d689925	0.056786675
170	0xbdec5454	-0.11539522
171	0x3d4d8a98	0.050181
172	0x3c8d85e8	0.017275766
173	0xbca73c7a	-0.02041458
174	0x3d27df78	0.0409846
175	0xbd7f4a78	-0.06232688
176	0x3d4d7152	0.0501569
177	0x3c5c5470	0.013447866
178	0xbcc071a5	-0.02349169
179	0x3d6e83e2	0.058231242
180	0x3c11108c	0.008854043
181	0xbd14a6b2	-0.036291786
182	0xbc577760	-0.01315102
183	0xbc9e0a1c	-0.01929193
184	0xbd980ee1	-0.07424713
185	0xba84bf43	-0.0010127801
186	0xbd1fa3b8	-0.038974494
187	0xbd936182	-0.071963325
188	0xb920a64c	-0.0001532074
189	0xbda8c61d	-0.08240912
190	0xba040134	-0.00050355797
191	0xbc931ee0	-0.017959058
192	0x3ca2eaee	0.019887414
193	0xbca80676	-0.020510893
194	0x3cca8256	0.024720352
195	0xbc24d4a8	-0.010060467
196	0x3d85212e	0.06500469
197	0xbb17b5f8	-0.0023149233
198	0xbd2a8ea2	-0.04163993
199	0x3d270051	0.040771786
200	0x3bdb55e2	0.0066935876
201	0x3d0578dd	0.032585967
202	0xbd84980e	-0.06474315
203	0xbd057f7f	-0.032592293
204	0xbc53e7e4	-0.012933705
205	0x3d5b8b4a	0.053599633
206	0xbda3eafc	-0.08003804
207	0x3d1cf6cf	0.038321313
208	0xbb83423c	-0.0040056985
209	0xbcba73ba	-0.02276026
210	0xbd36a50b	-0.04459099
211	0x3dd9b7cd	0.1063076
212	0xbbe182f0	-0.006882064
213	0xbdaa6cfb	-0.083215676
214	0xbd13c170	-0.03607315
215	0xbb86cf7c	-0.0041140895
216	0xbd484d8f	-0.04890209
217	0x3cd03e29	0.025420265
218	0xbcb937aa	-0.02260955
219	0xbd3c1d70	-0.04592651
220	0x3d58fea3	0.052977215
221	0xbd0fe535	-0.0351307
222	0xbca00006	-0.019531261
223	0xbb9203b8	-0.0044560097
224	0xbcc3731b	-0.023858598
225	0xbd59b166	-0.053147696
226	0xbcd1e8e3	-0.025623744
227	0xbd28c951	-0.041207615
228	0xbbd02684	-0.0063522477
229	0x3d82805e	0.0637214
230	0xbd4c2cdf	-0.04984748
231	0x3ce674d6	0.028131884
232	0xbd0b98b6	-0.034081183
233	0x3c00f02c	0.007869761
234	0xbd7f9c6b	-0.06240503
235	0x3d1704f5	0.03686996
236	0xbda6bc50	-0.081413865
237	0xbb188541	-0.0023272785
238	0x37df0080	2.6583904e-05
239	0xbd1bd03c	-0.038040385
240	0xbd46cc96	-0.048534952
241	0x3d1d8476	0.038456403
242	0xbcfb8940	-0.030705094
243	0xbcbf7766	-0.023372363
244	0xbc0246bf	-0.0079514375
245	0x3c1ce807	0.009576804
246	0xbdba69e8	-0.09102231
247	0xbd84475a	-0.06458922
248	0xbcc568ae	-0.024097767
249	0xbc8814ef	-0.016611544
250	0xbd205750	-0.039145768
251	0x3c9e15ff	0.019297598
252	0x3b513d30	0.003192734
253	0xbb2cf56e	-0.0026391405
254	0xbd0cf8e5	-0.03441705
255	0xbd48c900	-0.049019814
