tryst/model_round_5.pth (torch, 194739 bytes, 19 tensors)

fc1.weight f4 [256, 14]
00000000: b7fd 373e 655a edbd 2464 ac3c 4581 d03d
00000010: fc6f c13d efa9 f43c e08b 9d3d c8af 063e
00000020: 9c1c 0b3e 210f 163d eee2 933d 778c a3bb
00000030: 4251 e6bb 1d58 b4bd 404d 5d3d 3205 cf3d
00000040: 7c21 c0bc aef7 3dbe 50d0 293d 7141 f03c
00000050: ac69 c5bd 0da9 e4bd 848c cfbd 2126 6c3d
00000060: ff53 8abc 76b0 93bd bfdb ec3c b461 12be
00000070: 1a5a 02be 1e10 54bd 1c9c 683d 5a98 9fbc
00000080: bacb 9abd b02d 4cbd f0dd 2c3d 17b8 a0bd
00000090: e627 02bd aa0c 8ebd c4d1 0d3e b4dd 8cbd
000000a0: f594 5c3d 1641 d7bd 327c 1e3e f0a2 26be
000000b0: 9f9a 393c e3df 1fbe c803 24bd 3d56 6ebd
000000c0: 70b7 6c3d b106 ddbd c514 ddbd 6aee c43d
000000d0: 28b6 153e 89d3 693b 787e ed3d 8861 b13d
000000e0: 1cd8 b6bd 8be1 cf3d 0bb2 90bc 0146 f33d
000000f0: f897 0bbd 6d23 5d3d e18f c93d ac3b 653d
00000100: 0f23 f3bd 06cf 513c 3f73 2abe d582 b63d
00000110: 1784 29bc 60db 233b d120 c03b 8aa7 093c
00000120: 9c60 3f3c 902d 1fbe d399 d9bd 03d0 d53d
00000130: d77b f53b 4776 633d c35e 1b3d b361 a83d
00000140: 4343 20bd 4628 603d bd9c cb3d 2b5d c7bd
00000150: 8cb1 e73d a4f8 10bd e7ea c03d fb39 8fbd
00000160: d297 503d ef9d d63d 3ca9 e43d 8ea2 c33c
00000170: bcdc 27bd b288 063b be1b 0bbe cc7c a7bd
00000180: 779b 24bd 4141 f53d c804 9b3d 2e83 c03d
00000190: 4c95 7ebd 1b6e 0d3e a019 75bd f197 34bc
000001a0: 6851 993d db05 a03d 98fb b7bd 9d52 20be
000001b0: 97f2 153d afe8 9bbd 7ef1 a7bc 9ac0 0abe
000001c0: 75b5 ecbd 7a05 90bd 593a cb3d 43eb 0e3d
000001d0: 2554 853d 4966 ba3c b964 babd 9a5b 00be
000001e0: f9ec b9bd 804e 053b 8f12 cdbd 198b e3bd
000001f0: fc25 f5bd b90e 293d 92b9 c0bd 25ba 58bd
00000200: 8aa5 a93b 2246 0c3d bccf 1fbd fcf0 6e3d
00000210: 4451 0ebe 8074 88bd 7183 cbbc 6652 f03c
00000220: 171c 0bbe 83cf bdbd 29d2 b63b 5997 313e
00000230: 38f6 873d 10ef 10bd 1273 903d 3e0a ecbd
00000240: 99fc 823c e6d0 983b 595b 1dbe aa8f 183d
00000250: 15e7 adbd f594 88bc 5086 94bc b9d4 d2bd
00000260: ca8c 443b 1cba 5f3d b810 703d 8aef d83d
00000270: 3c2b c73d ac27 e3bc c5a4 92bc bd1c 463d
00000280: 2489 a3bc 98b5 9ebd 6823 843c a3fc ae3d
00000290: 13e3 03bd aca3 b63c 665a 9f3d 1e50 713e
000002a0: 9066 fabd 862f d9bc 12eb ccbd f85d 45bd
000002b0: eb4b 08be 1134 dfbd 76b2 913c 89de b23c
000002c0: 70f4 afbd 767d b23d a0e0 033e a112 cdbd
000002d0: 0d37 38bc cc3a 80bc ba51 dbbc 9ff3 b33c
000002e0: 581a 98bd 56ca 20bc ba5d af3d 9ffa aebd
000002f0: ab22 613c a657 16be dc25 b43d 7a46 0b3e
00000300: c174 78bd ce8b 483d 097c 183e cf98 cebd
00000310: c0cc f9bd 3837 1dbd 6fbc 14be 9700 9cbd
00000320: ab44 6e3d 2260 59bd 5531 d8bd a584 bc3d
00000330: b66a 133a a3fe 14be 0efb 8b3c a59b 043d
00000340: 1cc8 643b ff7f ccbd 5a0a a63d 7104 e13c
00000350: 908b 72bd feff b93d 8202 f5bd 00c3 d33d
00000360: f980 a63d 6fd5 c43d 0ee5 09bd bb82 fc3d
00000370: 1e53 213e 2a01 bbbd 248e 143e 7849 113e
00000380: 58b9 b8bd 9aa4 5a3d 7fc1 a9bb 8295 54bc
00000390: 28dc 0a3d 8d84 efbc c961 0b3e 2c90 8abd
000003a0: 5484 81bb 6f1e 3abe aacb afbd d67e debd
000003b0: d1ef 913d 78fe 58bd c6a3 9b3d ea56 14be
000003c0: b254 163e 98f5 1abe 6ed3 78bd b4c3 f33d
000003d0: 0639 04be 195b 9bbc 2270 b7bd 80ea 8c3c
000003e0: 96de 09bd b6bb e3bd 4d3d 98bd 9318 7abd
000003f0: 6e91 2cbc 15de a23b bd4e a2bd bc7e d2bd
0.17967878 -0.11589507 0.021043845 0.10180906 0.094451874 0.029866187 0.07692695 0.13152993
0.13585132 0.03663552 0.07221018 -0.00499111 -0.0070287297 -0.08805869 0.05402875 0.10108413
-0.023453467 -0.18551514 0.041458428 0.02932808 -0.09639296 -0.111650564 -0.10134223 0.05765355
-0.016885756 -0.07211392 0.028913377 -0.14295083 -0.12729684 -0.051773183 0.056789503 -0.019481827
-0.07558389 -0.04984826 0.042203844 -0.07847612 -0.03177633 -0.06936009 0.1384955 -0.06878224
0.053852994 -0.10510461 0.15477064 -0.16273093 0.011328368 -0.1561275 -0.04004267 -0.058187712
0.057792127 -0.10792292 -0.10794977 0.096157864 0.14620268 0.0035679063 0.115963876 0.08661181
-0.08927938 0.10150441 -0.017663023 0.118785866 -0.034080476 0.053988863 0.09841896 0.05596511
-0.11871921 0.012805706 -0.16645525 0.08911673 -0.010346434 0.0025002584 0.005863287 0.008401761
0.011680748 -0.15544724 -0.10625043 0.10440066 0.0074915695 0.05553272 0.03793217 0.0822176
-0.039126646 0.054725908 0.09942005 -0.09734567 0.11313161 -0.035393372 0.09419804 -0.06993481
0.050926037 0.10479342 0.111650914 0.023881223 -0.040981993 0.0020528254 -0.13584802 -0.081781
-0.040187325 0.11975337 0.07569271 0.094000205 -0.0621541 0.13811533 -0.05983889 -0.011022554
0.0748623 0.07813617 -0.089835346 -0.15656514 0.036608305 -0.0761274 -0.020500895 -0.13550034
-0.11558048 -0.070322946 0.09923238 0.03489233 0.0651019 0.022753851 -0.091012426 -0.12534943
-0.09078402 0.002034098 -0.100133054 -0.11110515 -0.119701356 0.041273806 -0.09410395 -0.052911896
0.0051772045 0.03424657 -0.03901647 0.05833529 -0.13898188 -0.066628456 -0.02484295 0.029336166
-0.13584934 -0.09268095 0.0055792523 0.17342891 0.066387594 -0.035384238 0.07053198 -0.11525391
0.015989589 0.0046635745 -0.15366878 0.037246384 -0.08491341 -0.01667259 -0.018130451 -0.1029448
0.0029991143 0.054620847 0.058609694 0.105925635 0.09725043 -0.027728878 -0.017900834 0.04836725
-0.019962855 -0.0774948 0.016130164 0.085442804 -0.032198977 0.022294842 0.07780914 0.23565719
-0.122265935 -0.026511919 -0.100057736 -0.04818532 -0.1331021 -0.10898603 0.017785292 0.021834629
-0.08591545 0.08715336 0.12878656 -0.10013319 -0.011243594 -0.015653037 -0.026772369 0.021966754
-0.074269 -0.009813866 0.08562799 -0.08543896 0.013741176 -0.14681873 0.087962836 0.13601103
-0.06065822 0.048961453 0.14891066 -0.1008774 -0.12197256 -0.03838274 -0.14525007 -0.076173
0.058170956 -0.053070195 -0.10556284 0.092049874 0.0005623506 -0.14550261 0.017087486 0.032374997
0.0034909314 -0.09985351 0.08107443 0.027467938 -0.05921513 0.0908203 -0.11963369 0.10339928
0.08130068 0.09611022 -0.03366571 0.12329622 0.15754363 -0.091310814 0.14507347 0.14188182
-0.090197265 0.053379633 -0.0051805372 -0.012975099 0.033901364 -0.02923801 0.13611521 -0.0676578
-0.0039525423 -0.18175672 -0.08583768 -0.10864036 0.071258195 -0.052977055 0.07599597 -0.1448628
0.14680746 -0.15132749 -0.06074851 0.11902562 -0.12912378 -0.018964337 -0.089569345 0.017201662
-0.03365954 -0.111197874 -0.07433567 -0.061058592 -0.01053272 0.004970322 -0.079251744 -0.10278079

fc1.bias f4 [256]
00000000: f421 37b6 0d37 1837 b225 da35 7ec9 cb36
00000010: da5e b0b6 fa38 3637 bda5 5735 02d2 a636
00000020: a6a5 97b6 2693 69b5 9a09 8937 e234 46b5
00000030: b675 b335 5ff7 d135 de9b e036 5ef8 65b5
00000040: 21f9 30b6 58ec 01b5 db18 3cb7 825f 3436
00000050: b18f d136 a43d 9cb6 f842 86b7 ae46 b534
00000060: d1ac ed35 fe3e ffb5 5a74 2f37 8ae1 f336
00000070: 0cfa 6936 970e c635 b48c 0836 b417 8fb6
00000080: d694 a036 e2a7 1eb5 d5d1 9e37 5901 b335
00000090: a6a9 0eb5 48c4 2b36 0a8a 2537 b104 d0b5
000000a0: 7811 9f36 02b8 c737 97e7 dd36 8e73 44b5
000000b0: 2af0 3ab7 f33a 8a37 80a7 1238 72c3 3635
000000c0: 72b5 b8b6 88ec 60b7 3b3d 4c37 6467 93b7
000000d0: 44f2 dbb6 d577 e336 e453 b6b7 7cd0 e6b7
000000e0: 5812 a336 f8fd 5cb7 8243 d5b5 20c1 3136
000000f0: bd8f 96b6 0858 3d37 48f5 9c36 95db 07b7
00000100: 715c e536 5832 85b5 f7b7 0537 be94 5e36
00000110: 4739 fab6 0b61 88b6 c022 0036 5c4c b036
00000120: f3ba ae35 9d79 9d35 076b 46b6 c26c 4936
00000130: d69d 84b7 61ff c6b5 d827 a535 6994 b736
00000140: 3c70 3c36 3b53 f1b6 edde aab7 e8ec 83b5
00000150: d692 0037 6697 54b7 8270 a135 c5e7 a5b7
00000160: 903c 1bb6 25aa 53b7 e074 d532 2921 1836
00000170: 2ec0 5036 7af7 f035 22f2 3937 c32a 1a37
00000180: 4352 8e37 d478 99b6 0c69 1c37 7332 de36
00000190: 5f1e 66b7 6797 6536 d248 f437 5802 ef35
000001a0: eaa7 4635 e7e8 c6b6 58f8 1cb7 e054 1fb7
000001b0: 2585 1f37 e2d1 feb5 02af 86b6 0e33 4037
000001c0: ba2c 1537 97ba 1ab7 002f 6436 c016 3336
000001d0: d0c9 1b36 bb24 9ab6 e5cb b2b5 6268 6437
000001e0: 1b78 d8b6 1044 8036 b80a dbb4 ff04 5237
000001f0: e6d9 77b5 7801 b1b4 c5ad 1f37 0c73 84b7
00000200: fccb 06b7 a097 2736 f629 adb7 9a77 4737
00000210: b56a 9537 4175 1f36 9d14 7d37 eb9d a436
00000220: f6c8 1c36 e919 a737 909d 1935 8afb 2fb6
00000230: ad4c 5337 e6b7 ca37 0006 fe34 0682 80b6
00000240: a9c4 ca34 21e2 d135 ae69 2235 a8a1 9436
00000250: 2267 d4b5 8a5c 02b7 2152 2bb7 71a5 1b37
00000260: b25e dd35 68fa ac35 c4cc 7fb6 f40a 7eb5
00000270: 9576 e6b6 c0dd 15b8 c2e6 5d36 9e5e 10b6
00000280: b84c 41b7 adb7 a636 03dc 12b7 e70c 4a35
00000290: b307 49b6 c623 66b7 2c64 a235 a0c2 9337
000002a0: 45bd efb6 d1a8 cab6 4dc0 0eb7 161b 7bb5
000002b0: 5760 bf37 ae2e 26b7 97b4 e936 1950 6db6
000002c0: 7cd7 6837 d545 09b7 dac8 30b6 5294 3e37
000002d0: 9ff1 c1b5 304b 8137 2a7b 1fb7 06b8 0f35
000002e0: e2bf 09b6 eff4 b8b6 ec9d 1335 9497 9fb7
000002f0: a7cb 99b6 83ad 1637 d027 a336 86db 21b5
00000300: afca beb4 e2ee 1e36 8285 1637 5231 00b6
00000310: 9773 2b36 558b ad37 4c0e 2637 12f3 fbb6
00000320: 65b2 5737 b8be 40b6 26e0 0337 d73d 09b6
00000330: d136 7535 00b2 e930 592c 25b7 3462 c8b7
00000340: e064 f435 49fa 6db6 0848 8db6 33b7 bc36
00000350: babf bcb5 ebc3 2db6 ae8c d7b6 bcb6 85b6
00000360: 9d31 e336 fa78 c9b6 bf8e 5eb7 f049 b1b5
00000370: f95c 8fb7 3c49 7536 9fb6 90b6 6d6a a5b4
00000380: 9305 0db8 e314 1736 e421 48b7 71fb d636
00000390: 4e72 ba36 208c db37 51e1 f136 0e68 f5b4
000003a0: 1012 2cb6 142a 0037 054a cfb7 b9ca 06b7
000003b0: f5a4 8736 4af1 cb36 b405 3cb6 b4bb 48b6
000003c0: d2be cdb6 ce38 4737 358c a2b6 6548 9b37
000003d0: 8d98 60b7 9e8f 0cb7 df1d 83b7 2660 d5b5
000003e0: e48d 3ab7 0f7a 37b7 82b7 d2b6 aa6a 5236
000003f0: 4937 1737 9610 4f36 0ca1 2336 8651 46b7
-2.7288888e-06 9.0727235e-06 1.6253236e-06 6.073328e-06 -5.256251e-06 1.0861311e-05 8.033492e-07 4.9716336e-06
-4.5194347e-06 -8.7013393e-07 1.6336144e-05 -7.38377e-07 1.3370798e-06 1.5643708e-06 6.6938655e-06 -8.567057e-07
-2.6371056e-06 -4.840017e-07 -1.121146e-05 2.6877683e-06 6.2454133e-06 -4.656338e-06 -1.600523e-05 3.3765303e-07
1.7708172e-06 -1.9017314e-06 1.0457903e-05 7.2682205e-06 3.4865252e-06 1.4756396e-06 2.034748e-06 -4.2644915e-06
4.7856984e-06 -5.910389e-07 1.8932778e-05 1.3336931e-06 -5.3145993e-07 2.5595236e-06 9.866906e-06 -1.5498573e-06
4.740603e-06 2.3808334e-05 6.613274e-06 -7.3183844e-07 -1.11423815e-05 1.6478332e-05 3.496511e-05 6.8084694e-07
-5.5047503e-06 -1.3406512e-05 1.2173604e-05 -1.757191e-05 -6.554912e-06 6.7790775e-06 -2.1735155e-05 -2.751522e-05
4.859914e-06 -1.3172154e-05 -1.5889384e-06 2.6487469e-06 -4.4870817e-06 1.1285774e-05 4.677717e-06 -8.0977525e-06
6.8354934e-06 -9.923924e-07 7.97025e-06 3.3167157e-06 -7.4572486e-06 -4.064413e-06 1.9093713e-06 5.254098e-06
1.301842e-06 1.1732806e-06 -2.9566597e-06 3.001464e-06 -1.5809124e-05 -1.4826475e-06 1.2305054e-06 5.471102e-06
2.8079512e-06 -7.192049e-06 -2.0369387e-05 -9.829209e-07 7.663582e-06 -1.2671435e-05 1.2028179e-06 -1.9777459e-05
-2.3132052e-06 -1.2616195e-05 2.4849612e-08 2.2669067e-06 3.1106279e-06 1.7953419e-06 1.1083235e-05 9.1890715e-06
1.6966025e-05 -4.5738216e-06 9.322783e-06 6.6219886e-06 -1.371614e-05 3.4211787e-06 2.9120976e-05 1.780757e-06
7.4005095e-07 -5.9279732e-06 -9.356147e-06 -9.4969e-06 9.508139e-06 -1.8985559e-06 -4.013885e-06 1.1455979e-05
8.891506e-06 -9.222559e-06 3.4002005e-06 2.668632e-06 2.321427e-06 -4.5938336e-06 -1.3321375e-06 1.36141625e-05
-6.4512838e-06 3.822621e-06 -4.0799728e-07 1.2518139e-05 -9.2331754e-07 -3.2969888e-07 9.517597e-06 -1.57892e-05
-8.034516e-06 2.4973197e-06 -2.0642747e-05 1.1889171e-05 1.7811873e-05 2.3761097e-06 1.50847745e-05 4.905965e-06
2.3362786e-06 1.9920017e-05 5.7226225e-07 -2.6223447e-06 1.25944325e-05 2.416591e-05 4.7315552e-07 -3.829834e-06
3.776852e-07 1.5637526e-06 6.0503487e-07 4.429563e-06 -1.5825246e-06 -7.77015e-06 -1.0211516e-05 9.27724e-06
1.6493343e-06 1.2887876e-06 -3.811715e-06 -9.463831e-07 -6.868339e-06 -3.573089e-05 3.3065885e-06 -2.1512747e-06
-1.1521559e-05 4.968568e-06 -8.753504e-06 7.526964e-07 -2.9955816e-06 -1.3717397e-05 1.2099094e-06 1.7614395e-05
-7.144789e-06 -6.039722e-06 -8.508633e-06 -9.35442e-07 2.2813836e-05 -9.9052395e-06 6.9649645e-06 -3.5362375e-06
1.3878449e-05 -8.182095e-06 -2.6342955e-06 1.1359416e-05 -1.4449942e-06 1.541301e-05 -9.505815e-06 5.353944e-07
-2.0526281e-06 -5.5121413e-06 5.4991574e-07 -1.9024861e-05 -4.5834636e-06 8.981096e-06 4.8624133e-06 -6.029662e-07
-3.553773e-07 2.3682883e-06 8.971781e-06 -1.9102195e-06 2.5548268e-06 2.0688089e-05 9.8977e-06 -7.50868e-06
1.2856534e-05 -2.8721242e-06 7.860397e-06 -2.0450586e-06 9.134938e-07 1.7003572e-09 -9.845092e-06 -2.3887587e-05
1.8208775e-06 -3.5461437e-06 -4.210513e-06 5.624164e-06 -1.4062891e-06 -2.5893048e-06 -6.4238766e-06 -3.984982e-06
6.770903e-06 -6.0043503e-06 -1.3265467e-05 -1.3209046e-06 -1.7090222e-05 3.6550473e-06 -4.3127943e-06 -3.081108e-07
-3.362221e-05 2.251291e-06 -1.192882e-05 6.4069686e-06 5.556539e-06 2.6172085e-05 7.20859e-06 -4.5710516e-07
-2.564051e-06 7.639192e-06 -2.4710791e-05 -8.034222e-06 4.042517e-06 6.077961e-06 -2.8017503e-06 -2.991158e-06
-6.1316905e-06 1.187455e-05 -4.8442985e-06 1.8511151e-05 -1.3386959e-05 -8.378089e-06 -1.5630327e-05 -1.589772e-06
-1.11195e-05 -1.0936069e-05 -6.279851e-06 3.1354525e-06 9.013173e-06 3.0855058e-06 2.4382634e-06 -1.1820701e-05

bn1.weight f4 [256]
00000000: 8e5f 793f 30db 763f 8c38 753f 6247 833f
00000010: 3955 6b3f 0578 783f cee2 693f 1aa4 783f
00000020: b8e1 783f b452 723f 741f 693f e9e7 6f3f
00000030: dc55 7d3f 739e 763f 6ce2 773f 6f3d 763f
00000040: 5a26 6a3f 7c58 6b3f ce34 743f 224f 6e3f
00000050: 930b 6b3f dcf4 773f a777 653f 5277 6d3f
00000060: 64d9 6f3f 640e 783f 4150 733f e4d4 763f
00000070: f7a2 6e3f 7be6 6e3f 9463 763f da40 853f
00000080: 7f57 7b3f 73ac 6f3f 0f14 773f 9461 713f
00000090: 114f 6e3f 5930 6f3f cfe5 7c3f 92a2 6b3f
000000a0: 2f76 723f 90fa 803f e249 5f3f 64b6 703f
000000b0: 826d 6f3f 31cb 813f 1bf4 703f 65b8 843f
000000c0: 43f1 6f3f de5b 7e3f 29f9 6e3f f0d0 743f
000000d0: 9919 7f3f 6f10 7a3f b18c 7c3f ce9f 7a3f
000000e0: 1c4c 6d3f 2f23 743f c5ab 6e3f 10f9 763f
000000f0: ce10 673f 131c 743f 5eba 6d3f cc0c 673f
00000100: 5bee 673f 328f 733f e67f 683f 5820 6f3f
00000110: 63c3 663f 4cce 663f 649e 7b3f 48a5 743f
00000120: f41d 743f de0a 833f cd60 7d3f 3092 7d3f
00000130: 7a07 773f 7d90 683f 02e8 613f 998b 743f
00000140: 16e8 6f3f 898a 703f 44f2 783f aa76 6a3f
00000150: cf63 7c3f 1791 703f d783 6e3f 3a62 6a3f
00000160: d660 733f aed1 773f a157 7d3f 163a 7a3f
00000170: 36e8 763f a845 6e3f 1832 7b3f 815c 6d3f
00000180: b13c 813f cf7d 713f 463d 763f b5e4 793f
00000190: d9aa 713f 5a56 7b3f 0dcc 833f 2ffd 783f
000001a0: 6926 7e3f 626e 703f bb83 7d3f c2c0 7b3f
000001b0: baad 5c3f 26bc 613f d029 703f 4b80 763f
000001c0: 807e 773f 54a3 733f 7aeb 7a3f ce09 6e3f
000001d0: 1720 763f acee 703f b931 753f d6f8 723f
000001e0: d2e1 683f 929e 6e3f e0c0 753f f7e8 6e3f
000001f0: f45c 733f c62d 743f 11cb 673f 9a4b 723f
00000200: 7cd2 823f a065 683f f59a 6a3f 9745 7f3f
00000210: e905 6d3f 8f05 813f a5c5 723f bda6 743f
00000220: e102 713f fb74 793f 7b35 793f 9649 773f
00000230: c897 6a3f 4d51 783f 5024 823f a88d 733f
00000240: 9735 6a3f fccc 7b3f 1acf 693f ea1a 743f
00000250: d476 723f b996 693f a3c5 683f be4b 6f3f
00000260: 8ed4 6c3f 31af 773f cc9d 773f a1e4 743f
00000270: 8a49 833f 20d1 803f 597b 7d3f 0844 7a3f
00000280: e7e6 873f dac8 6a3f 8f1f 733f 63be 753f
00000290: eac7 723f 2370 7d3f 9dea 5c3f e923 803f
000002a0: d4b8 6d3f f490 743f cb50 733f cefd 713f
000002b0: 2d9f 793f bf39 7b3f 7068 623f e8e1 823f
000002c0: a577 833f 2a16 703f cd28 843f dcb7 643f
000002d0: 13a4 7c3f 58f0 643f b234 713f 8041 653f
000002e0: 4042 7c3f 8851 683f 2481 793f e804 7e3f
000002f0: 4ea9 703f a274 6e3f b64e 803f 9a71 713f
00000300: 207d 733f 3755 753f 59f5 803f 0996 6e3f
00000310: 28af 853f d070 713f 9473 813f efe0 733f
00000320: 61ea 823f b22e 753f bdde 643f 79ec 763f
00000330: 484f 693f 3615 713f c8e4 773f 8c1f 823f
00000340: 2924 783f 811f 6c3f e3c7 7d3f 6e68 6b3f
00000350: 42bc 6b3f 5fa5 7d3f 517a 703f 98ec 663f
00000360: ff0e 673f 7a60 773f 483f 7e3f a774 643f
00000370: 34ed 7a3f 8bfa 723f 1fc3 673f a8cc 633f
00000380: c3d1 773f b9f9 673f 3d51 6c3f 70fb 643f
00000390: d017 793f d2a2 7d3f 469b 6c3f e081 703f
000003a0: f21c 653f a1aa 793f 0d1f 703f 3ccd 7f3f
000003b0: 6f74 7c3f 4fbc 6c3f 3ae3 773f cce1 733f
000003c0: d003 7d3f 810b 803f 02d4 6f3f ceef 783f
000003d0: 6211 753f e166 763f 2078 7d3f 75b9 683f
000003e0: 2fab 7f3f c638 7a3f 2f09 683f e81d 763f
000003f0: 568d 753f 7b82 743f 4f9d 673f 66a4 743f
0.9741143 0.96428204 0.9578941 1.0256159 0.91926914 0.97058135 0.913617 0.971254
0.9721942 0.94657445 0.9106362 0.9371324 0.98959136 0.96335524 0.9682987 0.9618749
0.9146477 0.9193189 0.95393074 0.930895 0.91814536 0.96858 0.896357 0.92760193
0.93691087 0.9689696 0.9504433 0.96418595 0.93217415 0.93320435 0.96245694 1.0410416
0.98180383 0.9362251 0.9651498 0.9428952 0.93089396 0.9343315 0.9878816 0.9204494
0.94711584 1.0076466 0.8722211 0.94028306 0.9352647 1.0140134 0.94122475 1.0368773
0.9372751 0.9935893 0.9334894 0.95631313 0.99648434 0.97681326 0.9865218 0.9790009
0.9269426 0.95366186 0.9323085 0.9647379 0.90260017 0.9535534 0.928625 0.902539
0.90598077 0.95140374 0.9082016 0.9340873 0.90141886 0.90158534 0.9828856 0.955647
0.95358205 1.0237691 0.9897583 0.9905119 0.96495783 0.9084547 0.8824464 0.9552551
0.9371351 0.9396139 0.9724467 0.91587317 0.98589796 0.9397139 0.9316992 0.9155613
0.95069635 0.9680432 0.98961836 0.9774488 0.96448076 0.93075037 0.9812331 0.92719275
1.0096647 0.94332594 0.96187246 0.97614604 0.9440132 0.9817864 1.0296646 0.9726133
0.9927736 0.9391843 0.9902913 0.98341 0.86202586 0.88177717 0.938138 0.9628951
0.966774 0.95171094 0.9801556 0.9298371 0.96142715 0.94114184 0.95778996 0.94910944
0.90969574 0.9321071 0.9599743 0.93324226 0.9506371 0.95382345 0.9054423 0.9464661
1.0220485 0.9078007 0.91642696 0.9971556 0.92587143 1.0079821 0.9483283 0.9556692
0.9414502 0.97444123 0.9734723 0.9659666 0.9163785 0.96999055 1.0167332 0.95138025
0.9148802 0.98359656 0.91331637 0.9535357 0.9471257 0.9124561 0.9092657 0.9347495
0.9251183 0.96751696 0.96725154 0.9566136 1.0256817 1.006382 0.9901634 0.9776006
1.0617341 0.91712725 0.9497003 0.9599363 0.94836295 0.9899923 0.8629549 1.0010959
0.9286015 0.9553368 0.95045155 0.945279 0.9750851 0.9813499 0.8844061 1.0225191
1.0270888 0.9378382 1.0324951 0.8934305 0.9868786 0.89429235 0.9422103 0.8955307
0.9853859 0.90749407 0.9746268 0.99226236 0.9400834 0.9314672 1.0024021 0.9431397
0.951128 0.9583315 1.0074874 0.93197685 1.0444078 0.94312763 1.0113397 0.95265096
1.0227777 0.95774376 0.8940237 0.9645458 0.911366 0.9417299 0.9683347 1.0165877
0.96930176 0.9223557 0.9913313 0.9195622 0.92084134 0.9908046 0.9393664 0.90204763
0.9025726 0.96631587 0.9931531 0.892405 0.98018193 0.9491355 0.90532106 0.88984156
0.96804446 0.9061542 0.9231146 0.89446163 0.9730196 0.9907657 0.9242443 0.93948174
0.8949729 0.97525984 0.9379738 0.9992254 0.98615164 0.92474836 0.96831095 0.95266414
0.9883394 1.0003511 0.93682873 0.9724091 0.9572965 0.9625073 0.9901142 0.90907985
0.9987058 0.9774288 0.90639013 0.96139383 0.95918787 0.955116 0.9047441 0.9556335

bn1.bias f4 [256]
00000000: 5763 e4bc ff9f fdbd c35d a73c a200 44bd
00000010: 28c8 f6bd f017 64bd 84c3 cebd 9cc5 16bd
00000020: eccb f7bd 44df 09be 225b 38be 1585 10be
00000030: a136 d23c 1d21 0bbd 0907 b6bd f0a6 b8bd
00000040: 6405 e5bd cac0 edbd 014e cabd a094 abbd
00000050: bac1 bfbd 5593 82bd 20d7 e7bd e26f 37bd
00000060: 7950 69bd 7c67 5ebd a310 1abe ec6b cabd
00000070: 2b7d a9bd 6a65 07be 38b3 25bb 7e4d 93bd
00000080: 10f3 0fbe b898 b9bd 57c0 f7bb 655a 89bd
00000090: c7d5 e8bd 187b 16bd 8793 4dbe fa71 06be
000000a0: 8c0f e7bd 06d7 8ebd 5ead 49bd fd67 82bd
000000b0: 4e87 1fbd 9908 80be 9fa9 ddbd 5290 0fbd
000000c0: 868d afbd 65b7 6abd d6ec 93bd 1c9c 0bbe
000000d0: cb29 cbbd db48 1fbd 7dcc 4cbe 295a 92bc
000000e0: ee98 acbd 4ba4 bdbd 5d51 d7bd 1ce0 21bc
000000f0: 319f 07be 946a 1fbe 4432 dcbd cee7 0dbe
00000100: 4131 9dbd be70 a4bd 7d0d 24be cbfe f5bd
00000110: b6ba bebd 3fa7 8abd 4b09 1bbd c967 f3bd
00000120: 1f3c f7bd fd44 73bd 177b 05be 5063 a6bd
00000130: f9bd 15bd ac21 93bd c075 bfbd b3dd 9cbd
00000140: f135 9fbd 340f a0bd a393 7cbd 700f c0bd
00000150: 2490 e6bd 63b6 17be 9ebe 9abd 6504 76bd
00000160: 2911 b5bd 3627 c339 8eb6 d3bd 9e0d c6bd
00000170: b045 83bd 15f1 9abd 6f68 a0bd 5371 c6bd
00000180: a0a8 5ebd 3ed5 ffbd 3f31 17bd b06e 38bd
00000190: c804 cfbd 7194 c6bd f98b 39bd 0c4a e7bd
000001a0: 3ff8 24be ec84 d0bc a8bc 723b c602 47bd
000001b0: b9fe febd 7ac6 a9bd a401 a9bd 6843 81bd
000001c0: a032 91bd 2ab6 b2bd 2fd1 87bd 009e 8bbd
000001d0: 222f d3bd 3dea ccbd 5838 4ebd fdb8 86bd
000001e0: b95d 19be 70b8 f3bd d771 15be ea22 b9bd
000001f0: 3754 03be e264 89bd cdb9 01be 406e 9abc
00000200: 3149 efbc 90f9 f4bd 42d1 adbd 740e 0cbe
00000210: e177 9bbd 6417 0abd aaed 04be d7de 99bd
00000220: 58fb d7bd 6b3c d1bd 9f5e 5dbd 551a 15bd
00000230: 5834 76bd d4cc 39be ad03 b8bd c782 f1bd
00000240: f716 ecbd 6f18 bebd cec5 dabd cb14 24be
00000250: ca25 00be 0952 e7bd 2bb5 0fbe ca86 4cbe
00000260: f094 97bd 0c4c 51bd daa9 10bd ecb9 16bd
00000270: 9f7e 98bd a792 3cbd 5577 babd 262f d2bd
00000280: 4649 eebd 8532 93bd e4fe cabc 015f 8ebe
00000290: 5a46 0cbe afae 05bd f8cf 7dbd 2d60 b5bd
000002a0: 0147 94bd 842f 89bd 754c 86bc 7693 b6bd
000002b0: 016a 95bd d586 2ebd f8fa c1bd 6cf9 1cbd
000002c0: beff 90bd 6696 a939 9f29 19be fe1f 79bd
000002d0: 659e a6bd 58ad a3bd 5203 1abe 3481 34be
000002e0: 3577 8bbd f097 04be 8f5c 02bd d63f aebd
000002f0: 6aa0 4dbd 9271 c3bd 625e 72bd da63 b4bd
00000300: 19ea 6abd a7c3 16be 6ff4 8dbd 064f 7cbd
00000310: de02 7ebc 6cd3 13bd 4c0d f9bc 2542 d3bc
00000320: 453c 2ebe c280 eb3b 8a6f 4fbd e624 1cbe
00000330: 4069 e1bd 3e71 7abd c2fe bdbd a2b1 2abe
00000340: c307 c1bd ac61 c5bd 3c95 dcbd fec8 35bd
00000350: 8691 52bd a871 26be 182b 87bd 545e 96bd
00000360: aca0 51bd b110 21bd 0940 12be 7a3b 00be
00000370: 34b3 9bbc a06a 4abd b0da d0bd c5ad e7bd
00000380: 56eb 29be 8cb3 4cbd bc84 78bd 658d 01be
00000390: ef85 08be 4923 2fbd 1984 a9bd 847c b9bd
000003a0: 310b a8bd dd88 3ebc 37c6 8ebd 1050 c5bc
000003b0: 4659 b5bd b04c 2dbd c36c c7bd 816b 8dbd
000003c0: ebe0 b1bd 5ec5 42bd be1f 09bd 9cdd efbd
000003d0: f962 abbd 3c23 0ebe 807b c2bd 6d5c e6bd
000003e0: 983f b6bd aca4 a7bc b3d1 7ebd e7d4 aebd
000003f0: b4ef ebbd 77c0 a9bd ab04 1cbc b9a0 dfbd
-0.0278794 -0.123840325 0.020430451 -0.047852166 -0.120498955 -0.05568689 -0.100958854 -0.03680955
-0.12099442 -0.13464075 -0.18003514 -0.14113267 0.025660815 -0.033967126 -0.088880606 -0.09016216
-0.11182669 -0.11609037 -0.09878159 -0.08377957 -0.09363122 -0.063757576 -0.11320329 -0.044784434
-0.05696151 -0.05429791 -0.15045409 -0.09883866 -0.08275827 -0.1322228 -0.0025283825 -0.07192515
-0.14057565 -0.09062332 -0.0075607705 -0.067066945 -0.113689 -0.036738485 -0.20075808 -0.13129416
-0.11282262 -0.06974606 -0.0492376 -0.063674904 -0.038947396 -0.2500656 -0.10823368 -0.035049744
-0.08571915 -0.057303805 -0.07222907 -0.1363377 -0.09920081 -0.03888784 -0.19999881 -0.017865257
-0.084276065 -0.09259852 -0.10513566 -0.009880092 -0.1324432 -0.15568 -0.10751775 -0.13857958
-0.0767541 -0.08029316 -0.1602077 -0.120114885 -0.09312956 -0.06770181 -0.03785066 -0.1188503
-0.12072014 -0.059391964 -0.13035236 -0.08124411 -0.036558125 -0.07184157 -0.09348631 -0.07659473
-0.077739604 -0.078154 -0.061664235 -0.093779445 -0.112579614 -0.14815669 -0.075558886 -0.060062785
-0.08841164 0.00037222513 -0.10337554 -0.09670566 -0.06409776 -0.07565514 -0.07832419 -0.09689584
-0.054360032 -0.124918446 -0.0369122 -0.045027435 -0.10108334 -0.09696282 -0.045299504 -0.1129342
-0.16110323 -0.025454007 0.0037038717 -0.04858663 -0.12450928 -0.082898095 -0.08252266 -0.06311685
-0.07089734 -0.08726151 -0.066316955 -0.068172455 -0.10311724 -0.10005615 -0.050346702 -0.065782525
-0.14977159 -0.11900413 -0.14594208 -0.090398625 -0.12825094 -0.06708695 -0.12668534 -0.0188514
-0.029209705 -0.11961663 -0.084871784 -0.13677388 -0.075912245 -0.033713713 -0.12981287 -0.075132065
-0.10545987 -0.10216602 -0.054045316 -0.036402065 -0.060108513 -0.18144542 -0.08985076 -0.11792522
-0.11527818 -0.09282004 -0.106822595 -0.16023557 -0.12514415 -0.11294944 -0.14033954 -0.19973293
-0.074014544 -0.051097915 -0.035318233 -0.036798403 -0.07446026 -0.046038296 -0.09104792 -0.10262899
-0.116350695 -0.0718737 -0.024779744 -0.27806857 -0.13698712 -0.032637294 -0.061965913 -0.08856235
-0.072401054 -0.06698516 -0.01639388 -0.08914845 -0.07295609 -0.042609055 -0.094716966 -0.038323805
-0.07080029 0.00032346247 -0.14957283 -0.060821526 -0.0813568 -0.07992047 -0.15040329 -0.17627412
-0.06809846 -0.12948585 -0.031826552 -0.085082695 -0.05020181 -0.09543146 -0.05917204 -0.08808108
-0.05735216 -0.14723073 -0.06931388 -0.0615988 -0.015503613 -0.0360903 -0.030401848 -0.025788376
-0.17015179 0.00718698 -0.05064348 -0.1524845 -0.11006403 -0.061143152 -0.09277107 -0.16669324
-0.094253086 -0.0963777 -0.10770652 -0.044381134 -0.051408313 -0.16254294 -0.06600016 -0.073422104
-0.05117862 -0.03932256 -0.1428224 -0.12522689 -0.01900635 -0.04941809 -0.10197961 -0.11312441
-0.1659368 -0.049975917 -0.06067346 -0.12651594 -0.13332342 -0.04275826 -0.08277149 -0.090569526
-0.082052596 -0.01162931 -0.069714 -0.024086028 -0.08854918 -0.042309463 -0.097375415 -0.0690527
-0.08685478 -0.047551505 -0.033477537 -0.117121905 -0.08368487 -0.13880628 -0.09496212 -0.112480976
-0.08898848 -0.020464264 -0.062211704 -0.08536702 -0.11520329 -0.08288663 -0.009522597 -0.10919327

bn1.running_mean f4 [256]
00000000: 9011 d4bc 55f4 68bc 1eb2 483d 4674 843c
00000010: ea53 1ebb 20f6 2d3b b74b 933c 2832 4cbb
00000020: ac6a 75bb acd1 03bc 4cfa ef3a 3ad4 fc3b
00000030: ac25 2f3d efd1 e6bc 1a4e f63b 7aaa 233d
00000040: f4d8 533d 70db 95bc 813a ad3c e0bb 3e3a
00000050: 79c7 4f3c a38d 8a3c 6291 17bc ab37 20bd
00000060: 5b5a 1dbc 2a71 13bd 3b78 bc3c b4e9 3ebd
00000070: 45cd a3bc aa5e 43bd 1075 9d3c 3ef5 0dbd
00000080: 7641 fa3c f609 b4bb 5d25 443d 769f b83c
00000090: aafe 49bc e18d c63b b44d 283d 594c b3bc
000000a0: 0dae e93c 72b1 933c e669 65bc d3f6 1a3c
000000b0: 4879 87bc 2d8b 12bc 001d 41b9 9230 e93c
000000c0: c475 9cbd 35d3 1f3c 2a12 f6bc 484d bb3c
000000d0: 79f9 c6bc 66cb 06bd a8ae 9b3b c0e6 6e3c
000000e0: 58aa 20bd 5b83 3abd 9a7a bf3c ddd4 9b3c
000000f0: c812 333d 48ed 3ebd 26ba 07bd 2087 e4ba
00000100: 283b 033d 0a43 593d 5aa2 423d 1600 26bd
00000110: c409 97bc 8008 3239 9aaf 36bc a691 ebba
00000120: 68a5 a8ba ec6c 23bd 98af 303d 6687 723d
00000130: 6ceb 833d 2950 7d3d 95b6 2fbc 23e6 0a3d
00000140: 3687 f9bc 1de3 463c 8438 a33a b937 0d3d
00000150: fa92 0dbd 2b74 93bb c6f2 c63c 0716 9ebc
00000160: e397 f53c 8068 003c 2274 53bc 91bd 68bc
00000170: d0ad 5dba 7560 ee3c 2ad5 2d3d a6fc 853c
00000180: a077 163b cb07 bc3c 9c6f 60bd c164 b6bc
00000190: 42cc 373d 66cc 243d 6029 d73c b239 c0bc
000001a0: 3286 073c 9257 393c 3978 093d 24ba 28bd
000001b0: 1645 c33c ca1d 0c3c 1b0d 813c 2af7 203d
000001c0: e3cb ec3c 03b1 d7bc 009b 523d 9c53 fabc
000001d0: f290 34bd 38e7 3abc fb5d 543d 8ebd a0bc
000001e0: f5cc 31bc 1ee6 c53b 8e5f 6d3c aeee 383c
000001f0: 864c 21bd 42c4 21bd 4b29 62bb b4ea 69bd
00000200: 2480 403b a8cb 8b3b 9c26 263c 66cd 9bbd
00000210: 4b87 b73c 07fe e23c fc0b 7f3c b220 5d3c
00000220: ddd2 743c 9434 dabc 97cb 673c 0944 3f3d
00000230: f4bd 55bd 32f9 6c3c 90cb a83c 61e9 2a3d
00000240: 1ea9 7cbd d3ad 7a3c 8e64 9bbc 197d f93c
00000250: ed89 fdbc 3e95 84ba 08d1 2e3d 7e2d 17bc
00000260: a863 b23a 4014 2e3d b30c 70bc 2c76 75bd
00000270: fb27 14bd 8067 193d 32be 2e3d 9b2d fcbc
00000280: 6569 583c 42c7 953c 202c 10bd b740 633c
00000290: 5895 36bd e031 613d e1f1 e53c 6e3d 163d
000002a0: 240e 0f3c 48bb 3abd a8ee 3f3d b4e4 52bd
000002b0: 7f20 853d 5c18 a5ba c423 ed3a 5bd2 e73b
000002c0: b8db f83b ee89 233d 3cf3 9cbb 4e77 0f3d
000002d0: 7491 0fbc b197 1cbd f337 5dbc 0038 b7bb
000002e0: 125d 84bc 02e8 fc3c 4e9d 693d f20b ea3c
000002f0: 5b25 04bd 74f1 2c3d a3f8 00bd 2605 013d
00000300: 3688 2fbd ef83 813d 91da d4bc 63c8 05bd
00000310: 5c73 b23b 267c 273d 0cb4 313d 7cea d43b
00000320: d046 ca3c 78a2 adbc 16ef c6bc ef88 18bd
00000330: 6121 5e3d efb7 0dbc aa5a 41bb 8f5b 8abc
00000340: d4c8 c1bc b8e1 b03c 1047 fabc c480 52bb
00000350: 0087 99bb ba99 b63c c62a 91bc 4d32 1dbd
00000360: 167b 2bbd de17 413b 7028 53bc d6e6 bcbc
00000370: 66f0 263d f8c5 20bd ea5f 2e3d 5f61 3c3d
00000380: 966d 58bd fc5a 8cbc addd 63bd a70c 3dbd
00000390: d8c0 2c3a 8eef 073d bc8a be3c 7e56 fd3c
000003a0: 3310 573c e08a 083a e249 96bc 1b78 4cbc
000003b0: c2d2 edbb 9a88 403d 9a8a 8c3c b65b 923c
000003c0: 46cf 41bc 24c3 183d 879e 3abb 5b11 cf3c
000003d0: 69ed d33b c079 303a 1779 f93c e071 d13c
000003e0: 027a 973c 9a00 1fbd 5974 1dbd eb1a 0a3c
000003f0: 9db5 72bc 7b3d 46bd 3880 65bb f628 943c
-0.02588728 -0.01421841 0.04899799 0.016168725 -0.0024158903 0.0026544407 0.01798044 -0.0031157825
-0.0037447615 -0.008045595 0.0018308847 0.007715729 0.042760536 -0.028176276 0.0075166347 0.0399575
0.051720574 -0.018293113 0.02114606 0.00072759204 0.012681835 0.01691324 -0.009250971 -0.03911559
-0.009604062 -0.035996594 0.02300655 -0.046609595 -0.019995341 -0.0476977 0.019220859 -0.03465771
0.030548792 -0.0054943515 0.047887195 0.022536974 -0.012328783 0.0060593938 0.04108973 -0.021886991
0.028525377 0.018028948 -0.014002299 0.009458262 -0.016537324 -0.008944315 -0.00018416718 0.028465543
-0.076396495 0.0097549455 -0.030037958 0.022863999 -0.02428888 -0.03290882 0.0047510453 0.014581382
-0.039224952 -0.045535427 0.02337389 0.0190224 0.043719083 -0.046613008 -0.03313651 -0.001743529
0.032038838 0.05304245 0.04751811 -0.040527426 -0.018437274 0.0001697857 -0.011150265 -0.0017972484
-0.0012866678 -0.039898798 0.04313621 0.059211157 0.064413875 0.061844025 -0.010724683 0.03391088
-0.030459981 0.012139109 0.0012452756 0.03447697 -0.034563996 -0.0044999323 0.024285685 -0.019297613
0.029979652 0.007837415 -0.012906106 -0.014205352 -0.0008456381 0.029098729 0.042439617 0.016355824
0.0022959486 0.022952935 -0.05479394 -0.02226484 0.04487253 0.040233992 0.026264846 -0.023465011
0.008271741 0.011312382 0.03356192 -0.041193143 0.023836654 0.008552024 0.01575332 0.039298214
0.028905815 -0.026329523 0.05141735 -0.030557446 -0.044083543 -0.011407666 0.05184744 -0.019621637
-0.010852088 0.006039395 0.014488114 0.011287374 -0.03937962 -0.039493807 -0.0034509476 -0.057108596
0.0029373253 0.004266221 0.010141041 -0.07607536 0.02240338 0.02770902 0.015566822 0.013496565
0.014942852 -0.0266364 0.014147661 0.046695743 -0.052183107 0.01446371 0.020604879 0.041726474
-0.06168472 0.015300232 -0.018968847 0.030455159 -0.030949557 -0.0010115278 0.042679816 -0.009227155
0.0013610022 0.04249978 -0.014651465 -0.05992715 -0.03617094 0.03745222 0.042661853 -0.030783465
0.013208722 0.01828349 -0.03519833 0.01387041 -0.04457602 0.054979205 0.028069438 0.036679678
0.008731399 -0.04558876 0.04685846 -0.05148764 0.06500339 -0.0012595761 0.0018092324 0.007074637
0.007594552 0.039926462 -0.004789738 0.035025887 -0.008762706 -0.0382306 -0.013502109 -0.0055913925
-0.01615766 0.030872349 0.057034783 0.02857015 -0.032262187 0.042222455 -0.03148712 0.03149905
-0.04285451 0.063239925 -0.025983127 -0.032661807 0.005445881 0.04088988 0.043384597 0.0064976793
0.02469197 -0.021195635 -0.024283927 -0.037239965 0.05423105 -0.00864981 -0.0029503503 -0.016889362
-0.023655333 0.021592006 -0.030551463 -0.0032120207 -0.0046852827 0.0222901 -0.017720591 -0.03837805
-0.04186543 0.002946369 -0.012888059 -0.02305929 0.040756606 -0.039251298 0.04257194 0.045991298
-0.052838884 -0.017133228 -0.05563133 -0.046154644 0.0006590015 0.03318744 0.023259513 0.030925032
0.013126421 0.0005208682 -0.018345777 -0.012479807 -0.0072577903 0.047005273 0.017155934 0.017865997
-0.011829203 0.037295476 -0.0028475837 0.02527683 0.0064675105 0.00067320094 0.030453248 0.025566995
0.018490795 -0.038818933 -0.038441036 0.008429269 -0.014813808 -0.048398476 -0.0035019051 0.018085938

bn1.running_var f4 [256]
00000000: 0422 fd3d 6918 d73d 6e61 ad3d 3cbd d93d
00000010: e8c3 a93d a14a ba3d 218e cd3d 6f3d ac3d
00000020: e21d c13d a497 b13d 9ccd 943d 6902 c13d
00000030: 82ff fd3d d78b 6b3e 2340 e53d ec3a e93d
00000040: 8fa7 983d c73e f13d 2753 a93d 953d b23d
00000050: 08af e13d 3c9a e63d 6711 a33d 8c19 183e
00000060: 74b1 b83d ee83 953d b920 923d 81e9 a53d
00000070: a368 003e b44a c93d 3a3e ff3d 4d72 753d
00000080: 6d9c 8d3d 44ce 823d 21fb 3a3e e3ea b03d
00000090: b780 a43d ad00 df3d 9178 9e3d 640f 3c3e
000000a0: 07e2 f23d 143e a03d 6c08 f73d 1887 523d
000000b0: 2cb0 ca3d 0f2a eb3d a961 913d 2862 ed3d
000000c0: 0476 cb3d b6e8 3d3e 99c5 c83d 6cdd ec3d
000000d0: 60e5 8f3d 3a73 c63d c7b3 993d e14b b23d
000000e0: 1fdc 0f3e 66f8 2e3e fb90 0a3e 3c95 723d
000000f0: fa70 ee3d eeaa 393d 688c ec3d 18d2 0f3e
00000100: 15dd 6d3d 14a1 bf3d 88ad 9b3d 1730 b73d
00000110: 6079 bc3d 0b9c 833d e47b 0c3e da56 333d
00000120: 42a5 f73d 4dd4 a93d 88b5 e33d c57f 6a3e
00000130: 4b2e 163e 9569 ee3d 3655 9a3d dac3 123e
00000140: 98cd 033e 7b0e d73d 0785 ef3d 18a7 8a3d
00000150: 19b4 b53d 2d52 f73d eb09 103e 1bba 973d
00000160: 20f4 c13d db08 8b3d 4a2a c13d 3ea6 b23d
00000170: 0b4d 0c3e 14e4 b73d 2262 173e e048 023e
00000180: 602f 943d 06b2 213e 6f52 da3d 3a67 e23d
00000190: 5213 ff3d 3e12 f03d 2b26 d13d ebd9 e03d
000001a0: 8d5f 953d a5ce 623d 7a26 8b3d 9f82 513e
000001b0: 1986 e43d f683 753d 530d 073e da49 fb3d
000001c0: cb6b 183e 5d5e cc3d 8e05 b63d 8a19 ce3d
000001d0: 18c4 b53d d2aa 8b3d 2fb4 1b3e 4e73 eb3d
000001e0: 9ce8 be3d d344 9a3d 19cd 8d3d 1a85 983d
000001f0: b459 a33d d0a4 913d 6f72 ac3d 387e ad3d
00000200: bac9 383d 1620 083e 5f9c 893d 204e 1f3e
00000210: adeb bb3d 3cd4 f23d a8ef 9a3d 7e43 fa3d
00000220: 16bb c23d 1fe4 663d 6662 173e f255 103e
00000230: b9cd e93d b424 843d ad80 293e d530 053e
00000240: 8a2c 1d3e 8a4a a73d d8b2 933d 2086 213e
00000250: 5d7f 353e a314 d93d 1ade 163e 3cf8 ae3d
00000260: 438b 873d 6c36 4b3e 0b57 de3d a256 993d
00000270: f065 903d 0389 5a3d e263 c83d 98e1 2d3e
00000280: 5584 e63d 641c 1d3e dccd 6b3d 78c9 883d
00000290: d8af 803d 8fef f33d 6018 ec3d e505 273e
000002a0: 0496 0c3e 1d66 083e 0ca9 223e c1de 473e
000002b0: 8b02 043e 73ef 0e3e 6cfb 9d3d 8dd9 be3d
000002c0: f4b1 b53d b88e 9a3d 641f 783d e728 c73d
000002d0: 1fde b23d b347 e43d b7d2 a63d 080e a93d
000002e0: 54b5 fc3d 9fb8 f73d e4e5 fa3d 928e 9b3d
000002f0: a861 a43d 0c20 b43d e6b9 c73d 2160 bd3d
00000300: 000f b33d 60e0 393e 8f6a b03d 7c54 fc3d
00000310: 18e8 203e 4a89 b43d 998b e13d c85f 433d
00000320: 306a a53d 056a 073e 5ecf 123e 94a0 5d3d
00000330: 38e5 a13e af26 103e f9f9 793d b98c a33d
00000340: b171 4f3e 74ec b33d 6a9c 1a3e f9d6 b33d
00000350: e8d5 883d 8a5f 013e a6ed 0a3e 54a2 013e
00000360: c707 af3d ef1e d43d bf1e b73d 27dc c93d
00000370: fe29 a83d e2d7 5f3d 728a ed3d 2d37 0a3e
00000380: e558 3a3e cd9d cc3d 3a28 ad3d 9f8f e13d
00000390: 1b81 9b3d 8f0a bf3d 9ab0 ae3d d168 f03d
000003a0: fcd5 123e 0865 cd3d ff23 053e ec55 a73d
000003b0: cee3 d43d 1cc8 ee3d cc5e 973d dbaa dd3d
000003c0: b3ea a83d 5660 7e3e e049 f13d cc0a 873d
000003d0: 64a8 fc3d 0170 d53d 210f 003e e077 1d3e
000003e0: 4abd ac3d ca45 6b3d a829 c33d 7fe9 383e
000003f0: ea2c 163e ca73 043e dbe0 223e 7a7f 8e3d
0.123600036 0.10502703 0.08465849 0.10631797 0.08289319 0.090962656 0.100368746 0.08410155
0.09429528 0.08671501 0.072657794 0.09424288 0.1240225 0.23002563 0.11193874 0.113881916
0.07453834 0.11779552 0.08267813 0.08703152 0.11019713 0.112598866 0.079623036 0.14853495
0.090182215 0.07300554 0.071351476 0.08101178 0.12539916 0.098287016 0.12463041 0.05992346
0.069146015 0.06386998 0.1825986 0.08638551 0.08032363 0.10888801 0.0773784 0.18365246
0.118595175 0.078243405 0.12062153 0.051398367 0.09896883 0.114826314 0.07098705 0.115909874
0.09934619 0.18545803 0.09803314 0.1156567 0.07026172 0.096899465 0.07504993 0.08705879
0.14048813 0.17086944 0.13531868 0.059224352 0.11642642 0.045329027 0.11550218 0.14044988
0.05807217 0.09356895 0.07601458 0.08944719 0.09202838 0.06426247 0.13719136 0.043784
0.12092067 0.08292446 0.11118609 0.22900303 0.14666097 0.11641232 0.07535784 0.14332524
0.12871397 0.10500809 0.11695295 0.06770152 0.088722415 0.12076221 0.14066283 0.07408544
0.09470391 0.067887984 0.09431894 0.087231144 0.13701265 0.08979049 0.14783528 0.12723112
0.072355986 0.15790567 0.10660254 0.11054845 0.12454857 0.117222294 0.10212358 0.109790646
0.072936155 0.055372853 0.06794448 0.20459984 0.111583896 0.0599403 0.13188677 0.122699454
0.1488487 0.09978936 0.08887778 0.10063465 0.088752925 0.06819691 0.15205453 0.11496602
0.093217105 0.075326584 0.06923885 0.07447262 0.07976094 0.071115136 0.08420264 0.0847134
0.045114256 0.1329349 0.067192785 0.15557146 0.09175811 0.11856887 0.07565242 0.12219904
0.0950834 0.056369897 0.1478363 0.14095286 0.114161916 0.06452313 0.16552992 0.13006909
0.15349022 0.08168514 0.07211846 0.15773821 0.17724366 0.10599639 0.14733163 0.08543441
0.06618359 0.19844979 0.10856446 0.07487227 0.07050693 0.05335332 0.09784676 0.16980588
0.11255709 0.15342861 0.05756937 0.06679052 0.062835395 0.119109266 0.11528087 0.16310842
0.13729101 0.13320203 0.15884799 0.19518568 0.12891595 0.1395853 0.077139705 0.09318838
0.088718325 0.07546753 0.06057681 0.097245984 0.087337725 0.11146488 0.081456594 0.082546294
0.12339273 0.120957606 0.122508794 0.075955525 0.08026439 0.08795175 0.09752254 0.09246851
0.087430954 0.18151999 0.086140744 0.123208016 0.15713537 0.08815248 0.11012954 0.047698766
0.08076894 0.13224037 0.14336917 0.054108217 0.31620193 0.14077257 0.061029408 0.07985825
0.20258214 0.08785334 0.1509873 0.08781237 0.066814244 0.12634102 0.13567218 0.1265958
0.08546405 0.103574626 0.08941411 0.09856444 0.082111344 0.05464924 0.11598672 0.1349761
0.18197973 0.099910356 0.08454938 0.11013722 0.07592984 0.09328186 0.08529778 0.11738742
0.14339441 0.10029036 0.13002013 0.08170685 0.10395013 0.116592616 0.07391128 0.10823604
0.0824789 0.24841437 0.11781669 0.06593856 0.123368055 0.10421754 0.12505771 0.1537776
0.084345415 0.057439603 0.0952943 0.18057822 0.14665571 0.12934795 0.15906088 0.06957908

fc2.weight f4 [128, 256]
00000000: bc5e 1cbd b8e3 cf3d 8fbb 3a3b 80d7 813d
00000010: 7884 3ebc da45 85bc 6187 87bc 1fd7 f1bc
00000020: 4606 30bc 5175 25bd 0cd7 8abd 4d81 16bd
00000030: 9edf 3e3d 4622 163d 34bd e23b e89c 25bc
00000040: fdea 633c 2cab 433d 269b 8ebd 5019 0d3d
00000050: 3cef 533d 7a2c 84bd 508f 0b3d aa5d e63c
00000060: bc49 493d 8d42 bc3c 12f3 9e3c b0e4 823d
00000070: d072 dc3c dd33 66bd f02c 883c 9d7b 6bbc
00000080: 9080 80bd 9027 8fbd 1bf9 02bd 2ad1 17bd
00000090: 9f52 a1bd 2fe2 7f3d c30e d03c 3749 563d
000000a0: a09e 3f3c 6983 163d 0079 3bbd 7526 86bd
000000b0: f389 483c 0629 edbc 4368 e33c c456 c6bc
000000c0: abf3 88bd 5874 2cbd 8c13 453d 3c6b 113d
000000d0: b0c0 053a df78 233d ee80 a93c 0fa6 b43c
000000e0: 937e 353c 200d 14bd e3e7 773c d9c7 d0bc
000000f0: caca 6d3d d0c4 f8bc dcf3 963b e145 db3b
00000100: d6b5 76bd de8a 313b 02ec 00bd 1e14 cebc
00000110: c212 b63a 259d de3c 8d74 793d 2182 a23b
00000120: 0256 dd3b dc64 493d c32c 76bc 6a5f 563d
00000130: 5b07 b6bd 63ba ff3c fbc6 65bc a9dd 04bc
00000140: 1f23 12bd 1e2b 18bd 7c6f 243d 0079 42bd
00000150: d6e7 7c39 b9d3 e4bb fc26 313d 59f8 adbb
00000160: e49c a13a afd7 373d 148b 793a e2da 0d3d
00000170: 9e24 30bc 6f5f 313c 7650 5b3d b350 a4bc
00000180: aeb1 d5ba 9c16 eabc c33a b93a 1474 e3bc
00000190: 10a0 3b3d 0b46 44bd e300 823b 3c3e a4bb
000001a0: 0e39 58bd 396e 28bc 665e 133c 6c8f cebc
000001b0: a3b9 07bd 8e9e 8cbc c882 51bc d80e 7cbc
000001c0: d1d7 2ebb 792d 1a3d 8638 17bc 87ad 64bd
000001d0: 04f4 edbc b274 67bd b8e6 a03d f95c ddbc
000001e0: bff9 b8bb aea1 f93b d0e3 aabb 68d4 713b
000001f0: 3edb 8a3d 68fa 4fbc f392 b63a 50ab 34bd
00000200: bef7 1bbd 23ba 69bd 7ccb b43b 16ef 0fbd
00000210: 47a3 953c 4c52 adbc 0356 40ba da93 2b3d
00000220: 9594 7cbd d0f9 06bd 5e72 123d 16c4 49bd
00000230: 040a a1b9 ec18 f9bb bc94 1ebd e040 2ebd
00000240: a2a8 f1bc 1306 a0bc 9834 4a3d 0228 6a3d
00000250: 913f 6f3b a0a5 6c3c 1c16 7abd 6508 3dbd
00000260: 8f3a 9f3c 0272 013d 3aa9 803d 9815 6cbd
00000270: 8955 d83c abf3 72bd 32cd c7bc df9f 433c
00000280: 1432 043b c796 8f3c af1b 673d 5cdf 1bbc
00000290: d222 863c 6489 d83c caba 43bd 8399 0cbd
000002a0: fd9a 753d 9285 693d 6162 edbd 2118 3a3d
000002b0: 09b7 873c b659 a0bc e161 1e3d f078 80bd
000002c0: 747a 463d ba35 383c 0ebf c7bc 14c5 733d
000002d0: a11b da3b 0df8 17bd 852c 80bc 15c1 b0bc
000002e0: 08b4 9dbd 5582 87bb dbd5 22bd 3904 99bd
000002f0: 8b56 97ba 48e3 a6bd b49f 72bb 4448 86bc
00000300: 51e8 883c ebc2 b0bc 7be5 b53c d87e 11bc
00000310: a326 813d 0c45 49bb 80a1 31bd ddd5 2d3d
00000320: c84d a93b 19c6 fd3c fff0 84bd 2b89 0ebd
00000330: eb8d 79bc 2e34 543d 759e a4bd f2c8 173d
00000340: a690 67bb 4efe b4bc 5e05 3abd a3cf d53d
00000350: 219a 01bc 8606 adbd 8f26 10bd 9fc3 a5bb
00000360: a28c 4ebd 6b84 cf3c ffdb b1bc 808f 3abd
00000370: 223c 4f3d 4ecb 1cbd de4f abbc 6823 99bb
00000380: f275 d1bc 97a5 5dbd e5c9 debc c576 2fbd
00000390: fc70 dbbb e4b6 7c3d d896 49bd 71ed d73c
000003a0: 7907 09bd 431f 033c 5800 85bd 7cb9 1a3d
000003b0: af5a a6bd 4168 2ebb 8cb1 9c39 c2b5 15bd
000003c0: 50e3 4abd a7cd 1c3d 8734 f8bc 88f8 c7bc
000003d0: e8b2 0ebc 3192 2b3c 6c0e bbbd 52ad 8abd
000003e0: a27b d5bc 7ece 8cbc 2db3 25bd 6c5a 913c
000003f0: 78d4 473b 5f54 32bb e398 0ebd 6d14 4ebd
-0.038176283 0.10150856 0.0028493141 0.063399315 -0.011628263 -0.01626866 -0.016544046 -0.029521523
-0.010743683 -0.040395085 -0.06779298 -0.036744405 0.046599977 0.03665378 0.0069195274 -0.01010821
0.013911006 0.047770664 -0.06963186 0.034447968 0.051741824 -0.06453796 0.03407222 0.028120834
0.049142584 0.022980953 0.019403014 0.06391275 0.026910216 -0.056201804 0.01662299 -0.014372733
-0.06274521 -0.06989968 -0.031975847 -0.03706471 -0.07877087 0.062471565 0.025397664 0.052315917
0.011695534 0.036746416 -0.04576969 -0.06550304 0.012239921 -0.028950226 0.027759677 -0.024211295
-0.06687101 -0.04210314 0.048114344 0.035502657 0.000510226 0.039910194 0.020691361 0.02205184
0.011077541 -0.03614533 0.01513097 -0.02548592 0.058054723 -0.030367285 0.004606707 0.00669168
-0.060232006 0.0027090828 -0.031475075 -0.025156077 0.0013891088 0.027174542 0.060902167 0.00495936
0.0067546377 0.049168453 -0.01502532 0.052337088 -0.08888122 0.031216806 -0.014024491 -0.0081094885
-0.035678025 -0.037150495 0.040145382 -0.047478676 0.00024118958 -0.006983247 0.04325007 -0.0053091464
0.0012330082 0.044883426 0.00095193204 0.03463257 -0.010750918 0.010825976 0.05354353 -0.020058012
-0.0016303563 -0.028575234 0.0014131892 -0.027765311 0.045806944 -0.04791836 0.003967391 -0.0050123017
-0.052788787 -0.010280185 0.008994674 -0.025214873 -0.03313602 -0.017165449 -0.012787528 -0.015384398
-0.002667893 0.037641022 -0.009229785 -0.05582955 -0.02904702 -0.056507774 0.07856506 -0.027021872
-0.0056450064 0.0076181507 -0.0052151456 0.0036900286 0.067800984 -0.012693979 0.0013929292 -0.04410869
-0.038078062 -0.05706228 0.0055174213 -0.03514012 0.018266333 -0.021157406 -0.00073370355 0.04188905
-0.061665136 -0.032953084 0.0357536 -0.049259268 -0.00030715775 -0.007601848 -0.038716063 -0.04254234
-0.029499356 -0.019534146 0.049366564 0.05716706 0.0036506394 0.014443785 -0.06105624 -0.046150584
0.019437103 0.031602867 0.062822774 -0.05763778 0.026407974 -0.05931441 -0.024389837 0.011939972
0.002017145 0.01752795 0.056422886 -0.009513702 0.016374025 0.0264327 -0.047785558 -0.034326088
0.05996226 0.05701215 -0.1159103 0.045433167 0.01656677 -0.019574028 0.038667563 -0.06273067
0.048456624 0.011243278 -0.024383094 0.05951412 0.0066561257 -0.037101794 -0.015646229 -0.021576444
-0.07700354 -0.00413541 -0.03975473 -0.074715085 -0.0011546178 -0.08148819 -0.003702146 -0.01639188
0.01671234 -0.02157732 0.022204151 -0.00888034 0.063061975 -0.003071132 -0.04336691 0.042440284
0.005166743 0.03097825 -0.06491279 -0.034798782 -0.01523159 0.051807575 -0.08038036 0.03705687
-0.003533402 -0.022093918 -0.045415275 0.10439994 -0.007910282 -0.0844851 -0.035193022 -0.0050587202
-0.050427087 0.025331696 -0.021711348 -0.04554701 0.050594456 -0.038279824 -0.020912107 -0.00467341
-0.025568936 -0.054112997 -0.02719588 -0.042837877 -0.0066968184 0.061697856 -0.04921612 0.026358338
-0.033454392 0.008003059 -0.06494206 0.037774548 -0.08122765 -0.0026612433 0.0002988692 -0.03655029
-0.04953319 0.038282063 -0.030298484 -0.024410501 -0.008709647 0.0104718665 -0.0913361 -0.067713395
-0.02605993 -0.017188307 -0.04045408 0.017743312 0.0030491631 -0.0027210934 -0.034813773 -0.05031245

fc2.bias f4 [128]
00000000: 3068 9836 f261 da36 9664 1f37 7adc c5b6
00000010: 3d31 1937 34fe 1ab6 6bce 82b6 37ae 7935
00000020: d8e9 0036 e74e 2336 66c2 70b5 1130 1637
00000030: 5351 f536 0b3a 4c36 2271 2237 d3f7 34b6
00000040: fa19 3db7 3056 d1b6 3c87 6b36 f84b 8035
00000050: 0a4e 5535 92e3 beb5 5418 06b6 d7bf 0835
00000060: 052a 2b37 4583 2db6 ca1b 0cb6 18a2 cbb6
00000070: 134a 6035 e7f6 deb6 2bf8 1735 bd33 d633
00000080: 1e69 6d36 2742 9037 7465 22b6 1eac bcb3
00000090: 320c 4eb6 e830 ba34 5cbe 4b36 b005 6334
000000a0: 0445 d636 9774 1435 c0a5 afb4 4e25 d336
000000b0: 4e2a 6036 466a b636 0011 48b6 92e2 77b6
000000c0: 1807 1d37 6d01 70b6 152a a2b6 119c 56b7
000000d0: badd 5ab7 4e30 97b6 6cb8 aeb3 85d4 0937
000000e0: 5140 09b4 1bf6 e334 7567 8135 10f6 1bb7
000000f0: c5ba 3836 dc93 5136 587c f4b6 1a66 9d36
00000100: f2ce 5cb6 42b9 93b6 eb4d f836 5553 6136
00000110: 0e40 1cb6 31fa c035 5ca5 a435 0371 2535
00000120: 70a8 b336 a081 1eb6 ceae 2235 0d8c 3ab6
00000130: f92f afb6 c8d7 99b5 92b0 62b6 50ff 3036
00000140: 7b72 9833 f08b a033 2cad b7b6 9dc2 79b5
00000150: ba38 0b36 17ad 7535 b753 b933 1226 8437
00000160: 3fa2 3f37 2129 ae36 1805 cf36 d4aa e0b5
00000170: 3b16 2037 0e8d 6236 96f7 ac36 afa8 ba37
00000180: 0368 5cb6 2812 46b6 66fa a836 4816 6237
00000190: 6a1f 9ab6 a200 7f35 5e52 87b4 c902 feb6
000001a0: a76e 3836 7dcd 73b6 cbf8 3336 28dc 6a37
000001b0: 7fd2 6636 043c 30b4 bc8b 70b6 4c60 2bb6
000001c0: cdf8 2736 7abb 58b5 6dbd 3f34 c200 c836
000001d0: 9e5d a6b5 5b1f 0936 dda0 2536 9f31 1437
000001e0: 2713 4436 ee08 a4b6 500b b4b5 d4fe a2b6
000001f0: 40ba 20b6 6722 bd36 987d 5e35 7740 06b5
4.542082e-06 6.5083086e-06 9.500558e-06 -5.8967244e-06 9.130975e-06 -2.3095754e-06 -3.898332e-06 9.3013244e-07
1.9209601e-06 2.433482e-06 -8.9689854e-07 8.951888e-06 7.3110364e-06 3.0432154e-06 9.682293e-06 -2.6966343e-06
-1.1271326e-05 -6.238719e-06 3.5096446e-06 9.558853e-07 7.9462245e-07 -1.4222335e-06 -1.9981717e-06 5.094311e-07
1.0202178e-05 -2.5855418e-06 -2.08778e-06 -6.0687416e-06 8.3554295e-07 -6.644859e-06 5.6613015e-07 9.974563e-08
3.5376938e-06 1.7196942e-05 -2.4198935e-06 -8.78574e-08 -3.070349e-06 3.4680784e-07 3.036016e-06 2.1143092e-07
6.3857315e-06 5.5303957e-07 -3.271689e-07 6.292633e-06 3.3403226e-06 5.4363945e-06 -2.9812218e-06 -3.693775e-06
9.359581e-06 -3.5763617e-06 -4.832875e-06 -1.2791731e-05 -1.3045437e-05 -4.505774e-06 -8.1360525e-08 8.215317e-06
-1.2782517e-07 4.246111e-07 9.641359e-07 -9.296011e-06 2.752685e-06 3.1229492e-06 -7.286242e-06 4.690851e-06
-3.2903013e-06 -4.4025082e-06 7.400047e-06 3.3576118e-06 -2.3283096e-06 1.437793e-06 1.2267078e-06 6.1631744e-07
5.3542244e-06 -2.3619286e-06 6.0604077e-07 -2.779768e-06 -5.220991e-06 -1.1462189e-06 -3.3779402e-06 2.6374655e-06
7.0988754e-08 7.476035e-08 -5.473985e-06 -9.304293e-07 2.0745633e-06 9.152149e-07 8.6299615e-08 1.5753354e-05
1.1422263e-05 5.190392e-06 6.1696737e-06 -1.6739018e-06 9.541919e-06 3.375873e-06 5.1548222e-06 2.2251477e-05
-3.2843097e-06 -2.9514867e-06 5.0359404e-06 1.34758375e-05 -4.5932147e-06 9.4995823e-07 -2.520564e-07 -7.570114e-06
2.7482545e-06 -3.6329432e-06 2.6817895e-06 1.3998746e-05 3.4395196e-06 -1.6413111e-07 -3.5844123e-06 -2.5537038e-06
2.502976e-06 -8.0739085e-07 1.7857174e-07 5.9605527e-06 -1.239521e-06 2.0432842e-06 2.468055e-06 8.833041e-06
2.9217424e-06 -4.8886204e-06 -1.3414337e-06 -4.857642e-06 -2.395027e-06 5.636644e-06 8.288421e-07 -5.00127e-07
