tryst/model_round_3.pth (torch, 194739 bytes, 19 tensors)

fc1.weight f4 [256, 14]
0.17976017 -0.11487868 0.020514991 0.10474441 0.09698814 0.032438923 0.07826905 0.12787701
0.13545394 0.03605303 0.06977542 -0.0051718033 -0.00790661 -0.087946594 0.058358017 0.09829148
-0.018713003 -0.18066432 0.044868834 0.032493312 -0.094523676 -0.11192361 -0.10212809 0.058179226
-0.018873751 -0.07200568 0.030229688 -0.14399901 -0.12747148 -0.050827406 0.061816033 -0.019849107
-0.07306923 -0.050653927 0.04590791 -0.07983442 -0.030603878 -0.06840015 0.1390144 -0.06568706
0.056486186 -0.105635725 0.15283096 -0.16463454 0.008806234 -0.16073881 -0.038445316 -0.055742264
0.055580385 -0.10748458 -0.10743072 0.09368038 0.14719085 0.003858021 0.11179321 0.08749299
-0.093163766 0.10093511 -0.021328911 0.11745871 -0.03689634 0.051652476 0.09837553 0.053449888
-0.11767729 0.012259704 -0.16724114 0.08885985 -0.014350722 0.0020829667 0.0108565865 0.009859398
0.013920031 -0.15045059 -0.10071692 0.10566321 0.012039938 0.052980922 0.038066026 0.08541848
-0.042036 0.058839604 0.09965374 -0.0929344 0.11276292 -0.03623278 0.0922231 -0.07323133
0.053731665 0.10781988 0.10830928 0.026186746 -0.04078928 0.0014787597 -0.1367619 -0.081792556
-0.037471045 0.122012876 0.07946606 0.09469326 -0.06077875 0.14233112 -0.05683706 -0.012775274
0.079657674 0.07389602 -0.092330806 -0.1598483 0.0336397 -0.074888155 -0.022908717 -0.13309151
-0.115805306 -0.06888986 0.10418935 0.03367206 0.0660911 0.023752527 -0.091365784 -0.12529479
-0.08918403 -0.00014072761 -0.09796204 -0.11141962 -0.11748155 0.040481776 -0.08957541 -0.051165327
0.006288632 0.030006476 -0.03730267 0.05814831 -0.14167038 -0.0652217 -0.029721685 0.024927247
-0.13654077 -0.09130707 0.008655363 0.17520784 0.06503292 -0.034851775 0.07092744 -0.12020306
0.014084257 0.003786088 -0.15000151 0.0406411 -0.086372025 -0.017295076 -0.014279952 -0.107743345
0.0033020747 0.05496227 0.057102274 0.10527605 0.09517877 -0.028067868 -0.019332698 0.048023567
-0.02391246 -0.078887366 0.017644381 0.08357717 -0.027887901 0.024437761 0.08021337 0.23479411
-0.12001272 -0.028194994 -0.09692929 -0.0506727 -0.13184065 -0.108274385 0.020229198 0.02312723
-0.0874717 0.08968185 0.12761013 -0.098176226 -0.011620987 -0.0150441 -0.028324675 0.022574728
-0.07175529 -0.012933275 0.08552775 -0.09224852 0.014297784 -0.14479166 0.0869953 0.13435009
-0.059536852 0.04469989 0.14856428 -0.09931337 -0.122000754 -0.039701346 -0.14847392 -0.07688058
0.055118997 -0.055813007 -0.10403807 0.09126326 0.00036617057 -0.14516036 0.014424391 0.02972549
0.0040468452 -0.10331563 0.086288616 0.029288137 -0.059310585 0.09294046 -0.119746044 0.10494772
0.07935043 0.09170491 -0.028006263 0.12514873 0.15326232 -0.08885522 0.14730771 0.13558047
-0.089124344 0.051611453 -0.0043145157 -0.013306696 0.03715336 -0.029242216 0.13738671 -0.06861937
-0.005918203 -0.18109024 -0.083306864 -0.1140656 0.06997032 -0.055437755 0.07716575 -0.14658037
0.1439405 -0.14728998 -0.061440505 0.1208956 -0.13037954 -0.019092053 -0.08865456 0.01903438
-0.03573215 -0.108493015 -0.07964475 -0.065713145 -0.0129461875 0.0048648035 -0.07776342 -0.109362096
00000000: 0d13 383e 8345 ebbd 0e0f a83c 3d84 d63d
00000010: b8a1 c63d adde 043d 864b a03d 31f2 023e
00000020: 70b4 0a3e 58ac 133d 6ae6 8e3d 3b78 a9bb
00000030: ba8a 01bc 581d b4bd d108 6f3d 0b4d c93d
00000040: 034c 99bc 1100 39be 62c8 373d b517 053d
00000050: a195 c1bd 3538 e5bd 8828 d1bd 574d 6e3d
00000060: 209d 9abc b777 93bd 40a4 f73c 7a74 13be
00000070: e287 02be 6630 50bd cf32 7d3d 989a a2bc
00000080: 52a5 95bd 7e7a 4fbd ef09 3c3d 3a80 a3bd
00000090: fcb4 fabc 6115 8cbd ca59 0e3e f086 86bd
000000a0: 0f5e 673d 8b57 d8bd b87f 1c3e f595 28be
000000b0: 0648 103c b798 24be d678 1dbd 0052 64bd
000000c0: 42a8 633d e020 dcbd a304 dcbd 80db bf3d
000000d0: 33b9 163e dad6 7c3b d7f3 e43d 862f b33d
000000e0: a5cc bebd 11b7 ce3d f8b9 aebc 318e f03d
000000f0: 9e20 17bd 8c91 533d 1c79 c93d 45ee 5a3d
00000100: cb00 f1bd eddc 483c 4341 2bbe 27fc b53d
00000110: 4a1f 6bbc 6282 083b d3df 313c 5089 213c
00000120: d710 643c b80f 1abe ac44 cebd f465 d83d
00000130: 2943 453c 8602 593d 1feb 1b3d e2ef ae3d
00000140: f12d 2cbd cc01 713d 4317 cc3d 6454 bebd
00000150: 3ff0 e63d d368 14bd 77df bc3d 4ffa 95bd
00000160: bc15 5c3d abd0 dc3d 41d1 dd3d 9685 d63c
00000170: a912 27bd f1d2 c13a 500b 0cbe db82 a7bd
00000180: 3d7b 19bd e3e1 f93d 1abf a23d 8aee c13d
00000190: 23f3 78bd 40bf 113e facd 68bd 624f 51bc
000001a0: 9023 a33d cc56 973d ef17 bdbd 46af 23be
000001b0: c8c9 093d f65e 99bd 10ab bbbc 2449 08be
000001c0: 552b edbd 2016 8dbd 3a61 d53d b7eb 093d
000001d0: c55a 873d a994 c23c fc1d bbbd 474d 00be
000001e0: 1ea6 b6bd 4890 13b9 52a0 c8bd f82f e4bd
000001f0: 2b9a f0bd 38d0 253d 5073 b7bd bc92 51bd
00000200: de10 ce3b 24d0 f53c afca 18bd ec2c 6e3d
00000210: 0a12 11be f492 85bd e47a f3bc 3a34 cc3c
00000220: 58d1 0bbe 33ff babd 39cf 0d3c af69 333e
00000230: fb2f 853d bcc0 0ebd 6842 913d 062d f6bd
00000240: a8c1 663c 0420 783b ff99 19be 4877 263d
00000250: d1e3 b0bd 67ae 8dbc 76f6 69bc 8ba8 dcbd
00000260: 9f67 583b 1e20 613d 13e4 693d f89a d73d
00000270: 16ed c23d 96ee e5bc 9b5f 9ebc 5cb4 443d
00000280: 10e4 c3bc b38f a1bd f38a 903c 822a ab3d
00000290: 2b75 e4bc b331 c83c e846 a43d de6d 703e
000002a0: 3bc9 f5bd 30f9 e6bc dd82 c6bd 2d8e 4fbd
000002b0: 3c01 07be f6be ddbd b4b7 a53c 5175 bd3c
000002c0: 5d24 b3bd 1eab b73d 3bac 023e 9e10 c9bd
000002d0: f465 3ebc 877b 76bc 2609 e8bc a3ee b83c
000002e0: 70f4 92bd 16e6 53bc 2c29 af3d cbec bcbd
000002f0: 4141 6a3c 4444 14be 982a b23d 1293 093e
00000300: eadc 73bd 3b17 373d 3c21 183e cf64 cbbd
00000310: 88db f9bd e19d 22bd 8c09 18be 9173 9dbd
00000320: 75c4 613d 2e9c 64bd e911 d5bd 3be8 ba3d
00000330: 95fa bf39 eba4 14be 4854 6c3c df82 f33c
00000340: 669b 843b 2597 d3bd 16b8 b03d aded ef3c
00000350: a8ef 72bd 9157 be3d 6a3d f5bd d5ee d63d
00000360: 7a82 a23d c9cf bb3d 646d e5bc fd26 003e
00000370: ccf0 1c3e baf9 b5bd d5d7 163e 9bd5 0a3e
00000380: d386 b6bd 8866 533d c860 8dbb 5404 5abc
00000390: 1f2e 183d 5f8d efbc 1aaf 0c3e 5088 8cbd
000003a0: 7ced c1bb b86f 39be ca9c aabd 3a9b e9bd
000003b0: 994c 8f3d b312 63bd 1409 9e3d 2a19 16be
000003c0: 2365 133e 2fd3 16be 0aa9 7bbd 1d98 f73d
000003d0: 3782 05be f066 9cbc 8690 b5bd fded 9b3c
000003e0: e05b 12bd 9631 debd c91c a3bd 9d94 86bd
000003f0: 3f1c 54bc ee68 9f3b 6e42 9fbd 3cf9 dfbd

fc1.bias f4 [256]
-2.2597378e-06 -4.835937e-07 -7.4686864e-06 6.4647984e-06 8.477189e-06 -7.8702105e-06 -2.6865273e-06 2.0022118e-05
1.30836215e-05 2.0692476e-05 -4.9119208e-06 7.847174e-06 -4.75899e-06 -1.4422038e-06 5.5223063e-06 1.857524e-06
-7.440392e-06 7.2070425e-06 -2.215798e-05 1.4505871e-05 -5.8118667e-06 -1.4048433e-05 -8.886909e-06 -3.254622e-06
-5.6759395e-06 -1.47373885e-05 -4.3298196e-06 -1.5369679e-06 6.125568e-06 -7.814197e-06 -3.510047e-06 1.6792825e-05
6.555007e-06 6.1324245e-06 1.5960926e-05 -4.6902933e-06 2.1878218e-06 7.0232245e-06 -2.2347351e-06 4.628986e-06
-1.3071814e-06 -6.4570786e-06 -5.292483e-07 -6.4648993e-06 5.0874282e-06 -6.8414583e-06 -3.5626263e-07 1.0623464e-06
-1.2247585e-07 -6.3306543e-06 1.2563448e-06 4.472614e-07 3.0978913e-06 1.7164577e-05 1.07100705e-05 -1.5969788e-05
6.2743616e-06 -2.6091454e-06 -7.8817575e-06 3.8407325e-06 3.076591e-06 1.7429192e-06 6.3620455e-06 -2.6600371e-06
1.8306123e-06 -1.1895473e-05 -1.0780014e-05 -2.8067875e-06 7.025513e-06 2.7707467e-06 1.10240535e-07 -1.54269e-05
3.7323696e-06 7.245944e-08 9.078844e-06 -7.641949e-06 -4.312502e-06 1.3453729e-06 2.390741e-05 1.755207e-06
1.652659e-06 -8.432675e-06 1.6985465e-05 -1.0654203e-05 -1.1612431e-06 -4.6215746e-06 1.3239232e-05 7.8544235e-06
-1.1871308e-05 1.2222261e-05 -1.7489069e-06 3.8116104e-06 5.9353124e-06 2.12926e-06 -2.0572032e-05 -1.1961793e-05
1.2485245e-06 4.2760776e-06 -4.536937e-06 -6.6566366e-07 3.1785758e-06 4.308572e-06 -4.143765e-06 -5.2225187e-06
-5.465109e-06 -1.7613245e-05 -9.454893e-06 9.1899034e-07 3.6330703e-06 -4.7982985e-06 3.4421605e-06 9.215662e-06
4.7178455e-06 7.3736755e-06 2.1956248e-07 3.2433593e-06 -1.295507e-05 5.294089e-07 5.786738e-06 -4.2413438e-07
-1.7536913e-06 -3.913768e-06 -1.0043448e-05 4.077129e-06 -3.0468411e-06 -2.867563e-06 -2.923219e-05 6.8296895e-06
-2.594783e-06 2.350742e-06 1.7123868e-05 -5.093346e-06 4.287768e-07 -1.1293134e-06 -1.2988174e-06 -3.9887773e-06
9.991853e-06 1.7532397e-05 -2.7208978e-06 -6.249352e-07 1.5453109e-06 -5.957827e-07 -1.1946182e-05 9.760042e-07
-6.240956e-06 1.0050118e-05 6.8189706e-08 7.2739113e-06 -6.4846777e-06 1.7485972e-05 6.3440243e-06 -9.082478e-06
-1.1551681e-05 5.7589887e-07 -4.843782e-06 -3.4267407e-06 -2.9953488e-05 3.8194553e-06 -9.521425e-07 -2.6517205e-06
-1.5081212e-05 -3.419971e-06 -1.5985544e-05 -1.1725811e-05 3.1047962e-06 1.8248262e-05 -9.931857e-06 -9.030438e-06
4.361273e-06 -7.909374e-07 3.788853e-06 3.7041605e-06 -3.6582921e-06 -6.228363e-06 3.037713e-06 -7.2848943e-06
1.4981771e-05 -5.3442172e-06 2.109397e-05 1.6766395e-05 -1.4773683e-06 2.9056355e-07 -7.0270617e-06 5.820226e-07
2.2234663e-06 -3.206819e-06 2.9488365e-06 1.2640755e-05 -1.6439473e-05 -7.906275e-06 2.4730953e-05 6.0663365e-06
1.7136754e-06 3.926324e-06 -1.7461454e-05 -3.4017157e-06 -5.225253e-07 2.2333956e-05 -5.24143e-07 4.840292e-06
-1.5775724e-05 -9.012956e-06 -3.4484506e-06 3.5855721e-06 -6.6254147e-06 2.103995e-06 -2.3454381e-06 -1.041412e-05
-1.2194662e-06 -1.7801419e-06 -2.2523081e-06 -1.5764286e-06 2.1854812e-06 2.9448554e-06 8.7828636e-07 3.730018e-06
7.906236e-06 1.0008748e-06 -9.592166e-06 1.2461517e-06 -1.191517e-05 -7.2265734e-06 2.8956424e-06 -3.4584061e-06
-1.515367e-05 -1.4668891e-06 -4.223955e-06 -2.4480544e-06 6.1766145e-06 2.4641991e-05 -7.0527153e-06 7.049088e-06
-5.8276796e-06 8.319641e-06 6.7059536e-06 -1.2084956e-07 8.040088e-06 1.5167923e-05 8.0380005e-06 -2.3055416e-06
-2.6140128e-06 1.3755531e-05 -6.099569e-06 2.107015e-06 9.421849e-07 -1.6117598e-05 -1.4195825e-06 -4.111799e-06
5.462315e-06 8.8368006e-07 3.0558886e-06 2.5188997e-06 3.596092e-07 6.774494e-06 -7.194461e-07 5.1252093e-05
00000000: 00a6 17b6 4ed0 01b5 879b fab6 32ec d836
00000010: 4039 0e37 4c0a 04b7 304a 34b6 2cf5 a737
00000020: ba81 5b37 c194 ad37 14d1 a4b6 5ba7 0337
00000030: 6aaf 9fb6 bf91 c1b5 404c b936 0a50 f935
00000040: 7ba8 f9b6 06d4 f136 e6df b9b7 3e5e 7337
00000050: 8e03 c3b6 8fb1 6bb7 fc18 15b7 fb69 5ab6
00000060: f373 beb6 9a40 77b7 de48 91b6 d149 ceb5
00000070: 3a8a cd36 b819 03b7 268e 6bb6 51de 8c37
00000080: 15f3 db36 20c5 cd36 d4e3 8537 5061 9db6
00000090: 7ed2 1236 0aa9 eb36 75f8 15b6 b052 9b36
000000a0: 6972 afb5 e2a9 d8b6 ab11 0eb5 10ed d8b6
000000b0: adb4 aa36 ae8f e5b6 5d44 bfb4 f295 8e35
000000c0: e881 03b4 e86b d4b6 ae9f a835 241f f034
000000d0: 5ee5 4f36 a6fc 8f37 67af 3337 dcf6 85b7
000000e0: 5b88 d236 c718 2fb6 e43b 04b7 a4df 8036
000000f0: 6e77 4e36 3fee e935 8e79 d536 1783 32b6
00000100: 5cb3 f535 ab92 47b7 cfdb 34b7 3e5c 3cb6
00000110: b2bc eb36 11f1 3936 60bd ec33 0469 81b7
00000120: 9f79 7a36 009b 9b33 5751 1837 ec35 00b7
00000130: 1cb4 90b6 a992 b435 c68c c837 7494 eb35
00000140: eed0 dd35 107a 0db7 027c 8e37 74bf 32b7
00000150: 02dc 9bb5 0613 9bb6 121e 5e37 7ec6 0337
00000160: e12a 47b7 360e 4d37 fcbb eab5 f8ca 7f36
00000170: f227 c736 69e4 0e36 1a92 acb7 82af 48b7
00000180: fa92 a735 3a7b 8f36 fe3b 98b6 0fb0 32b5
00000190: 844f 5536 5a92 9036 ac0a 8bb6 183d afb6
000001a0: ee60 b7b6 28c0 93b7 75a0 1eb7 89b0 7635
000001b0: accf 7336 1201 a1b6 deff 6636 f89c 1a37
000001c0: fc4d 9e36 646b f736 e0c0 6b34 7da8 5936
000001d0: 9a59 59b7 b41c 0e35 b32b c236 96b4 e3b4
000001e0: 6060 ebb5 0353 83b6 4880 28b7 45ce 8836
000001f0: 5578 4cb6 5b70 40b6 a637 f5b7 962a e536
00000200: 0822 2eb6 71c1 1d36 3aa5 8f37 82e7 aab6
00000210: a232 e634 ea92 97b5 0753 aeb5 56d7 85b6
00000220: afa2 2737 8912 9337 ab98 36b6 38c1 27b5
00000230: 7a68 cf35 e0ed 1fb5 766c 48b7 40ff 8235
00000240: 6769 d1b6 ee9c 2837 b06f 9233 6c12 f436
00000250: f596 d9b6 d7ae 9237 c1de d436 f260 18b7
00000260: 18ce 41b7 7897 1a35 c587 a2b6 f5f6 65b6
00000270: a044 fbb7 df28 8036 bc96 7fb5 36f4 31b6
00000280: 5005 7db7 a882 65b6 b218 86b7 fab9 44b7
00000290: fe5b 5036 d813 9937 00a1 26b7 7081 17b7
000002a0: 0d57 9236 ce50 54b5 0044 7e36 fe94 7836
000002b0: fb80 75b6 3bfd d0b6 83db 4b36 c470 f4b6
000002c0: 375a 7b37 7a52 b3b6 f5f2 b037 8fa5 8c37
000002d0: fd49 c6b5 c0fe 9b34 00ca ebb6 4a3c 1c35
000002e0: dc36 1536 bb34 57b6 a0e4 4536 a113 5437
000002f0: 80e7 89b7 31a5 04b7 5175 cf37 6f8d cb36
00000300: 7001 e635 debe 8336 307a 92b7 0849 64b6
00000310: aa43 0cb5 ce59 bb37 d5b2 0cb5 cb69 a236
00000320: 1c56 84b7 5a36 17b7 ee6b 67b6 a99f 7036
00000330: e14f deb6 5c32 0d36 5266 1db6 4eb8 2eb7
00000340: 8aac a3b5 36ed eeb5 5c26 17b6 ad95 d3b5
00000350: 48aa 1236 3ba0 4536 61c3 6b35 3951 7a36
00000360: 06a5 0437 cc55 8635 0aee 20b7 7241 a735
00000370: 44e7 47b7 cb7b f2b6 c252 4236 f716 68b6
00000380: 843c 7eb7 ede1 c4b5 7fbb 8db6 4149 24b6
00000390: b740 cf36 46b6 ce37 5da6 ecb6 3487 ec36
000003a0: 638b c3b6 9694 0b37 b403 e136 e0c2 01b4
000003b0: eae3 0637 bc79 7e37 f3da 0637 e7b8 1ab6
000003c0: 666c 2fb6 8ec7 6637 e6aa ccb6 3e66 0d36
000003d0: 74ea 7c35 4734 87b7 7c88 beb5 16f8 89b6
000003e0: ee48 b736 0836 6d35 c413 4d36 5e0a 2936
000003f0: 5010 c134 7650 e336 f61f 41b5 84f7 5638

bn1.weight f4 [256]
0.97556376 0.9612398 0.95841116 1.0219644 0.91247165 0.9671098 0.91158724 0.96931124
0.9732024 0.95143133 0.9121853 0.94174397 0.98752964 0.9591479 0.9665787 0.96242666
0.91728526 0.921806 0.95710063 0.9323038 0.9181222 0.97190756 0.8947773 0.9256209
0.9352815 0.9704038 0.9487914 0.9622767 0.9328116 0.9350087 0.96459526 1.0393835
0.9787283 0.9378551 0.9662211 0.9405897 0.9331992 0.9389259 0.9887042 0.9195124
0.94502306 1.0056112 0.87695104 0.9395301 0.9345988 1.0072303 0.943241 1.0396644
0.9386749 0.9960401 0.93219084 0.9531275 0.99941707 0.9734038 0.9825474 0.97332925
0.9237147 0.95680594 0.9366536 0.9675155 0.90430397 0.95638025 0.9274942 0.9046856
0.90335673 0.95417416 0.90764135 0.9361229 0.89956105 0.90057564 0.9811158 0.9527811
0.9598701 1.0224911 0.99241704 0.99610716 0.9671754 0.91204685 0.8876373 0.95781326
0.9351648 0.94128 0.9699123 0.9161612 0.98354244 0.9417205 0.93366647 0.919812
0.949373 0.9682426 0.9865305 0.9760671 0.9694758 0.9312993 0.9838966 0.9282571
1.0038416 0.9460566 0.959455 0.9751681 0.9432248 0.98142636 1.0274239 0.9708385
0.9953412 0.9355667 0.98932934 0.98099005 0.86167884 0.8816878 0.9404505 0.9612814
0.96429026 0.9527459 0.9805957 0.92888534 0.96850854 0.94086754 0.95590925 0.9559441
0.915429 0.92965174 0.9610353 0.9384203 0.952427 0.9511404 0.90506285 0.94613045
1.0259295 0.91073173 0.91644 0.9929951 0.9270377 1.008342 0.9484922 0.95640075
0.9420699 0.9698427 0.96939576 0.9667496 0.913723 0.96556497 1.0166396 0.9506262
0.91476345 0.9844826 0.9186446 0.9581277 0.94747 0.9167208 0.91212505 0.941275
0.92927074 0.9669295 0.9695449 0.94996464 1.0194666 1.0070242 0.9910947 0.97990847
1.0641229 0.91683036 0.95279557 0.9608101 0.94737625 0.9915955 0.86404586 1.00117
0.9255259 0.95582986 0.949257 0.9479585 0.97589725 0.9819158 0.88639605 1.019488
1.0265938 0.9390555 1.028468 0.891517 0.98860186 0.8959454 0.9450923 0.89165175
0.98732644 0.9107231 0.97421825 0.99392664 0.9391859 0.9315843 0.9997115 0.9480254
0.9512507 0.95681524 1.0011624 0.9326805 1.0484488 0.9454957 1.0090437 0.9503445
1.0260131 0.95737433 0.89262134 0.9640068 0.9143841 0.9427945 0.9717345 1.0187347
0.9692656 0.92313683 0.99262226 0.9170541 0.92492867 0.9874757 0.9405913 0.90125906
0.9070128 0.9704471 0.9957551 0.8965166 0.98231083 0.94941837 0.9088016 0.8913177
0.969216 0.9077624 0.9279637 0.8951501 0.97438943 0.9916283 0.9286454 0.9418667
0.9009292 0.97202265 0.9359593 0.9982277 0.98699254 0.92147386 0.9706772 0.95702684
0.9895681 1.003925 0.93201756 0.96777236 0.95801765 0.9593515 0.9906321 0.9143156
0.9954562 0.9729282 0.90156794 0.9660226 0.96056193 0.95548946 0.90550274 0.94964606
00000000: 8cbe 793f d013 763f 6f5a 753f bbcf 823f
00000010: be97 693f 8294 773f c85d 693f c824 783f
00000020: cb23 793f 0191 733f fa84 693f 2216 713f
00000030: bece 7c3f b78a 753f b471 773f 9861 763f
00000040: 35d3 6a3f 7afb 6b3f 8c04 753f 76ab 6e3f
00000050: 0e0a 6b3f efce 783f 2010 653f 7ef5 6c3f
00000060: 9c6e 6f3f 626c 783f fee3 723f c457 763f
00000070: becc 6e3f bb5c 6f3f b7ef 763f 850a 853f
00000080: f08d 7a3f 4617 703f 445a 773f 7dca 703f
00000090: 25e6 6e3f 735d 703f b81b 7d3f 2a65 6b3f
000000a0: 08ed 713f deb7 803f dd7f 603f 0b85 703f
000000b0: de41 6f3f ecec 803f 3e78 713f b913 853f
000000c0: 004d 703f 7cfc 7e3f 0fa4 6e3f 2a00 743f
000000d0: ccd9 7f3f fe30 793f 3a88 7b3f 1b2c 793f
000000e0: 9178 6c3f 3cf1 743f 88c8 6f3f 19af 773f
000000f0: 7780 673f 56d5 743f 4370 6d3f 7a99 673f
00000100: 6342 673f c244 743f 2f5b 683f c0a5 6f3f
00000110: a249 663f 208c 663f 682a 7b3f 76e9 733f
00000120: 0cba 753f fde0 823f 0b0f 7e3f e100 7f3f
00000130: cf98 773f e77b 693f 333c 633f 4033 753f
00000140: f666 6f3f baf7 703f 2c4c 783f 8a89 6a3f
00000150: 70c9 7b3f 9814 713f c404 6f3f cd78 6b3f
00000160: 1c0a 733f bfde 773f 438d 7c3f 89df 793f
00000170: 912f 783f a269 6e3f a6e0 7b3f 42a2 6d3f
00000180: e27d 803f c430 723f d89e 753f 9ea4 793f
00000190: 2e77 713f c23e 7b3f a082 833f df88 783f
000001a0: aece 7e3f 4d81 6f3f b044 7d3f 2a22 7b3f
000001b0: fc96 5c3f 4bb6 613f 5dc1 703f 8a16 763f
000001c0: badb 763f 28e7 733f 5208 7b3f 6ecb 6d3f
000001d0: 2df0 773f b2dc 703f 78b6 743f c1b8 743f
000001e0: 8e59 6a3f a8fd 6d3f 6906 763f 503c 703f
000001f0: 42d2 733f f07d 733f 33b2 673f 9b35 723f
00000200: a851 833f b725 693f d09b 6a3f ed34 7e3f
00000210: 5852 6d3f 5a11 813f 63d0 723f aed6 743f
00000220: 7e2b 713f 9c47 783f 522a 783f e77c 773f
00000230: c0e9 693f 442f 773f 3f21 823f 3d5c 733f
00000240: f02d 6a3f 0d07 7c3f 4b2c 6b3f db47 753f
00000250: 658d 723f 37ae 6a3f 0781 693f 66f7 703f
00000260: b0e4 6d3f b188 773f 1834 783f e230 733f
00000270: e27d 823f 2be6 803f 62b8 7d3f 48db 7a3f
00000280: 2e35 883f 65b5 6a3f 69ea 733f a7f7 753f
00000290: 4087 723f 34d9 7d3f 1c32 5d3f 5726 803f
000002a0: 44ef 6c3f 44b1 743f 8202 733f 69ad 723f
000002b0: 67d4 793f d55e 7b3f daea 623f 957e 823f
000002c0: 6d67 833f f165 703f d7a4 833f 753a 643f
000002d0: 0315 7d3f ae5c 653f 92f1 713f 4a43 643f
000002e0: 6dc1 7c3f 2625 693f 5e66 793f fa71 7e3f
000002f0: 7d6e 703f 4f7c 6e3f 18ed 7f3f cbb1 723f
00000300: 2a85 733f d8f1 743f 1726 803f 26c4 6e3f
00000310: 9233 863f 020c 723f 5828 813f c749 733f
00000320: 6654 833f 7c16 753f d582 643f 26c9 763f
00000330: 1415 6a3f fb5a 713f 98c3 783f e665 823f
00000340: ca21 783f b252 6c3f 7e1c 7e3f 0fc4 6a3f
00000350: 20c8 6c3f 35cb 7c3f 97ca 703f eab8 663f
00000360: fe31 683f 396f 783f cee9 7e3f 1d82 653f
00000370: b978 7b3f 150d 733f 39a7 683f 662d 643f
00000380: 8a1e 783f 1e63 683f 078f 6d3f 8f28 653f
00000390: 9671 793f 5adb 7d3f b4bb 6d3f 2d1e 713f
000003a0: 4ca3 663f 7ad6 783f 079b 6f3f da8b 7f3f
000003b0: 8bab 7c3f b6e5 6b3f 4d7e 783f b6ff 743f
000003c0: 5654 7d3f 9d80 803f b498 6e3f eebf 773f
000003d0: a540 753f 0f98 753f 119a 7d3f 9610 6a3f
000003e0: 38d6 7e3f d311 793f 28cd 663f 424d 773f
000003f0: 63e7 753f f59a 743f 07cf 673f 011c 733f

bn1.bias f4 [256]
-0.026843682 -0.12680028 0.01843419 -0.050847758 -0.12661049 -0.059100423 -0.10326419 -0.0351172
-0.121641815 -0.12875114 -0.17825876 -0.13805096 0.022855606 -0.038674176 -0.089514405 -0.08974946
-0.109999284 -0.11357384 -0.09893061 -0.082064 -0.09420639 -0.06199844 -0.11347306 -0.045561552
-0.055838075 -0.052336566 -0.15364268 -0.09957322 -0.08286055 -0.12943542 -0.0030484812 -0.07236512
-0.14429557 -0.09002551 -0.008919805 -0.06853245 -0.11093267 -0.035514418 -0.19861387 -0.13173711
-0.11505764 -0.0717448 -0.04361268 -0.06586607 -0.039805017 -0.25786 -0.10503088 -0.031219946
-0.0833897 -0.05438071 -0.071500115 -0.13709234 -0.0965256 -0.039194692 -0.20253442 -0.017033948
-0.086130254 -0.08869657 -0.10162778 -0.008407475 -0.13166796 -0.15557101 -0.10727304 -0.13444258
-0.080523275 -0.078817226 -0.16099042 -0.11712012 -0.093322605 -0.070159644 -0.041159183 -0.12057597
-0.11523958 -0.059589013 -0.12896155 -0.076353006 -0.0349428 -0.07010939 -0.08856358 -0.07469889
-0.077228434 -0.07782609 -0.064722754 -0.091697685 -0.11245373 -0.14457586 -0.07286342 -0.05647917
-0.08986971 -0.00044837056 -0.10388686 -0.09704826 -0.057850473 -0.07742744 -0.07555706 -0.09777233
-0.05984735 -0.123733416 -0.03683264 -0.04822433 -0.10129445 -0.096677884 -0.047394753 -0.114628166
-0.15697472 -0.028184999 0.001912283 -0.048468627 -0.12436253 -0.08356248 -0.08284844 -0.06518417
-0.0715271 -0.087564215 -0.06594594 -0.06737423 -0.09461314 -0.10379796 -0.053624667 -0.05917925
-0.14414512 -0.12180196 -0.14395572 -0.08254729 -0.1276102 -0.066824995 -0.12627225 -0.017343247
-0.029221501 -0.116953455 -0.08631187 -0.13801767 -0.07597779 -0.033045318 -0.12892398 -0.07468827
-0.103807546 -0.106558934 -0.060097642 -0.035776604 -0.06177211 -0.18460956 -0.09199347 -0.11706386
-0.1159575 -0.092280224 -0.10001923 -0.15654206 -0.12387754 -0.10872707 -0.13766192 -0.19371295
-0.07069022 -0.053962573 -0.03362466 -0.04347866 -0.078941375 -0.043520316 -0.09107465 -0.10222544
-0.11472282 -0.072804384 -0.023097143 -0.27784535 -0.13870531 -0.028678084 -0.06209929 -0.08953531
-0.07543159 -0.068118565 -0.018148316 -0.08725628 -0.07215875 -0.0410178 -0.09201073 -0.03943691
-0.06942144 -0.00040791556 -0.15190071 -0.06264318 -0.08202527 -0.078604124 -0.14632197 -0.1807073
-0.06810255 -0.12763683 -0.03171762 -0.08216635 -0.04955376 -0.09592791 -0.061191082 -0.08363742
-0.05498327 -0.1510906 -0.07357057 -0.058516216 -0.009898663 -0.035123464 -0.032929786 -0.029458443
-0.16781074 0.008263613 -0.053316206 -0.15019925 -0.10917531 -0.059787825 -0.08935048 -0.16438621
-0.09346785 -0.09194854 -0.10702591 -0.04452357 -0.050010715 -0.1664496 -0.062314164 -0.07281076
-0.046192195 -0.038127817 -0.14176697 -0.12123698 -0.019671256 -0.04573725 -0.10044739 -0.11116925
-0.16423124 -0.049128838 -0.054171752 -0.12235814 -0.13164811 -0.044521585 -0.078525834 -0.088676274
-0.07718637 -0.0143171875 -0.06911555 -0.024314703 -0.08542587 -0.046101592 -0.095688805 -0.068668455
-0.08441501 -0.04590982 -0.036983956 -0.11787254 -0.08183146 -0.14002569 -0.09588142 -0.10749439
-0.08881976 -0.024889257 -0.066499874 -0.081284106 -0.11505429 -0.08573549 -0.009056461 -0.1121174
00000000: 48e7 dbbc efd7 01be 4c03 973c bd45 50bd
00000010: 2ea6 01be 4913 72bd 2d7c d3bd 0ed7 0fbd
00000020: 581f f9bd 57d7 03be 7789 36be 3b5d 0dbe
00000030: ae3b bb3c d068 1ebd 5453 b7bd 91ce b7bd
00000040: 4e47 e1bd 6799 e8bd 229c cabd 2c11 a8bd
00000050: 48ef c0bd 14f2 7dbd 9064 e8bd c09e 3abd
00000060: 77b6 64bd de5e 56bd 8254 1dbe 0bed cbbd
00000070: cbb2 a9bd b88a 04be 07c9 47bb 2a34 94bd
00000080: 38c2 13be 4b5f b8bd 6024 12bc be5a 8cbd
00000090: ab30 e3bd 9177 11bd 6f61 4bbe 18e6 06be
000000a0: 57a3 ebbd f0ee 92bd 36a3 32bd cae4 86bd
000000b0: 960a 23bd 3a06 84be 6e1a d7bd f9c0 ffbc
000000c0: 38c8 aabd 4fbe 5ebd a76e 92bd ef61 0cbe
000000d0: 37af c5bd 9d8a 20bd 2f65 4fbe c78a 8bbc
000000e0: 0f65 b0bd 8ca6 b5bd 3a22 d0bd 82bf 09bc
000000f0: f7d3 06be 024e 1fbe f8b1 dbbd 51ab 09be
00000100: 63e9 a4bd ed6a a1bd acda 24be acdc efbd
00000110: ec1f bfbd dcaf 8fbd 8896 28bd 89f0 f6bd
00000120: bb02 ecbd 9c13 74bd 7f0e 04be f75e 9cbd
00000130: 2e20 0fbd 8395 8fbd d260 b5bd bbfb 98bd
00000140: f129 9ebd 4963 9fbd 5d8d 84bd ffcb bbbd
00000150: 244e e6bd b20b 14be 6b39 95bd b456 67bd
00000160: 9c0d b8bd 4713 ebb9 a2c2 d4bd 3dc1 c6bd
00000170: 9ef4 6cbd 4792 9ebd a9bd 9abd dc3c c8bd
00000180: 7f22 75bd f267 fdbd d3dd 16bd e086 45bd
00000190: 7773 cfbd 0eff c5bd 0021 42bd 2cc2 eabd
000001a0: fbbd 20be 3ae4 e6bc 92a5 fa3a 0a87 46bd
000001b0: c8b1 febd ce22 abbd 71ac a9bd 477f 85bd
000001c0: cd7c 92bd de54 b3bd aa0e 87bd 80fb 89bd
000001d0: 89c4 c1bd 0694 d4bd 8aa5 5bbd f165 72bd
000001e0: c79a 13be 4e73 f9bd 2169 13be 8e0e a9bd
000001f0: 40ac 02be 8bdb 88bd 834d 01be 6d13 8ebc
00000200: ee61 efbc 4b85 efbd 47c4 b0bd 8154 0dbe
00000210: 3e9a 9bbd 875a 07bd a604 04be 2af6 98bd
00000220: 0d99 d4bd 923b dabd f228 76bd 7d8a 12bd
00000230: c104 7dbd 4a0a 3dbe 1367 bcbd 2dbf efbd
00000240: 207b edbd 6afd bcbd e2d6 ccbd 904c 20be
00000250: 82b3 fdbd 4cac debd 3ff7 0cbe b05c 46be
00000260: 09c6 90bd dc07 5dbd 03ba 09bd ae16 32bd
00000270: 04ac a1bd 5c42 32bd 5985 babd 925b d1bd
00000280: ccf3 eabd 771a 95bd 3836 bdbc bf41 8ebe
00000290: c408 0ebe 4dee eabc d35b 7ebd 4a5e b7bd
000002a0: e17b 9abd bf81 8bbd c7ab 94bc 6cb3 b2bd
000002b0: f7c7 93bd 4802 28bd 1f70 bcbd 9988 21bd
000002c0: d42c 8ebd 80dd d5b9 dc8b 1bbe 114b 80bd
000002d0: ddfc a7bd 33fb a0bd 6dd5 15be 560b 39be
000002e0: 5a79 8bbd 3bb3 02be 56ea 01bd d546 a8bd
000002f0: e2f8 4abd da75 c4bd 80a3 7abd 184a abbd
00000300: 2336 61bd 7fb7 1abe 2bac 96bd b3ae 6fbd
00000310: 002e 22bc 9fdd 0fbd 62e1 06bd d552 f1bc
00000320: 94d6 2bbe 1b64 073c 1862 5abd d5cd 19be
00000330: 4e97 dfbd 14e4 74bd 62fd b6bd dc54 28be
00000340: 126c bfbd 844f bcbd 6630 dbbd 595e 36bd
00000350: 09d8 4cbd c471 2abe 233d 7fbd cf1d 95bd
00000360: 0734 3dbd ea2b 1cbd 5c2b 11be 184b f8bd
00000370: 9d25 a1bc fc56 3bbd 5cb7 cdbd b4ac e3bd
00000380: 3c2c 28be 523b 49bd 33e3 5dbd e896 fabd
00000390: c3ce 06be 445c 36bd 27d2 a0bd e89b b5bd
000003a0: e313 9ebd a392 6abc 748c 8dbd a12f c7bc
000003b0: c2f3 aebd 06d5 3cbd 7ef8 c3bd 0ca2 8cbd
000003c0: c7e1 acbd ef0b 3cbd 7d7c 17bd 2967 f1bd
000003d0: 4197 a7bd e562 0fbe 7a5d c4bd 0526 dcbd
000003e0: 22e7 b5bd 8ee4 cbbc 1631 88bd 4878 a6bd
000003f0: 95a1 ebbd 1796 afbd 8d61 14bc cf9d e5bd

bn1.running_mean f4 [256]
0.029838739 0.017328002 -0.0075251404 -0.013541966 0.002269846 0.0059621604 0.018691033 0.0058440063
0.005759059 -0.008986955 -0.01330592 0.0047674594 -0.022467172 0.020929215 -0.033694193 0.014601821
0.008287322 0.0044339513 0.007129415 -0.021317972 -0.037500538 -0.037145294 0.013554472 -0.008288724
-0.020549566 -0.0209326 -0.012079618 0.017688543 -0.003879514 -0.013436117 0.02440824 -0.007047023
0.004860473 -0.0074054487 -0.02059005 -0.02292289 0.026357505 -0.018037435 -0.01610197 0.04917918
0.0039845863 -0.0121901175 0.005888791 0.032210972 0.024189837 0.00635518 0.017166134 -0.0070957793
-0.012584892 -0.009311365 0.022777326 0.055667184 -0.003218989 -0.021333188 0.00016017794 -0.034057062
0.020819629 0.01743518 -0.0093413405 0.0031676544 0.022143362 0.0015597185 0.032415144 -0.045444164
0.008638095 -0.012835661 -0.0028129965 -0.011232812 -0.0076847915 0.010023544 -0.0058105406 0.016864058
-0.023227556 0.008194203 0.021200057 -0.03622842 0.0012717843 -0.013723189 -0.014870877 -0.0031530634
-0.004636611 -0.017760366 0.0023295013 0.014569595 -0.008973045 0.015124921 -0.021534795 -0.003087826
0.03344743 0.0121475 -0.014673332 0.0030688324 -0.0009904499 -0.004031849 -0.024118505 -0.01950765
-0.02555181 -0.017945569 -0.036021158 0.006390067 0.04199896 -0.0009542117 -0.020335974 0.012642695
0.023731945 -0.008537449 -0.00571818 0.018792965 -0.031813387 -0.004065675 0.034982394 -0.010140397
-0.01837055 0.03484299 0.008030241 0.015420444 0.0061615743 0.014673957 -0.02078669 0.007727393
-0.011335613 0.01725502 -0.0026755733 0.001247985 -0.00036823004 0.018089067 -0.0067889593 0.0070863776
-0.0073461286 0.061258283 -0.0039654113 0.027349647 -0.010030499 -0.01817161 -0.0020683429 -0.01895855
0.0025712764 0.016834047 0.0009887856 -0.0052613635 0.016480763 0.028275246 -0.037404362 0.005309173
0.024669727 -0.022523679 -0.00392057 -0.035114348 -0.0068010506 -0.0015023904 0.0066958913 0.021187022
0.013444851 -0.013753422 0.038562246 -0.024060506 0.0035753874 0.031252403 -0.010829275 0.00054991245
0.021048134 -0.029106684 0.008549992 -0.009057199 -0.0007204218 -0.023252826 -0.0071500875 -0.010522141
0.032252844 0.032536983 0.002824462 -0.040707156 -0.013488598 5.170703e-06 0.0005650518 -0.0054934965
-0.0010786802 -0.02111665 -0.01169233 0.005181536 -0.017130814 -0.015442349 0.005543438 0.004590952
-0.00071075466 -0.01285884 -0.016030395 -0.01455391 0.023476982 0.0071308594 -0.0014750399 0.005907738
0.03186224 -0.006735822 -0.042161994 -0.011468057 -0.028137999 -0.0029416922 -0.025881566 0.012638352
-0.025512923 0.00059076026 -0.017589947 -0.013623404 -0.01443874 0.0022969786 0.008245966 -0.025357956
0.009522879 0.029894492 -0.017456293 -0.02365784 0.0088797035 0.017586626 -0.023165273 0.039285325
-0.02670791 0.019927634 0.018574227 0.028015535 -0.008505854 -0.01977188 -0.025372492 -0.031917557
-0.012106035 -0.006545074 -0.006309716 0.014281452 0.004840094 0.0022284724 0.017844696 0.02653529
-0.008348284 -0.025491787 -0.0012562824 -0.01564875 -0.001397833 0.016757287 -0.0015043556 0.010063069
0.013416408 -0.029332066 -0.012630592 -0.0009285207 0.022825517 -0.04421086 0.006888394 -0.022722492
0.018274318 0.016389107 0.00033162348 -0.029988267 0.039754663 0.013776458 0.01029488 0.0010073422
00000000: 5f70 f43c 74f3 8d3c 7495 f6bb 1fdf 5dbc
00000010: b2c1 143b 3a5e c33b f01d 993c 147f bf3b
00000020: 7db6 bc3b 053e 13bc 1301 5abc 5938 9c3b
00000030: 130d b8bc bf73 ab3c ec02 0abd 7a3c 6f3c
00000040: 8cc7 073c ae4a 913b de9d e93b 07a3 aebc
00000050: 2a9a 19bd aa25 18bd 9313 5e3c 6ecd 07bc
00000060: 9057 a8bc d87a abbc 97e9 45bc 90e7 903c
00000070: 723f 7ebb 2923 5cbc caf3 c73c b7ea e6bb
00000080: 9a44 9f3b 68a9 f2bb 77ac a8bc c9c8 bbbc
00000090: b2eb d73c 3ec3 93bc 47e8 83bc 1c70 493d
000000a0: 2291 823b 0fb9 47bc c2f6 c03b a7ef 033d
000000b0: c429 c63c 1d3f d03b fe9f 8c3c b683 e8bb
000000c0: dd30 4ebc b28e 18bc 8497 ba3c 4603 643d
000000d0: acf5 52bb f0c2 aebc 70f5 2739 6b7f 0bbd
000000e0: ed8d aa3c 39d4 8e3c 6c0c 19bc 6c98 4f3b
000000f0: ff65 b53c 786f cc3a bec5 043d a923 3abd
00000100: cc86 0d3c aa4c 52bc 405a 38bb d409 38bc
00000110: b4d0 fbbb ca39 243c 5966 bebb 7e26 8a3c
00000120: b747 bebc fa40 063c beab ad3c 4064 14bd
00000130: 00b2 a63a 3ad7 60bc fba4 73bc a0a3 4ebb
00000140: b6ee 97bb 307e 91bc 8caa 183b 50b5 6e3c
00000150: ae03 13bc 84ce 773c bd69 b0bc 205d 4abb
00000160: 2c00 093d 4f06 473c 6a68 70bc 771e 493b
00000170: fcd1 81ba 9a1d 84bb 2c94 c5bc 82ce 9fbc
00000180: 0852 d1bc 9602 93bc ec8a 13bd c463 d13b
00000190: 1a07 2c3d 1024 7aba a197 a6bc 4e23 4f3c
000001a0: 7f69 c23c a8e0 0bbc 925f bbbb b4f3 993c
000001b0: c14e 02bd 5b39 85bb b349 0f3d e823 26bc
000001c0: d67d 96bc 86b7 0e3d 4691 033c 08a6 7c3c
000001d0: 08e7 c93b 096b 703c d948 aabc 1236 fd3b
000001e0: 02b9 39bc 665a 8d3c ac58 2fbb 6e93 a33a
000001f0: 000f c1b9 862f 943c eb75 debb d834 e83b
00000200: cbb7 f0bb f7e9 7a3d 48f0 81bb 5e0c e03c
00000210: f656 24bc a1dc 94bc 098d 07bb f64e 9bbc
00000220: dc82 283b 8ee7 893c 249a 813a 8467 acbb
00000230: aa02 873c 7da1 e73c 5135 19bd 92f8 ad3b
00000240: 2b18 ca3c 9483 b8bc 2078 80bb 10d4 0fbd
00000250: 59db debb dbeb c4ba 3569 db3b 6890 ad3c
00000260: cb47 5c3c 0856 61bc 72f3 1d3d 8a1a c5bc
00000270: 0c51 6a3b 8502 003d 456d 31bc 0028 103a
00000280: 236d ac3c 2471 eebc 4415 0c3c a564 14bc
00000290: b0da 3cba b67c bebc 484b eabb 0f65 2cbc
000002a0: 8f1b 043d 8045 053d 9c1a 393b 8cbc 26bd
000002b0: 48ff 5cbc 0080 ad36 fc1f 143a ca02 b4bb
000002c0: 8062 8dba d3fc acbc 3091 3fbc e0c9 a93b
000002d0: ec55 8cbc e801 7dbc baa5 b53b b26f 963b
000002e0: f051 3aba e2ad 52bc 2d52 83bc 8673 6ebc
000002f0: cd52 c03c fca9 e93b 2056 c1ba b395 c13b
00000300: fb81 023d 2cb8 dcbb 0eb2 2cbd 84e4 3bbc
00000310: a981 e6bc 68c9 40bb 9405 d4bc 1711 4f3c
00000320: 7a00 d1bc 40dd 1a3a cb18 90bc b334 5fbc
00000330: 7790 6cbc e888 163b 171a 073c 7dbb cfbc
00000340: d905 1c3c 4be5 f43c 8000 8fbc 16ce c1bc
00000350: 2d7c 113c d411 903c 19c5 bdbc a6e9 203d
00000360: 8cca dabc 473f a33c fa28 983c d680 e53c
00000370: 235c 0bbc a3f8 a1bc f9d9 cfbc fcbb 02bd
00000380: 6458 46bc 0f78 d6bb bcc1 cebb c0fc 693c
00000390: a799 9e3b 900b 123b 0a2f 923c 8960 d93c
000003a0: 3ec7 08bc 27d4 d0bc d8a9 a4ba cf31 80bc
000003b0: 7e37 b7ba 9446 893c cc2d c5ba 92df 243c
000003c0: 7ed0 5b3c cd49 f0bc 8bf0 4ebc f867 73ba
000003d0: 94fc ba3c 7216 35bd 09b8 e13b 8524 babc
000003e0: 06b4 953c 7342 863c c0dd ad39 f4a9 f5bc
000003f0: c9d5 223d a7b6 613c dbab 283c cc08 843a

bn1.running_var f4 [256]
0.119480796 0.095187604 0.0920003 0.12580812 0.07777391 0.08422866 0.09293719 0.07604239
0.08356431 0.071648136 0.08579052 0.09457679 0.11929615 0.2777059 0.118290186 0.107703656
0.07991216 0.12660666 0.0783809 0.102226414 0.12623377 0.14814523 0.087845266 0.11519789
0.103934504 0.08258762 0.076132186 0.089502186 0.126782 0.11223446 0.119158305 0.06368904
0.102334484 0.09533313 0.22512373 0.11203685 0.11504872 0.091761835 0.096037686 0.19198902
0.12661916 0.09479867 0.14381811 0.051903106 0.13180742 0.109612204 0.082173645 0.1118672
0.0885054 0.16217865 0.123404205 0.12025622 0.09958588 0.11872348 0.08522399 0.10667693
0.13776608 0.22162716 0.11479289 0.057306785 0.114905015 0.06908556 0.119295135 0.14026272
0.06857394 0.10142608 0.08410038 0.07162185 0.097425155 0.08556746 0.12285983 0.050346278
0.14036855 0.08297441 0.13327879 0.24750817 0.13260362 0.1151198 0.11526342 0.17903586
0.15159217 0.10734214 0.121468894 0.061424837 0.073498 0.08340328 0.13989009 0.061825287
0.1011535 0.080224365 0.087175824 0.09200047 0.12592769 0.08433647 0.17286406 0.1101172
0.089493975 0.14997306 0.10402145 0.14143792 0.13082428 0.15326148 0.13145971 0.13456717
0.07685306 0.05305974 0.08414825 0.2117995 0.14556964 0.06528117 0.12293845 0.11955333
0.16242276 0.11995971 0.08732924 0.093804635 0.112986185 0.07202618 0.21181206 0.12860438
0.08665217 0.10560173 0.07866721 0.07969463 0.08259308 0.073382996 0.083474144 0.09117585
0.051874105 0.14313924 0.072753794 0.16597828 0.07883106 0.12670764 0.087967396 0.13104239
0.08488332 0.05734446 0.13667426 0.12794486 0.12557185 0.079715975 0.18089359 0.12126918
0.16783378 0.09638812 0.068042316 0.1727632 0.17932478 0.10529756 0.1329798 0.09161919
0.07480328 0.23388863 0.110221334 0.07976972 0.105629556 0.054909952 0.12084767 0.19189326
0.12053192 0.15670091 0.059860926 0.08367488 0.055237923 0.12648033 0.107630275 0.150677
0.13936894 0.15652636 0.16028568 0.18199244 0.19568329 0.10983815 0.075146854 0.092208855
0.09635151 0.097443506 0.05537913 0.11545352 0.09873519 0.13885742 0.075115934 0.1302953
0.15702082 0.14847124 0.18991527 0.06457913 0.09954665 0.10674427 0.07880562 0.09654855
0.10892213 0.19587488 0.08903238 0.16120115 0.17198177 0.09307355 0.15675141 0.050469335
0.09568728 0.10768353 0.14111663 0.06188276 0.32133698 0.12963724 0.0848212 0.082750425
0.2443651 0.09635407 0.17248254 0.09877121 0.055889025 0.12087884 0.13249677 0.13999386
0.09404524 0.10044593 0.08808421 0.122433186 0.11694834 0.062295962 0.14217398 0.14050654
0.19953524 0.10643896 0.10330948 0.12216656 0.071976975 0.095439784 0.084521934 0.104050964
0.14512354 0.12867036 0.15528527 0.10077818 0.122665755 0.112515494 0.080618106 0.11872351
0.10831115 0.2402905 0.11563433 0.101336025 0.1879039 0.11119237 0.12997694 0.16593519
0.09915286 0.0693786 0.14691843 0.22266398 0.18420726 0.12471817 0.16224866 0.06950871
00000000: 59b2 f43d b8f1 c23d a76a bc3d d8d3 003e
00000010: ed47 9f3d 1380 ac3d da55 be3d 1dbc 9b3d
00000020: c423 ab3d 42bc 923d f1b2 af3d 7ab1 c13d
00000030: 8a51 f43d 782f 8e3e 2042 f23d bc93 dc3d
00000040: fda8 a33d 2da5 013e 2a86 a03d 155c d13d
00000050: 6d43 013e 62b3 173e 38e8 b33d dfec eb3d
00000060: 9ddb d43d b323 a93d 31eb 9b3d ec4c b73d
00000070: 24d3 013e 2edb e53d 4509 f43d 666f 823d
00000080: be94 d13d 043e c33d d686 663e 9373 e53d
00000090: aa9e eb3d a1ed bb3d 68af c43d c598 443e
000000a0: 74a8 013e ce25 c23d 0e45 133e 5a98 543d
000000b0: 86f8 063e 5d7c e03d a84a a83d a11a e53d
000000c0: 5242 b53d 2912 263e 58bb fc3d e548 f63d
000000d0: aff3 cb3d 4c25 f33d ea89 ae3d 6f79 da3d
000000e0: 8d12 0d3e 3bf2 623e 8918 eb3d 85ba 6a3d
000000f0: 5253 eb3d bb7c 8d3d 0251 f43d 08a1 0f3e
00000100: 7e70 8c3d 7ab8 cf3d d23c ac3d 7aae 923d
00000110: d786 c73d fe3d af3d ef9d fb3d e637 4e3d
00000120: c6bc 0f3e 7dee a93d 3c7a 083e c872 7d3e
00000130: 3ec9 073e eec3 eb3d 3a0f ec3d 2d55 373e
00000140: fa3a 1b3e 32d6 db3d afc4 f83d 9c98 7b3d
00000150: 1f86 963d 57cf aa3d 593f 0f3e 833c 7d3d
00000160: 9129 cf3d ac4c a43d 3d89 b23d be6a bc3d
00000170: 30f3 003e 99b8 ac3d 4703 313e 2085 e13d
00000180: 9e48 b73d 8a92 193e 3309 d53d 1ad5 103e
00000190: cdf6 053e 94f0 1c3e 609d 063e facb 093e
000001a0: 2365 9d3d 2c55 593d eb55 ac3d f8e1 583e
000001b0: 3510 153e 22b2 853d 27c7 fb3d 60d8 f43d
000001c0: 2752 263e 70ad f53d acd9 b23d a51c c03d
000001d0: 4d65 e73d 7682 933d 43e5 583e deb0 033e
000001e0: b176 b13d b845 d83d 461c a13d f036 a33d
000001f0: 9026 a93d d349 963d 7ef4 aa3d 67ba ba3d
00000200: f179 543d 1893 123e f1ff 943d 36f6 293e
00000210: 2e72 a13d a6bf 013e 4028 b43d fa2f 063e
00000220: 4ed7 ad3d 06e2 6a3d 56f4 0b3e fa03 033e
00000230: e895 003e 2142 a33d 2b3c 393e fa5b f83d
00000240: 9edc 2b3e 2267 c53d c559 8b3d d6e8 303e
00000250: eaa0 373e 3fa6 d73d db2b 083e d8a2 bb3d
00000260: 7632 993d 8080 6f3e b9bb e13d 4f5e a33d
00000270: 4f54 d83d 42e9 603d fc7e f73d ab7f 443e
00000280: 70d9 f63d 3476 203e bb30 753d bc5d ab3d
00000290: 2941 623d 0f84 013e 436d dc3d 124b 1a3e
000002a0: bbb6 0e3e 7248 203e ee21 243e 3a5c 3a3e
000002b0: 3361 483e d3f2 e03d 98e6 993d ffd7 bc3d
000002c0: f153 c53d 7690 c73d 3ad5 623d e572 ec3d
000002d0: ad35 ca3d a430 0e3e 62d6 993d 226c 053e
000002e0: 11ca 203e d808 183e 2679 423e 1042 843d
000002f0: 1ddf cb3d bd9c da3d d764 a13d 3fbb c53d
00000300: 9112 df3d 6d93 483e 9c56 b63d ea11 253e
00000310: fd1b 303e 589d be3d 7183 203e efb8 4e3d
00000320: b1f7 c33d 2f89 dc3d e180 103e c778 7d3d
00000330: 4886 a43e a0bf 043e bdb6 ad3d 0e79 a93d
00000340: d83a 7a3e 4855 c53d 439f 303e 8f48 ca3d
00000350: e4eb 643d 538f f73d 3cad 073e 8d5a 0f3e
00000360: ca9a c03d 99b6 cd3d 7f65 b43d 40be fa3d
00000370: 9c82 ef3d 0d2a 7f3d 0e96 113e f2e0 0f3e
00000380: f752 4c3e abfc d93d ec93 d33d 7632 fa3d
00000390: aa68 933d ef75 c33d d619 ad3d ac18 d53d
000003a0: 449b 143e 2ac2 033e 1a03 1f3e ca64 ce3d
000003b0: 2f38 fb3d 866e e63d 1b1b a53d 5025 f33d
000003c0: 3cd2 dd3d b60e 763e b1d1 ec3d 4389 cf3d
000003d0: e169 403e d3b8 e33d ad18 053e eaea 293e
000003e0: a810 cb3d 5e16 8e3d c971 163e 0702 643e
000003f0: d4a0 3c3e 3d6c ff3d 8324 263e 955a 8e3d

fc2.weight f4 [128, 256]
-0.042029075 0.099107735 0.0019699077 0.059269503 -0.011256294 -0.01597245 -0.016583329 -0.02950531
-0.010600803 -0.040851127 -0.07054536 -0.04185134 0.04651083 0.03323503 0.0074957646 -0.012774962
0.010134333 0.047940757 -0.07415217 0.033224434 0.049244277 -0.064327575 0.031130608 0.027715284
0.047353003 0.019281322 0.02102149 0.06385818 0.024241095 -0.054873664 0.01890835 -0.013816383
-0.061673317 -0.07081036 -0.032661855 -0.03953286 -0.076516375 0.057483505 0.025583882 0.051618196
0.010918321 0.03830468 -0.049425464 -0.06686679 0.010296006 -0.031110523 0.02584169 -0.02409743
-0.06360056 -0.04241023 0.04955595 0.035086002 0.0004022949 0.04425565 0.01610397 0.017241249
0.007809632 -0.038040806 0.012076255 -0.028694497 0.053463947 -0.033071492 0.0006834277 0.0051037217
-0.061188534 -0.002589729 -0.039031427 -0.025184663 -0.00015422521 0.022584597 0.062051654 0.005574858
0.0050465898 0.050016724 -0.021056697 0.050247833 -0.09110094 0.027854305 -0.016385097 -0.011171034
-0.039939143 -0.039019424 0.037669566 -0.048690565 -0.001192674 -0.0051778494 0.04267122 -0.0042236913
-0.005362833 0.040816646 0.0002405665 0.03201241 -0.009234868 0.012018708 0.050002895 -0.016390089
-0.003998966 -0.024793027 -0.0011993366 -0.027992906 0.039546363 -0.05102127 0.003969213 -0.0077952584
-0.05116135 -0.009229282 0.009874942 -0.028274382 -0.037528384 -0.021099048 -0.016185839 -0.014707295
-0.0024608907 0.036276564 -0.008188059 -0.055153515 -0.029259853 -0.056712423 0.07581239 -0.029135447
-0.006342327 0.007823597 -0.006353492 0.0016569896 0.07031464 -0.012446944 -0.0062775835 -0.042121872
-0.042830475 -0.060936246 0.00717643 -0.03367078 0.016696705 -0.02422499 -0.0015162951 0.04148166
-0.061695743 -0.03558532 0.037883233 -0.05221129 -0.00066959724 -0.011181779 -0.040847044 -0.041306127
-0.030928647 -0.021296142 0.047008056 0.056810476 -0.00017884356 0.007203364 -0.061576877 -0.050592553
0.014166895 0.027872343 0.059345156 -0.056773677 0.024645895 -0.061258808 -0.02891571 0.010936494
0.00073624414 0.018474717 0.054028064 -0.014313197 0.01747663 0.02638531 -0.05129076 -0.0364746
0.05666899 0.054710932 -0.11775032 0.047506846 0.01595423 -0.019486163 0.036076326 -0.06663835
0.044611573 0.00840744 -0.026755398 0.058667816 0.0024618194 -0.035567686 -0.022188928 -0.028578425
-0.078850634 -0.0013998656 -0.043682113 -0.07773001 -0.0028888884 -0.082026914 -0.002266592 -0.019756438
0.01892633 -0.022554671 0.023750773 -0.011020295 0.060258564 -0.002888926 -0.04495798 0.038229875
0.003502422 0.028229153 -0.06600381 -0.03707817 -0.015456937 0.048121933 -0.08337622 0.0369083
-0.0072879326 -0.022705771 -0.048287205 0.0989705 -0.011843127 -0.08439049 -0.036358867 -0.0077324277
-0.0526467 0.025347456 -0.023725186 -0.04953763 0.046831664 -0.040251486 -0.022400152 -0.0053679924
-0.028011272 -0.055983875 -0.026931973 -0.041555278 -0.009813468 0.0612059 -0.05385234 0.027809737
-0.03879365 0.007734254 -0.06427474 0.038714886 -0.08385356 -0.0031027936 -0.0018290661 -0.04306884
-0.04972778 0.0380896 -0.029701002 -0.028723685 -0.010549904 0.009408565 -0.09030664 -0.07012138
-0.02874099 -0.016208585 -0.03842698 0.014106321 -0.0016111681 -0.0040347166 -0.03701449 -0.054541994
00000000: ae26 2cbd fff8 ca3d 9119 013b 94c4 723d
00000010: 526c 38bc a8d8 82bc c3d9 87bc 1fb5 f1bc
00000020: feae 2dbc 8353 27bd 167a 90bd 506c 2bbd
00000030: 2482 3e3d 7421 083d 089f f53b 134e 51bc
00000040: 790a 263c 875d 443d 18dd 97bd 5816 083d
00000050: 5eb4 493d 2dbe 83bd 9e05 ff3c 2a0b e33c
00000060: 39f5 413d ddf3 9d3c 4335 ac3c 14c8 823d
00000070: 4395 c63c 35c3 60bd afe5 9a3c 1c5e 62bc
00000080: 299d 7cbd 0605 91bd 70c8 05bd 35ed 21bd
00000090: 9eb4 9cbd d373 6b3d 4a95 d13c 9a6d 533d
000000a0: c2e2 323c 5ee5 1c3d 5b72 4abd 75f1 88bd
000000b0: 94b0 283c 7fdb febc f4b1 d33c f967 c5bc
000000c0: 0341 82bd 59b6 2dbd 2efb 4a3d 57b6 0f3d
000000d0: 1ceb d239 6a45 353d 79ec 833c 853d 8d3c
000000e0: f1e7 ff3b add0 1bbd 7cdb 453c b910 ebbc
000000f0: 03fd 5a3d f975 07bd 0e28 333a 1f3d a73b
00000100: d4a0 7abd 71b8 29bb 6bdf 1fbd 1150 cebc
00000110: 84b7 21b9 5503 b93c e029 7e3d 4cad b63b
00000120: dd5d a53b 56de 4c3d 187f acbc acd0 4d3d
00000130: 2193 babd b62e e43c 0a3a 86bc b606 37bc
00000140: 3a97 23bd d5d2 1fbd 674b 1a3d c26f 47bd
00000150: 8053 9cba f3aa a9bb 04c8 2e3d e466 8abb
00000160: b4ba afbb 5b2f 273d 9440 7c39 721f 033d
00000170: d84d 17bc 1dea 443c d6cf 4c3d 8244 86bc
00000180: c209 83bb bf1a cbbc 0f33 9dba 6151 e5bc
00000190: 5efb 213d aefb 50bd 2c10 823b 5e6f ffbb
000001a0: 908e 51bd 6a36 17bc 82ca 213c ad9f e7bc
000001b0: 5db7 19bd e9d7 acbc 2a98 84bc def6 70bc
000001c0: e546 21bb bc96 143d 3527 06bc a7e8 61bd
000001d0: 5cb2 efbc 494b 68bd 8743 9b3d 76ad eebc
000001e0: 4cd3 cfbb 8b2e 003c f430 d0bb 582f d93a
000001f0: 1f01 903d 44ee 4bbc 30b4 cdbb fc87 2cbd
00000200: 026f 2fbd 4998 79bd 4228 eb3b 5fea 09bd
00000210: 87c7 883c 7c73 c6bc 6cbe c6ba ace8 293d
00000220: adb4 7cbd eac1 11bd 732b 1b3d 81db 55bd
00000230: e987 2fba c833 37bc 3b4f 27bd 9d30 29bd
00000240: 135e fdbc 3f75 aebc 858b 403d 1ab2 683d
00000250: f487 3bb9 320a ec3b 0938 7cbd 233a 4fbd
00000260: 441c 683c 8a54 e43c e813 733d 848b 68bd
00000270: 30e6 c93c 84ea 7abd a4e0 ecbc fb2e 333c
00000280: 8200 413a 4a58 973c 884c 5d3d e681 6abc
00000290: 262b 8f3c 0126 d83c 4316 52bd 6466 15bd
000002a0: be1d 683d 9218 603d 1427 f1bd 8a96 423d
000002b0: 72b2 823c 72a1 9fbc c5c4 133d b079 88bd
000002c0: a0ba 363d 5cbf 093c 232e dbbc aa4d 703d
000002d0: 7a56 213b 6caf 11bd 8ec5 b5bc 4d1d eabc
000002e0: 717c a1bd b27b b7ba 04ec 32bd e930 9fbd
000002f0: 8153 3dbb bafd a7bd 1b8b 14bb 41d8 a1bc
00000300: 640b 9b3c 93c4 b8bc fb90 c23c 788e 34bc
00000310: afd1 763d 2354 3dbb dc25 38bd ee96 1c3d
00000320: e488 653b d340 e73c 012d 87bd 47df 17bd
00000330: 183f 7dbc 811b 453d 27c1 aabd 282d 173d
00000340: 9ccf eebb 7401 babc cec8 45bd 0cb1 ca3d
00000350: ad09 42bc ecd4 acbd 09ed 14bd 4e60 fdbb
00000360: 11a4 57bd 78a5 cf3c 525b c2bc f8e7 4abd
00000370: 8fd2 3f3d bede 24bd 8680 b7bc fce5 afbb
00000380: e577 e5bc 594f 65bd 71a0 dcbc de35 2abd
00000390: abc8 20bc 0ab3 7a3d 4594 5cbd 3fd1 e33c
000003a0: 17e6 1ebd a06f fd3b 7aa2 83bd 8093 1e3d
000003b0: 6abb abbd 3d58 4bbb 46bd efba f468 30bd
000003c0: 5baf 4bbd d703 1c3d 844f f3bc ef4d ebbc
000003d0: 81d9 2cbc 6226 1a3c b0f2 b8bd cc9b 8fbd
000003e0: 3a72 ebbc dec7 84bc 9c65 1dbd 331e 673c
000003f0: d52d d3ba a835 84bb 829c 17bd 6d67 5fbd

fc2.bias f4 [128]
9.723075e-06 1.3224401e-06 2.1363871e-07 6.1277915e-06 -6.412989e-06 6.7362676e-06 9.017234e-06 -2.8170058e-07
1.3852716e-06 9.11441e-06 -4.66718e-06 8.753789e-06 -4.211078e-06 5.794811e-07 -8.979807e-07 -2.5797153e-06
-3.9882784e-06 -3.3293904e-06 1.7610704e-06 1.5573357e-06 -1.9167826e-06 1.807736e-05 6.5170116e-06 -7.4689524e-07
-1.5415208e-05 -5.2258392e-06 -7.709879e-07 -2.7909773e-06 -3.4387092e-06 -9.281413e-06 -7.0672972e-06 -5.0242134e-06
-7.511356e-06 2.5537122e-06 8.8642455e-06 -1.6091825e-06 3.2486355e-06 -8.763147e-06 7.1077757e-06 -5.659471e-06
5.556454e-06 2.7746482e-06 -8.78742e-06 4.2010618e-07 -6.514684e-06 1.8952494e-07 -2.2347429e-06 -2.3186171e-06
2.4610763e-06 3.7717605e-06 2.2361264e-06 1.6202168e-05 1.14908744e-07 -1.1261814e-05 3.1699224e-06 -2.418028e-06
-6.5366603e-06 -7.685317e-06 -4.8775396e-06 -5.059999e-07 -1.9772806e-06 -1.5833307e-06 -2.348153e-06 4.6389955e-06
-4.458681e-06 3.7428804e-06 -3.1721984e-06 5.0962503e-06 -8.156702e-06 -7.112083e-07 6.7437577e-07 -1.6944809e-06
-4.7015305e-08 6.298485e-07 6.558915e-08 -7.565762e-06 -1.0028134e-06 2.9737987e-06 3.0844385e-06 2.4834912e-06
1.6849383e-06 -3.6230617e-06 -5.4182583e-06 6.3807115e-06 -5.7801335e-06 5.467106e-07 6.2910417e-06 -1.5906819e-05
1.8401032e-06 -1.5466667e-06 3.2590872e-06 -1.8326599e-06 -1.3112149e-06 -9.3396204e-07 1.079596e-06 2.6874368e-06
1.695212e-06 -9.096939e-06 -2.11123e-07 1.2533364e-06 2.2425343e-06 5.220357e-07 -1.266327e-06 4.2205727e-08
8.746365e-06 -2.2847075e-06 -1.2902306e-06 6.3187986e-06 8.882227e-06 -3.8395997e-06 -6.411178e-06 1.5884023e-06
7.143523e-06 -6.7845062e-06 -1.4623337e-06 2.8734357e-06 -1.816711e-06 -1.9931877e-06 -6.818673e-06 -4.281863e-06
1.0582006e-06 -6.559263e-06 -3.5051628e-06 1.2305097e-06 6.4358896e-06 -9.546592e-06 -1.0868155e-06 3.1204695e-07
00000000: 4a20 2337 b27e b135 9064 6534 549d cd36
00000010: 282f d7b6 1908 e236 ba48 1737 a23c 97b4
00000020: 92ed b935 18ea 1837 c59a 9cb6 3ddd 1237
00000030: e24c 8db6 a38d 1b35 c40c 71b5 2c1f 2db6
00000040: 0dd3 85b6 7e6e 5fb6 eb5d ec35 a605 d135
00000050: 13a2 00b6 d6a4 9737 b4ac da36 407e 48b5
00000060: e84f 81b7 9e59 afb6 e3f5 4eb5 a04c 3bb6
00000070: 93c4 66b6 5eb7 1bb7 9f23 edb6 aa95 a8b6
00000080: 0f0a fcb6 7160 2b36 a5b7 1437 17fb d7b5
00000090: 2203 5a36 6e05 13b7 547f ee36 7ce6 bdb6
000000a0: 9471 ba36 1834 3a36 ae6d 13b7 f48a e134
000000b0: b698 dab6 3880 4b34 97f8 15b6 8a99 1bb6
000000c0: f828 2536 5a1e 7d36 5c10 1636 e4e9 8737
000000d0: c0c3 f633 1ff1 3cb7 daba 5436 6845 22b6
000000e0: 7c55 dbb6 2ff0 00b7 bfa9 a3b6 0cd4 07b5
000000f0: 6cb1 04b6 d482 d4b5 f694 1db6 aba8 9b36
00000100: c79b 95b6 322e 7b36 f4e1 54b6 7500 ab36
00000110: c5d8 08b7 dde9 3eb5 c006 3535 ec6d e3b5
00000120: e0ed 49b3 dc12 2935 04da 8c33 67dd fdb6
00000130: 6898 86b5 7991 4736 40fe 4e36 0eaa 2636
00000140: 0a26 e235 ba23 73b6 7cce b5b6 e519 d636
00000150: f8f2 c1b6 abc1 1235 a317 d336 a26f 85b7
00000160: 77f9 f635 1097 cfb5 b1b6 5a36 b7f9 f5b5
00000170: 00fd afb5 62b5 7ab5 a3e6 9035 d059 3436
00000180: 0a87 e335 0e9f 18b7 0cb1 62b4 5038 a835
00000190: 727e 1636 0522 0c35 aaf6 a9b5 b045 3533
000001a0: 5abd 1237 fa52 19b6 fc2b adb5 1106 d436
000001b0: e004 1537 e9d5 80b6 9a1f d7b6 1631 d535
000001c0: 65b2 ef36 77a6 e3b6 6745 c4b5 40d5 4036
000001d0: b7d5 f3b5 b4c2 05b6 f4cb e4b6 ecac 8fb6
000001e0: 7f07 8e35 a417 dcb6 3d3a 6bb6 fe27 a535
000001f0: dff3 d736 4d2a 20b7 b2de 91b5 6887 a734
