tryst/model_round_1.pth (torch, 194739 bytes, 19 tensors)

fc1.weight f4 [256, 14]
00000000: 969b 343e 4aad f1bd f89a ad3c 56ef d93d
00000010: 0957 c83d 7e8e fe3c a3b1 9f3d 2643 ff3d
00000020: e3f2 0a3e 0a11 263d e25a 913d c5dc 8dbb
00000030: 5aa8 3abc 423f b0bd adf3 803d f228 cb3d
00000040: 3370 b5bc 18f8 37be 687b 3a3d cde4 103d
00000050: 4315 bebd f4ca e7bd 7269 cabd 3464 693d
00000060: 23db bebc 424f 89bd 6cdc 003d 1c0f 12be
00000070: 0278 ffbd 460c 66bd 788f 823d c094 abbc
00000080: 2065 95bd f6a9 52bd 2909 2f3d 90be a0bd
00000090: a9c8 eabc 4d67 8fbd fccf 0d3e 50f9 8abd
000000a0: e807 5f3d 9ecc dabd 3f76 203e f08d 27be
000000b0: 7a02 0b3c f8f2 20be 366c 17bd f695 5cbd
000000c0: 5370 643d 090d d6bd 61a4 e0bd f6bf c23d
000000d0: 06c1 153e 86df d43b 7586 e73d 715d b43d
000000e0: b8d6 c3bd a814 dd3d c6e7 93bc f0e2 e83d
000000f0: 314d 21bd 902d 533d 6ca9 d03d ec7e 6b3d
00000100: 6cbc f9bd 7421 0e3c 94b9 28be e285 b23d
00000110: 79a5 2ebc 5988 be3b d4fd 203c 0dd4 1e3c
00000120: c79f e33b c30d 1dbe 4913 c7bd 18c1 cd3d
00000130: f486 203c 6fd6 433d 9655 303d de6e b13d
00000140: 91a0 2fbd 9a79 6b3d b66d d03d 68fe c8bd
00000150: c70a f53d 5623 0cbd 785b ba3d 69e0 8bbd
00000160: 31aa 593d 6136 db3d 457b e23d c236 eb3c
00000170: 20f0 30bd 4dad 9d3b e0e6 0bbe 92f7 9ebd
00000180: 268c 13bd 0dbb f43d 0feb 9b3d ba2c bf3d
00000190: c91e 74bd a927 103e 55e3 69bd ab36 86bc
000001a0: 53c4 9f3d 88df 943d bc7b c0bd da6e 26be
000001b0: d972 133d 1191 a0bd e978 adbc cb11 09be
000001c0: 6107 ebbd cb62 8fbd 5c19 d43d d40c 103d
000001d0: 4377 8c3d f6e5 d23c 9025 c2bd 06c0 f9bd
000001e0: 0961 b9bd 4352 533a 5675 c8bd e2fd ebbd
000001f0: bafe ebbd dda5 2d3d a6cb babd 5122 49bd
00000200: 1275 0e3c 2768 e93c 7c5b 23bd 10e5 683d
00000210: a2a2 10be 3921 86bd 5662 e1bc fcda c13c
00000220: 6239 0cbe 7f55 bebd 3c10 ef3b 8c70 323e
00000230: 33b3 863d 343d 1ebd 98f4 8f3d 0a2a fcbd
00000240: f21b 613c eded f73b 3b70 14be 8083 273d
00000250: 1cb4 b5bd 94a2 85bc 7fda 72bc 9c36 e1bd
00000260: 7896 553b 5ad8 663d a91b 6a3d 34a9 d63d
00000270: 358a c73d 2c00 05bd 1076 c1bc 72bf 453d
00000280: 6acc cabc dc10 a3bd 9f4a 863c b3c7 a53d
00000290: afb0 e4bc 1455 eb3c be00 a53d b501 6c3e
000002a0: ce95 e9bd 5659 fdbc 3cf9 c6bd 02df 5fbd
000002b0: dfd9 08be e186 dbbd 65e0 b63c c94a b43c
000002c0: 78e6 b5bd 2558 b03d 677c 033e d036 ccbd
000002d0: a19a 51bc b5ca 5ebc a5ab d5bc 6471 a03c
000002e0: de82 8dbd 1d17 60bc 7ab1 b33d d340 bebd
000002f0: 45b9 573c 8672 14be 0e9f b13d 6198 0b3e
00000300: 6424 76bd d134 393d e3af 163e 9a9a c1bd
00000310: c08d f2bd bab3 13bd e4a1 15be b8ad 9abd
00000320: ce21 633d 8c47 7ebd e4de d8bd 2468 ba3d
00000330: fc46 b6bb ba5e 17be 2433 793c 162e c13c
00000340: 545c 33ba 4e31 d2bd 594c b93d 9234 dc3c
00000350: 01e2 73bd d60e c63d 3d6e f2bd 76f0 d03d
00000360: 3879 a83d 2926 b83d e1e4 e2bc a441 043e
00000370: 9a17 1a3e b978 b1bd 5913 193e cbf1 083e
00000380: 420c bcbd 980f 673d 6db5 f1ba ad4f 44bc
00000390: bce1 1e3d d767 e7bc 54ce 0b3e a806 8cbd
000003a0: d165 5dbb e66a 37be f672 a7bd 152e e1bd
000003b0: 872d 963d 6eda 64bd b643 9f3d 24fc 17be
000003c0: 00bc 123e 9f2b 18be ca72 83bd 14ff f33d
000003d0: d218 01be cd93 98bc 2630 bfbd 1016 ab3c
000003e0: d0f4 0abd c6cf dabd 576f acbd 9fc4 7cbd
000003f0: 38b5 1fbc ea5f 993b d282 a2bd f644 debd
0.17637476 -0.118006304 0.021192059 0.10641353 0.09782226 0.031073805 0.077975534 0.124639794
0.13569216 0.040543593 0.07097413 -0.0043292963 -0.011392677 -0.086058155 0.062964775 0.09919919
-0.022148227 -0.17965734 0.045527846 0.03537445 -0.09281399 -0.11318007 -0.09883393 0.056980327
-0.023297852 -0.0670457 0.03146021 -0.14263576 -0.124740615 -0.05616405 0.06375021 -0.020944953
-0.07294679 -0.05143162 0.042733345 -0.07848847 -0.028660135 -0.07002125 0.13848871 -0.06785834
0.0544509 -0.10683559 0.15670107 -0.16362739 0.008484477 -0.15717685 -0.036968432 -0.05385395
0.055771183 -0.10451705 -0.10968853 0.0950927 0.14624414 0.0064963726 0.113049425 0.08806885
-0.09562439 0.107949555 -0.018054854 0.1137141 -0.039380256 0.051557124 0.10188565 0.05749409
-0.12194142 0.008674968 -0.16477042 0.08716942 -0.010659569 0.0058145938 0.009826142 0.0096941115
0.006946537 -0.15337281 -0.09720475 0.10046595 0.0097978 0.04781192 0.04305037 0.08663724
-0.042877737 0.057489015 0.10177176 -0.09814149 0.11964946 -0.034213386 0.090994775 -0.06829912
0.053140823 0.10703731 0.11058668 0.028712634 -0.04319775 0.004811919 -0.1366229 -0.07762064
-0.036022328 0.119497396 0.07613193 0.09334703 -0.05959967 0.14077629 -0.057101566 -0.01638349
0.07801118 0.07269198 -0.093986005 -0.16253224 0.0359982 -0.07840169 -0.021175819 -0.13385694
-0.11476017 -0.07001265 0.103563994 0.035168484 0.06858685 0.02574442 -0.09479821 -0.12194829
-0.09051711 0.0008061269 -0.09788005 -0.11523034 -0.115231946 0.042394508 -0.09120874 -0.049104992
0.008694904 0.028492047 -0.03988217 0.056859076 -0.1412454 -0.065493055 -0.02751271 0.02366399
-0.13693765 -0.09293651 0.0072956365 0.17425746 0.06577148 -0.038632587 0.070290744 -0.12312706
0.013739573 0.0075662048 -0.14495938 0.040896893 -0.08872244 -0.016312875 -0.014822601 -0.10996744
0.0032590907 0.056358673 0.057155285 0.10481492 0.09743158 -0.032470867 -0.023615867 0.04827828
-0.024755675 -0.079622 0.016393004 0.0809473 -0.02791628 0.028727092 0.08056782 0.23047526
-0.11405526 -0.030926388 -0.097155064 -0.054656036 -0.13364361 -0.107190855 0.022323797 0.022008317
-0.08881849 0.08610562 0.12840424 -0.09971392 -0.012793214 -0.013598134 -0.026082823 0.019585319
-0.069097266 -0.013677386 0.08774085 -0.09289708 0.01316673 -0.14496812 0.086729154 0.13632347
-0.0600933 0.045216385 0.14715533 -0.09453316 -0.11843443 -0.036060072 -0.14612538 -0.075526655
0.05545216 -0.06207995 -0.10589388 0.091018945 -0.005562661 -0.14782229 0.015209947 0.023581546
-0.0006842066 -0.102633104 0.09047765 0.026880536 -0.059541706 0.096707985 -0.118374325 0.10202114
0.08226246 0.089916535 -0.027697029 0.12915665 0.15048066 -0.08665604 0.14948787 0.13373487
-0.091820255 0.056411356 -0.001844091 -0.011981887 0.038789496 -0.028247757 0.13652927 -0.06837207
-0.003378261 -0.17911872 -0.08176224 -0.109951176 0.073329024 -0.055872373 0.07776587 -0.14842278
0.14329529 -0.1486039 -0.06418379 0.11913887 -0.12607124 -0.018625164 -0.093353555 0.020884544
-0.033924878 -0.10684161 -0.08419674 -0.06171095 -0.009747796 0.0046806233 -0.07935108 -0.10852997

fc1.bias f4 [256]
00000000: 1e13 c735 a1c6 d9b6 984a a3b4 47e4 81b7
00000010: 77e4 f8b6 8685 3937 0def a936 208f c933
00000020: f445 1934 573b ebb7 d2a2 f236 16c2 82b7
00000030: 4357 acb6 3242 5e35 d0f0 b8b5 0a40 9036
00000040: dc73 a9b6 75bd 4137 741a e0b6 1dc2 0737
00000050: 37a0 3737 c4cb ac35 94e6 3fb6 1266 9636
00000060: 9d46 abb6 3e84 2e36 7a02 0636 429c 1137
00000070: a4da 27b6 6143 1c36 4842 b637 473c 1938
00000080: f07a c036 2222 14b6 0a8a 9b36 a6e0 c1b6
00000090: 2614 87b5 831c bc35 4742 e435 b42a a036
000000a0: 8a90 0b37 3cb2 d036 2a4f ccb5 dc6e fd36
000000b0: c66f 8bb6 ef5c e537 799f a5b6 5c90 06b7
000000c0: ccf7 ceb6 ef75 c1b5 033c c436 802e d435
000000d0: 782e 2936 06e0 deb5 4926 93b6 5960 0238
000000e0: 3bf7 8636 0bd1 3b35 11b7 8fb7 1e27 2c37
000000f0: 5992 75b6 eba1 06b7 3dc2 44b5 1f02 81b5
00000100: 4920 45b7 94b4 2736 f9ec 46b6 647b 5934
00000110: 3ae1 88b7 5b3b f5b5 d823 f5b5 3512 0b37
00000120: dc6d 21b6 ea33 3837 b3f3 6e37 c787 15b7
00000130: bd45 13b7 ee9a 8fb6 0ea2 d935 6871 c6b5
00000140: f8d5 d335 e59b 8d36 bdf0 b9b5 9a6f 2b37
00000150: a148 2a36 d3b6 a3b7 6a82 b634 bfbc 95b7
00000160: e33f 39b6 75aa 54b7 9ca4 8635 e1ea 9ab6
00000170: c819 f435 baf1 41b7 c4c9 1fb7 5f41 7036
00000180: 3078 1eb6 2943 1ab7 8d4c cd37 dd20 2637
00000190: d474 0eb6 4d5d 1b37 ecfb 4e35 8ed2 ea36
000001a0: d252 87b7 fe31 a835 7174 58b8 a41c 0eb5
000001b0: 228b 2ab6 82e8 f1b6 5077 26b7 d378 c2b6
000001c0: 7a70 11b7 3ccb bdb5 09f5 81b5 4869 cbb4
000001d0: 7423 7537 d8b9 0ab4 0718 c8b5 702c 9833
000001e0: bc80 b0b6 79dc 0336 20c0 d433 00ab 1bb6
000001f0: c1c7 4bb7 a362 acb6 548f c3b6 fbf0 1a37
00000200: 8a39 29b7 dd34 5137 79ff 0537 6c80 0137
00000210: 6e99 b536 3822 27b5 a961 bcb6 ad5b db34
00000220: 3f8f 0436 08db 21b5 9aeb 8f36 44ba 9835
00000230: e09e 3534 944d 4837 3875 ea36 d3dc 9db6
00000240: ddd0 41b6 df8a 8736 e423 6337 16ac b1b5
00000250: 29ee 7f37 6eac 2436 779c 3336 b865 70b4
00000260: 9af3 f7b6 fa20 2236 5235 15b7 1132 9137
00000270: fb21 1eb8 0523 4a37 0a84 0635 5d10 1f38
00000280: 4429 6b37 c55f 4736 2d05 8737 a4af c335
00000290: f103 f836 9b77 9a35 26db 4237 c62a 14b7
000002a0: e648 c0b5 b4f5 6a37 35c3 b4b7 15eb b436
000002b0: 6058 6a37 40e0 d6b6 bc6f 06b7 f2fb adb7
000002c0: e02f 84b6 b4e0 a2b6 4621 7c36 30d0 e9b6
000002d0: 0669 ec36 18ea 2c35 b873 c436 dd48 c536
000002e0: 6227 4137 c4d4 5e37 ce99 eab6 8e3f 10b7
000002f0: 57d9 3eb6 9c77 4bb5 b61c 8fb7 a55a 2f37
00000300: 8edf b235 07d9 52b7 0214 5bb6 a1c5 7f35
00000310: 3ff4 5cb7 29a0 6536 571c 1d36 cc5d 9236
00000320: 4222 8d35 2c07 b0b5 d965 4f36 597e 0737
00000330: 9f61 f7b6 1a33 31b7 3754 81b7 f8d1 b537
00000340: 378d b8b6 add7 cfb6 4427 0eb7 25bb f436
00000350: 4957 8bb7 c36f 8536 bbce f1b6 b676 ceb6
00000360: fd17 b135 9883 ba36 e2b1 2e37 428f 86b6
00000370: 79be 0737 6f3b d437 48d9 a4b6 0465 96b6
00000380: d07d 7536 73e4 8136 28d7 c433 44c8 1f36
00000390: bddb 6cb6 f846 f535 8bf0 8fb7 84c1 66b6
000003a0: c790 9c36 ff76 d7b6 e906 93b7 88a2 47b7
000003b0: 8457 abb5 3d7b 26b7 82d1 4936 9647 ffb6
000003c0: d4a7 dab6 accd 5b36 47c6 5cb7 eab0 71b7
000003d0: 7a84 6db5 9708 36b5 f1cb 1438 7b3b 48b6
000003e0: 6adb bf36 bd69 99b7 8d1d 9236 332e 0737
000003f0: ce82 c5b4 ab2f ad36 669b dab6 9dca e337
1.4832219e-06 -6.4902274e-06 -3.041539e-07 -1.5484298e-05 -7.4175728e-06 1.1057948e-05 5.0644217e-06 9.385826e-08
1.4274684e-07 -2.8041815e-05 7.231117e-06 -1.5587586e-05 -5.136158e-06 8.279777e-07 -1.3779154e-06 4.2989896e-06
-5.0500803e-06 1.1547808e-05 -6.6787998e-06 8.091823e-06 1.0944953e-05 1.2874302e-06 -2.8595432e-06 4.482231e-06
-5.1044176e-06 2.6004996e-06 1.9968998e-06 8.679055e-06 -2.5012205e-06 2.3285031e-06 2.1726955e-05 3.653418e-05
5.7363577e-06 -2.2073586e-06 4.63543e-06 -5.7780007e-06 -1.0064148e-06 1.401539e-06 1.7006613e-06 4.773343e-06
8.318699e-06 6.2196323e-06 -1.5222224e-06 7.5528933e-06 -4.155535e-06 2.7342203e-05 -4.9359483e-06 -8.020634e-06
-6.1681258e-06 -1.4413944e-06 5.8482415e-06 1.5808764e-06 2.521001e-06 -1.6605488e-06 -4.3853984e-06 3.1084146e-05
4.0222926e-06 6.9967126e-07 -1.7132175e-05 1.0261107e-05 -3.659303e-06 -8.024722e-06 -7.3298344e-07 -9.611866e-07
-1.1749632e-05 2.499005e-06 -2.9642235e-06 2.0254589e-07 -1.6317343e-05 -1.8271197e-06 -1.8264354e-06 8.289285e-06
-2.4054816e-06 1.0979342e-05 1.4242646e-05 -8.912705e-06 -8.77812e-06 -4.2797683e-06 1.6214924e-06 -1.4785155e-06
1.5782998e-06 4.220276e-06 -1.3853638e-06 1.02183785e-05 2.537425e-06 -1.9516248e-05 3.399503e-07 -1.7850076e-05
-2.7604335e-06 -1.2675872e-05 1.0031686e-06 -4.616901e-06 1.818692e-06 -1.1559978e-05 -9.524116e-06 3.5800838e-06
-2.3613793e-06 -9.194752e-06 2.4473551e-05 9.902023e-06 -2.1227652e-06 9.260443e-06 7.7107575e-07 6.9982552e-06
-1.613182e-05 1.2531525e-06 -5.1606858e-05 -5.29408e-07 -2.541296e-06 -7.209427e-06 -9.922151e-06 -5.7957163e-06
-8.6688615e-06 -1.4140746e-06 -9.682564e-07 -3.78883e-07 1.46113925e-05 -1.2919861e-07 -1.4908154e-06 7.086135e-08
-5.2601954e-06 1.9648853e-06 9.9069666e-08 -2.3196335e-06 -1.2146252e-05 -5.1374823e-06 -5.8281385e-06 9.235223e-06
-1.0086582e-05 1.2469679e-05 7.9869e-06 7.7189e-06 5.412082e-06 -6.226214e-07 -5.6142057e-06 4.0858632e-07
1.9752913e-06 -6.0295906e-07 4.2891597e-06 1.1379093e-06 1.6914737e-07 1.19389915e-05 6.9873895e-06 -4.704672e-06
-2.8880816e-06 4.0394802e-06 1.3538611e-05 -1.3237611e-06 1.5254635e-05 2.4538272e-06 2.6764153e-06 -2.2388747e-07
-7.3895326e-06 2.4159076e-06 -8.893507e-06 1.7308661e-05 -3.7701782e-05 1.2048292e-05 5.011103e-07 3.7923794e-05
1.4016699e-05 2.9709056e-06 1.6095664e-05 1.457975e-06 7.391435e-06 1.1508704e-06 1.1614326e-05 -8.831446e-06
-1.4326331e-06 1.4004694e-05 -2.1548572e-05 5.391785e-06 1.3968063e-05 -6.403803e-06 -8.013038e-06 -2.0740528e-05
-3.93948e-06 -4.854135e-06 3.7570294e-06 -6.9681773e-06 7.0455744e-06 6.4415644e-07 5.8547266e-06 5.87954e-06
1.1512866e-05 1.32817695e-05 -6.9916487e-06 -8.597866e-06 -2.8438715e-06 -7.579745e-07 -1.7060298e-05 1.0451918e-05
1.3327096e-06 -1.2567506e-05 -3.264519e-06 9.528249e-07 -1.316989e-05 3.4216885e-06 2.341132e-06 4.3620585e-06
1.0515289e-06 -1.3115109e-06 3.0904687e-06 8.076045e-06 -7.372538e-06 -1.056192e-05 -1.5417214e-05 2.1674656e-05
-5.500067e-06 -6.1941887e-06 -8.473002e-06 7.293553e-06 -1.6610737e-05 3.9767197e-06 -7.2064263e-06 -6.153098e-06
1.3194509e-06 5.5585515e-06 1.0412625e-05 -4.0101886e-06 8.090975e-06 2.5300045e-05 -4.9128757e-06 -4.482108e-06
3.6581077e-06 3.8710946e-06 9.166098e-08 2.3809416e-06 -3.5294645e-06 1.8274577e-06 -1.715894e-05 -3.4385312e-06
4.6660166e-06 -6.4213523e-06 -1.7526983e-05 -1.1899167e-05 -1.2765963e-06 -9.923065e-06 3.0073284e-06 -7.607926e-06
-6.516444e-06 3.275326e-06 -1.3159187e-05 -1.440591e-05 -8.848216e-07 -6.7812783e-07 3.5475885e-05 -2.9836945e-06
5.7177867e-06 -1.828826e-05 4.3545792e-06 8.057384e-06 -3.6789282e-07 5.161351e-06 -6.514997e-06 2.7154858e-05

bn1.weight f4 [256]
00000000: ba7b 783f 4419 763f 5742 753f c2bc 823f
00000010: 4bb5 693f 0da6 773f dac4 693f 0e44 783f
00000020: 8f43 793f 6064 733f 454f 693f c8f3 713f
00000030: 9897 7d3f 1823 763f f823 793f 8f62 763f
00000040: ca79 6c3f 9494 6b3f 2600 743f 74d0 6e3f
00000050: a854 6b3f 9adf 773f dd8f 643f 9c28 6c3f
00000060: 77bb 6d3f 23ae 773f 7eed 723f 14d3 763f
00000070: 4ac1 6e3f 39aa 6f3f 8a64 773f ffab 843f
00000080: fc51 7a3f 0fda 703f affa 773f ba6e 703f
00000090: e4c4 6e3f 707c 703f 58ce 7c3f 3b35 6a3f
000000a0: 26c9 703f 97e3 803f 0ea4 603f 37c3 6f3f
000000b0: 9c62 6f3f 38ed 803f 36a3 713f 1e3f 853f
000000c0: 4fb4 713f 81c1 7e3f a048 6f3f 3f5d 733f
000000d0: 3b33 803f 9642 793f f6b0 7b3f 86c3 793f
000000e0: 3295 6c3f 7279 753f b761 6f3f 5f88 773f
000000f0: 51af 683f c67f 743f 136b 6d3f e278 683f
00000100: 667e 673f 276b 733f 2685 683f e2f0 6f3f
00000110: 2012 673f d07b 663f 3ae5 7b3f 8f13 733f
00000120: 0f9b 753f 2a7d 833f 5b47 7d3f fa02 7f3f
00000130: d5bd 773f 4a96 693f 0e74 633f ec88 743f
00000140: 3016 6f3f 6f8d 713f a512 773f a5a5 693f
00000150: 2f0c 7b3f ba25 713f a22a 6e3f 4014 6a3f
00000160: ae20 743f ec3b 773f 2aee 7c3f 4548 793f
00000170: 0a9f 783f 1859 6d3f d35b 7b3f 760d 6e3f
00000180: 4973 803f 44cf 713f 1f1d 753f 5619 7a3f
00000190: 5409 723f e6a7 7a3f ea09 833f 4523 793f
000001a0: 69d4 7e3f 0711 6f3f 6cc3 7c3f a0b7 7b3f
000001b0: 9e64 5c3f 3e74 613f d9dd 6f3f 24ba 753f
000001c0: f935 763f 13c9 733f 1363 7a3f c762 6d3f
000001d0: 9a9f 773f a2a1 703f 72e4 743f 6cc4 753f
000001e0: 9ba1 6b3f 27e4 6e3f 9a3a 763f f53d 703f
000001f0: 5e61 743f fefe 723f 6e80 683f 9c0e 713f
00000200: ec5d 833f 76a9 693f 444b 6b3f d6e8 7c3f
00000210: 26e7 6c3f 14bd 803f fee7 713f 39a5 743f
00000220: e3b9 713f 37f9 773f 35f0 773f 7c24 783f
00000230: decf 693f 9d2f 763f 38d7 823f 8c1b 743f
00000240: 57ae 693f 4f96 7b3f 5ed2 6a3f 16fa 743f
00000250: 4aeb 723f d998 6a3f 5932 693f 45f4 703f
00000260: 5fdf 6e3f cfdd 773f c1ef 773f f25e 733f
00000270: 687e 823f 0fb5 803f 9d4a 7e3f dfd6 7a3f
00000280: 28fb 873f afea 6a3f cf65 733f de51 763f
00000290: cc56 723f b860 7e3f d2b5 5c3f e90e 803f
000002a0: d9c1 6d3f 9eaf 743f 304c 733f 655a 723f
000002b0: 2995 793f 7286 7a3f cac4 623f f1c4 823f
000002c0: a7c3 833f 0776 703f 564f 843f eeee 643f
000002d0: 2ea9 7e3f a6e3 663f 683a 723f 1f8c 633f
000002e0: d030 7c3f 2890 693f 06c4 7a3f fe60 7e3f
000002f0: 88ab 703f 2866 6e3f bf13 803f 8c6c 723f
00000300: b9df 733f 4fcb 753f 546b 803f 8706 6f3f
00000310: 402f 863f 2cb2 723f 1698 813f 5720 743f
00000320: 9eec 833f b9a2 733f 3daf 643f 860b 773f
00000330: 3b9f 6a3f f4b3 703f 6e52 793f 7c1e 833f
00000340: 26bf 783f 564c 6c3f 1f84 7e3f 044d 6b3f
00000350: 5312 6d3f cdd7 7c3f 6729 713f 5082 663f
00000360: 6cf2 673f f2be 783f bb8c 7f3f 4a9b 653f
00000370: 9094 7c3f 5666 733f 16e9 683f 40e3 643f
00000380: f8a6 783f 1dce 673f a8b7 6c3f 05c6 633f
00000390: a666 7a3f e195 7e3f 08f7 6d3f 08a6 713f
000003a0: 92d3 663f 97fa 793f 5ae3 6e3f 69a8 7f3f
000003b0: 9569 7d3f de05 6c3f 0836 783f 1aff 743f
000003c0: 29ea 7d3f 126a 803f 8678 6e3f 324e 783f
000003d0: 7d93 753f f97d 763f 4136 7d3f cb17 6a3f
000003e0: b909 803f 2ab5 793f ccee 663f 6846 773f
000003f0: f540 763f 4a73 753f 40c1 673f 9e33 733f
0.9706379 0.961323 0.9580435 1.0213854 0.91292256 0.9673775 0.91315997 0.96978843
0.9736871 0.95075035 0.9113658 0.94512606 0.9905944 0.961473 0.9732051 0.9624414
0.92373335 0.9202359 0.95312726 0.93286824 0.9192605 0.96825564 0.8928202 0.92249465
0.92864174 0.96750087 0.94893634 0.9641583 0.93263686 0.93619114 0.96637785 1.0364989
0.9778135 0.9408273 0.9686689 0.93918955 0.9326918 0.93939877 0.98752356 0.91487473
0.9405693 1.0069455 0.8775033 0.9365725 0.9350984 1.0072393 0.94389665 1.0409887
0.94415754 0.99514014 0.9347019 0.9506416 1.0015634 0.9736723 0.98316896 0.9756397
0.92415154 0.95888436 0.93508476 0.9669246 0.9089251 0.95507467 0.9274151 0.9080945
0.90427244 0.95085377 0.9082817 0.93726933 0.9026203 0.9003267 0.98396647 0.9495172
0.95939726 1.0272572 0.98937005 0.99613917 0.96774036 0.9124495 0.8884896 0.95521426
0.9339323 0.94356436 0.96512824 0.9126838 0.98065466 0.9419819 0.930338 0.9143715
0.95362365 0.9657581 0.9880091 0.973759 0.97117674 0.9271407 0.9818699 0.9298929
1.0035182 0.9445689 0.9574756 0.9769491 0.94545484 0.9791244 1.02374 0.9731944
0.9954286 0.93385357 0.9873569 0.98327065 0.8609103 0.88067997 0.9369789 0.95987153
0.96176106 0.9522869 0.97807425 0.9272885 0.9672791 0.9399663 0.9566108 0.9600284
0.92043465 0.9331688 0.9618317 0.9384454 0.9546107 0.9492034 0.9082097 0.9416292
1.0263038 0.912742 0.9191172 0.9879278 0.92540205 1.0057702 0.94494617 0.9556461
0.94424266 0.96864647 0.968509 0.9693067 0.91332805 0.961664 1.022193 0.95354533
0.91281646 0.9827623 0.91727245 0.956941 0.9489027 0.91639477 0.9109245 0.94122726
0.9330959 0.9682283 0.9685021 0.9506675 1.0194826 1.0055255 0.993326 0.9798412
1.0623522 0.9176435 0.9507722 0.9621867 0.9466369 0.9936633 0.86214936 1.000455
0.92873913 0.9558047 0.9503813 0.9466918 0.97493225 0.978614 0.88581526 1.0216352
1.0294083 0.93930095 1.0336711 0.8942708 0.994769 0.90191114 0.9462037 0.8888568
0.9851198 0.9123559 0.9795536 0.9936675 0.94011736 0.9312463 1.0006026 0.9469688
0.9526325 0.9601335 1.0032754 0.93369335 1.048317 0.9480312 1.0124538 0.95361847
1.0306585 0.9517017 0.8932989 0.9650196 0.91649216 0.94024587 0.973914 1.0243678
0.9716667 0.9230398 0.9942035 0.9191439 0.92606086 0.98766786 0.942038 0.9004259
0.9060428 0.9716636 0.9982411 0.8969008 0.9866419 0.9507803 0.9098066 0.89409256
0.97129774 0.9054888 0.9246774 0.8897403 0.9781288 0.9944745 0.92955065 0.9439397
0.9016658 0.97647995 0.9331566 0.9986635 0.9898923 0.9219645 0.96957445 0.95701754
0.99185425 1.003237 0.93152654 0.96994317 0.95928174 0.9628597 0.9891091 0.91442555
1.0002967 0.9754206 0.90208125 0.96591806 0.96192867 0.9587904 0.9052925 0.95000637

bn1.bias f4 [256]
00000000: 54ca 05bd 31c3 01be ca03 923c 1c6c 4ebd
00000010: 58a5 fcbd c5b9 67bd 53c5 c7bd 5e12 0fbd
00000020: 8d6c f6bd e057 01be 8d04 38be 98ab 0abe
00000030: eabf c43c 1874 24bd 0c02 aabd 0b86 b7bd
00000040: 1923 d6bd 5e51 e7bd 2edb d0bd d3a5 a9bd
00000050: d2ee c3bd 3034 80bd 958e e5bd c3d7 44bd
00000060: 24df 7abd 8e83 65bd b226 1bbe 5d26 c7bd
00000070: f6df aabd 3670 05be 98cf c33a 2208 9abd
00000080: c541 15be 8264 b4bd 92f8 17bc d3c5 8fbd
00000090: 4c2c e2bd 2496 15bd 4960 4cbe 30fd 09be
000000a0: ce49 f2bd 4d40 8dbd 520f 30bd 628f 8dbd
000000b0: 7221 1cbd 26b6 83be 9cfb d3bd 9daa f3bc
000000c0: 56bb a1bd 6f00 5cbd 79f1 90bd 26ab 09be
000000d0: 1fe1 c3bd 95e9 1dbd dff0 4ebe 11f1 51bc
000000e0: 71a7 abbd 0a56 b1bd f8f6 cfbd 48be 2cbc
000000f0: b3f8 03be 90dd 21be ca0b d7bd 73c9 04be
00000100: 84b2 a3bd 9e8b aabd ed95 23be 1e71 f0bd
00000110: 6692 c0bd 5af6 8fbd 77be 1abd d5e3 f9bd
00000120: 54e0 ecbd fe72 61bd fe1b 06be 8f20 9ebd
00000130: cdbf 04bd b631 8fbd 089f b2bd 361e 9fbd
00000140: 1a8e a5bd 5083 97bd 15dc 8dbd 2db5 c4bd
00000150: 4e75 e3bd e4bb 14be a5e2 98bd f074 7fbd
00000160: 7df5 b8bd d5f1 eeba dd60 cfbd c5b0 c9bd
00000170: f24f 5fbd 2ac9 a2bd b6f5 9abd b73e c2bd
00000180: dcd6 76bd 2cab fbbd 7e9b 24bd 9da2 3ebd
00000190: a2b4 c5bd 597b c9bd 1352 4abd 8fc9 e2bd
000001a0: 486d 1fbe 4fb4 e3bc 568b 4a3b 0a30 41bd
000001b0: 4c5c fdbd 7ef7 b1bd cd7f b0bd 68e5 86bd
000001c0: 14a4 96bd 1f60 b1bd 29f8 88bd cf2c 8ebd
000001d0: cc64 c1bd 4ae0 d3bd 84a3 66bd a803 6abd
000001e0: 8a6b 10be ceb2 edbd cd6e 11be 4264 a7bd
000001f0: b350 fbbd 4f6f 8dbd aab9 f8bd 1bff abbc
00000200: c24e f6bc 8079 eebd 1679 adbd 0405 11be
00000210: 3a65 9ebd a0f9 0dbd 7f45 08be 755c 9abd
00000220: bae7 d0bd 35fa ddbd cef5 78bd cccd 0bbd
00000230: 5e3c 7cbd 4dcc 41be 31d2 b0bd 7f95 eebd
00000240: 8c2e efbd b0df bfbd 8a5a cebd 23af 20be
00000250: c19a ffbd eecf debd 715f 0dbe 0721 47be
00000260: 9dbb 89bd f87a 5bbd ec08 1cbd 13be 30bd
00000270: 90a8 9bbd e7ee 31bd 4b94 b8bd 2c02 d3bd
00000280: a5a8 f0bd 1ded 91bd b6bc dabc a037 8ebe
00000290: 881b 11be 83ec e0bc 5fcf 87bd 7501 b8bd
000002a0: 4727 97bd 09d8 8dbd facd 96bc e2ef b4bd
000002b0: adb3 96bd 920b 2dbd d312 c0bd caeb 0ebd
000002c0: f3a0 83bd 95b8 973a dd9b 17be d856 70bd
000002d0: 0320 9dbd 889a 98bd 7e45 15be 7cc1 3dbe
000002e0: a5c8 8ebd 3d7c 00be ee84 debc cb17 a9bd
000002f0: eb81 41bd 05bf c8bd a5ec 73bd 032c aebd
00000300: 6899 61bd a341 16be 5258 90bd 0fbf 79bd
00000310: 638e e8bb 3fc1 06bd b240 02bd 250f ddbc
00000320: 148b 26be f661 3d3b ea9b 4dbd 1ea9 19be
00000330: 654e e6bd 124b 83bd b4ed b2bd 1945 21be
00000340: a8af bcbd 945a bdbd f8bd dcbd fd10 31bd
00000350: f681 4abd 162d 28be 3689 7bbd 31ad 96bd
00000360: dc8c 4bbd af40 1abd 6940 12be 7576 fbbd
00000370: 3cdd 62bc 775c 30bd df75 c5bd 8c52 dfbd
00000380: eea5 28be d5f8 53bd 0cde 72bd 0c04 00be
00000390: b9f4 04be c695 29bd 47c1 a3bd eec2 b7bd
000003a0: 9de8 a2bd ec3d 22bc 11ed 92bd 28d7 cbbc
000003b0: a8e9 a4bd cae5 3ebd e7a9 c5bd c28a 8cbd
000003c0: 08b3 a4bd afcc 4abd 9d0c 16bd 4fdf ebbd
000003d0: 4e53 a1bd 673c 0cbe b58a c6bd a38e dabd
000003e0: 46c9 b0bd d0fe c8bc ab76 89bd 85fc a4bd
000003f0: 2609 e9bd 9373 a9bd 65e8 27bc 5fdd debd
-0.03266366 -0.12672116 0.017824072 -0.05039607 -0.12336224 -0.056573648 -0.097544335 -0.034929626
-0.12032423 -0.12631178 -0.17970486 -0.1354202 0.024017293 -0.040149778 -0.08301172 -0.089611135
-0.10455913 -0.112948164 -0.10198055 -0.082835816 -0.09567036 -0.06259954 -0.11208836 -0.04805733
-0.06124796 -0.056033663 -0.1515148 -0.09724114 -0.083434984 -0.13031086 0.0014939187 -0.075210825
-0.1457587 -0.08808233 -0.009275572 -0.07020154 -0.11043605 -0.03652014 -0.19958605 -0.1347549
-0.118304834 -0.0689703 -0.04298336 -0.06912114 -0.038117833 -0.25724906 -0.10350725 -0.02974444
-0.078970596 -0.05371135 -0.07077307 -0.13444194 -0.09564423 -0.03855284 -0.20209073 -0.012813822
-0.08381546 -0.08658989 -0.101545274 -0.010543413 -0.1288784 -0.15807176 -0.105002955 -0.12967472
-0.079930335 -0.08327411 -0.15975161 -0.117403254 -0.09402923 -0.0702941 -0.037779298 -0.12201659
-0.11566225 -0.055041306 -0.13096616 -0.07721054 -0.032409478 -0.069919035 -0.08721739 -0.07769434
-0.08083744 -0.07398093 -0.06926743 -0.09604869 -0.111063585 -0.145248 -0.07465104 -0.06236738
-0.09031198 -0.001823003 -0.10125897 -0.09848169 -0.0545196 -0.07948525 -0.07566397 -0.09484618
-0.0602635 -0.12288508 -0.04018735 -0.0465418 -0.096535936 -0.0983798 -0.04939468 -0.110736005
-0.15569031 -0.027795939 0.0030905805 -0.047164954 -0.1237112 -0.086897835 -0.08618126 -0.065867245
-0.07355514 -0.08660912 -0.06687958 -0.0694214 -0.094430536 -0.10345514 -0.056308284 -0.057132393
-0.14103523 -0.1160637 -0.14202423 -0.081734195 -0.122712515 -0.06905996 -0.121447876 -0.020995667
-0.030066852 -0.11644268 -0.08470361 -0.1416207 -0.07734151 -0.03466189 -0.1330776 -0.07537166
-0.10200448 -0.10838739 -0.060781293 -0.03413181 -0.061581008 -0.18925591 -0.08633841 -0.11649608
-0.116788 -0.09368837 -0.10075863 -0.1569181 -0.12480689 -0.10879503 -0.1380594 -0.19446193
-0.067252375 -0.05358407 -0.038094446 -0.04315002 -0.0760051 -0.043440726 -0.0901266 -0.103031486
-0.117509164 -0.07125304 -0.026701313 -0.27776814 -0.14170659 -0.027456528 -0.0663135 -0.08984653
-0.073805384 -0.06925971 -0.018408764 -0.088348165 -0.07358489 -0.042247362 -0.093785904 -0.034892835
-0.06427183 0.0011575395 -0.14805551 -0.05867657 -0.076721214 -0.074513495 -0.1457729 -0.1853084
-0.06971864 -0.12547393 -0.027162995 -0.08256491 -0.04724304 -0.09802059 -0.059551854 -0.08504488
-0.05507794 -0.14673476 -0.07048096 -0.060973223 -0.007097052 -0.032899138 -0.03179998 -0.02698476
-0.16263992 0.00288975 -0.05019752 -0.1500592 -0.11245421 -0.06410803 -0.087367445 -0.15749015
-0.09213191 -0.09245792 -0.10778421 -0.043229092 -0.049440347 -0.16423449 -0.06141015 -0.073572524
-0.04969488 -0.037659343 -0.14282383 -0.12278453 -0.013846692 -0.04305693 -0.09641623 -0.109044164
-0.16469547 -0.051750977 -0.05929379 -0.12501544 -0.1298398 -0.0414026 -0.07995849 -0.08972727
-0.07954524 -0.009902459 -0.07174123 -0.024882868 -0.08052379 -0.046605863 -0.09651547 -0.068624035
-0.0804196 -0.049511608 -0.036633123 -0.11517202 -0.07877217 -0.13694917 -0.09694425 -0.10671737
-0.0863214 -0.024535567 -0.06712087 -0.08055977 -0.11378698 -0.08273997 -0.010248278 -0.10882067

bn1.running_mean f4 [256]
00000000: 408c aa3c 1074 ba3a fadb c9bc d0ec a33c
00000010: 6293 0d3b 8325 a43c 6a23 3a3d d938 84bc
00000020: dbb4 82bb f1f4 e53b a97f 723c d6ee 973c
00000030: e635 04bd 8834 2fbb d395 90bc aadb 693b
00000040: 2ea0 cbbb bcbe b93c f05b 483c 2859 2e3b
00000050: 32a0 bf3c 9dfe 60bc 66c5 ff3b 505f 18bc
00000060: de5d d8bc cbbb b1bc 60c5 5c3c 006c 2c37
00000070: cd15 013d 5189 183c d801 453d b24f 683c
00000080: 0ae6 cb3c e469 8f3c b51e 2d3c 94e8 28bb
00000090: 7ccf 223b 68e0 36b9 5863 7fbb 32fd da3c
000000a0: 37d3 24bc d094 afba e86c 553b 9f33 56bc
000000b0: e6c2 873c 0592 73bc 1495 7c3c d6a0 153c
000000c0: 0f0e c33c 74c5 2e3c 9487 92bc fc63 e53b
000000d0: 8e95 ae3b 0018 fc3a b78a f03c 38b9 fdbc
000000e0: b6be 4ebc 702b cc3a 96ed f73b 30ff e0bb
000000f0: 2d37 423c 337a edbb 7cd3 053c c4d6 72bc
00000100: bad0 ed3c e440 c03b 5023 6e3b 963d b63c
00000110: 58e9 c8ba 2770 783c ce6d c83c 43b1 59bc
00000120: 88a0 45bc aaa0 93bb 4646 a73c 7840 3a3b
00000130: 1001 cf3a 7026 c7ba 3fa3 30bc 7029 99bc
00000140: 4024 f83b 2c4e 5dbb ebb1 f9bc 50c2 343c
00000150: 7a1c 903c 801d 7b3b baff 583c 9043 1ebc
00000160: 7112 9c3c c984 9fbc 2e1f bfbc 601a eaba
00000170: 97a1 b43c f69c b2bc 6e55 10bc 5418 53bc
00000180: a3ae 85bb e1d9 0dbc 6d9a 153c 7a3e 483c
00000190: e6dd 783c f2da ddbb 1810 6cbb 1449 ed3b
000001a0: 0f00 c03c f07e 72b9 a67d 823b 3e1d 9e3b
000001b0: 2ee2 003b 7cda 69bc 9065 9d3b 53f8 8f3b
000001c0: b9c0 26bd 94bf cbba 4805 cfbc 390b 293c
000001d0: 4e98 a6bb c62d 003d dd03 1b3c 501c f5bb
000001e0: a2cf ecbb 2860 2ebc 5ce1 a63b cf47 e4ba
000001f0: c5ce b63c 4498 fd3b a637 9cbc 845d cfbc
00000200: bbe9 41bc 180d 9b3a a83b d63b 0022 4e39
00000210: e639 b2bb 6510 d2bc 8bb6 f23b b025 7a3a
00000220: f2ee e83b 36c4 9cbb aab9 043d bb22 cebc
00000230: 0031 af39 5274 cc3b 5a0e 323c 9d33 e6bc
00000240: 1831 a73b 4417 95bc ee0d 10bb c0e6 21bc
00000250: 34e0 f13c 0eb9 fc3b 6b32 edbc 08b1 54bb
00000260: 4bce 003b ba42 b93b 24fd 2d3c 935f c53c
00000270: 0642 fe3b 32d3 07bc 766f cebc 0af2 32bc
00000280: 5452 f03c 6cb8 bfbc 78ce 9d3c 8e61 cebb
00000290: a0e1 8f3b 484d d23b a851 cdbb 8fcc afbc
000002a0: fd28 83bb 54ab 063d e8b1 e43c f41c a23b
000002b0: a6d1 5b3c ca61 7fbc d9ea 1a3b 3842 903c
000002c0: adf8 8ebc 19e9 233c f366 fabc 105f 1ebd
000002d0: f0fa 89bb 130a 47bc 80d3 c2bc 1027 883c
000002e0: 0f57 3e3b 306f 6e3b 20ff 9eba 743f 7bbc
000002f0: bc4b 353c 56bd e8bc b652 383c e092 16bb
00000300: e003 763b 4cc5 b73b 3398 7ebc f7e6 9bbc
00000310: 9881 b8bb 8ca0 bf3b 66c0 2bbc 0803 12bc
00000320: c1d8 bd3c abc5 c5bb 01b8 e0bc 9439 b4bb
00000330: 48be 46bc 10c8 f1bc 582b eebb 0d30 27bc
00000340: 92a6 e13c 20c1 c1b9 bc7f 073b 0010 b8bc
00000350: eea7 853b 3728 163c c02d ccbb 6c6b 363c
00000360: 9173 a7bc f701 403d d104 43bc 72da ba3c
00000370: 6e2b 96bb e866 c8bb a270 bc3b 168b c33b
00000380: 18ec aa3b 530d dd3c a414 87bb 5318 033d
00000390: cc24 39bc 57ab b53c e556 973c 7525 cabb
000003a0: 667a 52bb f673 e3bc e0ab 70bb 8ce6 89bc
000003b0: 029d 06bc ce5e d83c f07a 253c a258 ffbb
000003c0: dc33 01bc d55b 90bc e037 3c3c ce88 dfbb
000003d0: 777d e63c d87c 70bc 92c6 d7bc 24dc 9dbc
000003e0: 66dd b4bc a0ab 9cbc d016 1a3c d47c 7abc
000003f0: ffea 223c cc2f 3c3b da2e f2bb 4c25 46bc
0.02081883 0.0014225263 -0.024641026 0.020010382 0.002160274 0.020037418 0.04544393 -0.016140388
-0.003988845 0.0070177247 0.014800944 0.018546503 -0.032277964 -0.0026734192 -0.017649567 0.0035683908
-0.0062141633 0.022673957 0.012228951 0.0026603434 0.023391817 -0.01373258 0.007805514 -0.009300068
-0.026411947 -0.021695992 0.013474792 1.0277145e-05 0.03151493 0.0093100825 0.04809746 0.014179157
0.024889965 0.017506547 0.010566403 -0.0025773393 0.0024842909 -0.0001744047 -0.0038969126 0.026732061
-0.010060123 -0.001339579 0.0032566134 -0.013073831 0.016572427 -0.014866357 0.015416402 0.009132585
0.023810415 0.010667194 -0.017886914 0.0070004445 0.005327887 0.0019233227 0.02936302 -0.030972108
-0.012618711 0.001557691 0.0075661642 -0.006866358 0.011853975 -0.0072472333 0.008168098 -0.014821712
0.029030193 0.0058671106 0.0036336966 0.022246163 -0.0015328331 0.015163458 0.024466421 -0.013286891
-0.012062199 -0.0045052366 0.020419251 0.0028419774 0.0015793163 -0.001519395 -0.010781108 -0.018696517
0.0075726807 -0.0033768518 -0.030480346 0.011032656 0.017591704 0.0038317144 0.013244564 -0.009659663
0.019051762 -0.019472497 -0.023330297 -0.0017860644 0.022049708 -0.02180336 -0.0088094305 -0.012884218
-0.004079656 -0.008657903 0.009131056 0.012221927 0.015189623 -0.006770485 -0.0036020335 0.0072413776
0.023437528 -0.00023126206 0.0039822636 0.0048252633 0.0019666064 -0.014273282 0.004803367 0.004393616
-0.04071114 -0.0015544766 -0.025271073 0.010317617 -0.005084074 0.031293653 0.00946137 -0.0074801818
-0.0072269 -0.010643043 0.005092783 -0.001741642 0.022315392 0.0077390987 -0.019069504 -0.025313146
-0.011835511 0.0011829464 0.0065378733 0.00019658357 -0.005439031 -0.025642583 0.0074070147 0.0009542359
0.0071085626 -0.0047841324 0.032403626 -0.025163045 0.0003341511 0.0062394524 0.0108676795 -0.028100783
0.005102288 -0.01819957 -0.002198096 -0.009881675 0.029525854 0.00771249 -0.028954705 -0.0032454152
0.001965421 0.0056537064 0.010619435 0.024093425 0.0077593355 -0.008290099 -0.025199633 -0.010921964
0.029336132 -0.023403369 0.019263491 -0.0062982505 0.0043909103 0.006417904 -0.0062658377 -0.021459846
-0.004002689 0.032878235 0.027916864 0.004947299 0.013416683 -0.01558728 0.0023638515 0.0176097
-0.017452562 0.010004305 -0.030566668 -0.038664877 -0.0042108223 -0.012148398 -0.023782492 0.016620189
0.002904359 0.003638219 -0.0012130477 -0.015334953 0.01106542 -0.028410595 0.011250189 -0.0022975728
0.003753893 0.0056082364 -0.015539217 -0.019031031 -0.005630683 0.005847996 -0.010482883 -0.0089118555
0.023174645 -0.0060355267 -0.02743149 -0.005500028 -0.0121303275 -0.029514343 -0.0072683506 -0.010204327
0.027545247 -0.00036955718 0.00206755 -0.022468567 0.0040788567 0.009164861 -0.0062310398 0.01113401
-0.020440849 0.046876874 -0.011903004 0.022809241 -0.004582814 -0.006115783 0.0057507316 0.005967508
0.005216133 0.026983893 -0.0041223336 0.03200562 -0.011300277 0.022176428 0.018474052 -0.006169016
-0.0032116412 -0.027765255 -0.003672354 -0.016833566 -0.0082161445 0.026412394 0.010100111 -0.0077925483
-0.007885899 -0.017621914 0.011487931 -0.0068217283 0.028135998 -0.014678203 -0.026339803 -0.01927001
-0.022078227 -0.019124806 0.009404853 -0.01528855 0.009943723 0.0028715013 -0.007390839 -0.012093853

bn1.running_var f4 [256]
00000000: 3484 053e 748d d63d 5075 b03d 5680 153e
00000010: b3a3 a03d c477 b73d 508d df3d 1c0c b73d
00000020: 06e1 d83d 2687 bb3d a667 be3d acdd c63d
00000030: 5f82 043e b604 823e cda2 0e3e e6fb da3d
00000040: e9d5 a33d d6ed 0d3e 1eb4 9c3d 4ca6 cf3d
00000050: 329a 0d3e 5e4d 0e3e ad3a c03d 3f42 fd3d
00000060: 1461 ad3d 9661 bb3d 35f5 aa3d 08c1 d43d
00000070: 870e f63d a0cc de3d 209f f23d 2fcf 723d
00000080: c522 b63d e664 c63d e65e 563e 74ff cc3d
00000090: 60e5 d13d 76b7 ca3d f9f7 9c3d 883e 483e
000000a0: c325 e13d 6878 b43d 6e9a 0a3e 56e2 8a3d
000000b0: 8d28 d53d 66a5 ec3d 4ab6 ab3d 9c9e 023e
000000c0: 4b0f d33d 2526 483e 8c95 ea3d 9fb7 de3d
000000d0: d8ed b63d 6d6c 053e 17c7 a33d f09f d13d
000000e0: 6ca9 163e 95e0 463e 86ad e83d 7889 a33d
000000f0: 3496 003e b3cb 863d aca6 073e c0fb 1a3e
00000100: 6ff7 813d e047 be3d 0225 a03d 2d9b ac3d
00000110: 2aaa a63d 339c cf3d 9d87 0c3e 66a8 583d
00000120: dc73 033e f798 c73d d8f7 ed3d e8cb 6f3e
00000130: 3d56 033e e620 0c3e 25b8 ca3d 559a 213e
00000140: 5943 123e 63c3 c63d c6bf f53d 5ac3 8f3d
00000150: 8ad9 a63d 5cc2 d53d e291 223e 1c7d 8e3d
00000160: 178b c23d fabe a53d 4e59 c63d a27b c73d
00000170: f6d0 013e c832 b03d 1d18 233e ae5e f73d
00000180: 7fd2 c43d 6f6b 263e 90cf b73d ece7 0e3e
00000190: 99ed fc3d 488b 123e 2834 ec3d 8a2d 0b3e
000001a0: a0e4 9f3d e297 6c3d 40f2 9c3d cc65 5c3e
000001b0: b55d 193e c6f5 713d 05a8 023e ef3a ef3d
000001c0: 3c48 293e 530a ef3d a273 b83d 810e e63d
000001d0: 57e5 063e 2d3e 973d 38b0 3d3e 4884 fa3d
000001e0: 39c2 a83d 8413 c33d 2155 ad3d d89a a93d
000001f0: 0c3b d23d e427 a73d 78cd b73d 26ad a63d
00000200: 722e 623d 5fe4 133e 5b97 883d 17b1 273e
00000210: cf6c c23d 3f79 003e 0cfa a63d bd6d 093e
00000220: 43c1 cf3d 12c5 803d 8827 113e b70b fc3d
00000230: fb8c e83d 0d72 973d cc1f 353e 2dc1 ff3d
00000240: 0fad 2b3e 4135 bc3d 18e8 883d c539 263e
00000250: 6f8e 313e 6cc5 eb3d c278 0d3e 3a01 b53d
00000260: b974 a03d 084c 623e 3c3f dc3d 2aab a33d
00000270: c65f b63d e979 6e3d c5eb fe3d 28b9 363e
00000280: c288 e53d f7f4 323e c53d 893d ae8d a03d
00000290: f079 793d 0e87 033e e478 cb3d ffd2 173e
000002a0: a395 0a3e c4a4 303e 95f5 243e 00e7 403e
000002b0: 449a 313e f610 053e 821b 973d 8cf7 b93d
000002c0: 8f7c d23d fc9d ef3d eacb 913d 5b5c f33d
000002d0: b810 fb3d a334 163e 7c8d 9b3d 6812 d93d
000002e0: 62c5 253e 5c73 053e cdbc 363e 9f60 923d
000002f0: c159 033e 13ed c93d 3c6d df3d 9656 b13d
00000300: 5b5a e13d 2401 3d3e 4dad c13d c139 353e
00000310: aeea 313e c6ba c23d 1248 1d3e ac68 673d
00000320: 4754 b33d 29f1 fd3d b022 0e3e 9eb2 743d
00000330: a052 953e fa70 0f3e decc b73d ef19 da3d
00000340: defd 603e 36c9 bf3d 4ba1 1d3e 566c cb3d
00000350: 7101 a03d 263e f13d d01f 103e 56c2 0b3e
00000360: 5320 ab3d 2c9d ce3d 32f2 b83d fd27 e43d
00000370: 77e8 ca3d bbda 773d c293 033e 7dea 203e
00000380: 6486 6f3e 8ad6 f73d 2995 da3d 69e0 163e
00000390: 76b7 943d e058 bc3d a47e ad3d a4d2 f33d
000003a0: 6b92 1a3e 0e3e 083e d933 183e 4e48 d33d
000003b0: 7215 083e fea4 cb3d c48e a73d a85b f83d
000003c0: 88a7 e23d 8676 5e3e 2e22 063e df39 bd3d
000003d0: b95a 2b3e 0e68 f33d e9c8 053e fa16 1e3e
000003e0: 32bf db3d c837 8f3d a4e5 ff3d 777e 503e
000003f0: 9a87 3e3e 341c ff3d d4d2 203e 3289 a43d
0.13038713 0.10476199 0.086161256 0.14599738 0.07843723 0.0895839 0.10915625 0.089378566
0.10589795 0.09156637 0.09297113 0.09710249 0.12940358 0.2539422 0.13929291 0.10692577
0.079997845 0.13860258 0.07651542 0.101391405 0.13828352 0.138967 0.093861915 0.12366151
0.08465782 0.091494724 0.08347551 0.1038838 0.120144896 0.10878873 0.11846757 0.059279617
0.088933505 0.096872136 0.20934638 0.10009661 0.10248828 0.09898274 0.076644845 0.19555104
0.109935306 0.08812028 0.13535473 0.067814514 0.10408125 0.11554985 0.08384378 0.12755817
0.10305651 0.19545801 0.11454305 0.10874867 0.08932084 0.13029642 0.07996958 0.10235584
0.14713067 0.19421609 0.11361222 0.079852045 0.12557298 0.06581821 0.13247174 0.15135098
0.06346022 0.09291053 0.07819559 0.08428035 0.08137925 0.101372145 0.13723607 0.052894972
0.12837166 0.097459726 0.11619538 0.23417628 0.12825866 0.13684425 0.09898404 0.15781529
0.14283504 0.09705236 0.119994685 0.07019682 0.08146961 0.10437462 0.15875962 0.069574565
0.094991855 0.080930665 0.09685002 0.09740378 0.12677369 0.08603436 0.15927167 0.120786056
0.096104614 0.1625192 0.08975136 0.13955659 0.12350006 0.14310944 0.115333855 0.1359159
0.07807279 0.057762034 0.07663393 0.21523207 0.14977153 0.05907228 0.12759407 0.116811626
0.16531461 0.11671891 0.0900643 0.11233235 0.13173424 0.07384906 0.18524253 0.12232262
0.0824017 0.09525207 0.08463503 0.08281487 0.102651685 0.081619054 0.08974737 0.08138494
0.055220075 0.14442585 0.06669494 0.16376148 0.0949341 0.12546252 0.081531614 0.13420768
0.101442836 0.06287588 0.14175236 0.12306922 0.11355015 0.073948 0.17687911 0.12488017
0.16765235 0.09189845 0.06684893 0.16232975 0.1733949 0.115122646 0.13815597 0.088381246
0.07834763 0.22099316 0.107542485 0.07991631 0.08904986 0.05822173 0.12447313 0.17844069
0.11207725 0.17476259 0.06701235 0.07839523 0.060907304 0.12844488 0.099351674 0.14826582
0.13533644 0.17250353 0.16109307 0.1883812 0.17344004 0.12994751 0.073782936 0.09080419
0.10277664 0.11700055 0.07118972 0.1188285 0.12259048 0.14668517 0.075953454 0.10599214
0.16188577 0.13032287 0.1784546 0.07147335 0.12827207 0.098596714 0.10909507 0.08659093
0.11003562 0.18457466 0.094568826 0.17697813 0.1737468 0.095082805 0.15359524 0.056496307
0.08756309 0.12399513 0.1388042 0.059740655 0.291646 0.14007941 0.08974622 0.10649478
0.21971843 0.0936455 0.1539356 0.09932773 0.07812775 0.11779432 0.14074636 0.13648352
0.08355775 0.10088572 0.0903057 0.1114044 0.099076204 0.060511332 0.12849334 0.1571445
0.2339111 0.12101467 0.10672981 0.14734043 0.07261555 0.09196639 0.084714204 0.11905411
0.15094917 0.13304922 0.14863528 0.103165254 0.1328943 0.09943579 0.08181527 0.12126857
0.1106711 0.217249 0.13098976 0.09239554 0.16733827 0.11885081 0.13064922 0.15438452
0.10729827 0.06993061 0.12494972 0.20360743 0.18606415 0.12456551 0.15705425 0.080339804

fc2.weight f4 [128, 256]
00000000: 93c5 2ebd 9098 bf3d 8daf 06bb 8fc7 673d
00000010: 8ebe 03bc f703 84bc c4f6 83bc 550c f5bc
00000020: 4f8e 42bc 127d 2abd deff 8fbd e220 27bd
00000030: 07ab 2a3d e23f 033d e482 183c 1bca 84bc
00000040: 66e8 543c e85a 3a3d d660 94bd 967e 093d
00000050: 9221 563d 1e88 85bd eafc fa3c 4055 e43c
00000060: 691c 333d 88f3 aa3c f4d3 b53c 49a3 823d
00000070: ba46 c93c 608d 5cbd 588f 7e3c 76e5 54bc
00000080: 8943 77bd 2149 94bd df1d 01bd 49e4 2bbd
00000090: 6ae9 9cbd 9ba9 663d 69f4 dd3c 6087 563d
000000a0: 5353 8c3c 5daa 0e3d 54b8 37bd 2495 86bd
000000b0: 9c6c 423c 9bee 04bd 2fba d63c 8986 b0bc
000000c0: d84b 80bd 2b80 26bd 6669 563d e7ed 0b3d
000000d0: 27d9 fb3a de3e 303d 9bfa 303c 43d3 853c
000000e0: 3c76 163c b5b4 17bd db30 3c3c 128e edbc
000000f0: 23e4 5c3d 0158 febc 5619 813a cd20 043c
00000100: 8808 78bd 3a50 a3bb def3 32bd 8918 d8bc
00000110: 707c 2c3b e8a3 d03c a28a 763d 6004 993b
00000120: 10d5 bf3b a464 4b3d 345f a4bc a442 4b3d
00000130: b68c bfbd 20f4 e03c 6a21 8cbc 753c 23bc
00000140: aad7 1ebd 6bb5 16bd ebe0 103d 9d1a 3cbd
00000150: 5e83 34b9 549f b1bb 0aa4 263d c104 49bb
00000160: d7cc a9bb b496 2a3d 2366 c5b9 ab93 093d
00000170: 280f 1fbc caa9 3d3c 010d 413d fe60 7fbc
00000180: f2ff 80bb 0b96 9fbc 7e9e 8639 8293 e2bc
00000190: 5f1a 223d 942b 50bd 5e15 783b 4457 28bc
000001a0: 910f 4cbd 7983 1abc f259 2a3c efb8 efbc
000001b0: 1538 1dbd 5b5f bebc d053 82bc 28e5 73bc
000001c0: a51b 21bb e8b3 163d bdcf 09bc dd88 6bbd
000001d0: ceef 02bd 67d9 63bd e5dd 9c3d e802 d4bc
000001e0: 8e88 0bbc a9f8 fb3b e1b3 f2bb ccf6 943b
000001f0: 7d62 903d 8ca7 42bc 121b ffba 3155 2abd
00000200: a0f4 30bd 89ca 75bd 1eb5 493b d4a7 07bd
00000210: 780c 923c 82d2 c0bc f67e 16bb 258c 243d
00000220: 50ff 7cbd 0fce 17bd fcfb 1d3d cdf4 60bd
00000230: e9c9 c73a d6b3 78bc 1367 3fbd 7bc4 31bd
00000240: 5251 fbbc 81c9 c9bc 249b 403d 7a06 633d
00000250: 14f4 803b 1dbe f23b a5d7 85bd 454b 4ebd
00000260: 25bd 3f3c 56fc b53c 0620 643d 6fc0 63bd
00000270: 3dec d63c 60c2 77bd 0a0b f7bc a1d8 383c
00000280: 618a 8a3b 41da 9f3c 12ab 583d 6e01 4cbc
00000290: ec4b 7d3c 1da0 c83c 7492 4abd 9780 12bd
000002a0: 4c5e 643d 193b 543d 083c f5bd 9e6b 3e3d
000002b0: 478b a03c b669 a2bc 907f 253d 0f8d 8ebd
000002c0: 25ea 403d 563c 323c dd45 b8bc 9823 733d
000002d0: d455 f33a b638 18bd a62d b7bc 98a4 ddbc
000002e0: 8aa0 a4bd adf4 9cbb c433 38bd 1667 a1bd
000002f0: 4891 4539 d038 a7bd 6a1f 54bb d286 abbc
00000300: b3f6 993c 6404 d1bc ce53 d43c e558 15bc
00000310: 5277 7c3d 8c13 a4bb 1e8c 3fbd 423e 203d
00000320: 0134 efba 215d 073d 0a0d 7cbd f01e 0bbd
00000330: 0364 8bbc 3e14 4c3d f4fb acbd 5e88 213d
00000340: 6cb5 ddbb 8c2c babc c6bc 40bd dbda d23d
00000350: 7b36 5cbc 044f b2bd 8bce 1ebd cfbe 0bbc
00000360: 8fb2 5bbd 5c9c bb3c 8060 bbbc 9837 44bd
00000370: f967 383d 2fc7 17bd bc0b dabc 6608 d0bb
00000380: 10de e2bc 04e1 6bbd f70f e6bc a589 3cbd
00000390: 2abc 2abc 6cce 773d 077e 64bd 4490 f73c
000003a0: edc7 17bd da08 f13b fb86 8bbd f504 133d
000003b0: 80e1 b4bd 141a 06bb fa08 88ba 2091 23bd
000003c0: 2f5e 43bd 9b39 153d 1007 fabc 5bc7 e8bc
000003d0: 4f09 f4bb 7317 1f3c 7947 b3bd 1227 94bd
000003e0: 5c67 e0bc e950 60bc b997 1abd d874 2d3c
000003f0: 2428 d4ba dd9e 76bb 52d4 09bd 4255 47bd
-0.04266889 0.09355271 -0.0020551414 0.0565868 -0.008041037 -0.016115172 -0.016108878 -0.029913107
-0.011874749 -0.041623183 -0.07031225 -0.040802844 0.04166701 0.032043345 0.0093085505 -0.016209653
0.012994861 0.04549685 -0.072450325 0.033567987 0.05227811 -0.06520103 0.030638177 0.027872682
0.043728266 0.020868078 0.022195794 0.063788004 0.024569858 -0.053845763 0.0155371055 -0.012994161
-0.06036714 -0.07240511 -0.031522628 -0.041965757 -0.07661708 0.056314092 0.027094083 0.052375197
0.017129576 0.03483044 -0.044853523 -0.06571415 0.011866715 -0.032454114 0.026211826 -0.021548526
-0.06264466 -0.040649574 0.05234661 0.03416243 0.0019214497 0.043028705 0.0108019365 0.016336089
0.009183463 -0.03703757 0.011486257 -0.028998408 0.053928506 -0.031047823 0.000984947 0.008064461
-0.06055501 -0.004983929 -0.0436896 -0.026378887 0.0026319288 0.025468782 0.060190804 0.004669711
0.0058542565 0.049656525 -0.020064928 0.0496241 -0.0935301 0.027460158 -0.017105777 -0.009963145
-0.038779892 -0.036794107 0.03537075 -0.045923818 -0.00017215076 -0.0054206047 0.040683784 -0.0030673
-0.0051818895 0.041647628 -0.00037650866 0.033588093 -0.009708203 0.011576125 0.047131542 -0.01558709
-0.003936761 -0.019480726 0.00025676558 -0.027658228 0.03957593 -0.05082281 0.0037854533 -0.010274712
-0.049819533 -0.00943076 0.010397421 -0.029262988 -0.038383562 -0.023238828 -0.015909106 -0.014886178
-0.0024583128 0.036792666 -0.008411345 -0.05750357 -0.031966977 -0.055627253 0.076595105 -0.025880292
-0.008516444 0.0076895547 -0.007406697 0.004546022 0.07050035 -0.011880767 -0.0019463024 -0.04158515
-0.043202043 -0.060007606 0.003077812 -0.033119038 0.017828211 -0.023537878 -0.0022963858 0.040172715
-0.061766922 -0.037061747 0.03857039 -0.05492096 0.0015242669 -0.015179595 -0.04672916 -0.04340027
-0.030678425 -0.024632217 0.047022954 0.0554261 0.0039353464 0.007407917 -0.065352716 -0.05036475
0.01170281 0.02221505 0.055694602 -0.05560344 0.026235694 -0.060488105 -0.030156631 0.011282117
0.004227922 0.019513251 0.05289752 -0.012451513 0.015459996 0.02449041 -0.049456075 -0.035767164
0.05575399 0.051814172 -0.11974341 0.04648935 0.019597663 -0.019825798 0.040404856 -0.069604985
0.047098298 0.010878643 -0.02249425 0.059360117 0.0018565007 -0.03716346 -0.022360634 -0.027056023
-0.08038433 -0.00478991 -0.044971243 -0.0788099 0.00018841506 -0.08165133 -0.0032367357 -0.02093831
0.018794393 -0.025514789 0.025918867 -0.009115432 0.06163723 -0.005007213 -0.046764486 0.039121874
-0.0018249751 0.0330478 -0.061535873 -0.03396505 -0.017015463 0.049823992 -0.08446494 0.03943669
-0.006766012 -0.02272632 -0.04705503 0.102956496 -0.0134407235 -0.08706477 -0.038771193 -0.008529379
-0.053637084 0.022901706 -0.022873163 -0.04790458 0.04502103 -0.03705519 -0.026616924 -0.0063486574
-0.027693778 -0.05758764 -0.028083785 -0.046029706 -0.010420838 0.060499594 -0.05578425 0.030220158
-0.0370559 0.0073557915 -0.06812855 0.0358934 -0.08832073 -0.002046232 -0.0010378652 -0.039933324
-0.047697242 0.03643189 -0.030520946 -0.028415373 -0.0074473987 0.009710181 -0.08753867 -0.072340146
-0.027393036 -0.0136911655 -0.03774235 0.01058694 -0.0016186279 -0.003763131 -0.03364975 -0.048665293

fc2.bias f4 [128]
00000000: 351b 4b37 b496 1735 6b87 afb6 c452 3537
00000010: 4dab a6b6 2d81 9d36 3612 f735 49cf 8b36
00000020: 6ef9 26b7 1899 75b7 26b9 8237 b148 ba37
00000030: ee8b 9ab6 283a 84b6 0da2 de36 18b9 ecb5
00000040: 9913 8034 08d1 32b4 f27b df36 a4e7 d336
00000050: 56ef 0036 eeaf eab7 7ec7 03b7 40ee adb6
00000060: fc14 b836 7c00 1536 afab d834 39d7 a1b7
00000070: 26ca 4537 16c4 1836 7e94 b837 fd68 14b6
00000080: 609e 4436 b86c d6b7 6d8c 13b6 e4f2 acb5
00000090: 75c5 8e34 a12c 0c35 2d61 9535 3045 b9b6
000000a0: 1d7f ac36 f565 1ab6 5e83 6e36 55c6 48b5
000000b0: 9dbb 4e37 3f7d c3b6 546c 42b7 a5d5 b4b6
000000c0: 4ec8 cdb5 a809 4135 a625 3fb5 d0d1 fcb4
000000d0: 8e9b c5b6 ce4c 6db6 5cf1 5bb6 00be feb1
000000e0: 882a 7635 0c5a d136 2321 0837 f506 2fb6
000000f0: 9457 5736 b95c 8436 10b4 6f37 d19d ca36
00000100: 8b76 0036 c65a 5a36 de55 1fb7 4e9f 8835
00000110: 56ca cb36 f8bc d335 f9d0 d935 a362 fc35
00000120: d8d6 6a34 44f8 cd36 fe18 3235 5d0b c535
00000130: 6a75 2eb7 f843 6236 3110 c336 6063 7bb6
00000140: 20d7 28b3 ff6e 2eb6 9de9 e7b6 0083 0737
00000150: cd7d a836 32ec 6536 82ff 9e35 d541 ac36
00000160: dceb 0bb6 abcf c437 6888 1436 d06d bbb5
00000170: 5c67 8736 6888 12b5 aba9 01b5 3e89 57b6
00000180: 8389 0436 8c93 d436 7172 8bb6 40e9 d933
00000190: ec49 3736 3a46 1936 c6aa 87b5 5d06 9b35
000001a0: 4496 6337 672c a4b6 4da5 8036 b168 8036
000001b0: 218c 79b7 ecf3 f636 dc36 3eb7 4d40 6c35
000001c0: 75b6 4f37 1b00 b2b5 91f2 8eb5 75e5 7eb7
000001d0: 854b aeb6 55d0 1d35 a504 d234 81b7 0236
000001e0: 2417 4eb5 de64 d3b5 67da 37b6 2273 32b6
000001f0: 4a14 29b7 a5de 11b6 e028 6e36 5670 6336
1.21060775e-05 5.6471185e-07 -5.231171e-06 1.0807711e-05 -4.9671276e-06 4.6940027e-06 1.8408234e-06 4.166654e-06
-9.952446e-06 -1.4638783e-05 1.5583424e-05 2.2206777e-05 -4.6058476e-06 -3.940677e-06 6.6349808e-06 -1.763724e-06
2.3856117e-07 -1.6653587e-07 6.660347e-06 6.3152565e-06 1.9212798e-06 -2.7976897e-05 -7.854656e-06 -5.1835377e-06
5.48607e-06 2.2203012e-06 4.0358051e-07 -1.9292916e-05 1.1789181e-05 2.2763902e-06 2.2003656e-05 -2.211483e-06
2.9298462e-06 -2.5561414e-05 -2.1986446e-06 -1.2885689e-06 2.659323e-07 5.221901e-07 1.1129647e-06 -5.521484e-06
5.1407974e-06 -2.3007135e-06 3.554123e-06 -7.4794417e-07 1.2322239e-05 -5.8260334e-06 -1.1588523e-05 -5.3892895e-06
-1.5331987e-06 7.1912154e-07 -7.120783e-07 -4.7091316e-07 -5.8891665e-06 -3.5360458e-06 -3.2774033e-06 -7.4139734e-09
9.170403e-07 6.239168e-06 8.113947e-06 -2.6081082e-06 3.2088474e-06 3.944701e-06 1.4287434e-05 6.0384414e-06
1.9142487e-06 3.2537368e-06 -9.497131e-06 1.0179153e-06 6.0734264e-06 1.5775722e-06 1.6228579e-06 1.880417e-06
2.1871108e-07 6.138378e-06 6.6346536e-07 1.4680951e-06 -1.0398546e-05 3.3716187e-06 5.813338e-06 -3.7459758e-06
-3.9311203e-08 -2.5992629e-06 -6.9115326e-06 8.077128e-06 5.0214353e-06 3.4261143e-06 1.184628e-06 5.1336633e-06
-2.0849902e-06 2.3461724e-05 2.2133117e-06 -1.3964545e-06 4.035346e-06 -5.4587736e-07 -4.8303144e-07 -3.2117382e-06
1.9749575e-06 6.335269e-06 -4.1558455e-06 1.0147278e-07 2.7312153e-06 2.2839654e-06 -1.0107985e-06 1.1550252e-06
1.3565241e-05 -4.89275e-06 3.833941e-06 3.826885e-06 -1.4874183e-05 7.3597676e-06 -1.1337655e-05 8.801042e-07
1.2380643e-05 -1.3262064e-06 -1.065042e-06 -1.5193004e-05 -5.1943957e-06 5.879022e-07 3.9118927e-07 1.9478323e-06
-7.6774654e-07 -1.5750081e-06 -2.7396252e-06 -2.6591083e-06 -1.0077909e-05 -2.173628e-06 3.5488556e-06 3.3891024e-06
