tryst/model_round_7.pth (torch, 194739 bytes, 19 tensors)

fc1.weight f4 [256, 14]
0	0x3e36c384	0.17848021
1	0xbde9d842	-0.11418201
2	0x3cc8e49e	0.024523076
3	0x3dcf6754	0.1012713
4	0x3db8963c	0.0901303
5	0x3cc72ed1	0.024314316
6	0x3da72d12	0.08162893
7	0x3e0aac59	0.13542308
8	0x3e0a1d6b	0.13487785
9	0x3d16194e	0.036645226
10	0x3d946158	0.07245129
11	0xbbbd9b64	-0.0057863463
12	0xbc48fc4c	-0.0122671835
13	0xbdbc3ae1	-0.09190918
14	0x3d589194	0.05287321
15	0x3dd29030	0.10281408
16	0xbcc184b8	-0.023622856
17	0xbe3c7896	-0.18405375
18	0x3d286d2c	0.04111974
19	0x3ccda1f2	0.025101636
20	0xbdc0da57	-0.09416645
21	0xbde0d622	-0.109783426
22	0xbdd8dd2c	-0.1058906
23	0x3d6ca21e	0.057771794
24	0xbc7e6770	-0.015527591
25	0xbd94f292	-0.07272829
26	0x3cd3c813	0.025852239
27	0xbe15d61e	-0.1463246
28	0xbe04c6b2	-0.12966421
29	0xbd53fd31	-0.051755134
30	0x3d5fe543	0.054662
31	0xbc988a67	-0.018620683
32	0xbd9a939a	-0.07547684
33	0xbd463b04	-0.048396125
34	0x3d2e9a0f	0.04262739
35	0xbda0b817	-0.07847612
36	0xbce31e90	-0.027724534
37	0xbd8a58a0	-0.06755185
38	0x3e09b75e	0.13448855
39	0xbd8ffe91	-0.070309766
40	0x3d6ac824	0.057319775
41	0xbddf235a	-0.10895415
42	0x3e1b17cd	0.15145798
43	0xbe27cdfd	-0.16387172
44	0x3c40ad1a	0.011760021
45	0xbe2407cd	-0.16018601
46	0xbd280b39	-0.041026328
47	0xbd6342f8	-0.05548379
48	0x3d5e7ecf	0.054320153
49	0xbddbc1d6	-0.10730331
50	0xbdd9ac11	-0.10628522
51	0x3dc3f71e	0.09568618
52	0x3e13cbd4	0.14433223
53	0x3b877980	0.004134357
54	0x3def20ce	0.11676179
55	0x3db669a7	0.0890687
56	0xbdb80e3f	-0.08987092
57	0x3dc8758b	0.097880445
58	0xbc9561de	-0.018235143
59	0x3de91a06	0.11381917
60	0xbcf83a8b	-0.030301353
61	0x3d662bfc	0.05619429
62	0x3dd125da	0.10212298
63	0x3d5afc00	0.053462982
64	0xbdf0b1e9	-0.11752684
65	0x3c7a1f3c	0.015266236
66	0xbe2a6b56	-0.16642508
67	0x3dc19576	0.094523355
68	0xbc4609f6	-0.012087336
69	0x3b65c9df	0.0035062952
70	0x3b4c5765	0.003118002
71	0x3c40c0b2	0.011764692
72	0x3c1fa39c	0.009743597
73	0xbe1ff1b9	-0.15619554
74	0xbdde93ca	-0.10868032
75	0x3dd18f3e	0.102323994
76	0x3c3a3e65	0.011367415
77	0x3d6623c0	0.056186438
78	0x3d1df898	0.038567156
79	0x3da17e80	0.07885456
80	0xbd21583d	-0.03939079
81	0x3d5688ba	0.052376486
82	0x3dce9276	0.10086529
83	0xbdcd6f0f	-0.10030948
84	0x3deca98d	0.11555777
85	0xbd06aa61	-0.03287733
86	0x3dc0e521	0.09418703
87	0xbd95c78a	-0.0731345
88	0x3d4b1272	0.049578138
89	0x3dd1ae20	0.1023829
90	0x3dddd024	0.10830715
91	0x3cc9eff3	0.02465055
92	0xbd2a262b	-0.041540306
93	0xba51b4c1	-0.0007999652
94	0xbe0b0017	-0.13574253
95	0xbdaccbe4	-0.084373266
96	0xbd30cce0	-0.043164134
97	0x3df732ee	0.12070261
98	0x3d9a55c7	0.07535892
99	0x3dba990a	0.09111221
100	0xbd809338	-0.0627808
101	0x3e0fa005	0.14025886
102	0xbd7458b8	-0.05965492
103	0xbc3d8744	-0.011567894
104	0x3da07a8d	0.07835875
105	0x3da27c2d	0.07933841
106	0xbdba4012	-0.09094252
107	0xbe1ef794	-0.15524131
108	0x3d213915	0.03936108
109	0xbd9abc92	-0.07555498
110	0xbcb3f7b6	-0.021968704
111	0xbe0c0d62	-0.1367698
112	0xbde6c6e2	-0.11268403
113	0xbd8a8064	-0.0676277
114	0x3dce91d8	0.10086411
115	0x3d131dc2	0.03591705
116	0x3d843d5c	0.06457016
117	0x3cb491bb	0.022042146
118	0xbdc39e7e	-0.09551714
119	0xbe07e080	-0.13269234
120	0xbdb6f30d	-0.08933077
121	0x3b66af03	0.003519953
122	0xbdd2296f	-0.10261809
123	0xbdd6af76	-0.10482685
124	0xbdeb244f	-0.11481535
125	0x3d35a3a5	0.044345517
126	0xbdbfcdbe	-0.09365414
127	0xbd5d3e25	-0.054014344
128	0x3bd0aae4	0.006368028
129	0x3d08306f	0.033249315
130	0xbd1a08f0	-0.03760618
131	0x3d70622a	0.058687367
132	0xbe0fffff	-0.14062499
133	0xbd8f3d2c	-0.069940895
134	0xbcc70386	-0.024293672
135	0x3cfe2f86	0.03102852
136	0xbe0a9952	-0.1353505
137	0xbdb6b180	-0.08920574
138	0x3b28259b	0.002565718
139	0x3e316847	0.17324935
140	0x3d814287	0.06311517
141	0xbd02adc8	-0.031904012
142	0x3d93879c	0.072036
143	0xbdf0451a	-0.1173193
144	0x3c5190c7	0.012790865
145	0x3843e830	4.6707864e-05
146	0xbe20e550	-0.15712476
147	0x3d1d005d	0.038330425
148	0xbdafd6d1	-0.08585895
149	0xbc979b1a	-0.018506575
150	0xbc8bcf39	-0.017066585
151	0xbdd39028	-0.1033023
152	0x39f379e0	0.00046439376
153	0x3d5009b0	0.05079049
154	0x3d729bcc	0.05923061
155	0x3dd77d1f	0.10521912
156	0x3dccdf9a	0.10003586
157	0xbced98b0	-0.029003471
158	0xbc8ad885	-0.016948948
159	0x3d433da0	0.047666192
160	0xbcb3ed68	-0.02196379
161	0xbd9d3f1d	-0.076780535
162	0x3c578e44	0.013156477
163	0x3daf1844	0.0854955
164	0xbd07909d	-0.0330969
165	0x3cab591a	0.02091651
166	0x3d9cb353	0.07651391
167	0x3e740a9e	0.23832175
168	0xbdfb7558	-0.12278241
169	0xbce2ab50	-0.027669579
170	0xbdc57fce	-0.096435174
171	0xbd3a642a	-0.04550568
172	0xbe0ae1c9	-0.13562693
173	0xbddfbf2f	-0.10925137
174	0x3c93c20c	0.018036865
175	0x3cc40724	0.023929186
176	0xbdb40b15	-0.08791176
177	0x3db13d83	0.086543106
178	0x3e08172e	0.13290092
179	0xbdcd9da4	-0.10039833
180	0xbc51a277	-0.012795082
181	0xbc804c1f	-0.015661297
182	0xbcef40e5	-0.029205749
183	0x3ca6ca31	0.020360084
184	0xbd986f42	-0.07443096
185	0xbc176afc	-0.009241816
186	0x3daf5d59	0.085627265
187	0xbda92d96	-0.08260648
188	0x3c5fd1e5	0.013660883
189	0xbe1677b3	-0.14694099
190	0x3dbca798	0.092116535
191	0x3e099565	0.13435896
192	0xbd6aa1eb	-0.057283323
193	0x3d495e12	0.049161978
194	0x3e17c7ac	0.14822263
195	0xbdcbaa74	-0.09944621
196	0xbdfdb022	-0.1238711
197	0xbd14e920	-0.036355138
198	0xbe1434ba	-0.14473239
199	0xbd9c2abc	-0.076253384
200	0x3d4ace02	0.04951287
201	0xbd4dbeb7	-0.050230708
202	0xbdd312d4	-0.103063256
203	0x3dbcfc12	0.09227766
204	0x3b244164	0.002506339
205	0xbe1b5092	-0.15167454
206	0x3ca330be	0.019920703
207	0x3d0397d0	0.0321272
208	0x3932dad0	0.00017056917
209	0xbdccaa83	-0.0999346
210	0x3dab858b	0.08375081
211	0x3cee939c	0.02912312
212	0xbd6d3840	-0.057914972
213	0x3dbccdb0	0.09218919
214	0xbdf29438	-0.11844677
215	0x3dd3dfdc	0.10345432
216	0x3da1fb92	0.07909311
217	0x3dc08401	0.09400178
218	0xbcf3d862	-0.029766265
219	0x3e0153cf	0.12629627
220	0x3e2218f5	0.15829833
221	0xbdb5f7a6	-0.08885126
222	0x3e16f45e	0.14741656
223	0x3e0bf607	0.1366807
224	0xbdb9c418	-0.09070605
225	0x3d57be43	0.052671682
226	0xbbaba834	-0.0052385572
227	0xbc4b7896	-0.012418887
228	0x3d0d60b0	0.034516037
229	0xbcf0e6a5	-0.029406855
230	0x3e09e021	0.13464405
231	0xbd8f7e97	-0.07006567
232	0xbb979375	-0.0046257325
233	0xbe3c112b	-0.18365924
234	0xbdbb2a10	-0.09138882
235	0xbdde236a	-0.108465984
236	0x3d893894	0.067002445
237	0xbd4f1f1f	-0.05056679
238	0x3d9ff666	0.07810669
239	0xbe16bf4a	-0.14721408
240	0x3e1133e7	0.14179955
241	0xbe1daa5f	-0.15397023
242	0xbd6cce50	-0.057813942
243	0x3deb7f8e	0.114989385
244	0xbe0a9fd0	-0.13537526
245	0xbcad970f	-0.021190194
246	0xbdb5d3e4	-0.088783056
247	0x3ca9d3a7	0.020730807
248	0xbcfd6107	-0.030930055
249	0xbde115b9	-0.109904714
250	0xbd9fdcd0	-0.078057885
251	0xbd7609d5	-0.06006797
252	0xbc257116	-0.010097763
253	0x3be5ca74	0.0070126597
254	0xbd96bdc6	-0.07360415
255	0xbdcf06e2	-0.10108735

fc1.bias f4 [256]
0	0x368b6424	4.1541807e-06
1	0x3724f785	9.832792e-06
2	0xb722373c	-9.668813e-06
3	0xb79bba4b	-1.856419e-05
4	0xb6bd1728	-5.6353347e-06
5	0x366946df	3.4760958e-06
6	0x36005276	1.9121485e-06
7	0xb783dd56	-1.5719485e-05
8	0x32043f30	7.697778e-09
9	0xb744b181	-1.1723839e-05
10	0xb7113eca	-8.657293e-06
11	0x34a68c89	3.1022162e-07
12	0x36d99148	6.484017e-06
13	0xb688c705	-4.0762848e-06
14	0x3488e20f	2.5496453e-07
15	0xb6a98d82	-5.053066e-06
16	0x35e1fd5d	1.6837545e-06
17	0xb6ccf566	-6.108242e-06
18	0xb6a47d36	-4.9021573e-06
19	0xb6bc6c69	-5.615457e-06
20	0x3601543a	1.9271524e-06
21	0x366318fd	3.384018e-06
22	0x373e0b06	1.1327449e-05
23	0x364885e9	2.9880268e-06
24	0x3605f5bb	1.9961578e-06
25	0x36f18c79	7.198713e-06
26	0x34dceb44	4.1149372e-07
27	0x37436cd2	1.1648242e-05
28	0x36342522	2.6843704e-06
29	0x35ae8cce	1.300499e-06
30	0x37a6ac8f	1.9869096e-05
31	0x377667d1	1.4686914e-05
32	0xb67a8ab5	-3.733364e-06
33	0xb656e122	-3.201953e-06
34	0x361c7721	2.3315154e-06
35	0xb593574e	-1.0977762e-06
36	0xb6813654	-3.850824e-06
37	0xb6f8dbfa	-7.4165846e-06
38	0xb735b8d0	-1.0831471e-05
39	0x36bb4e51	5.5821515e-06
40	0xb658cff4	-3.2307553e-06
41	0x380e977f	3.399653e-05
42	0x3618625a	2.2707013e-06
43	0x371a187c	9.184816e-06
44	0xb676b34a	-3.6761217e-06
45	0x37e63d0c	2.7446564e-05
46	0xb7932b1b	-1.7543838e-05
47	0xb6f56c8d	-7.314206e-06
48	0xb68fb9cf	-4.283363e-06
49	0x376f74df	1.4272721e-05
50	0x37035dd9	7.830059e-06
51	0xb6cfe7cd	-6.196066e-06
52	0x370a19b2	8.231424e-06
53	0xb68690d6	-4.0103723e-06
54	0xb693e9b6	-4.408149e-06
55	0x37ca8af2	2.4144978e-05
56	0x35c87bb0	1.4937159e-06
57	0xb6ca74fc	-6.033688e-06
58	0xb6c2ed62	-5.8092855e-06
59	0x36ad5ef9	5.166858e-06
60	0x368de344	4.2285847e-06
61	0xb6c2153e	-5.7841235e-06
62	0xb69ccb5d	-4.672837e-06
63	0xb681174a	-3.847211e-06
64	0xb7c31bca	-2.3258752e-05
65	0x374e7269	1.2305195e-05
66	0xb4d39230	-3.9408178e-07
67	0xb643f2d8	-2.9198618e-06
68	0xb5debddc	-1.6595545e-06
69	0xb731246c	-1.0558502e-05
70	0xb669d979	-3.4846291e-06
71	0xb6cf263f	-6.173533e-06
72	0xb7676331	-1.3791768e-05
73	0x379b7569	1.8532113e-05
74	0x36486352	2.9860134e-06
75	0xb61ef27e	-2.3684984e-06
76	0xb63bc025	-2.7977014e-06
77	0xb6ca6009	-6.031249e-06
78	0xb610fc46	-2.1604515e-06
79	0x37816609	1.5425512e-05
80	0x363bb00e	2.7967649e-06
81	0xb6e04fb8	-6.6850007e-06
82	0x366e03f5	3.5467067e-06
83	0x36e2568a	6.7453993e-06
84	0xb70deb7f	-8.459086e-06
85	0x373ca0b2	1.1243088e-05
86	0xb4fbbfdb	-4.6891986e-07
87	0xb66e0263	-3.5466153e-06
88	0xb610049a	-2.146035e-06
89	0x34d6492d	3.991385e-07
90	0x35b38586	1.33754e-06
91	0xb6e4b270	-6.8157024e-06
92	0xb68ad906	-4.1379853e-06
93	0xb6d71b79	-6.4106976e-06
94	0xb5ec16e3	-1.7590031e-06
95	0xb72c168e	-1.025725e-05
96	0xb611fc1e	-2.1753435e-06
97	0x369edf58	4.7347676e-06
98	0x36d6d1a6	6.4021033e-06
99	0x35e92d1c	1.7372981e-06
100	0xb62cd0a7	-2.575145e-06
101	0x36abd5a6	5.121069e-06
102	0x37b0a519	2.1057715e-05
103	0xb64d8ef6	-3.0630595e-06
104	0x3716038b	8.941522e-06
105	0xb379c5c0	-5.8154683e-08
106	0x379e87c1	1.8898283e-05
107	0x3748dd44	1.1972446e-05
108	0x36ae0d43	5.187148e-06
109	0xb64d8639	-3.0625508e-06
110	0x35c7ea2b	1.4894807e-06
111	0xb7515e7e	-1.2479371e-05
112	0x35f31487	1.8110885e-06
113	0xb5d4c57b	-1.5852705e-06
114	0x34ed26d4	4.417294e-07
115	0xb744e731	-1.1736339e-05
116	0x35b03110	1.3127301e-06
117	0x3706fe31	8.046206e-06
118	0x35e571cc	1.7094949e-06
119	0xb7874429	-1.6124994e-05
120	0x369464c2	4.4224735e-06
121	0xb6ec7246	-7.0466513e-06
122	0x37868807	1.6037387e-05
123	0x3601ea7e	1.935899e-06
124	0xb4b6ee1b	-3.4073386e-07
125	0xb75c1820	-1.3118639e-05
126	0xb661a6fb	-3.3624808e-06
127	0x36e781d5	6.899451e-06
128	0xb7395178	-1.1045828e-05
129	0x3706732b	8.013837e-06
130	0xb6d03038	-6.2044965e-06
131	0x37ee7f7f	2.843118e-05
132	0xb6cf9370	-6.1862447e-06
133	0xb5c91351	-1.4981289e-06
134	0x3552faa8	7.859585e-07
135	0x3683e185	3.930358e-06
136	0x3639b2c0	2.7671194e-06
137	0xb7ae83d6	-2.0803807e-05
138	0x36a9ec01	5.064067e-06
139	0xb6531d97	-3.1458674e-06
140	0xb38f7c9c	-6.681623e-08
141	0x373e4968	1.1341974e-05
142	0x36ae0cab	5.187079e-06
143	0x35e1e068	1.6829117e-06
144	0xb5436459	-7.2789186e-07
145	0xb6d70799	-6.408384e-06
146	0xb690ad88	-4.311736e-06
147	0x3691026e	4.3216196e-06
148	0x359b25ca	1.1559398e-06
149	0x36bf6e4f	5.705085e-06
150	0x36ade40f	5.1823513e-06
151	0xb65208b4	-3.1297504e-06
152	0x35ad6617	1.2919216e-06
153	0xb710e3b9	-8.63609e-06
154	0x37711a2a	1.4370811e-05
155	0xb6c992a5	-6.0073385e-06
156	0xb6b84418	-5.4915545e-06
157	0xb5e3b9b2	-1.6966862e-06
158	0xb7367dcd	-1.0877336e-05
159	0x365d7962	3.300222e-06
160	0x3754346b	1.2648389e-05
161	0xb7214e6e	-9.614609e-06
162	0xb6e4524b	-6.8045097e-06
163	0x348f5468	2.669724e-07
164	0xb6bbfbd0	-5.602349e-06
165	0x36d5f780	6.3767075e-06
166	0xb605e830	-1.9953695e-06
167	0x356f1d44	8.9077025e-07
168	0xb6cde3b6	-6.135985e-06
169	0xb64fa699	-3.0942376e-06
170	0x364933e7	2.9981545e-06
171	0xb688a991	-4.072856e-06
172	0x376db10f	1.41675255e-05
173	0x3701ec3e	7.744004e-06
174	0xb77259d4	-1.4445239e-05
175	0xb6865178	-4.0029954e-06
176	0xb79c8088	-1.8656501e-05
177	0xb344b280	-4.579715e-08
178	0x37a98240	2.0207022e-05
179	0x36183dff	2.2685851e-06
180	0x36879941	4.0411546e-06
181	0xb6c70ab9	-5.9319104e-06
182	0x36fb5c4a	7.491127e-06
183	0x364b69c4	3.031092e-06
184	0xb6f53a7b	-7.308377e-06
185	0x35b4cbd9	1.3470373e-06
186	0x367bb5ca	3.750773e-06
187	0xb762a765	-1.3509624e-05
188	0x36380b61	2.742476e-06
189	0xb6717f9b	-3.5986075e-06
190	0x35527aa4	7.840956e-07
191	0xb61be02a	-2.322728e-06
192	0xb63bf2dd	-2.8006536e-06
193	0xb5dd90c9	-1.6507921e-06
194	0x36cf047d	6.1696032e-06
195	0xb704fc00	-7.926486e-06
196	0x37604e7f	1.3369717e-05
197	0x36a0449a	4.776358e-06
198	0x363f2610	2.8483373e-06
199	0xb6710076	-3.5912067e-06
200	0x37768572	1.4693813e-05
201	0xb78930dd	-1.6354426e-05
202	0xb6276a3b	-2.4946773e-06
203	0xb6ffe7fc	-7.6265987e-06
204	0xb6c3f76e	-5.8402575e-06
205	0x3622284c	2.4163337e-06
206	0xb6b4baf2	-5.3861813e-06
207	0xb797edec	-1.8111394e-05
208	0x36cd3646	6.1157943e-06
209	0x36c407b5	5.8421524e-06
210	0x36c0b567	5.743164e-06
211	0x375411b2	1.2640305e-05
212	0xb73647d0	-1.08647655e-05
213	0x377176f6	1.4392417e-05
214	0x3702d363	7.797821e-06
215	0x3789880c	1.6395024e-05
216	0x36d7d3bf	6.43215e-06
217	0x36e10ed0	6.707247e-06
218	0xb69a361f	-4.595858e-06
219	0xb6a54345	-4.9252144e-06
220	0xb78277fd	-1.5553082e-05
221	0x36e35b5e	6.7757637e-06
222	0x373d9acb	1.1301318e-05
223	0x36d4721d	6.331377e-06
224	0xb6171afa	-2.2516456e-06
225	0xb63445ba	-2.6862676e-06
226	0x36d4808b	6.3330567e-06
227	0x359f8ee3	1.1888009e-06
228	0x3789bd20	1.641974e-05
229	0xb6925d69	-4.3620134e-06
230	0x36a2c2f2	4.850671e-06
231	0x34a0d01b	2.995374e-07
232	0x375c3ea4	1.31276065e-05
233	0x37b51572	2.1586868e-05
234	0xb64964d1	-3.0010017e-06
235	0x350b0573	5.1789465e-07
236	0xb823e6ac	-3.907706e-05
237	0xb66ab8a0	-3.4976183e-06
238	0x3637c021	2.7380959e-06
239	0xb6d17efe	-6.243469e-06
240	0x36edabcb	7.0831497e-06
241	0xb47b60cc	-2.3411411e-07
242	0xb6d2e23e	-6.2848258e-06
243	0xb73a928d	-1.1120585e-05
244	0x362b428a	2.5519716e-06
245	0xb61371fe	-2.197106e-06
246	0xb7563756	-1.2768278e-05
247	0x365b8b47	3.2714613e-06
248	0x348fb61a	2.6768322e-07
249	0x377b4ec4	1.4979105e-05
250	0xb746424c	-1.1817156e-05
251	0x3648d3ad	2.9925534e-06
252	0x3686777e	4.007422e-06
253	0x3659a7c4	3.2433172e-06
254	0xb6a9cc13	-5.06035e-06
255	0xb6aec0e5	-5.20806e-06

bn1.weight f4 [256]
0	0x3f79357e	0.9734725
1	0x3f78b100	0.9714508
2	0x3f7539f4	0.95791554
3	0x3f83b8cd	1.0290772
4	0x3f6adc60	0.91742516
5	0x3f77dacc	0.9681823
6	0x3f6a72f3	0.9158165
7	0x3f79caee	0.9757527
8	0x3f7939fc	0.973541
9	0x3f72dee2	0.9487134
10	0x3f69681c	0.91174483
11	0x3f71446b	0.9424502
12	0x3f7c192c	0.9847591
13	0x3f767923	0.9627859
14	0x3f77b433	0.9675934
15	0x3f75e859	0.9605766
16	0x3f694530	0.91121197
17	0x3f6b92fa	0.92021143
18	0x3f738828	0.9512963
19	0x3f6e072a	0.9297968
20	0x3f69d14f	0.91335005
21	0x3f78574f	0.9700822
22	0x3f64f674	0.8943856
23	0x3f6d5aa0	0.9271641
24	0x3f6fc107	0.9365391
25	0x3f779691	0.9671412
26	0x3f73a3b8	0.9517169
27	0x3f766cd7	0.96259826
28	0x3f6e7cc3	0.9315912
29	0x3f6ec2ee	0.9326619
30	0x3f7753e8	0.96612406
31	0x3f859128	1.0434923
32	0x3f7b693e	0.9820746
33	0x3f70d83f	0.94079965
34	0x3f768c63	0.96307963
35	0x3f71f19f	0.9450931
36	0x3f6e07b4	0.92980504
37	0x3f6f11ed	0.9338673
38	0x3f7d1fab	0.98876446
39	0x3f6c314f	0.9226274
40	0x3f72198f	0.9457025
41	0x3f81325b	1.0093492
42	0x3f5f4fda	0.8723122
43	0x3f7066fd	0.9390715
44	0x3f6e5e82	0.9311296
45	0x3f821472	1.016249
46	0x3f718758	0.94347143
47	0x3f84afc5	1.0366141
48	0x3f6ff300	0.93730164
49	0x3f7f8946	0.9981884
50	0x3f6e9224	0.9319174
51	0x3f73a269	0.95169693
52	0x3f7ee7c8	0.9957242
53	0x3f7a1487	0.9768757
54	0x3f7c6d20	0.9860401
55	0x3f7a964c	0.97885585
56	0x3f6d095d	0.9259241
57	0x3f74ee9d	0.95676595
58	0x3f6f1470	0.9339056
59	0x3f76e62b	0.9644496
60	0x3f661ad9	0.89884716
61	0x3f736a52	0.95084107
62	0x3f6d34cb	0.9265868
63	0x3f666125	0.8999198
64	0x3f6821e5	0.9067672
65	0x3f73bf42	0.9521371
66	0x3f6780f0	0.9043112
67	0x3f6f9f4c	0.9360244
68	0x3f6660ce	0.8999146
69	0x3f66fc1b	0.9022843
70	0x3f7be0a6	0.9838966
71	0x3f73b6e2	0.9520093
72	0x3f741a84	0.9535296
73	0x3f82899a	1.0198243
74	0x3f7d9ac6	0.9906429
75	0x3f7c6ae7	0.9860062
76	0x3f76c059	0.9638725
77	0x3f68bdd7	0.9091467
78	0x3f6224d3	0.8833744
79	0x3f75a20e	0.959504
80	0x3f6f8cdb	0.93574303
81	0x3f703fa1	0.9384709
82	0x3f780885	0.96888
83	0x3f6b0886	0.9180988
84	0x3f7b7229	0.9822107
85	0x3f70d036	0.94067705
86	0x3f6f2e60	0.9343014
87	0x3f6a0fe6	0.9143051
88	0x3f72ee27	0.9489464
89	0x3f77eff0	0.9685049
90	0x3f7e1f3c	0.9926641
91	0x3f7bbbc5	0.9833339
92	0x3f761981	0.96132666
93	0x3f6ecc74	0.9328072
94	0x3f7c03f8	0.98443556
95	0x3f6d404c	0.92676234
96	0x3f81862b	1.011907
97	0x3f724164	0.9463103
98	0x3f76ed93	0.9645626
99	0x3f78cea3	0.971903
100	0x3f71cd6e	0.94454086
101	0x3f7cc406	0.9873661
102	0x3f83a4bc	1.0284648
103	0x3f795fd6	0.9741186
104	0x3f7e501b	0.9934098
105	0x3f7070a8	0.939219
106	0x3f7d5e63	0.9897215
107	0x3f7bd06c	0.983649
108	0x3f5d3408	0.8640752
109	0x3f61541a	0.88018954
110	0x3f6f878d	0.9356621
111	0x3f76e049	0.9643598
112	0x3f77d9c5	0.96816665
113	0x3f73e90b	0.9527747
114	0x3f7ade76	0.979957
115	0x3f6f1187	0.9338612
116	0x3f75c0fa	0.95997584
117	0x3f70bf06	0.9404148
118	0x3f74e03e	0.95654666
119	0x3f71422c	0.94241595
120	0x3f684490	0.9072962
121	0x3f6e8255	0.9316762
122	0x3f742b7c	0.9537885
123	0x3f6e44c6	0.9307369
124	0x3f7361ba	0.95070994
125	0x3f7424ca	0.95368636
126	0x3f68001c	0.90625167
127	0x3f7197ce	0.9437226
128	0x3f8303fe	1.0235593
129	0x3f685e25	0.90768653
130	0x3f6a2797	0.9146666
131	0x3f7e83c8	0.9941983
132	0x3f6c726f	0.9236211
133	0x3f808424	1.0040326
134	0x3f72116f	0.9455785
135	0x3f73872b	0.95128125
136	0x3f70f6b5	0.94126445
137	0x3f781ed9	0.9692207
138	0x3f79bc11	0.9755259
139	0x3f77182f	0.96521276
140	0x3f69db0f	0.9134988
141	0x3f77a8ca	0.96741927
142	0x3f823d59	1.0174972
143	0x3f73b4de	0.95197856
144	0x3f6a5635	0.9153779
145	0x3f7c0ca6	0.984568
146	0x3f690728	0.91026545
147	0x3f73adf2	0.95187294
148	0x3f72a3f6	0.94781435
149	0x3f68f50b	0.90998906
150	0x3f687f48	0.90819216
151	0x3f6e0812	0.92981064
152	0x3f6c7b64	0.9237578
153	0x3f7710d2	0.9651004
154	0x3f7717c3	0.9652063
155	0x3f748bcc	0.95525813
156	0x3f838caf	1.0277308
157	0x3f81af88	1.0131693
158	0x3f7e1214	0.99246335
159	0x3f790d0e	0.97285545
160	0x3f880110	1.0625324
161	0x3f6a88a0	0.91614723
162	0x3f74539c	0.9544008
163	0x3f762ff4	0.9616692
164	0x3f72c0eb	0.9482562
165	0x3f7da979	0.9908672
166	0x3f5bbada	0.8583199
167	0x3f803b3f	1.001808
168	0x3f6da188	0.928246
169	0x3f73aa34	0.95181584
170	0x3f744b7e	0.9542769
171	0x3f73ed70	0.95284176
172	0x3f7947a5	0.97374946
173	0x3f7bc0d9	0.9834114
174	0x3f62d67a	0.88608515
175	0x3f82ddb7	1.0223912
176	0x3f8418bc	1.0320048
177	0x3f6f60f3	0.9350731
178	0x3f846b2b	1.0345205
179	0x3f63bf20	0.8896351
180	0x3f7cd8ef	0.98768514
181	0x3f63c62b	0.88974255
182	0x3f72ae97	0.9479765
183	0x3f65785a	0.89636767
184	0x3f7c80f4	0.98634267
185	0x3f679dd0	0.9047518
186	0x3f79aaae	0.9752606
187	0x3f7dedfa	0.9919125
188	0x3f7061e8	0.93899393
189	0x3f6df79d	0.9295595
190	0x3f803446	1.0015953
191	0x3f721185	0.9455798
192	0x3f742bcf	0.95379347
193	0x3f75b06d	0.9597233
194	0x3f816e3d	1.0111767
195	0x3f6cf7a2	0.9256536
196	0x3f8519f9	1.0398551
197	0x3f725964	0.9466765
198	0x3f813585	1.0094458
199	0x3f73e094	0.95264554
200	0x3f835519	1.0260345
201	0x3f746274	0.9546273
202	0x3f654b25	0.89567786
203	0x3f7747e8	0.96594095
204	0x3f692693	0.91074485
205	0x3f6fc284	0.9365618
206	0x3f783fcb	0.9697234
207	0x3f8255d9	1.0182449
208	0x3f782dd9	0.9694496
209	0x3f6d3f1f	0.9267444
210	0x3f7dcc7f	0.9914016
211	0x3f6c3a20	0.9227619
212	0x3f6ae6f3	0.9175865
213	0x3f7c9b46	0.9867443
214	0x3f700e1a	0.9377152
215	0x3f669576	0.9007181
216	0x3f67094d	0.90248567
217	0x3f77f027	0.9685082
218	0x3f7df502	0.9920198
219	0x3f63b450	0.8894701
220	0x3f7b09be	0.9806174
221	0x3f73212c	0.9497249
222	0x3f68605e	0.90772045
223	0x3f61aa48	0.88150454
224	0x3f78d739	0.97203404
225	0x3f67cf1f	0.90550417
226	0x3f6c6320	0.9233875
227	0x3f64e9a0	0.89418983
228	0x3f78f510	0.97248936
229	0x3f7e7caa	0.9940897
230	0x3f6ce197	0.9253172
231	0x3f709c10	0.9398813
232	0x3f643380	0.8914108
233	0x3f7a8c26	0.978701
234	0x3f6fcd50	0.93672657
235	0x3f7da39a	0.9907776
236	0x3f7bb9ac	0.9833019
237	0x3f6bfeb8	0.92185545
238	0x3f786cd0	0.97041035
239	0x3f73b341	0.95195395
240	0x3f7d5e0a	0.9897162
241	0x3f7f78ff	0.99794
242	0x3f7018da	0.9378792
243	0x3f782a71	0.9693976
244	0x3f750894	0.95716214
245	0x3f761f15	0.9614118
246	0x3f7ce587	0.9878773
247	0x3f694c8c	0.91132426
248	0x3f7f11cf	0.9963655
249	0x3f792908	0.97328234
250	0x3f66f57a	0.9021832
251	0x3f762dc6	0.96163595
252	0x3f759961	0.9593716
253	0x3f736b36	0.95085466
254	0x3f67ef1a	0.90599215
255	0x3f73fccb	0.95307606

bn1.bias f4 [256]
0	0xbcd4c8c3	-0.025974637
1	0xbdf0f06a	-0.11764605
2	0x3ca0a2ab	0.019608816
3	0xbd375893	-0.044762205
4	0xbdfed979	-0.12443823
5	0xbd6b218c	-0.05740504
6	0xbdc7fb5b	-0.09764739
7	0xbd0b90a2	-0.03407348
8	0xbdf6e491	-0.12055314
9	0xbe07c7fe	-0.13259885
10	0xbe34e121	-0.17664005
11	0xbe0d51b5	-0.138007
12	0x3cb53a8d	0.022122646
13	0xbd19f7fb	-0.03759001
14	0xbdb83c3f	-0.08995866
15	0xbdbb66ad	-0.09150443
16	0xbdf1f517	-0.11814325
17	0xbde73cdd	-0.112909056
18	0xbdd339e0	-0.10313773
19	0xbdac48d0	-0.084123254
20	0xbdc21d7b	-0.09478279
21	0xbd81c658	-0.06336659
22	0xbdea5b2c	-0.11443171
23	0xbd3238eb	-0.043511312
24	0xbd681852	-0.05666382
25	0xbd676de7	-0.056501295
26	0xbe19cb86	-0.15019044
27	0xbdd05f53	-0.10174432
28	0xbda48a0b	-0.08034142
29	0xbe072bbc	-0.13200277
30	0xbb51c772	-0.0032009748
31	0xbd93f959	-0.07225294
32	0xbe0e7cbd	-0.13914771
33	0xbdb78faf	-0.08962952
34	0xbc154aaf	-0.009112044
35	0xbd7dbacb	-0.061945718
36	0xbdeb46dd	-0.114881255
37	0xbd19f252	-0.03758461
38	0xbe4c97f1	-0.19979836
39	0xbe050d1b	-0.1299328
40	0xbde74c95	-0.11293904
41	0xbd8d61e4	-0.06903437
42	0xbd4c4073	-0.04986615
43	0xbd8ac6bd	-0.067761876
44	0xbd2a8cc0	-0.041638136
45	0xbe7f9d30	-0.24962306
46	0xbdd9a090	-0.10626328
47	0xbd05e970	-0.032693326
48	0xbdaf8247	-0.0856977
49	0xbd5c34b2	-0.05376119
50	0xbd982cac	-0.074303955
51	0xbe115853	-0.1419385
52	0xbdc7711d	-0.097383715
53	0xbd2504b0	-0.040287673
54	0xbe4f7e38	-0.20262992
55	0xbc9d9692	-0.019236837
56	0xbdb01ba0	-0.08599019
57	0xbdbe09cd	-0.09279213
58	0xbdd48abc	-0.10378024
59	0xbc14e992	-0.009088891
60	0xbe095249	-0.13410296
61	0xbe21459b	-0.15749209
62	0xbdde9016	-0.10867326
63	0xbe106ef1	-0.14104821
64	0xbd9b5e31	-0.07586325
65	0xbda251e5	-0.079257764
66	0xbe26d9a1	-0.16293956
67	0xbdee76e9	-0.11643774
68	0xbdc5ab30	-0.09651792
69	0xbd8394aa	-0.0642484
70	0xbd152dd3	-0.036420655
71	0xbdfc3e90	-0.1231662
72	0xbdf565a8	-0.1198228
73	0xbd80fa80	-0.06297779
74	0xbe03e64f	-0.12880825
75	0xbda75aae	-0.08171593
76	0xbd0f5db4	-0.03500147
77	0xbd91c416	-0.071174785
78	0xbdc12af9	-0.094320245
79	0xbd98dc41	-0.07463885
80	0xbda382d7	-0.0798394
81	0xbda34c24	-0.07973507
82	0xbd810aa6	-0.06300859
83	0xbdc0e51d	-0.094187
84	0xbdeb99f3	-0.11503973
85	0xbe167e7c	-0.14696687
86	0xbd96a799	-0.073561855
87	0xbd74122c	-0.059587643
88	0xbdb6ee5f	-0.089321844
89	0xba2e2418	-0.00066429516
90	0xbdd1c6df	-0.1024301
91	0xbdbb6c16	-0.09151475
92	0xbd80f189	-0.06296069
93	0xbd9412dc	-0.0723016
94	0xbd9b00ab	-0.07568487
95	0xbdca2b02	-0.09871484
96	0xbd4886d9	-0.048956726
97	0xbdfd6876	-0.1237344
98	0xbd038488	-0.032108814
99	0xbd3ee8c6	-0.04660871
100	0xbdd315c2	-0.10306884
101	0xbdbd6786	-0.09248261
102	0xbd4c6157	-0.049897518
103	0xbde31ff8	-0.11090082
104	0xbe250986	-0.16116914
105	0xbccc7cda	-0.024961878
106	0x3ae57305	0.0017505592
107	0xbd4c7d1a	-0.049923994
108	0xbdfb98a7	-0.122849755
109	0xbdac49a5	-0.08412484
110	0xbdb00b69	-0.08595926
111	0xbd884417	-0.06653612
112	0xbd8dffd2	-0.069335595
113	0xbdb400f8	-0.08789247
114	0xbd7f0666	-0.06226196
115	0xbd8873c6	-0.06662707
116	0xbdda45ce	-0.106578454
117	0xbdcb4b39	-0.09926457
118	0xbd5ac517	-0.053410616
119	0xbd943cfc	-0.07238194
120	0xbe18ebdf	-0.14933728
121	0xbdf30a18	-0.118671596
122	0xbe1b98d4	-0.15195018
123	0xbdb77391	-0.089575894
124	0xbe04006f	-0.1289079
125	0xbd855f50	-0.0651232
126	0xbe01e421	-0.1268468
127	0xbcad285c	-0.021137409
128	0xbcf841a3	-0.030304736
129	0xbdf7d234	-0.1210064
130	0xbdb69f2a	-0.08917077
131	0xbe0bc5ad	-0.13649626
132	0xbd987724	-0.07444599
133	0xbd1f655e	-0.03891503
134	0xbe055b4e	-0.13023111
135	0xbda170c9	-0.0788284
136	0xbdd8fe5f	-0.105953924
137	0xbddb4d07	-0.10708051
138	0xbd53df9a	-0.051726915
139	0xbd147abb	-0.036249857
140	0xbd7e6e13	-0.062116694
141	0xbe3b5eab	-0.18297832
142	0xbdb6b57c	-0.08921334
143	0xbdf4d2c6	-0.11954264
144	0xbdef6401	-0.11688996
145	0xbdbb9bea	-0.091605976
146	0xbde30ba1	-0.110862024
147	0xbe223e0c	-0.15843982
148	0xbdff9c56	-0.124809906
149	0xbdea83a5	-0.114508905
150	0xbe107e6b	-0.14110725
151	0xbe50b070	-0.20379806
152	0xbd9c249e	-0.07624172
153	0xbd4f8a6b	-0.050669115
154	0xbd15a3ba	-0.036533095
155	0xbd200212	-0.039064474
156	0xbd9897b6	-0.074508116
157	0xbd2582b8	-0.040407866
158	0xbdb26eab	-0.087125145
159	0xbdda0ca3	-0.106469415
160	0xbdf05a12	-0.117359295
161	0xbd942cf0	-0.07235134
162	0xbcbbc736	-0.02292214
163	0xbe8da693	-0.2766615
164	0xbe0ac64e	-0.1355221
165	0xbd118635	-0.03552838
166	0xbd798b97	-0.06092414
167	0xbdb666e2	-0.08906342
168	0xbd95759b	-0.07297822
169	0xbd8d382b	-0.06895479
170	0xbc6d8df7	-0.014499179
171	0xbda9133a	-0.0825562
172	0xbd994d6b	-0.074854694
173	0xbd2cd805	-0.0421982
174	0xbdc2177c	-0.094771355
175	0xbd1e32f5	-0.038622815
176	0xbd8bd3ef	-0.068275325
177	0xbb3afc9e	-0.002853192
178	0xbe18b0b4	-0.14911157
179	0xbd80daae	-0.0629171
180	0xbdaa65c0	-0.083201885
181	0xbdacb430	-0.084328055
182	0xbe16ae92	-0.14715031
183	0xbe32af91	-0.17449786
184	0xbd8d077b	-0.068861924
185	0xbe0722d0	-0.13196874
186	0xbcf9280e	-0.030414607
187	0xbdb0432f	-0.08606564
188	0xbd59b89c	-0.053154573
189	0xbdc98d93	-0.09841456
190	0xbd7e1254	-0.062029198
191	0xbdb098fc	-0.086229295
192	0xbd6cc7e3	-0.057807814
193	0xbe144b14	-0.14481765
194	0xbd8c56c7	-0.06852489
195	0xbd84f0b2	-0.064912215
196	0xbcad1cd4	-0.02113191
197	0xbd016774	-0.0315928
198	0xbcf793c6	-0.030221831
199	0xbcdc4587	-0.026888622
200	0xbe2c4547	-0.16823302
201	0x3b82e7d9	0.0039949236
202	0xbd4115fe	-0.047140114
203	0xbe1a5ee9	-0.15075268
204	0xbde344cb	-0.110971056
205	0xbd851b00	-0.064992905
206	0xbdbdeb1a	-0.09273358
207	0xbe276a2f	-0.163491
208	0xbdc39677	-0.09550183
209	0xbdb7f6f4	-0.089826494
210	0xbdde7a6d	-0.108631946
211	0xbd2e4594	-0.042546824
212	0xbd5862b6	-0.052828513
213	0xbe2ab43f	-0.16670321
214	0xbd87ff92	-0.06640543
215	0xbd940774	-0.07227984
216	0xbd596aaa	-0.05308024
217	0xbd1ef7e0	-0.03881061
218	0xbe108368	-0.14112628
219	0xbe00742e	-0.12544319
220	0xbc99f5cb	-0.018793961
221	0xbd4a2422	-0.049350865
222	0xbdd0e48a	-0.1019984
223	0xbdf73fb7	-0.120726995
224	0xbe27ac0c	-0.16374224
225	0xbd4b9bbf	-0.049709078
226	0xbd7db02c	-0.06193559
227	0xbe023bea	-0.12718168
228	0xbe095c24	-0.13414055
229	0xbd2205d6	-0.039556347
230	0xbdab46c9	-0.083631106
231	0xbdb5f02d	-0.088837005
232	0xbdaf0eb6	-0.08547728
233	0xbc0a0343	-0.008423629
234	0xbd8e9a20	-0.06962991
235	0xbd06420c	-0.03277783
236	0xbdbcecee	-0.09224878
237	0xbd3bc110	-0.045838416
238	0xbdc1b4b8	-0.094582975
239	0xbd935c73	-0.07195368
240	0xbdad3178	-0.08456701
241	0xbd4e7cdc	-0.050412044
242	0xbcf7b620	-0.030238211
243	0xbdf7ffb3	-0.12109318
244	0xbdacd0bf	-0.08438253
245	0xbe0e2936	-0.13882908
246	0xbdca8001	-0.09887696
247	0xbde0e6c5	-0.10981516
248	0xbdb97fe2	-0.09057595
249	0xbcd4a36c	-0.025956832
250	0xbd8671ac	-0.0656465
251	0xbdb1c0e2	-0.086793676
252	0xbdeb3d2a	-0.114862755
253	0xbdb032b4	-0.08603421
254	0xbc09174c	-0.008367371
255	0xbdde5bc5	-0.108573474

bn1.running_mean f4 [256]
0	0x3bad6fd8	0.005292874
1	0x3c3ca1dd	0.011513201
2	0x3bdca6b8	0.0067337416
3	0x3bdcece2	0.006742106
4	0xbac4d3a5	-0.0015016688
5	0x3c2ac7c3	0.0104236035
6	0x3bb51a6f	0.005526833
7	0xbad48883	-0.0016215
8	0xbad08606	-0.0015909083
9	0xbc1e186c	-0.009649377
10	0x3c026a61	0.007959933
11	0x3c13a97b	0.009012575
12	0xbc7eb6d8	-0.015546523
13	0xbc551b47	-0.013006992
14	0xbb277fb8	-0.0025558304
15	0x3c9d280d	0.019184137
16	0xbbbfff2b	-0.005859276
17	0x3c31eb68	0.010859348
18	0xb9ad00a0	-0.00032997597
19	0xbc300f70	-0.010745868
20	0xbcbde592	-0.023180757
21	0x3bdf8a08	0.0068218745
22	0x3ca620aa	0.020279247
23	0xbca38668	-0.01996155
24	0xbccb449f	-0.024812995
25	0xba848584	-0.0010110592
26	0xbc12c6d1	-0.008958534
27	0x3c9de944	0.019276269
28	0x3c62c67d	0.013841269
29	0xbc73f91f	-0.014890938
30	0x3c0c1a50	0.008551195
31	0x3ba11f90	0.0049170926
32	0x3bb2711e	0.0054456135
33	0x3c822f20	0.015891612
34	0x3c5c598e	0.013449086
35	0x3cafc689	0.021456974
36	0x3b916b8a	0.0044378685
37	0xbc4c5a20	-0.012472659
38	0x3c9c1e9b	0.019057563
39	0x3d09c526	0.03363528
40	0x3c9ea277	0.019364579
41	0x3c13de4a	0.009025166
42	0xbcacc12e	-0.021088209
43	0x3c733ef2	0.01484655
44	0x3bee0822	0.007264153
45	0x3af95bd8	0.0019024564
46	0x3cf4b85d	0.029873068
47	0xba1dc460	-0.0006018337
48	0xbbc520a4	-0.006015854
49	0xbc3d841a	-0.01156714
50	0xbcd51976	-0.026013117
51	0x3cb002b0	0.021485656
52	0xbb172274	-0.0023061307
53	0xbc1bd9d8	-0.009512387
54	0x3c156b33	0.009119797
55	0xbb563250	-0.0032683797
56	0x3cbf5a79	0.02335857
57	0xbc29c9e8	-0.01036308
58	0x3b4056a6	0.0029348521
59	0x3c4d3ab6	0.012526205
60	0x3c9aaf6a	0.018882472
61	0xbc876eba	-0.01653229
62	0x3d0fe97e	0.035134785
63	0xbb5a1148	-0.003327446
64	0x3c810aed	0.01575228
65	0x3c71fd7a	0.014769906
66	0x3c5a1b21	0.013312132
67	0xbcca3e22	-0.02468783
68	0xbb41a2b9	-0.0029546453
69	0xbc0fa75b	-0.008767928
70	0x3c5a55d9	0.013326132
71	0x3cc91b02	0.024549011
72	0x3c21f122	0.009884151
73	0x3bcad134	0.0061894897
74	0x3cb4e3a3	0.022081202
75	0x3c919704	0.017772205
76	0x3c2e854a	0.010651896
77	0xbb90704e	-0.004407919
78	0x3adc2758	0.0016796393
79	0x3bc4789a	0.005995822
80	0xbd010724	-0.03150095
81	0xbd087dd8	-0.03332314
82	0xbb434184	-0.002979369
83	0x3c87b081	0.016563656
84	0xbcb75896	-0.022381108
85	0x3bea11e8	0.007143248
86	0x3c68bbf0	0.014204964
87	0x3b582800	0.0032982826
88	0x3c2e6a50	0.010645464
89	0xbbc1d6ef	-0.0059155147
90	0xbc663a68	-0.014052011
91	0x3c7accb7	0.015307597
92	0xbaedcf20	-0.0018143393
93	0xbbbbb7e5	-0.005728709
94	0x3a6e3a80	0.00090876967
95	0xbc9571ec	-0.018242799
96	0x3cd197ab	0.025585016
97	0x3c03bbc8	0.008040376
98	0xbd1ad243	-0.037798177
99	0xbca7233e	-0.020402547
100	0x3c958a26	0.01825435
101	0x3d2b5a9c	0.04183446
102	0xba341b80	-0.0006870553
103	0x3c6e33a8	0.014538683
104	0x3b946ec0	0.004529804
105	0x381a4530	3.6780897e-05
106	0x3c5594f3	0.013036001
107	0xbb1b209c	-0.002367056
108	0xbc4bf724	-0.01244906
109	0x3ca61615	0.020274201
110	0x3c888430	0.016664594
111	0x3c5241bb	0.012833054
112	0xbc0538b4	-0.008131195
113	0x3921d080	0.00015431829
114	0x3c476a49	0.012171336
115	0x3c9e1138	0.01929532
116	0x3bf71a82	0.007541002
117	0x3bdaa3a8	0.0066723414
118	0x3cc94d4f	0.024572996
119	0xbc7251be	-0.014789997
120	0xbc542568	-0.0129483715
121	0x3c83ba28	0.016079977
122	0x39e06dcc	0.00042806414
123	0xbbd351fa	-0.0064489814
124	0xbbd2caaa	-0.006432851
125	0x3cbad93e	0.022808667
126	0x3bec9e8c	0.0072210487
127	0x3bc9987e	0.0061522117
128	0xbc8b3a8b	-0.016995689
129	0x3ce78c0b	0.02826502
130	0xbcf809ae	-0.030278053
131	0x3c529df6	0.012855044
132	0x3be8cedf	0.007104739
133	0xbad0d260	-0.0015931837
134	0x3c923768	0.017848685
135	0xbd1029fa	-0.035196282
136	0x3be41f0c	0.006961709
137	0x3c10108a	0.008793006
138	0x3c737831	0.014860199
139	0x3ccc8241	0.024964454
140	0x3c188f50	0.009311512
141	0x3cbd99c9	0.02314462
142	0x3c3ecab2	0.011645006
143	0x3c16ca4d	0.009203506
144	0x3bb4716c	0.005506685
145	0x3b2c298c	0.002626988
146	0xbcad473a	-0.021152128
147	0x3c1fa4cd	0.009743881
148	0xbcc7b065	-0.024376104
149	0x3c446584	0.011987094
150	0xbc3466ae	-0.011010809
151	0xbbf20db3	-0.007386887
152	0x3cd55271	0.026040288
153	0x3cacdada	0.02110045
154	0x3aa07210	0.0012241025
155	0xbc75ff05	-0.015014415
156	0xbcbf9a40	-0.023388982
157	0xba0250fe	-0.0004971175
158	0x3c85eb21	0.01634747
159	0xbc7dc2a7	-0.015488303
160	0x3caf684d	0.02141204
161	0xbd2204ca	-0.03955535
162	0x3b41da58	0.0029579606
163	0xbc0cbc20	-0.008589774
164	0x3ba1447c	0.004921494
165	0xbc09939e	-0.008397011
166	0x3bdb4860	0.0066919774
167	0x3b8a6df0	0.0042245314
168	0x3cbd7203	0.023125654
169	0xbc19ad7a	-0.009379739
170	0x3c61f3ec	0.013791066
171	0xbc0ad404	-0.0084734
172	0x3c2f3690	0.010694161
173	0x3c30cd2a	0.010791102
174	0xbc05f11a	-0.008175159
175	0x3cdf9591	0.027292999
176	0x3c1ab51e	0.009442596
177	0xbcb0d95e	-0.021588024
178	0x3be429a2	0.006962971
179	0xbb9980a4	-0.0046845246
180	0x3c009eb2	0.007850336
181	0xbce736c6	-0.02822436
182	0x3c8eab10	0.017415553
183	0xbc98c0dd	-0.018646652
184	0x3c612d6c	0.01374374
185	0xba83dd20	-0.0010060407
186	0x3d256d82	0.040387638
187	0xbc8ed032	-0.01743326
188	0x3c773ec9	0.015090653
189	0x3b944de8	0.0045258887
190	0xbc7f453c	-0.015580472
191	0x3ba9d9ff	0.005183458
192	0xbc5f401e	-0.013626127
193	0x3cd7aab2	0.026326511
194	0xbc9d2a30	-0.019185156
195	0xbc7b231a	-0.015328193
196	0x3c9a1022	0.01880652
197	0x3c1bf23a	0.0095182005
198	0x3c1cb968	0.009565689
199	0xbc2b4e68	-0.010455705
200	0x3c47b578	0.012189262
201	0x3cb070e8	0.021538213
202	0xbcdfc3dd	-0.027315075
203	0xbcb888ba	-0.022526134
204	0x3c526d0d	0.012843383
205	0xbc202471	-0.009774313
206	0xbb49fd68	-0.0030821208
207	0x3c6a0f20	0.014285833
208	0xbb70e990	-0.0036760308
209	0x3c1cd90e	0.009573234
210	0xbd35af47	-0.04435661
211	0xbc180c8a	-0.009280333
212	0xbc04aa25	-0.008097206
213	0x3c823657	0.015895052
214	0xbd0d4bfa	-0.034496285
215	0x3b06d2c0	0.0020572394
216	0xbcc516f4	-0.024058796
217	0x3adabdcf	0.0016688647
218	0x3c31f4eb	0.010861616
219	0x3bd2eadc	0.006436689
220	0x3af68780	0.0018808693
221	0xbc808dc2	-0.015692595
222	0x3c57d689	0.013173708
223	0xbcf6eb0c	-0.030141376
224	0x3c9005e8	0.017580941
225	0xbb9f49ee	-0.004861108
226	0xbc5ce358	-0.013481937
227	0x3ce9c47a	0.02853607
228	0xbbd4b8c0	-0.0064917505
229	0xbb73a348	-0.003717618
230	0x3beaa040	0.0071602166
231	0x3bb765aa	0.005596836
232	0xbcfd11cf	-0.03089228
233	0x3b8d6416	0.0043149097
234	0xbcb46c22	-0.022024218
235	0xbcab7148	-0.02092804
236	0xbccfa00d	-0.025344873
237	0x3cc3140a	0.023813266
238	0x3ab937f0	0.001413105
239	0xbb3d370f	-0.0028871929
240	0xbd10a857	-0.03531679
241	0xbbb44d1a	-0.0055023553
242	0x3c44ec40	0.012019217
243	0x3c222a37	0.00989776
244	0xbc622ab9	-0.013804131
245	0xbb3eeb04	-0.002913178
246	0x3c82634d	0.01591649
247	0x39cdb740	0.0003923718
248	0xbca0a810	-0.019611388
249	0x3af17fb0	0.0018424895
250	0xbc88353e	-0.01662695
251	0x3c87ae8f	0.016562728
252	0xbbfa252c	-0.0076338258
253	0x38f38980	0.00011612754
254	0x3c2144e0	0.009843081
255	0x3cee2285	0.029069195

bn1.running_var f4 [256]
0	0x3de64c0a	0.11244972
1	0x3ddfc13d	0.10925529
2	0x3dbf7b9e	0.0934975
3	0x3e058bb0	0.13041568
4	0x3da61801	0.08110047
5	0x3dd5cc15	0.10439316
6	0x3dc9ef2b	0.09860071
7	0x3d8fa333	0.0701355
8	0x3db9559f	0.09049534
9	0x3d91f8ce	0.07127534
10	0x3dace034	0.08441201
11	0x3da814ed	0.08207116
12	0x3dfe8608	0.12427908
13	0x3e848eaa	0.25890094
14	0x3df30cc6	0.11867671
15	0x3df0b8bc	0.11753985
16	0x3da90a77	0.08253949
17	0x3dfdc214	0.12390533
18	0x3da468f4	0.08027831
19	0x3dc3c0fa	0.09558292
20	0x3deed907	0.116624884
21	0x3e07209f	0.13196038
22	0x3da91b66	0.08257179
23	0x3e0bb98f	0.13645004
24	0x3dd9ae78	0.106289804
25	0x3da62b71	0.081137545
26	0x3da2d531	0.07950819
27	0x3dbd5e26	0.09246473
28	0x3dfaab57	0.12239712
29	0x3de4a4d3	0.1116425
30	0x3df6c71e	0.12049697
31	0x3d9e4483	0.07727911
32	0x3dbe4bb5	0.09291784
33	0x3da3cb4e	0.07997762
34	0x3e66234f	0.22474407
35	0x3dcb64d9	0.099313445
36	0x3dca2bf5	0.098716654
37	0x3dcf03f9	0.101081796
38	0x3dc2fd92	0.09521021
39	0x3e44cf42	0.19219688
40	0x3df6253e	0.12018822
41	0x3dc66d66	0.09688835
42	0x3e099179	0.134344
43	0x3d673ead	0.056456257
44	0x3dfad5d6	0.12247817
45	0x3df66090	0.120301366
46	0x3db87aae	0.09007774
47	0x3e0b67d6	0.13613829
48	0x3ddd6804	0.10810855
49	0x3e3e2514	0.18568832
50	0x3de0cd0d	0.1097661
51	0x3dc4a161	0.09601093
52	0x3db8b161	0.09018207
53	0x3e032647	0.1280757
54	0x3dbab102	0.09115793
55	0x3dc1b064	0.09457472
56	0x3e1c72d1	0.15278174
57	0x3e5f3062	0.217958
58	0x3e04eee5	0.12981756
59	0x3d6d3274	0.057909444
60	0x3e04541e	0.12922713
61	0x3d8304c3	0.063973926
62	0x3e0d9e12	0.1382983
63	0x3dea4f88	0.11440951
64	0x3d9061e2	0.0704992
65	0x3db99d6d	0.0906323
66	0x3d9eb011	0.07748426
67	0x3daf3c02	0.085563675
68	0x3dbf66da	0.09345789
69	0x3d9c7041	0.07638598
70	0x3e1b7b81	0.15183832
71	0x3d4e5bb5	0.050380427
72	0x3e001571	0.12508179
73	0x3da85276	0.08218853
74	0x3dfd8908	0.12379652
75	0x3e890dd4	0.26768363
76	0x3e2bcc5b	0.16777174
77	0x3de1af0c	0.11019716
78	0x3dd01dc2	0.10161926
79	0x3e24de2e	0.1610038
80	0x3e248983	0.16068082
81	0x3dd50ff6	0.10403435
82	0x3e02707c	0.12738222
83	0x3d964687	0.07337671
84	0x3da08321	0.07837511
85	0x3dd024ba	0.10163255
86	0x3e1658e9	0.14682354
87	0x3d9c29a8	0.07625133
88	0x3dbb9774	0.09159747
89	0x3da5cdc3	0.080958866
90	0x3dd3a589	0.10334308
91	0x3df5e3c7	0.12006336
92	0x3dd31bce	0.10308038
93	0x3df07083	0.1174021
94	0x3e401ed6	0.18761763
95	0x3def7599	0.11692352
96	0x3db2a30c	0.08722505
97	0x3e2890e2	0.16461518
98	0x3dc42554	0.09577432
99	0x3e164a28	0.14676726
100	0x3defe30a	0.11713226
101	0x3e1169a5	0.14200456
102	0x3e0c4b76	0.13700661
103	0x3e1112fd	0.141674
104	0x3da84e67	0.08218079
105	0x3d7324f4	0.059361413
106	0x3da68fc8	0.08132893
107	0x3e7eee21	0.24895526
108	0x3e00616b	0.12537162
109	0x3d9b6535	0.07587663
110	0x3e09bd5f	0.13451146
111	0x3dfcbf1e	0.1234114
112	0x3e28a29c	0.1646828
113	0x3dfc3d51	0.12316383
114	0x3dca5488	0.09879404
115	0x3dc9f7a5	0.098616876
116	0x3dda1bee	0.106498584
117	0x3d9ac788	0.07557589
118	0x3e4e616c	0.20154351
119	0x3df80c47	0.12111717
120	0x3dc35aa1	0.095387705
121	0x3dab47a6	0.08363275
122	0x3db9b56b	0.09067806
123	0x3db11538	0.08646625
124	0x3db69ff8	0.0891723
125	0x3d9d7220	0.07687783
126	0x3daef0dd	0.08542035
127	0x3dabae12	0.08382811
128	0x3d773424	0.06035246
129	0x3e0a2ca0	0.13493586
130	0x3d9c90fd	0.07644842
131	0x3e32c4da	0.17457905
132	0x3da9fbe6	0.08299999
133	0x3dfcae76	0.12337963
134	0x3da7ab3c	0.08186957
135	0x3e02d79a	0.12777558
136	0x3dbcdff4	0.09222403
137	0x3d88f254	0.066868454
138	0x3e1eda4f	0.15512966
139	0x3e0ae709	0.13564695
140	0x3e095541	0.13411428
141	0x3d9ae696	0.07563512
142	0x3e421dee	0.1895673
143	0x3e0e0436	0.13868794
144	0x3e395c43	0.18101601
145	0x3dc9b92e	0.09849773
146	0x3d9c0a2c	0.07619128
147	0x3e40e9bd	0.18839164
148	0x3e49ce47	0.19707595
149	0x3de21c73	0.110405825
150	0x3e21eba1	0.15812542
151	0x3dde4ec9	0.10854871
152	0x3d969266	0.07352142
153	0x3e6e09d4	0.23245937
154	0x3dfaccec	0.12246117
155	0x3dacf18f	0.08444511
156	0x3de7a230	0.11310232
157	0x3d64b8f4	0.055840448
158	0x3dfebbb3	0.124381445
159	0x3e556c7f	0.20842169
160	0x3df48cc0	0.119409084
161	0x3e24bc4c	0.16087455
162	0x3d8346f2	0.06410016
163	0x3da9c2d5	0.082891144
164	0x3d6e8f82	0.05824233
165	0x3e02c713	0.12771253
166	0x3e032261	0.12806083
167	0x3e35e114	0.17761642
168	0x3e01c5b0	0.12673068
169	0x3e3071b0	0.17230868
170	0x3e269c16	0.1627048
171	0x3e419f17	0.18908344
172	0x3e33008a	0.17480674
173	0x3e164931	0.14676358
174	0x3da21142	0.07913448
175	0x3dca1731	0.09867705
176	0x3dad54f7	0.084634714
177	0x3dce69b7	0.10078757
178	0x3d810cdf	0.06301283
179	0x3e01fa6a	0.12693182
180	0x3dd140b2	0.10217418
181	0x3df8e598	0.121531665
182	0x3d850018	0.064941585
183	0x3e022750	0.12710309
184	0x3e08c391	0.13355853
185	0x3e18cec5	0.14922626
186	0x3e2cf43f	0.16890047
187	0x3da07d23	0.07836368
188	0x3dc5c024	0.096557885
189	0x3dd5cb4a	0.10439165
190	0x3dd1c4d8	0.10242623
191	0x3dc59139	0.0964684
192	0x3dd4e98d	0.10396109
193	0x3e4e0ead	0.20122786
194	0x3daeb250	0.08530104
195	0x3e1410b8	0.14459503
196	0x3e3bb922	0.18332341
197	0x3dbe74f9	0.092996545
198	0x3e131625	0.14363916
199	0x3d3bc302	0.04584027
200	0x3db933c5	0.090430774
201	0x3e0249c2	0.12723449
202	0x3e0f91fc	0.14020532
203	0x3d7e85d7	0.06213936
204	0x3eb41e6b	0.35179457
205	0x3e06f5e5	0.13179739
206	0x3dad236c	0.08454022
207	0x3dbc884d	0.09205685
208	0x3e6262e6	0.2210804
209	0x3db687b8	0.08912605
210	0x3e28012e	0.164067
211	0x3dc042c7	0.09387737
212	0x3d929460	0.071572065
213	0x3ded812e	0.11596905
214	0x3e081ca5	0.13292177
215	0x3e1669cd	0.14688797
216	0x3dc5a3ca	0.09650381
217	0x3ddc6c88	0.10762888
218	0x3daf6e04	0.08565906
219	0x3df6f599	0.12058563
220	0x3dd8ae9f	0.10580181
221	0x3d70f75a	0.058829643
222	0x3e136690	0.14394593
223	0x3e241371	0.16023041
224	0x3e4f3ab4	0.20237237
225	0x3dedde8a	0.116147116
226	0x3dc87eba	0.09789796
227	0x3e0384fc	0.12843698
228	0x3da7a540	0.08185816
229	0x3db93bdd	0.09044621
230	0x3da3e50c	0.080026716
231	0x3e0746aa	0.1321055
232	0x3e06cd58	0.1316427
233	0x3dd9f57a	0.10642524
234	0x3e27627b	0.16346161
235	0x3dd2bbc5	0.102897204
236	0x3dea2f8c	0.1143485
237	0x3ddb6a52	0.10713638
238	0x3db0d2ed	0.08633981
239	0x3ddf97ca	0.10917623
240	0x3ddf10e3	0.10891893
241	0x3e8575dc	0.26066482
242	0x3e05aa83	0.13053326
243	0x3dce094a	0.100603655
244	0x3e383656	0.17989478
245	0x3dbfa2bd	0.09357212
246	0x3de01ab9	0.10942597
247	0x3e27a0f8	0.16369998
248	0x3de02846	0.109451815
249	0x3d99ee0e	0.075161085
250	0x3e077a5c	0.1323027
251	0x3e594ba2	0.21220258
252	0x3e25bb11	0.16184641
253	0x3e072015	0.13195832
254	0x3e11b1db	0.14228003
255	0x3d987c50	0.07445586

fc2.weight f4 [128, 256]
0	0xbd12c45b	-0.03583179
1	0x3dd5a682	0.104321495
2	0x3ba05ae6	0.0048936484
3	0x3d809b0c	0.06279573
4	0xbc67c832	-0.014146851
5	0xbc9be872	-0.019031737
6	0xbc565357	-0.013081393
7	0xbcf790cf	-0.030220417
8	0xbc041383	-0.008061293
9	0xbd18ccec	-0.037304804
10	0xbd89ba04	-0.06724933
11	0xbd284807	-0.041084316
12	0x3d3f1abb	0.04665635
13	0x3d21dc68	0.039516836
14	0x3c0d3abd	0.008619961
15	0xbc3f6c67	-0.01168356
16	0x3c817e6c	0.015807353
17	0x3d479a8b	0.048731368
18	0xbd92f194	-0.071749836
19	0x3d0a65b1	0.033788387
20	0x3d54e3ab	0.051974934
21	0xbd81ae8a	-0.06332119
22	0x3d05777e	0.03258466
23	0x3cca3432	0.024683092
24	0x3d50610e	0.05087381
25	0x3cb0a886	0.021564733
26	0x3c8dde7a	0.017318
27	0x3d8050a3	0.0626538
28	0x3cd8d219	0.02646737
29	0xbd5d828c	-0.054079577
30	0x3c84a788	0.016193166
31	0xbc6d7946	-0.014494246
32	0xbd73eead	-0.05955379
33	0xbd8f2adc	-0.06990597
34	0xbcfa4bf9	-0.030553805
35	0xbd137447	-0.035999563
36	0xbd9489d9	-0.07252855
37	0x3d83e7f6	0.064407274
38	0x3cab7064	0.020927615
39	0x3d591b1d	0.053004373
40	0x3c840879	0.016117321
41	0x3d1f0cca	0.038830556
42	0xbd3458e3	-0.04403008
43	0xbd7a4ae1	-0.061106566
44	0x3c8d2cf6	0.017233353
45	0xbce21904	-0.027599819
46	0x3cd08157	0.025452299
47	0xbcbfce38	-0.023413762
48	0xbd853075	-0.06503383
49	0xbd27a1ca	-0.04092578
50	0x3d4475aa	0.047963776
51	0x3d14e96e	0.03635543
52	0x3b4ef69d	0.0031580098
53	0x3d21af83	0.03947402
54	0x3cb5045e	0.022096809
55	0x3ca9ed0e	0.02074292
56	0x3c21cb2c	0.0098751
57	0xbd113781	-0.035453323
58	0x3c704356	0.014664492
59	0xbcd84c21	-0.026403489
60	0x3d67a5b2	0.056554504
61	0xbcde95e4	-0.027171083
62	0x3bb43aa4	0.0055001546
63	0x3bf40975	0.0074474164
64	0xbd6f2346	-0.05838325
65	0x3b905c93	0.004405567
66	0xbce9a958	-0.028523132
67	0xbcd0da8e	-0.02549484
68	0x3af7acc2	0.001889609
69	0x3cf4f9a9	0.029904203
70	0x3d7c94a9	0.06166521
71	0x3bd54479	0.0065084067
72	0x3bcdc6a0	0.0062797815
73	0x3d49a50e	0.049229674
74	0xbc81246c	-0.015764438
75	0x3d54dac9	0.051966462
76	0xbdb3eaf8	-0.08785051
77	0x3d15d3aa	0.03657881
78	0xbc914835	-0.017734626
79	0xbbfd2180	-0.007724941
80	0xbd05c126	-0.032654904
81	0xbd1a3257	-0.037645664
82	0x3d2a22e4	0.04153718
83	0xbd48988e	-0.048973612
84	0xba62a396	-0.0008645592
85	0xbbd457ab	-0.0064801774
86	0x3d2ebf24	0.042662755
87	0xbb952093	-0.0045510023
88	0xba1c9f92	-0.00059747056
89	0x3d369741	0.04457784
90	0x3af7a4da	0.0018893734
91	0x3d041f1a	0.032256223
92	0xbb96b2b0	-0.004598938
93	0x3c0b9d14	0.008521337
94	0x3d5fd283	0.05464412
95	0xbc83d6a7	-0.016093565
96	0xbb91374a	-0.00443164
97	0xbcea7ea2	-0.028624836
98	0x3afb5536	0.0019175175
99	0xbcc73d4e	-0.024321225
100	0x3d41ba08	0.047296554
101	0xbd4f1db4	-0.050565436
102	0x3aa285ae	0.0012399459
103	0xbb57effe	-0.0032949443
104	0xbd5a6d53	-0.053326916
105	0xbc1ef0e1	-0.009700985
106	0x3c014e48	0.007892199
107	0xbcc33242	-0.023827676
108	0xbcdf1736	-0.027232748
109	0xbc96e3dc	-0.018419199
110	0xbc5c1a87	-0.013434059
111	0xbc572d0d	-0.0131333
112	0xbba392ea	-0.0049918788
113	0x3d2df58e	0.042470507
114	0xbc6b2fb7	-0.014354638
115	0xbd67bd0f	-0.056576785
116	0xbcda7fea	-0.026672322
117	0xbd6210c0	-0.055191755
118	0x3da51303	0.08060267
119	0xbcd03bf3	-0.025419211
120	0xbb931b1d	-0.004489316
121	0x3c117fa6	0.008880531
122	0xbb9c8920	-0.0047770888
123	0x3be41e80	0.0069616437
124	0x3d93fd4e	0.072260484
125	0xbc427b47	-0.011870212
126	0x39890a78	0.00026138476
127	0xbd318d1a	-0.043347456
128	0xbd272afd	-0.04081248
129	0xbd5a8e29	-0.05335823
130	0x3c3dbc46	0.011580532
131	0xbd09067b	-0.033453446
132	0x3c891b5e	0.016736683
133	0xbcaab0db	-0.020836284
134	0x39ae4458	0.00033238786
135	0x3d2a554a	0.041585244
136	0xbd76091c	-0.06006728
137	0xbd0162bc	-0.0315883
138	0x3d1ff30a	0.03905014
139	0xbd5a016c	-0.053224012
140	0x3ba309fe	0.0049755564
141	0xbc00b255	-0.007855018
142	0xbd2064d5	-0.03915866
143	0xbd32791c	-0.04357253
144	0xbcf28a80	-0.029607058
145	0xbc8e3320	-0.017358363
146	0x3d583412	0.052784033
147	0x3d6ecf10	0.05830294
148	0x3ba73962	0.005103276
149	0x3c53d930	0.0129301995
150	0xbd702c7c	-0.058636174
151	0xbd3ab7a2	-0.045585282
152	0x3caf7058	0.021415874
153	0x3d1af781	0.037833694
154	0x3d7cfbe4	0.06176366
155	0xbd6aee7d	-0.057356346
156	0x3cf6ffc4	0.030151255
157	0xbd6fab3e	-0.05851292
158	0xbcb824b8	-0.022478446
159	0x3c69cd0d	0.014270079
160	0x3b1fb2aa	0.0024367967
161	0x3ca5a1d2	0.020218764
162	0x3d5e2afc	0.05424021
163	0xbc2cdc6a	-0.010550598
164	0x3c8246d3	0.015902912
165	0x3cd2d990	0.025738508
166	0xbd53149e	-0.051533334
167	0xbd1630d0	-0.036667645
168	0x3d76af10	0.060225546
169	0x3d761402	0.060077675
170	0xbdefd9d9	-0.11711473
171	0x3d45694c	0.048196122
172	0x3c9f0c2d	0.019414986
173	0xbca315be	-0.019907828
174	0x3d1fc703	0.03900815
175	0xbd8009de	-0.06251882
176	0x3d558ec4	0.052138105
177	0x3c5f607f	0.013633846
178	0xbce23d0e	-0.027617004
179	0x3d69ce85	0.057081718
180	0x3bfa5756	0.007639806
181	0xbd0a375f	-0.033744212
182	0xbc4321f0	-0.011909947
183	0xbcb192db	-0.021676471
184	0xbd9d9bf0	-0.07695758
185	0xb8f0a6f8	-0.00011475192
186	0xbd276aab	-0.04087321
187	0xbd999147	-0.074984126
188	0x3abffd77	0.0014647682
189	0xbda5a7a7	-0.08088618
190	0xbabfd68e	-0.0014636086
191	0xbc778eb4	-0.015109707
192	0x3cbc409f	0.022980032
193	0xbcb52f20	-0.022117198
194	0x3cbbca41	0.02292359
195	0xbc027458	-0.007962309
196	0x3d85082d	0.064957
197	0xba8f4399	-0.001093018
198	0xbd2c0960	-0.04200113
199	0x3d2d276c	0.042273924
200	0x3be62925	0.007023948
201	0x3cfdf238	0.030999288
202	0xbd8695ca	-0.06571539
203	0xbd00eed1	-0.031477753
204	0xbc59b2a5	-0.013287221
205	0x3d56499a	0.052316286
206	0xbda14114	-0.07873741
207	0x3d154149	0.036439214
208	0xbb9f0914	-0.004853377
209	0xbcadcbc5	-0.021215329
210	0xbd316904	-0.04331304
211	0x3dd57cec	0.104242176
212	0xbbf1ca92	-0.0073788846
213	0xbda4cef4	-0.08047286
214	0xbd1108f6	-0.035408936
215	0xbb32201c	-0.0027179783
216	0xbd550846	-0.052009843
217	0x3cd1a064	0.025589176
218	0xbca5d8d3	-0.020244991
219	0xbd32eb87	-0.043681648
220	0x3d56251a	0.052281477
221	0xbd14b584	-0.03630592
222	0xbca915b4	-0.020640232
223	0xbb858643	-0.004074843
224	0xbcddb18f	-0.027062206
225	0xbd4eac4f	-0.050457295
226	0xbcdde3d5	-0.027086178
227	0xbd2c67d2	-0.0420912
228	0xbbc1c55c	-0.0059134196
229	0x3d823d23	0.06359317
230	0xbd4e0be3	-0.050304305
231	0x3ce8480c	0.028354667
232	0xbcfc9a1f	-0.03083521
233	0x3b8402b0	0.0040286407
234	0xbd6e9598	-0.058248132
235	0x3d19f841	0.03759027
236	0xbda0a851	-0.07844604
237	0xb8288118	-4.017455e-05
238	0xba8affe4	-0.0010604826
239	0xbd19e57e	-0.037572376
240	0xbd40655f	-0.046971675
241	0x3d1dc358	0.038516372
242	0xbcf81ec1	-0.030288102
243	0xbcac2e07	-0.021018041
244	0xbbdd69ac	-0.006756982
245	0x3bdba8bc	0.0067034643
246	0xbdbcc42c	-0.09217104
247	0xbd805c9c	-0.06267664
248	0xbcc07ba3	-0.023496455
249	0xbc8df624	-0.017329283
250	0xbd1a0fc4	-0.03761269
251	0x3c87bfea	0.016571004
252	0x3ba48e6c	0.005021861
253	0xbb4b8e3c	-0.003106012
254	0xbd15e7f3	-0.036598157
255	0xbd51cb01	-0.05121899
